ad/ad_AIDS.pt (torch, 349453 bytes, 62 tensors)

weight f4 [16, 38]
0	0x3e033dd8	0.1281656
1	0x3e02b310	0.1276362
2	0xbdd9bb3d	-0.10631416
3	0xbe432594	-0.19057304
4	0xbdeb3eaf	-0.11486565
5	0x3de50f15	0.11184517
6	0xbe773ba5	-0.24143846
7	0x3dc723e6	0.09723644
8	0xbe7a3aa3	-0.2443643
9	0xbd86f2c8	-0.065892756
10	0x3af5b837	0.0018746917
11	0xbe1e5151	-0.15460707
12	0xbe9c79f8	-0.30561805
13	0x3e40a468	0.18812716
14	0xbd8b17d0	-0.06791651
15	0x3d79dec1	0.06100345
16	0x3ea5362b	0.3226789
17	0xbd34057b	-0.04395054
18	0xbe69b87d	-0.22824283
19	0xbe02f420	-0.12788439
20	0x3e9572aa	0.29189044
21	0x3e661c44	0.2247172
22	0xbe87a67f	-0.26494214
23	0xbe2f4110	-0.17114663
24	0xbe16a3a3	-0.1471086
25	0x3e2ba3d8	0.1676172
26	0x3e8d78e4	0.27631295
27	0x3e3896b3	0.18026237
28	0x3dc2bfe1	0.09509254
29	0x3cc7c58e	0.024386194
30	0xbe28c7c4	-0.16482455
31	0x3e4b235f	0.19837712
32	0xbea2834c	-0.31740797
33	0xbe82a15c	-0.25513732
34	0x3e8d18d3	0.27558002
35	0xbda2bf39	-0.07946629
36	0xbe240633	-0.1601799
37	0x3e15d158	0.1463064
38	0x3ded40eb	0.11584648
39	0xbc7c8504	-0.015412573
40	0xbd2d849c	-0.042362794
41	0x3e87a3e2	0.2649222
42	0x3e4eba1d	0.20188184
43	0x3e9b0ec3	0.302847
44	0x3dc6bb0b	0.09703644
45	0x3e054f93	0.13018636
46	0x3e476806	0.19473276
47	0xbe6e0ca5	-0.23247011
48	0x3d8860ca	0.06659086
49	0x3cff52f7	0.03116749
50	0x3e3804ad	0.17970534
51	0x3de3bab2	0.11119594
52	0x3b467b56	0.0030285916
53	0x3e9ad434	0.30240023
54	0xbd0bb6d6	-0.034109913
55	0x3ea163d0	0.31521463
56	0xbea50b55	-0.32235208
57	0x3ea40b39	0.32039812
58	0xbe6872e3	-0.22700076
59	0x3d9c1fd9	0.07623262
60	0x3e8cb170	0.27479124
61	0x3e48db25	0.19614847
62	0xbea2fd0f	-0.31833693
63	0x3e0437d0	0.12911916
64	0xbe62a0b0	-0.2213161
65	0x3e968638	0.29399276
66	0x3ea2f26a	0.31825572
67	0x3e6940ba	0.22778597
68	0x3e826555	0.25467935
69	0xbe578fd3	-0.21050958
70	0xbaef2ff4	-0.0018248544
71	0xbd873e2e	-0.06603657
72	0x3e54d53c	0.20784467
73	0xbd91032d	-0.07080684
74	0x3e7e3743	0.24825768
75	0xbe553a4d	-0.20823021
76	0x3dbd255f	0.092356436
77	0xbe1974ea	-0.14986005
78	0x3e419a19	0.1890644
79	0x3e0881ee	0.13330814
80	0xbe13494f	-0.14383434
81	0xbe0c1882	-0.13681224
82	0x3e8a1c5f	0.2697477
83	0x3dc42c81	0.09578801
84	0xbddf3346	-0.108984515
85	0xbe8550d6	-0.26038235
86	0x3e3efe1b	0.18651621
87	0x3e6c3697	0.230677
88	0x3e176cf1	0.14787652
89	0xbe8af6cf	-0.27141425
90	0x3e8e511e	0.27796263
91	0x3e197daf	0.1498935
92	0x3e193b1b	0.14963953
93	0x3e7abae9	0.24485363
94	0xbe487522	-0.19575933
95	0xbe70c0d0	-0.23511052
96	0x3c37badd	0.011213985
97	0xbe497fc9	-0.19677652
98	0xbdde58e2	-0.10856797
99	0xbdbc8b56	-0.09206264
100	0xbe6d9cc6	-0.23204336
101	0xbd7ee000	-0.06222534
102	0xbd42baf6	-0.04754158
103	0xbe021feb	-0.12707488
104	0x3e01a089	0.12658896
105	0x3d42ccfc	0.04755877
106	0x3e9e6d2d	0.3094267
107	0xbe6a3a21	-0.22873737
108	0xbd2f557e	-0.04280614
109	0xbde635d7	-0.11240738
110	0xbe287171	-0.16449524
111	0xbe9f814e	-0.3115334
112	0x3dc257ba	0.09489389
113	0xbdada858	-0.08479375
114	0xbea403a3	-0.32034025
115	0xbe4f62fe	-0.20252606
116	0xbe95a12e	-0.29224533
117	0xbe57dddf	-0.21080731
118	0xbd552acb	-0.052042764
119	0xbe077ca2	-0.13231137
120	0xbd0c9b96	-0.034328066
121	0x3d72c0a0	0.059265733
122	0xbe80e290	-0.25172853
123	0xbe7af623	-0.24507956
124	0xbe28b250	-0.16474271
125	0x3ea104d5	0.31449
126	0xbe4e363e	-0.20137879
127	0x3e2e6d53	0.17033891
128	0x3ea16f52	0.31530243
129	0xbdabb90b	-0.083849035
130	0x3ca2286b	0.019794663
131	0xbe8cfc01	-0.27536014
132	0x3e9320f1	0.2873607
133	0x3ea51800	0.32244873
134	0xbe330b73	-0.17484836
135	0xbd7bb976	-0.061456166
136	0xbd8fe6c6	-0.070264384
137	0x3d891926	0.0669425
138	0x3e8e2ddb	0.2776936
139	0x3e637090	0.22210908
140	0x3e170bdb	0.14750616
141	0x3e889d7c	0.2668265
142	0x3e906e48	0.28209138
143	0x3e9444a2	0.28958613
144	0xbe107c76	-0.14109978
145	0x3d5bdd76	0.053678
146	0x3e33b6eb	0.17550246
147	0x3e98eb08	0.29866815
148	0xbe3a8c63	-0.18217616
149	0x3e6636c8	0.22481835
150	0xbdc3fe5e	-0.09570001
151	0x3e01ba93	0.12668829
152	0xbe8735dd	-0.26408282
153	0xbe96dace	-0.2946381
154	0x3e7c07dd	0.24612375
155	0x3e83dd2f	0.25754687
156	0x3eacc3ce	0.33743137
157	0x3e307153	0.1723073
158	0xbe630c14	-0.22172576
159	0xbcfca6da	-0.03084128
160	0x3e847a5d	0.25874606
161	0xbe7a0a38	-0.2441796
162	0xbe00fc20	-0.12596178
163	0xbb06d043	-0.002057091
164	0x3e94c3ce	0.29055637
165	0x3e499323	0.19685034
166	0xbc9674eb	-0.018366298
167	0x3e8f7541	0.28019145
168	0x3e12944a	0.1431438
169	0xbdca2540	-0.09870386
170	0xbea34f2b	-0.31896338
171	0x3ea5e2c3	0.32399568
172	0x3e9ac304	0.3022691
173	0xbe44ebd4	-0.19230586
174	0xbe8168d2	-0.25275284
175	0x3dd7e030	0.10540807
176	0x3e6d2693	0.23159246
177	0x3bfc9256	0.0077078743
178	0xbea094d8	-0.3136356
179	0xbb6f4eab	-0.0036515396
180	0xbdf686c0	-0.1203742
181	0x3db61fa6	0.08892755
182	0xbe968168	-0.29395604
183	0x3a8852a2	0.0010400603
184	0x3ea55b1f	0.32296082
185	0xbe8b7c9f	-0.27243516
186	0xbe8271d2	-0.25477463
187	0xbea9fe9e	-0.3320207
188	0xbe1949dc	-0.14969581
189	0xbdc5fe41	-0.09667636
190	0x3e16b1c3	0.14716248
191	0x3e965435	0.2936112
192	0xbe7ba9d3	-0.24576502
193	0xbe10cb01	-0.1413994
194	0x3df243c6	0.11829333
195	0xbe306bee	-0.17228672
196	0x3dbd7e46	0.092526
197	0xbe9942f6	-0.299339
198	0xbe957573	-0.2919117
199	0xbe5579c5	-0.20847233
200	0x3d7c4a4f	0.061594304
201	0x3da4c91d	0.08046172
202	0x3e8c80c0	0.27441978
203	0x3e9706d0	0.29497385
204	0x3e5539db	0.20822851
205	0x3c97e6c0	0.018542647
206	0x3dc55ed0	0.09637225
207	0x3e5f875e	0.21828982
208	0xbe2258be	-0.15854165
209	0x3ea590bc	0.32336986
210	0x3e437489	0.19087423
211	0xbe960507	-0.2930071
212	0xbe961402	-0.2931214
213	0x3e15467f	0.14577673
214	0xbca1a300	-0.019731045
215	0xbdb0c9e0	-0.086322546
216	0x3e5bc9fb	0.21463768
217	0x3c1834d6	0.009289941
218	0xbe26c6cd	-0.16286774
219	0x3d8d7550	0.06907141
220	0x3e4b0cf6	0.19829163
221	0x3e82ba0b	0.25532565
222	0x3e672701	0.22573473
223	0xbe5757a6	-0.21029529
224	0x3d2632f6	0.040575944
225	0xbe2f24d6	-0.17103896
226	0xbe7c8dab	-0.24663417
227	0xbe9905b7	-0.29887173
228	0xbe4fc1de	-0.20288798
229	0x3e17c22d	0.14820166
230	0x3e1f6997	0.15567623
231	0xbce8c22f	-0.028412906
232	0xbe7aa900	-0.24478531
233	0x3e962c6c	0.29330766
234	0x3d63aa20	0.055582166
235	0x3d9a949e	0.07547878
236	0xbe78a383	-0.24281125
237	0xbd5a6d44	-0.05332686
238	0xbe788500	-0.24269485
239	0x3e4bfe39	0.19921197
240	0xbdc8cf9b	-0.098052226
241	0x3e8bf392	0.27334267
242	0xbe9f173c	-0.31072414
243	0xbd1e072d	-0.038581062
244	0xbde4d1c0	-0.11172819
245	0x3d8c4bd7	0.06850403
246	0x3e6ce98e	0.23135969
247	0x3b251938	0.0025192033
248	0x3e111fd8	0.14172304
249	0x3e10bd58	0.14134729
250	0x3d8fa551	0.070139535
251	0x3e5f1c63	0.21788172
252	0x3e8d7dd0	0.2763505
253	0xbe8053ec	-0.25064027
254	0x3e181110	0.14850259
255	0xbe9a40f0	-0.30127668

bias f4 [16]
0	0x3c915f1b	0.017745545
1	0xbb85e335	-0.004085923
2	0xbb887dbf	-0.0041653807
3	0xbb4d8baa	-0.0031363764
4	0xbb879d74	-0.004138643
5	0x3ca40eca	0.020026583
6	0xbb76f787	-0.003768416
7	0x3c19661a	0.009362722
8	0xbbfa457c	-0.0076376777
9	0x3c1c5104	0.0095408
10	0xbab34980	-0.0013678521
11	0x3c6ed06d	0.01457606
12	0x3c28fa77	0.010313622
13	0xbb278972	-0.0025564102
14	0xbc26bc21	-0.010176689
15	0x3c837e12	0.016051326

weight f4 [16, 16]
0	0xbe8e2ff0	-0.27770948
1	0x3edb9da6	0.42893714
2	0xbd69a23d	-0.057039488
3	0x3e3a3b2e	0.18186638
4	0x3df7e192	0.12103571
5	0xbe810a1a	-0.2520302
6	0x3ec080a5	0.37598148
7	0x3d97d1af	0.07413041
8	0xbe574259	-0.21021403
9	0x3eda2965	0.42609707
10	0x3e0f8b7e	0.14018056
11	0x3dfc6cd1	0.123254426
12	0xbe91f270	-0.28505278
13	0x3ec0e277	0.3767278
14	0xbe58d068	-0.2117325
15	0xbe15f307	-0.14643489
16	0xbed013a2	-0.4063998
17	0x3e122985	0.14273651
18	0xbe5c8ccd	-0.21538086
19	0xbec4a168	-0.38404393
20	0x3eab1a3d	0.33418456
21	0xbec05cae	-0.3757071
22	0xbd9a1943	-0.075243495
23	0xbe0a9065	-0.13531645
24	0x3d54da1c	0.051965818
25	0x3da590d8	0.080842674
26	0x3ecb3129	0.39685944
27	0x3e2382be	0.15967843
28	0xbdefd23f	-0.11710023
29	0xbe760f75	-0.24029334
30	0xbdc001fa	-0.09375377
31	0x3e825133	0.25452575
32	0xbed6d16c	-0.4195665
33	0x3e272dac	0.16326016
34	0xbcf48f31	-0.029853435
35	0xbe527100	-0.20550919
36	0x3e8d06a6	0.27544135
37	0x3e5e72b0	0.21723437
38	0x3c4da529	0.012551584
39	0xbe6694c8	-0.22517693
40	0xbe86ef9b	-0.2635468
41	0xbe00857f	-0.12550925
42	0xbe887bae	-0.2665686
43	0xbdc703dd	-0.09717534
44	0x3e135bf9	0.14390554
45	0xbd3111b7	-0.043229785
46	0x3d6827c2	0.05667854
47	0xbe30d7f7	-0.17269884
48	0xbe04e116	-0.12976488
49	0x3e78763b	0.24263851
50	0xbd852138	-0.065004766
51	0x3dc03121	0.093843706
52	0xbe9c02c5	-0.30470863
53	0xbe86b5e3	-0.26310644
54	0x3ea37e63	0.31932363
55	0xbcfbd35e	-0.030740436
56	0x3ed1c804	0.40972912
57	0xbe262325	-0.16224344
58	0x3e6079da	0.21921483
59	0x3e3ae78b	0.18252389
60	0xbec4012d	-0.38282147
61	0xbe85a850	-0.26104975
62	0x3eb5a543	0.35477647
63	0xbe226b9c	-0.15861362
64	0xbecfc33c	-0.4057864
65	0x3ea159f7	0.3151395
66	0x3ed00de7	0.40635607
67	0x3e900b03	0.281334
68	0x3e8a4451	0.27005246
69	0xbe0c819b	-0.13721316
70	0x3eb74f73	0.35802802
71	0xbe4a57ca	-0.19760051
72	0x3e2c58df	0.16830777
73	0xbed963e0	-0.4245901
74	0x3ec02f45	0.37536064
75	0xbea5ac91	-0.3235822
76	0xbed1396d	-0.40864125
77	0x3e31600e	0.17321798
78	0x3ebcd927	0.36884424
79	0xbeb65ce3	-0.35617742
80	0x3ed9e5d5	0.4255816
81	0x3da10dcf	0.07863962
82	0x3e70b0c7	0.23504935
83	0x3db15287	0.08658319
84	0xbed9a2ed	-0.42507115
85	0x3ec21e74	0.3791386
86	0x3eb9158d	0.36149254
87	0x3e71ea60	0.23624563
88	0x3c0efbe0	0.008727044
89	0x3e4dec9a	0.20109788
90	0x3ce7766b	0.028254708
91	0x3e16147e	0.14656255
92	0xbd454e78	-0.048170537
93	0x3ed5021c	0.41603172
94	0xbe11a2dc	-0.14222282
95	0xbd804018	-0.06262225
96	0x3e0a5281	0.13508035
97	0x3ec749b0	0.38923407
98	0xbe6fbd3c	-0.23412031
99	0xbe2fdc8e	-0.17173979
100	0xbebf2d65	-0.3733932
101	0x3eabcd29	0.33554962
102	0x3ed370b3	0.4129692
103	0x3dc507cb	0.09620627
104	0xbeb4d1e6	-0.3531639
105	0xbe9aa4e8	-0.30203938
106	0x3eb1dce3	0.34738836
107	0x3d636bbf	0.055522677
108	0x3dd06889	0.101761885
109	0xbe79ad32	-0.24382475
110	0xbeb4cf2f	-0.3531432
111	0xbe525854	-0.20541507
112	0xbed6fcd4	-0.41989768
113	0x3e985f52	0.29760224
114	0x3e1ba187	0.15198337
115	0xbeb7f31a	-0.3592766
116	0x3edf72f5	0.43642393
117	0xbdd6c51b	-0.10486814
118	0x3e63acc5	0.22233875
119	0x3dcda168	0.100405514
120	0x3e183250	0.14862943
121	0xbcf47b79	-0.029844033
122	0xbd5a269d	-0.05325948
123	0xbe42b1bf	-0.19013117
124	0x3e044dd3	0.12920313
125	0x3d5a37fb	0.053276043
126	0x3e9b3e8e	0.30321163
127	0xbea4231e	-0.32058042
128	0x3e1fc980	0.1560421
129	0x3e06b4a3	0.13154845
130	0x3c59c957	0.013292632
131	0xbe819d08	-0.25315118
132	0xbe5da5ed	-0.21645327
133	0x3e9ed172	0.3101917
134	0x3e95f8a1	0.2929125
135	0x3e344f6e	0.17608425
136	0xbed1ccf0	-0.40976667
137	0xbe9e6d63	-0.3094283
138	0x3e13afa6	0.14422473
139	0x3ed32c12	0.4124456
140	0xbed97005	-0.42468277
141	0x3ddc00f2	0.10742368
142	0xbed4521a	-0.4146889
143	0xbed550ca	-0.416632
144	0xbeade557	-0.33964035
145	0xbe670a94	-0.22562629
146	0xbe8ab4e6	-0.2709114
147	0xbe8259fa	-0.25459272
148	0x3cf1cea5	0.029517481
149	0xbdc4848c	-0.09595594
150	0x3e7d2dd8	0.24724519
151	0x3db9f4c1	0.09079886
152	0xbe3930ad	-0.18084975
153	0xbe997fe1	-0.29980376
154	0x3ea3843d	0.31936827
155	0xbc449ae6	-0.011999821
156	0x3d9c3b4f	0.076285
157	0x3e486826	0.1957098
158	0xbdc70e44	-0.09719518
159	0xbe683cd4	-0.22679454
160	0x3c9a70aa	0.01885255
161	0xbe7a2e11	-0.24431635
162	0x3e5efb73	0.21775608
163	0x3e307040	0.1723032
164	0xbe5d9859	-0.21640147
165	0xbe08a1ec	-0.13343018
166	0x3db5db4e	0.0887972
167	0x3d67d149	0.056596074
168	0x3d8d8e47	0.06911903
169	0xbe5b0348	-0.2138797
170	0x3db7ad71	0.08968628
171	0xbe3e8b58	-0.18607843
172	0x3dc303af	0.09522187
173	0x3c58163a	0.013188893
174	0x3cd7d9a9	0.026348906
175	0xbe35f983	-0.17770962
176	0xbeae99f8	-0.34101844
177	0xbe99bd96	-0.30027455
178	0x3dd75b4f	0.105154626
179	0x3e43502d	0.19073553
180	0xbdc372d9	-0.0954339
181	0x3e9de852	0.3084131
182	0xbe20b067	-0.15692292
183	0x3e73bbec	0.23802155
184	0x3dbdccce	0.09267579
185	0x3ed0a6fb	0.40752396
186	0x3ea93119	0.3304527
187	0xbdfef183	-0.124484085
188	0x3c9aaa3f	0.018880008
189	0xbea452ca	-0.32094413
190	0x3e83bc9c	0.25729835
191	0xbdbde37a	-0.09271903
192	0xbead94e4	-0.33902657
193	0xbe36610e	-0.17810461
194	0xbec3fed5	-0.3828036
195	0xbdf921e6	-0.12164669
196	0xbe13c349	-0.14429964
197	0xbed12bc0	-0.4085369
198	0x3dfe4c88	0.12416941
199	0xbe9e45b4	-0.30912554
200	0x3dbfccf5	0.09365264
201	0xbe579aa5	-0.21055086
202	0x3d341693	0.04396684
203	0xbe5423bf	-0.20716761
204	0xbd9a294b	-0.07527407
205	0x3d1f76e2	0.038931735
206	0x3e3c53de	0.18391368
207	0x3e0ed5b0	0.13948703
208	0x3eb15234	0.34633029
209	0x3ed39c2b	0.41330084
210	0xbecb5cb4	-0.39719164
211	0xbdd39334	-0.10330811
212	0x3e58241c	0.21107525
213	0xbe212535	-0.1573685
214	0xbde24a57	-0.110493354
215	0xbe84440c	-0.25833166
216	0x3dbf25d0	0.09333384
217	0xbdc86431	-0.09784735
218	0xbd438b1f	-0.047740098
219	0x3e847fb4	0.2587868
220	0x3ea441b6	0.32081383
221	0xbe8bc812	-0.2730108
222	0xbeb07803	-0.34466562
223	0x3e475ab2	0.19468191
224	0xbe868c1d	-0.26278773
225	0xbd3346c9	-0.043768678
226	0x3d8cb9bc	0.068713635
227	0xbedad586	-0.4274103
228	0x3eaee669	0.34160164
229	0x3e31d4aa	0.17366281
230	0x3d365cd2	0.044522114
231	0x3d0ddc6b	0.034634035
232	0xbeb8d973	-0.361034
233	0x3e7f3d9b	0.24925844
234	0xbe227c35	-0.15867694
235	0xbe92a537	-0.28641674
236	0xbb9dc736	-0.0048150076
237	0x3ead5fbf	0.3386211
238	0xbe9f60ce	-0.31128544
239	0xbd9bc851	-0.07606567
240	0x3e2bb7ee	0.16769382
241	0xbeb414a5	-0.35172
242	0x3eb83fd8	0.3598621
243	0x3cb85ba9	0.022504644
244	0xbb7d8ebf	-0.003868982
245	0x3e0a8039	0.13525476
246	0xbcf90913	-0.030399835
247	0x3e60e564	0.21962506
248	0x3e96cdb0	0.29453802
249	0xbed27fb7	-0.41113064
250	0x3ebdc97e	0.3706779
251	0x3ede2452	0.43387085
252	0xbdb65fab	-0.08904966
253	0x3dd83464	0.10556868
254	0x3e880eaa	0.26573688
255	0x3ed56c07	0.4168398

bias f4 [16]
0	0x38725c8e	5.7783494e-05
1	0x3cd17809	0.025569933
2	0xbb12dd65	-0.0022409793
3	0xbc47cfc2	-0.012195529
4	0xbbbe92b6	-0.005815829
5	0x3c517c26	0.012785947
6	0x3c0cecaa	0.008601347
7	0xbb8538a9	-0.0040655923
8	0xbbb9d767	-0.00567143
9	0xbc1a4fb0	-0.009418413
10	0x3b7ca6fc	0.003855168
11	0x3bf23878	0.0073919855
12	0x3bdfa019	0.006824505
13	0x3c6ea3de	0.014565436
14	0x3ad80297	0.0016480264
15	0x39755d4a	0.00023399774

weight f4 [16, 16]
0	0x3e1b5cb1	0.15172078
1	0x3e772f90	0.24139237
2	0xbe994b0d	-0.29940072
3	0xbecf686a	-0.4050935
4	0x3e155951	0.14584853
5	0x3dee2354	0.11627832
6	0xbdecd4ad	-0.11564002
7	0xbe8d2ae7	-0.27571794
8	0xbdaf9690	-0.085736394
9	0xbe830804	-0.25592053
10	0xbe4ebd6f	-0.2018945
11	0x3e090a2d	0.13382788
12	0xbce99761	-0.028514566
13	0xbc3be4ca	-0.011468122
14	0xbd95457c	-0.07288644
15	0xbe7d9e28	-0.24767363
16	0x3ed61342	0.41811568
17	0x3e7ed23b	0.24884884
18	0xbe08369e	-0.13302085
19	0x3df66cc3	0.120324634
20	0x3eb60058	0.35547137
21	0xbe87f902	-0.26557165
22	0xbe542d7b	-0.20720474
23	0xbea81c95	-0.32834306
24	0xbe64a94f	-0.22330211
25	0xbb7a9f9a	-0.0038242103
26	0x3e6469dc	0.22306007
27	0x3ec97ac5	0.39351478
28	0x3eba8f11	0.36437276
29	0x3e7f55f8	0.24935138
30	0x3e91f839	0.2850969
31	0xbddbcf6e	-0.107329234
32	0x3eaa8ac2	0.3330899
33	0xbd994490	-0.074837804
34	0xbd870015	-0.065918125
35	0x3da87511	0.08225454
36	0x3dbfba5d	0.09361718
37	0xbea5c0eb	-0.32373747
38	0xbcb805e2	-0.022463743
39	0xbed344a5	-0.4126331
40	0xbea53664	-0.3226806
41	0x3e0012bd	0.12507148
42	0x3eb6ed39	0.35727862
43	0x3d94c73a	0.07264562
44	0xbe9c204b	-0.30493388
45	0x3e847ef3	0.25878105
46	0xbea68d81	-0.32529834
47	0x3dcec04a	0.1009527
48	0x3d9c265a	0.076245025
49	0x3ed83fa5	0.42236057
50	0x3d469be8	0.048488528
51	0xbe8aa491	-0.2707868
52	0x3eb20879	0.3477209
53	0x3dbb3a5c	0.091419905
54	0xbe0a71ea	-0.13520017
55	0xbed71c6e	-0.42013878
56	0xbe3c2559	-0.18373622
57	0x3ea1ff86	0.3164026
58	0x3e9285cb	0.286177
59	0xbc13820d	-0.0090031745
60	0xbe3d56d1	-0.18490149
61	0xbd142471	-0.036167566
62	0x3eb13f88	0.34618783
63	0x3e93bb3e	0.28853792
64	0xbd14399e	-0.03618776
65	0x3e1c4a17	0.15262638
66	0xbc15fc75	-0.009154429
67	0x3e2974ae	0.16548416
68	0x3e110ee9	0.14165844
69	0x3e97c74a	0.29644233
70	0xbeb701cf	-0.35743567
71	0x3c97097c	0.01843714
72	0xbd18ec43	-0.03733469
73	0xbda650ff	-0.081209175
74	0xbe8d47ec	-0.27593935
75	0x3e106de5	0.14104421
76	0x3e7cbcb4	0.2468136
77	0xbcdceb41	-0.026967647
78	0xbe453d46	-0.19261655
79	0xbdf9c646	-0.12196021
80	0xbd689901	-0.05678654
81	0x3d121b0a	0.035670318
82	0x3eb91a09	0.36152676
83	0xbc696b1e	-0.01424673
84	0xbc775104	-0.015094999
85	0xbe8c7981	-0.2743645
86	0x3e8a26dd	0.26982775
87	0x3da06b89	0.07833011
88	0x3ec42d7b	0.3831595
89	0xbe2a0cfd	-0.16606517
90	0x3d4db257	0.050218906
91	0x3e02358f	0.12715743
92	0x3ead74ec	0.33878267
93	0x3e17720d	0.147896
94	0x3e778427	0.24171506
95	0xbc59eeb3	-0.013301539
96	0xbe436ca5	-0.19084413
97	0x3dfcb7f4	0.12339774
98	0x3e75f7bd	0.24020286
99	0xbe864fbb	-0.26232705
100	0xbd4a046d	-0.049320627
101	0xbe8d9d67	-0.2765915
102	0xbe2595e2	-0.16170457
103	0xbe23824a	-0.1596767
104	0x3d509ef0	0.050932825
105	0x3e7ce0f1	0.24695183
106	0x3e5edfcc	0.21765059
107	0x3eae6d72	0.34067875
108	0x3e888252	0.26661927
109	0x3a40cfd3	0.0007355187
110	0xbe9e52a4	-0.30922425
111	0x3d8e5fc9	0.06951863
112	0xbe8e17c8	-0.2775252
113	0x3ea3961d	0.31950465
114	0xbed97df5	-0.4247891
115	0xbe0fbd37	-0.14037023
116	0x3cbb1387	0.02283646
117	0xbe8530a5	-0.26013675
118	0xbe9de503	-0.30838785
119	0xbe014ce6	-0.1262699
120	0xbebf6425	-0.37381092
121	0x3dc881ad	0.09790359
122	0xbe9ef6d8	-0.31047702
123	0x3e6d851e	0.23195311
124	0xbe975614	-0.2955786
125	0xbeb239a9	-0.34809616
126	0x3e03c415	0.12867768
127	0xbec8b949	-0.3920386
128	0x3ed8d166	0.42347258
129	0x3e8f8839	0.28033617
130	0xbe78410b	-0.24243562
131	0x3e583f42	0.21117881
132	0x3ed6f4e8	0.41983724
133	0xbe94ae42	-0.29039198
134	0x3e8e908c	0.27844656
135	0x3deab03d	0.11459396
136	0xbec12951	-0.37726834
137	0xbdcf48d6	-0.10121314
138	0xbd6101a7	-0.054933216
139	0xbe98e69c	-0.2986344
140	0xbdd6d90a	-0.10490616
141	0x3e80ac75	0.25131574
142	0x3ea4880a	0.3213504
143	0x3d4bd3b0	0.049762428
144	0xbe19acac	-0.15007275
145	0xbed747e6	-0.42047042
146	0xbe9e98fa	-0.30976087
147	0xbc5d13d3	-0.013493496
148	0x3c07be3c	0.0082851015
149	0x3e13ccaf	0.1443355
150	0xbd56ba9e	-0.052424066
151	0xbec570be	-0.38562578
152	0xbe906709	-0.2820361
153	0xbdd60337	-0.10449832
154	0x3e99135a	0.29897577
155	0x3de661f6	0.11249153
156	0xbcae6fcd	-0.021293545
157	0xbed3b81a	-0.41351396
158	0xbec1d3fc	-0.37857044
159	0x3cfdce97	0.030982299
160	0xbe962cd7	-0.29331085
161	0x3ec8544b	0.3912681
162	0xbede19ad	-0.43378964
163	0xbe693177	-0.22772776
164	0xbed199e0	-0.4093771
165	0x3eb3ca71	0.35115388
166	0x3ebf2a8f	0.37337157
167	0x3e5dc3f5	0.21656783
168	0xbe7b03f4	-0.24513227
169	0xbeb9a432	-0.36258084
170	0xbecf03a9	-0.4043248
171	0x3e5dca82	0.21659282
172	0x3d815075	0.06314174
173	0x3e717300	0.23579025
174	0x3e22b570	0.15889525
175	0x3ebb90fc	0.36634052
176	0x3ee6db8d	0.4508938
177	0x3e940844	0.28912556
178	0x3dedf02e	0.11618076
179	0xbe8677e4	-0.26263344
180	0xbecb1874	-0.39667094
181	0x3ed3b3c9	0.41348103
182	0x3e1533f4	0.145706
183	0x3edb9da2	0.42893702
184	0xbe36beaf	-0.17846178
185	0xbd2127d5	-0.039344627
186	0xbea03ce1	-0.31296447
187	0x3e3eb072	0.18621996
188	0x3eb3bc63	0.35104665
189	0x3eddad59	0.43296316
190	0x3d84a19b	0.06476136
191	0xbdf16a84	-0.11787894
192	0x3e909ddc	0.28245437
193	0x3e4a9c33	0.19786148
194	0x3e7c8515	0.24660142
195	0xbe507f9d	-0.2036118
196	0x3d27121c	0.040788755
197	0xbdf59c72	-0.1199273
198	0xbdc09ba7	-0.09404688
199	0xbe25ddae	-0.16197845
200	0x3db6c8ba	0.08925004
201	0x3e0f60f2	0.14001825
202	0x3d7e680e	0.062110953
203	0xbd52dea3	-0.051481854
204	0xbeb5bb62	-0.35494524
205	0xbe1cd773	-0.15316562
206	0x3eb2eea5	0.34947696
207	0xbe9c1f92	-0.30492836
208	0xbed1d5cc	-0.40983427
209	0xbdd8b003	-0.105804466
210	0x3e147dd2	0.14501122
211	0xbea47121	-0.3211756
212	0x3e0b5699	0.13607253
213	0xbe71475a	-0.23562375
214	0xbe383efa	-0.17992774
215	0xbe84edc0	-0.2596264
216	0xbb0128d9	-0.0019708185
217	0xbeb1409e	-0.34619612
218	0xbdb9cffd	-0.09072874
219	0xbe4d6538	-0.20058143
220	0x3eb976ea	0.36223537
221	0xbe5c8727	-0.21535932
222	0x3dc77327	0.097387604
223	0xbe83db45	-0.25753227
224	0x3e4c4c7b	0.1995105
225	0xbed0d21f	-0.4078531
226	0xbe5587d9	-0.20852603
227	0x3e4546c3	0.19265275
228	0x3ea7bef8	0.32762885
229	0x3e12eedc	0.1434893
230	0xbe936639	-0.28788927
231	0x3d0691cf	0.032853898
232	0xbd0516e6	-0.03249254
233	0x3e9eed85	0.31040588
234	0xbe0b49f7	-0.13602434
235	0xbe9e8e07	-0.30967733
236	0x3e837919	0.25678328
237	0x3e0c4668	0.13698733
238	0xbe5d0ff5	-0.21588118
239	0x3eac30ab	0.3363088
240	0x3e7a6519	0.24452628
241	0xbed1dcef	-0.4098887
242	0x3e929b26	0.28633994
243	0xbe4e25cc	-0.20131606
244	0xbdd3d9d8	-0.10344285
245	0x3e8948c4	0.26813328
246	0x3cffbf1e	0.031219061
247	0x3ed2a827	0.41143915
248	0xbec2d45c	-0.38052642
249	0x3e4660d6	0.19372877
250	0x3d6c53d9	0.05769715
251	0xbdec486c	-0.11537251
252	0xbe0af815	-0.13571198
253	0x3e25ff10	0.1621058
254	0x3ea2812f	0.31739184
255	0xbed7306c	-0.4202913

bias f4 [16]
0	0x3c55f9d6	0.013060054
1	0x3b10cc5e	0.0022094469
2	0xbb07d546	-0.0020726486
3	0x3c1301c6	0.008972591
4	0xbae5d2d5	-0.0017534146
5	0xbc350d83	-0.011050585
6	0x3d0327fa	0.032020546
7	0x00000000	0.0
8	0xbaaecc94	-0.0013336116
9	0xbb4fffd4	-0.0031738179
10	0x3a0b921c	0.0005324201
11	0x3ced2ddd	0.028952533
12	0xbc216420	-0.009850532
13	0x00000000	0.0
14	0xbc9a6737	-0.018848045
15	0xbb36b9b2	-0.002788168

weight f4 [16, 16]
0	0x3e57c721	0.21072055
1	0xbe96f62a	-0.29484683
2	0x3c5a7427	0.013333357
3	0xbe69d9a0	-0.22836924
4	0x3d499242	0.049211748
5	0xbec4f446	-0.38467616
6	0x3e64588c	0.22299403
7	0xbe9b9a6d	-0.30391255
8	0x3e905eeb	0.28197417
9	0xbe9b0cd0	-0.30283213
10	0x3eabcf14	0.33556426
11	0x3e906d38	0.28208327
12	0xbed89bb4	-0.42306292
13	0xbebdc4d3	-0.37064227
14	0xbe427d2a	-0.18993059
15	0xbe8f9b90	-0.28048372
16	0xbed2e681	-0.41191486
17	0xbbee51f9	-0.0072729555
18	0xbe8fd6f1	-0.28093675
19	0x3e1d5678	0.15365016
20	0xbec6455e	-0.38724798
21	0xbe832dec	-0.25620973
22	0x3e3d1533	0.18465118
23	0x3e202e05	0.15642555
24	0x3ea80da7	0.32822916
25	0xbeb746f0	-0.3579631
26	0xbeac0a27	-0.33601496
27	0xbe39d761	-0.18148567
28	0x3d5f9dcb	0.054593842
29	0xbe1a10e8	-0.15045512
30	0x3dedf449	0.11618859
31	0x3ea575fd	0.3231658
32	0x3e14ea4d	0.14542504
33	0x3ea61313	0.32436427
34	0x3dd59cc8	0.10430294
35	0x3e37cd2e	0.17949364
36	0xbeb3d318	-0.3512199
37	0xbd9b7150	-0.07589972
38	0x3ea8412a	0.32862216
39	0xbe2c6bde	-0.16838023
40	0xbe1c2b74	-0.15250951
41	0xbe547b51	-0.20750166
42	0x3e1e1885	0.15439041
43	0x3ec5e3c8	0.38650346
44	0x3e39b631	0.18135907
45	0x3ec62074	0.38696635
46	0x3e9cbe7f	0.30614087
47	0xbd638130	-0.055543125
48	0xbe0526cc	-0.13003081
49	0xbe17c913	-0.14822797
50	0x3e3b5153	0.18292741
51	0x3e8f66fa	0.28008252
52	0xbed5ef58	-0.41784167
53	0xbe545c91	-0.20738436
54	0xbede285e	-0.43390173
55	0xbe851848	-0.25995088
56	0x3eae608d	0.34058037
57	0x3ebac663	0.36479482
58	0xbe935c00	-0.28781128
59	0xbe70ddd5	-0.23522122
60	0x3e0e04be	0.13868997
61	0x3e2643f8	0.16236866
62	0x3d26849f	0.04065382
63	0xbdbb9c1e	-0.09160636
64	0xbe5ef7d7	-0.21774231
65	0xbecb6da8	-0.397321
66	0xbe02e752	-0.12783554
67	0xbeb61126	-0.35559958
68	0x3ec07c80	0.37594986
69	0x3ebc0d29	0.3672879
70	0xbea267db	-0.3171986
71	0x3e3f93a0	0.18708658
72	0x3ea005f0	0.3125453
73	0x3eb3b596	0.35099477
74	0x3eb0a651	0.3450189
75	0xbea0f8d0	-0.3143983
76	0x3eab60ed	0.33472386
77	0x3ed20822	0.4102183
78	0x3cbd420b	0.02310278
79	0x3e4f9e3a	0.20275202
80	0xbe2af0ec	-0.16693467
81	0x3ede89ce	0.43464512
82	0xbec5cf9e	-0.38634962
83	0xbe86ceda	-0.2632969
84	0x3d9fced3	0.078031205
85	0xbe3e911f	-0.18610047
86	0xbe0df4b0	-0.13862872
87	0x3e20b347	0.15693389
88	0x3e805fd8	0.25073123
89	0x3e8e237e	0.27761453
90	0x3ebf86a7	0.3740742
91	0x3e603eef	0.21899007
92	0xbe3e1385	-0.18562134
93	0x3e1d07b2	0.15334967
94	0xbe841256	-0.2579524
95	0x3e839828	0.25702024
96	0x3e5f7fdd	0.2182612
97	0x3ebd8bce	0.37020725
98	0x3e7f438c	0.24928111
99	0x3eca8900	0.39557648
100	0xbdbcbff6	-0.09216301
101	0xbebe349b	-0.3714951
102	0x3ebdf3a6	0.37099952
103	0xbec82ca5	-0.3909656
104	0x3d6cf175	0.05784746
105	0x3db17a9a	0.086659625
106	0x3d95cd57	0.07314556
107	0x3e9deb29	0.30843475
108	0x3db180d7	0.086671524
109	0xbe1cbf27	-0.15307294
110	0xbce13701	-0.027492048
111	0xbeda60ca	-0.4265197
112	0xbe9451d2	-0.28968674
113	0xbd1a7745	-0.0377114
114	0x3ec4db60	0.3844862
115	0xbde59556	-0.11210124
116	0x3e620d56	0.220754
117	0xbe95c060	-0.29248333
118	0xbeae156e	-0.34000725
119	0x3e4ea7a3	0.20181136
120	0x3e74fbc4	0.23924166
121	0xbd191740	-0.03737569
122	0x3ea248d8	0.316962
123	0x3e1c3039	0.1525277
124	0x3e5ed605	0.2176133
125	0x3dac51d8	0.08414048
126	0x3ed7865d	0.420947
127	0xbeb458e3	-0.35224065
128	0xbda72bf7	-0.081626825
129	0xbe8707c3	-0.2637311
130	0xbe851023	-0.25988874
131	0x3dec9a38	0.115528524
132	0xbd07dcea	-0.033169664
133	0xbcbd650a	-0.023119468
134	0x3e3e6a7a	0.18595305
135	0x3ec9b61a	0.39396745
136	0xbebf6868	-0.37384343
137	0xbdef2a3e	-0.11677979
138	0xbcd17eac	-0.025573097
139	0x3e86fe0c	0.26365697
140	0xbe35ef86	-0.17767152
141	0xbece4da5	-0.40293613
142	0xbe1a492c	-0.15066975
143	0xbe60d664	-0.21956784
144	0xbec33e17	-0.38133308
145	0xbe8445da	-0.25834543
146	0xbe08ee2f	-0.1337211
147	0x3e486713	0.1957057
148	0xbe42f948	-0.19040406
149	0xbde8d60e	-0.11368953
150	0xbea55e4b	-0.32298502
151	0xbe81f839	-0.2538469
152	0xbd0d578f	-0.03450733
153	0xbe12a3e3	-0.1432033
154	0xbc537bac	-0.012907904
155	0x3e1931bc	0.14960378
156	0x3d8e742d	0.069557525
157	0xbe7d97ba	-0.2476491
158	0x3cb30fe6	0.021858167
159	0x3d72802a	0.059204258
160	0x3ced41d0	0.028962046
161	0x3e2c06ce	0.16799471
162	0xbdeeb72a	-0.116560295
163	0xbec564e4	-0.38553536
164	0xbe1bf325	-0.15229471
165	0xbe089dcb	-0.13341443
166	0xbedd6c92	-0.43246895
167	0x3c9e52db	0.019326618
168	0xbe21d37f	-0.15803336
169	0x3e961f63	0.2932082
170	0x3e8fef4d	0.2811226
171	0x3e8d724d	0.27626267
172	0xbe497d16	-0.19676623
173	0x3c332de7	0.010936237
174	0x3ec700cf	0.38867804
175	0xbecec5b6	-0.40385216
176	0x3e37562d	0.17903967
177	0xbe332c43	-0.17497353
178	0xbe2a0974	-0.16605169
179	0x3e75e86e	0.24014446
180	0xbcbb647b	-0.022875061
181	0xbdb4c59c	-0.088267535
182	0x3e8ffa61	0.2812071
183	0xbe09364a	-0.13399616
184	0x3eb3665f	0.3503904
185	0x3d478b54	0.048716858
186	0x3e3976b3	0.18111686
187	0x3ec79a73	0.38985023
188	0xbe2b8a52	-0.16751984
189	0x3e660ff0	0.22467017
190	0x3da4586e	0.08024679
191	0xbebbcd3e	-0.36680025
192	0x3edd9129	0.4327481
193	0x3e9a7226	0.30165213
194	0x3cfbb18a	0.030724306
195	0x3e35be58	0.17748392
196	0xbdf5d5f8	-0.12003702
197	0xbd297ef3	-0.041380834
198	0x3c7f27bd	0.015573439
199	0x3df86f8d	0.121306516
200	0x3dc2d60b	0.09513482
201	0x3ee0e2a1	0.43922904
202	0x3eba22a6	0.3635456
203	0x3e82ab47	0.255213
204	0xbe310673	-0.17287616
205	0xbe5f6e50	-0.21819425
206	0xbeaecd0d	-0.34140816
207	0x3e54281b	0.20718424
208	0x3eadf505	0.33975998
209	0x3deee822	0.116653696
210	0x3eaf90c5	0.34290138
211	0xbea36ec5	-0.31920448
212	0xbed7c716	-0.42144078
213	0x3e266c6a	0.16252294
214	0xbe57f93d	-0.2109117
215	0x3eb1a0eb	0.34693083
216	0xbc744e24	-0.014911208
217	0x3d6f259c	0.058385476
218	0x3e11811a	0.14209405
219	0xbeae68a1	-0.340642
220	0xbdb09332	-0.08621825
221	0x3e936804	0.28790295
222	0xbe1323c3	-0.14369111
223	0x3dd3dfeb	0.10345443
224	0xbe5fb22d	-0.21845312
225	0x3d8ebb98	0.069693744
226	0xbe648a3f	-0.22318362
227	0xbdcd560d	-0.100261785
228	0x3e6e173c	0.2325105
229	0xbc87a363	-0.016557401
230	0x3e8ca96b	0.27473006
231	0x3e806822	0.25079447
232	0x3eb0e1ac	0.34547174
233	0xbde66f70	-0.11251724
234	0x3dae4e25	0.08510999
235	0x3dc82d13	0.09774222
236	0xbe824ec1	-0.2545071
237	0x3e65670d	0.22402592
238	0xbe8a66c1	-0.2703152
239	0xbeb9161a	-0.36149675
240	0x3ede5526	0.43424338
241	0x3d6e3c03	0.0581627
242	0x3e967fcb	0.29394373
243	0x3ebd16e3	0.36931524
244	0xbebae42f	-0.36502215
245	0xbeb35339	-0.3502443
246	0x3d725e66	0.059172057
247	0x3d812e88	0.06307703
248	0xbcedf3a5	-0.029046843
249	0xbe90dfdf	-0.282958
250	0x3dcab1c6	0.09897189
251	0x3e630de4	0.22173268
252	0xbe9ae464	-0.30252373
253	0x3e93f11a	0.28894883
254	0xbcdf8545	-0.027285228
255	0x3eb8df67	0.36107942

bias f4 [16]
0	0x3c61945d	0.013768283
1	0xbb47b94f	-0.0030475443
2	0xb9f74761	-0.00047164693
3	0xbbd26098	-0.0064202063
4	0xbbc4b515	-0.006003032
5	0x3b2fb6e8	0.0026811901
6	0x3b0db2e9	0.0021621531
7	0xbc5c8379	-0.01345908
8	0x3c9143b9	0.017732488
9	0x3ce053a4	0.027383633
10	0xbc851edd	-0.016250068
11	0x3b64de16	0.0034922413
12	0x3c566634	0.013085891
13	0x3ade6a6a	0.001696897
14	0xbb7e7d2b	-0.003883193
15	0xbb5694a2	-0.00327424

weight f4 [16, 16]
0	0xbb3f449d	-0.0029185184
1	0x3dd68899	0.10475273
2	0xbe64d0b0	-0.22345233
3	0xbdfe2a99	-0.124104686
4	0x3d9a5664	0.07536009
5	0x3d87357e	0.06602
6	0x3e9a2a73	0.3011051
7	0xbe849b81	-0.2589989
8	0x3dcf9ea7	0.101376824
9	0xbe624eac	-0.22100323
10	0xbda87b9c	-0.082267016
11	0xbe8e8b6e	-0.2784075
12	0x3ea9f969	0.33198097
13	0x3e91cdf1	0.28477433
14	0xbeb8ac0a	-0.36068755
15	0xbea75a5c	-0.32686126
16	0x3def5fe2	0.1168821
17	0xbea7cf0b	-0.3277515
18	0xbe539cca	-0.20665279
19	0xbeda171a	-0.4259575
20	0xbea4bf17	-0.3217704
21	0x3e982627	0.29716608
22	0xbe8dc52b	-0.2768949
23	0x3e864349	0.2622321
24	0x3dbf5ace	0.093434915
25	0xbeab4e0a	-0.33457977
26	0xbdf25421	-0.118324526
27	0xbd4637ce	-0.048393063
28	0x3e886169	0.26636818
29	0xbed0c5d0	-0.4077592
30	0x3ea3f9c4	0.32026494
31	0xbedff1a1	-0.43739036
32	0xbe9211ab	-0.28529105
33	0xbe982ac2	-0.29720122
34	0x3e34ab40	0.17643452
35	0xbea2f44b	-0.31827006
36	0xbea4bdb9	-0.32175997
37	0x3e3fb75f	0.18722294
38	0xbe9563a7	-0.2917759
39	0xbe9060ef	-0.28198954
40	0x3eda547b	0.42642578
41	0x3e9220c4	0.28540623
42	0xbe917b68	-0.28414464
43	0x3e015725	0.12630899
44	0x3dd4331c	0.10361311
45	0x3e6ecb4d	0.2331974
46	0x3e89d5f9	0.2692106
47	0x3ee67678	0.4501226
48	0x3dee927c	0.116490334
49	0x3da4663e	0.08027314
50	0xbd28b90b	-0.041192096
51	0x3dd94ba1	0.10610128
52	0xbde1505e	-0.11001657
53	0x3ebac13c	0.3647555
54	0x3ed3f9fc	0.4140166
55	0xbd4054ec	-0.046955988
56	0x3de81353	0.11331811
57	0xbea3c210	-0.31983995
58	0xbea74449	-0.32669285
59	0xbe9745c4	-0.29545414
60	0xbd9ed450	-0.07755339
61	0x3e7d3788	0.24728215
62	0xbcb69d8f	-0.022291927
63	0xbeb31a25	-0.34980884
64	0x3dc62913	0.09675803
65	0x3e85f405	0.26162735
66	0xbec371bc	-0.3817271
67	0xbec9b661	-0.39396957
68	0xbe5a7972	-0.2133539
69	0x3db67d52	0.08910622
70	0x3de3bbc3	0.11119797
71	0xbe7feb0c	-0.24992007
72	0x3d7f9af9	0.062403653
73	0xbdc02147	-0.09381347
74	0xbd406c0c	-0.04697804
75	0x3ec121b2	0.3772102
76	0x3e11fa5a	0.14255658
77	0xbca10d85	-0.019659767
78	0x3d6e8a7b	0.058237534
79	0xbe78878f	-0.24270461
80	0x3ea29f89	0.3176234
81	0xbce5566f	-0.027995316
82	0x3e4ce0f3	0.20007686
83	0xbe19747b	-0.1498584
84	0x3e0621c6	0.13098821
85	0x3e2afc0c	0.16697711
86	0x3e6452eb	0.22297256
87	0xbd857465	-0.06516341
88	0xbe47aae7	-0.19498788
89	0x3e1d5c4b	0.15367238
90	0x3eaafa48	0.33394074
91	0xbe08f47f	-0.13374518
92	0xbd2252ee	-0.03962987
93	0x3d2305fd	0.039800633
94	0x3e6ddbde	0.23228404
95	0x3e06dd05	0.1317025
96	0xbdedd77c	-0.11613366
97	0x3e0128b4	0.12613183
98	0xbe21e081	-0.15808298
99	0xbe17ee45	-0.14836986
100	0x3eb4273d	0.35186186
101	0xbeb4d934	-0.35321963
102	0xbec91ac8	-0.39278245
103	0xbccf8212	-0.025330577
104	0xbecca94f	-0.39972922
105	0xbd1b6479	-0.037937615
106	0x3e7c2d2c	0.24626607
107	0xbd7abf95	-0.061217863
108	0x3d087780	0.03331709
109	0x3eb84d8a	0.35996658
110	0xbe9089ad	-0.28230038
111	0x3e98afb1	0.29821542
112	0x3ea18c41	0.31552318
113	0x3e09334b	0.13398473
114	0x3e8ee1d8	0.2790668
115	0xbea00b9b	-0.31258854
116	0x3d9443b8	0.07239479
117	0xbd682259	-0.05667338
118	0xbe5101ea	-0.20410886
119	0x3ddd53a4	0.10806969
120	0xbecf4938	-0.4048555
121	0x3ec86540	0.39139748
122	0xbed13eb5	-0.40868154
123	0x3edb6965	0.42853847
124	0x3e0ccef0	0.13750815
125	0x3e9fc69e	0.3120622
126	0xbe6ba4e1	-0.23012115
127	0xbe60979c	-0.21932834
128	0x3d9d1738	0.07670444
129	0xbe96ad34	-0.29429018
130	0xbe9141a9	-0.28370407
131	0xbed99995	-0.42499986
132	0x3e7e390f	0.24826454
133	0xbc69ab49	-0.014262029
134	0x3ea34a12	0.3189245
135	0x3eb97a94	0.36226332
136	0x3e064dd2	0.13115624
137	0x3e420912	0.18948773
138	0xbe5d1699	-0.21590652
139	0x3e0151de	0.12628886
140	0xbd30b16b	-0.04313795
141	0xbed78667	-0.42094728
142	0x3da2a05a	0.07940741
143	0xbed393b2	-0.4132362
144	0xbed860e9	-0.42261437
145	0xbe9c2238	-0.30494857
146	0xbe32da20	-0.1746602
147	0xbec3cb26	-0.38240927
148	0x3de931d6	0.113864586
149	0xbec0c19f	-0.3764772
150	0x3d9dc944	0.07704404
151	0xbe979db5	-0.29612508
152	0x3e5e3e75	0.21703513
153	0x3e8612d3	0.26186237
154	0x3cfcd0e4	0.030861326
155	0xbed8e6ba	-0.4236353
156	0x3e742f83	0.2384625
157	0x3e4c750f	0.1996653
158	0xbecdc1d6	-0.40186948
159	0x3e076094	0.13220435
160	0xbebea509	-0.37235287
161	0xbeab7528	-0.3348782
162	0xbd9d0476	-0.076668665
163	0xbe853eab	-0.26024374
164	0xbe2e2ecf	-0.17010044
165	0x3e922fc2	0.2855206
166	0xbe04963e	-0.12947938
167	0x3dba1005	0.09085087
168	0xbeb9c701	-0.3628464
169	0x3c75d185	0.015003567
170	0x3e20f41c	0.1571812
171	0xbec8ed4f	-0.39243552
172	0xbe3ae7be	-0.18252465
173	0xbd9fd4dc	-0.078042716
174	0xbec726f5	-0.3889691
175	0xbe3093a5	-0.17243822
176	0x3eb54e1b	0.35411152
177	0x3ecd9a07	0.40156576
178	0x3ed40af6	0.41414613
179	0x3ed6e0bd	0.41968337
180	0x3ebe4f9a	0.37170106
181	0xbeb23e98	-0.3481338
182	0x3e31a098	0.17346418
183	0xbec78eac	-0.38976038
184	0x3e76624b	0.24060933
185	0xbe04f4a2	-0.12983945
186	0x3eb289ea	0.34870845
187	0xbce8a044	-0.028396733
188	0xbde2ae16	-0.110683605
189	0x3e8573b5	0.2606484
190	0x3ebd8a7b	0.37019715
191	0x3e0f0509	0.13966765
192	0x3d75bdda	0.05999551
193	0x3e621571	0.22078492
194	0xbe9da3bd	-0.30788985
195	0xbcb28584	-0.02179218
196	0xbc93a2f2	-0.018022034
197	0xbea02b2e	-0.31282943
198	0x3df5cd91	0.12002099
199	0x3d563923	0.052300584
200	0xbdd85183	-0.10562422
201	0x3c2f6c15	0.010706921
202	0xbec7322e	-0.38905472
203	0x3ea62277	0.3244817
204	0xbde03cc3	-0.109490894
205	0x3e930777	0.28716633
206	0xbeb68b3c	-0.35653102
207	0x3da10a7e	0.07863329
208	0xbe59e5a9	-0.21279015
209	0xbecd4adc	-0.40096176
210	0x3ec36880	0.38165665
211	0x3df5e206	0.12006001
212	0xbe10bf90	-0.14135575
213	0x3e5f57c3	0.21810822
214	0xbeb45979	-0.35224512
215	0x3ec8f780	0.39251328
216	0xbea11f18	-0.31469035
217	0xbdc60c39	-0.096703
218	0x3e0fadc6	0.14031133
219	0xbed8dda8	-0.4235661
220	0x3e7831a7	0.24237691
221	0x3cb68df6	0.02228449
222	0xbe15e43d	-0.14637847
223	0x3e4766e1	0.19472839
224	0xbe5c0068	-0.2148453
225	0xbdd02a72	-0.10164346
226	0xbe83854d	-0.25687638
227	0xbdc7a7c1	-0.097487934
228	0xbe3d1ffc	-0.18469232
229	0xbe34186e	-0.17587444
230	0x3e2849d5	0.16434415
231	0x3e1f5909	0.15561308
232	0xbeab5243	-0.33461198
233	0x3d1b5355	0.03792127
234	0x3e9c618b	0.3054317
235	0xbe43b80c	-0.19113177
236	0x3e210ff5	0.15728743
237	0xbe9dcbfc	-0.3081969
238	0x3ebf8352	0.37404877
239	0x3df1b205	0.11801533
240	0xbe3cb54e	-0.18428537
241	0x3e9f03d9	0.31057623
242	0x3bb78093	0.005600044
243	0x3e0795f7	0.13240801
244	0xbe77d71b	-0.2420315
245	0x3c6002f5	0.01367258
246	0xbe7b784b	-0.24557607
247	0x3e9849cd	0.29743806
248	0x3e9cb313	0.30605373
249	0xbe428cd4	-0.18999034
250	0xbc944e4c	-0.018103741
251	0x3dc57c54	0.09642854
252	0x3e255aeb	0.16147964
253	0xbe6cf59a	-0.23140565
254	0x3d389fb6	0.045074187
255	0x3e5d193c	0.21591657

bias f4 [16]
0	0x3bc4d35c	0.0060066413
1	0xbcbf5a0c	-0.023358367
2	0x3d17ba63	0.037042987
3	0x3beb1060	0.007173583
4	0xbcbc95ef	-0.023020713
5	0x3b8d1b0f	0.004306204
6	0xbb63f0ae	-0.0034780907
7	0x3c11cd54	0.008899052
8	0x3b73dd59	0.003721079
9	0x00000000	0.0
10	0x00000000	0.0
11	0xbc2ec874	-0.010667909
12	0xbb99c3a9	-0.004692514
13	0xbaa524ec	-0.0012599505
14	0x3b4ffd97	0.0031736845
15	0x3af80572	0.0018922521

weight f4 [16, 16]
0	0xbed2ecb9	-0.4119623
1	0xbdaf2117	-0.08551233
2	0x3e1060da	0.14099446
3	0x3e97dc0b	0.29660067
4	0xbdb78bf1	-0.089622386
5	0xbe87c8a0	-0.26520252
6	0x3da9668f	0.082715146
7	0x3d872eae	0.066007
8	0x3ed6d654	0.41960394
9	0x3e9a7291	0.30165532
10	0xbd42b147	-0.047532346
11	0xbd46e8f1	-0.048561994
12	0x3db80193	0.08984675
13	0xbed3ce32	-0.41368252
14	0x3e9e347d	0.3089942
15	0x3e5d4353	0.21607713
16	0x3e4d4665	0.20046385
17	0xbe958947	-0.29206297
18	0x3c98f11e	0.018669661
19	0x3e98bd1b	0.29831776
20	0x3e6bde2c	0.2303397
21	0xbe3a5eef	-0.18200277
22	0xbdec8a03	-0.11549761
23	0xbe8e0e33	-0.27745208
24	0x3d100245	0.035158414
25	0xbed49703	-0.41521463
26	0x3e995a4c	0.29951704
27	0xbdf5f4d6	-0.120095894
28	0x3e7798ce	0.24179384
29	0xbe0577fa	-0.13034049
30	0x3ed97c5c	0.4247769
31	0xbe952523	-0.29129896
32	0x3e879a4b	0.26484904
33	0xbba32410	-0.004978664
34	0x3e0ef6db	0.13961355
35	0x3d92116b	0.071322285
36	0xbe8bc19d	-0.27296153
37	0x3ed626df	0.4182653
38	0x3e839d84	0.25706112
39	0x3e45fcb1	0.19334675
40	0x3eb812ff	0.35951993
41	0xbdd117d0	-0.1020962
42	0x3e1ea399	0.15492095
43	0xbe2ba53a	-0.16762248
44	0x3e0ce5e4	0.13759571
45	0xbea3580a	-0.31903106
46	0x3e9ec6a6	0.31010932
47	0x3e2db3fb	0.16963188
48	0xbd388509	-0.045048747
49	0xbdbaca14	-0.091205746
50	0x3e917f29	0.28417328
51	0x3e9bb9d4	0.30415213
52	0xbed832d8	-0.4222629
53	0xbe62e1a2	-0.22156385
54	0x3da06d0e	0.078333005
55	0xbc106f01	-0.008815528
56	0x3eb0d9b6	0.345411
57	0xbea3d3e6	-0.31997603
58	0xbe9f6c47	-0.31137297
59	0xbdff85b3	-0.12476673
60	0x3e7d4888	0.247347
61	0x3e6f1b8e	0.23350355
62	0xbe60abe1	-0.21940567
63	0xbe028926	-0.1274763
64	0x3eb7e10c	0.35913885
65	0xbe60c7a6	-0.2195116
66	0x3eef54da	0.46744424
67	0xbe6ba8cc	-0.2301361
68	0xbcd099c6	-0.02546395
69	0xbea5313f	-0.32264134
70	0xbea95e8a	-0.3307994
71	0x3e4acfcc	0.1980583
72	0x3e7135ad	0.23555632
73	0x3ec3da6e	0.38252586
74	0x3ece28ff	0.40265653
75	0x3eb35f7b	0.35033783
76	0xbe213a49	-0.1574489
77	0xbdbb7c3d	-0.09154556
78	0x3d0a1bdf	0.033717986
79	0xbeaf6117	-0.3425376
80	0xbed3d7f9	-0.41375712
81	0x3e7c8e57	0.24663673
82	0x3e9a4695	0.30131975
83	0xbe8358a4	-0.25653565
84	0xbeca9292	-0.3956495
85	0x3ea0b4ae	0.31387848
86	0xbd4233a7	-0.04741254
87	0xbebd3c66	-0.36960143
88	0x3dbffa49	0.0937391
89	0x3d7337d1	0.059379403
90	0x3d199240	0.03749299
91	0x3e396858	0.1810621
92	0x3e9456b6	0.28972405
93	0xbee47237	-0.4461839
94	0x3ed0adaf	0.4075751
95	0xbe19e8c8	-0.15030205
96	0xbe8ba862	-0.27276903
97	0x3da46f79	0.08029074
98	0xbe82b696	-0.25529927
99	0xbe0f79eb	-0.14011352
100	0x3ea26186	0.3171503
101	0xbd1b0e06	-0.03785517
102	0xbe48d53e	-0.19612595
103	0xbe5cb293	-0.21552496
104	0x3e3c9462	0.18415979
105	0xbdef300e	-0.116790876
106	0xbeae6588	-0.34061837
107	0x3edb1b3e	0.42794222
108	0x3e8e4eaa	0.2779439
109	0xbec09c2c	-0.3761915
110	0x3d43dd98	0.04781875
111	0xbd11a598	-0.035558313
112	0x3ecb237b	0.39675507
113	0xbcd575fe	-0.02605724
114	0xbd0f2ea2	-0.034956582
115	0x3dc7c734	0.09754792
116	0xbe7b7e8e	-0.24559996
117	0x3bc235c0	0.0059268177
118	0xbea56106	-0.32300586
119	0xbe9cc6e1	-0.30620483
120	0xbedde852	-0.4334131
121	0xbe8c4ffc	-0.27404773
122	0xbe57edb2	-0.21086767
123	0x3d89cd68	0.06728631
124	0x3e99d5bb	0.30045876
125	0xbdb2d870	-0.087326884
126	0x3e9ad5f6	0.30241364
127	0x3eafd51c	0.34342277
128	0xbea9ac48	-0.33139253
129	0xbe486f5f	-0.19573735
130	0xbdf39ff9	-0.11895747
131	0x3ea5e184	0.32398617
132	0x3ecef4f0	0.40421247
133	0xbea23048	-0.3167746
134	0xbcb63423	-0.022241658
135	0x3eb284cf	0.3486695
136	0x3e6d3666	0.23165283
137	0xbdab8c80	-0.083764076
138	0x3e265571	0.16243531
139	0x3e7971a2	0.24359754
140	0xbe91c00d	-0.28466836
141	0xbebd9565	-0.3702804
142	0xbdd1f90b	-0.10252579
143	0x3d9ec225	0.07751874
144	0xbeab539d	-0.3346223
145	0x3e939b36	0.28829354
146	0x3e7ccc77	0.24687372
147	0xbdd709c2	-0.10499908
148	0xbec1bdc6	-0.37840098
149	0xbecd2815	-0.40069643
150	0x3e93db59	0.28878286
151	0x3db8ef49	0.09030015
152	0xbec8da76	-0.39229172
153	0x3d16a26f	0.036776002
154	0x3d2bf5c0	0.041982412
155	0x3e23b6f4	0.1598776
156	0x3d2b47da	0.04181657
157	0xbedfb451	-0.43692258
158	0x3ece32bb	0.4027308
159	0x3cb004d4	0.021486677
160	0x3e8c208d	0.27368584
161	0x3e263c31	0.16233899
162	0xbe2234bd	-0.1584043
163	0xbe144ba5	-0.14481981
164	0x3e256efc	0.16155618
165	0xbe8e1dd2	-0.27757126
166	0xbdabe6eb	-0.083936535
167	0x3e75536b	0.23957603
168	0x3d508249	0.0509055
169	0xbec9cf49	-0.3941596
170	0x3e2e12f6	0.1699942
171	0xbe47d5b7	-0.1951512
172	0xbea6cb8a	-0.32577163
173	0x3e351935	0.17685397
174	0xbe5e3a69	-0.21701969
175	0xbec5d160	-0.38636303
176	0x3e9f4eb6	0.3111474
177	0xbea688cb	-0.3252624
178	0x3ea1e45f	0.31619546
179	0xbed0ab6c	-0.40755785
180	0x3e16dd07	0.14732753
181	0xbeaa75ba	-0.33292943
182	0x3ea604c0	0.324255
183	0xbe02844a	-0.12745777
184	0x3e6e4756	0.232694
185	0xbeb0da2d	-0.34541455
186	0x3ec94a21	0.39314368
187	0x3e90fa7c	0.28316104
188	0x3e780f5d	0.2422461
189	0xbe60bcd0	-0.21947026
190	0x3dc8ffe9	0.09814436
191	0x3d5177bd	0.051139582
192	0x3ec8778c	0.39153707
193	0xbe86ea77	-0.26350757
194	0x3e94def9	0.29076365
195	0xbd6992d5	-0.057024796
196	0x3e171331	0.14753415
197	0xbe9ec4bc	-0.3100947
198	0xbeb5072f	-0.35357043
199	0xbd7245c3	-0.05914856
200	0x3e11e32b	0.14246814
201	0xbeb60724	-0.35552323
202	0x3e04bbf1	0.12962319
203	0xbec9b0b8	-0.39392638
204	0x3e76d33e	0.2410402
205	0xbe22a0d1	-0.15881659
206	0xbec0d2ca	-0.3766082
207	0x3e8714ae	0.26382965
208	0x3e3aa6df	0.18227719
209	0x3d153910	0.036431372
210	0x3ecf3d9f	0.404767
211	0xbe9af579	-0.30265406
212	0x3e86baf6	0.26314515
213	0xbe36025b	-0.17774336
214	0xbdc51357	-0.096228294
215	0x3e43b81a	0.19113198
216	0xbd03a1dc	-0.032136783
217	0x3e8e9cab	0.27853903
218	0xbd6f7827	-0.058464196
219	0xbe30784c	-0.1723339
220	0xbe8296d3	-0.25505695
221	0xbe7f60c6	-0.2493926
222	0x3dc23a68	0.09483796
223	0x3e72f182	0.2372494
224	0x3d29cd9a	0.041455843
225	0xbe9b8ab0	-0.30379248
226	0x3cc07a3f	0.023495791
227	0x3e711bba	0.23545733
228	0x3e9e9216	0.3097083
229	0xbea7e9fc	-0.32795703
230	0x3e395e48	0.18102372
231	0xbe8ddd02	-0.27707678
232	0x3ec6e88d	0.38849297
233	0x3ec416b9	0.38298586
234	0x3e75fad5	0.24021466
235	0xbe9077ff	-0.2821655
236	0xbd9031ad	-0.07040725
237	0xbbbb2211	-0.005710848
238	0x3d2abbad	0.041682888
239	0x3d410ed7	0.047133293
240	0x3e8fe1a5	0.2810184
241	0x3dfe8ceb	0.12429222
242	0x3ebf921f	0.3741617
243	0xbe1a54a6	-0.15071353
244	0x3d585ced	0.052822996
245	0xbe982c2d	-0.29721203
246	0x3e936b4a	0.28792793
247	0xbed7eb72	-0.42171818
248	0x3d90edbd	0.07076595
249	0x3c247b3d	0.010039148
250	0xbe842a6a	-0.2581361
251	0x3e0c3115	0.13690598
252	0xbe77c9b2	-0.24198034
253	0xbe94cdc0	-0.29063225
254	0x3ec15314	0.37758696
255	0x3dd51b89	0.104056425

bias f4 [16]
0	0x3b88262a	0.00415494
1	0x00000000	0.0
2	0x3b60ef27	0.0034322233
3	0x3b056ce9	0.0020359105
4	0x3bc91239	0.0061362055
5	0xbc3301e8	-0.010925747
6	0xba8cd4e8	-0.0010744603
7	0x3aa051b5	0.0012231382
8	0x3b1d6804	0.0024018297
9	0xbbf9b776	-0.007620747
10	0x00000000	0.0
11	0xbbd000a8	-0.0063477345
12	0xbc1e02ba	-0.009644205
13	0xbb283ff9	-0.0025672896
14	0xbb2ae015	-0.0026073505
15	0xb9ae1609	-0.00033204284

weight f4 [16, 16]
0	0xbd6336c4	-0.05547215
1	0xbeb161c5	-0.34644905
2	0x3eaad2c2	0.3336392
3	0x3d638cbe	0.055554144
4	0xbe91440a	-0.28372222
5	0xbedf2431	-0.435823
6	0x3ec81a84	0.3908273
7	0xbd4d99df	-0.05019557
8	0x3ebcb4c7	0.36856672
9	0x3dd4d7bd	0.10392711
10	0x3e39f65d	0.18160386
11	0x3ecefa92	0.40425545
12	0x3d783c2f	0.06060427
13	0xbe7cad1f	-0.24675415
14	0x3e19be1f	0.15013932
15	0x3eb8278d	0.35967675
16	0x3e908b8c	0.28231466
17	0x3d1e8237	0.0386984
18	0xba270bbd	-0.00063722936
19	0x3b0ad6fc	0.002118527
20	0xbe935ce2	-0.287818
21	0x3ddeae1a	0.10873051
22	0x3c5c56fb	0.013448472
23	0xbe71244d	-0.23549004
24	0x3e883ac9	0.2660735
25	0xbeda85c7	-0.4268019
26	0xbeb9f5e2	-0.36320406
27	0x3ebae3d1	0.36501935
28	0xbd8471d5	-0.06467024
29	0xbeca0a82	-0.39461142
30	0xbe03e564	-0.12880474
31	0xbe9bd3f6	-0.3043515
32	0x3e90425b	0.28175625
33	0x3e808e76	0.2510869
34	0x3ead4640	0.3384266
35	0x3ec9c266	0.39406127
36	0x3e1c4147	0.15259276
37	0x3dc019e4	0.09379938
38	0x3e4974e7	0.19673501
39	0xbe69254e	-0.22768137
40	0xbd8d503c	-0.06900069
41	0x3c2a3bfd	0.010390279
42	0xbe5c9cd5	-0.21544202
43	0xbd588f16	-0.052870832
44	0xbc931905	-0.017956266
45	0x3ca0c51c	0.01962524
46	0x3d79c275	0.060976464
47	0xbe507687	-0.20357715
48	0x3ed60a28	0.41804624
49	0x3e1c2294	0.15247566
50	0xbdbc6d9b	-0.09200593
51	0xbe8e7f7e	-0.27831644
52	0xbe873df1	-0.26414445
53	0x3e4554d7	0.19270645
54	0xbeac0e09	-0.33604458
55	0xbe0dfca4	-0.13865906
56	0xbe4ea5f9	-0.20180501
57	0xbd8f2f87	-0.06991487
58	0xbeac5389	-0.33657482
59	0xbe0b940c	-0.13630694
60	0xbe3b5f7b	-0.18298142
61	0x3d1171e5	0.03550901
62	0x3ccdc88a	0.025120039
63	0xbe3f55e2	-0.18685105
64	0x3dac9792	0.08427347
65	0xbe7ced2c	-0.24699849
66	0xbd8c6419	-0.068550296
67	0xbe2c2aa7	-0.16813146
68	0xbeae208e	-0.34009212
69	0xbd174c20	-0.036937833
70	0x3c87999a	0.016552735
71	0x3ea54b25	0.32283893
72	0xbe2bb6e6	-0.16768989
73	0xbdd54abf	-0.10414647
74	0x3ecb11da	0.39662057
75	0xbda4f9a9	-0.080554314
76	0x3e8d8bcd	0.27645722
77	0x3be39d37	0.0069462317
78	0x3e642116	0.22278246
79	0xbec180f5	-0.377937
80	0xbecebb84	-0.40377438
81	0x3ecd895b	0.40143856
82	0x3ea2acea	0.31772548
83	0x3e2ead0b	0.17058198
84	0xbe283e25	-0.16429956
85	0x3ed77fc4	0.42089665
86	0x3d5890c3	0.05287243
87	0xbd040ec0	-0.03224063
88	0x3decd4c5	0.1156402
89	0x3e885604	0.26628125
90	0xbe3939ec	-0.18088502
91	0x3e8145b9	0.25248507
92	0xbeba12f7	-0.36342594
93	0xbec94876	-0.39313096
94	0xbe4ed51d	-0.20198484
95	0xbecaf992	-0.39643532
96	0xbe5d3ff7	-0.21606432
97	0x3c25b25b	0.010113324
98	0x3ed36f4d	0.41295853
99	0xbea3aa11	-0.31965688
100	0x3ec119eb	0.37715086
101	0x3dbc2064	0.091858655
102	0xbcf8605b	-0.030319383
103	0x3d166aaf	0.036722835
104	0xbe9edd70	-0.31028318
105	0xbebfe7dd	-0.37481585
106	0xbbd6e7ff	-0.006558418
107	0x3d844075	0.06457607
108	0xbe6c7db6	-0.2309483
109	0xbdfacb08	-0.122457564
110	0x3ebef7ad	0.37298337
111	0xbea2401b	-0.31689534
112	0x3eb394bc	0.35074413
113	0x3d3b3254	0.045702294
114	0xbec6e1f7	-0.38844272
115	0xbd744fde	-0.05964648
116	0xbe6fbd0e	-0.23411962
117	0x3e5664c9	0.20936884
118	0x3ea45ecc	0.32103574
119	0xbe5aaa21	-0.21353962
120	0xbe7df0f4	-0.24798948
121	0xbcc93571	-0.024561616
122	0xbdb2b509	-0.08725936
123	0x3e15401e	0.1457524
124	0x3ea06d47	0.31333372
125	0x3e49a52b	0.19691913
126	0x3e8679c6	0.2626478
127	0x3e4e8d39	0.2017106
128	0xbe7456e7	-0.23861276
129	0xbec957e0	-0.39324856
130	0xbec81ff5	-0.3908688
131	0x3ec4cb33	0.3843628
132	0xbb9d40cd	-0.0047989846
133	0xbea43734	-0.32073367
134	0x3eb0275a	0.34405023
135	0x3e35ce74	0.17754537
136	0xbe4e6b4f	-0.20158122
137	0xbdaaa9a5	-0.083331384
138	0x3b7ca63d	0.0038551234
139	0x3ec8fa6e	0.39253563
140	0xbe8ad390	-0.27114534
141	0x3e62b66c	0.22139901
142	0xbe562b5a	-0.20914975
143	0x3e61091e	0.21976134
144	0x3ed160e5	0.40894237
145	0x3daa80c3	0.083253406
146	0xbd990de8	-0.074733555
147	0xbebed062	-0.37268358
148	0x3e9004c7	0.28128645
149	0x3e87a64e	0.26494068
150	0xbd1aba40	-0.037775278
151	0xbe9fe1ef	-0.3122706
152	0xbd875806	-0.06608586
153	0x3e984f55	0.29748026
154	0xbec3be65	-0.38231197
155	0xbec02709	-0.3752978
156	0xbe8914fc	-0.26773822
157	0x3dc50b1b	0.09621259
158	0x3eabec5a	0.3357876
159	0x3ec8603a	0.39135915
160	0x3ead9a16	0.3390662
161	0xbe0c660b	-0.13710801
162	0x3d9dd3eb	0.07706436
163	0x3e76507b	0.24054138
164	0xbd903ab5	-0.070424475
165	0x3ea95e99	0.33079985
166	0x3e0c997d	0.13730426
167	0xbeaaca8e	-0.33357662
168	0xbea89945	-0.32929435
169	0x3caaef57	0.02086608
170	0xbedc543f	-0.43033025
171	0xbe692d55	-0.22771199
172	0x3da8484c	0.082169145
173	0x3e22cdca	0.15898815
174	0xbe95434c	-0.29152906
175	0xbe974d10	-0.29550982
176	0xbde89515	-0.1135656
177	0x3ed75a4f	0.42061087
178	0xbe0fc8ca	-0.14041439
179	0x3ecd1972	0.40058476
180	0xbe85e6a8	-0.2615254
181	0xbe652256	-0.2237638
182	0x3e464d7e	0.19365498
183	0xba91eb1a	-0.0011132688
184	0xbe573894	-0.21017677
185	0x3d904d8a	0.070460394
186	0xbe840a3c	-0.25789058
187	0xbcc7e0b5	-0.02439914
188	0xbdaa61be	-0.08319424
189	0x3d17a1f7	0.037019696
190	0x3e75072b	0.23928516
191	0xbeb4eb2d	-0.35335675
192	0x3d68dd1c	0.05685149
193	0x3e105b4e	0.1409733
194	0xbd518c8a	-0.05115942
195	0x3e9b9d7b	0.30393586
196	0x3ed4b723	0.41545972
197	0x3ea21502	0.31656653
198	0x3e314263	0.17310481
199	0x3dc8173a	0.09770055
200	0xbc1074ea	-0.008816937
201	0xbe31ad5e	-0.1735129
202	0x3ed8bea0	0.42332935
203	0xbd906ebb	-0.0705237
204	0x3cf16387	0.029466404
205	0xbea02f4f	-0.31286094
206	0xbe5d2131	-0.21594693
207	0x3dfe6da1	0.12423254
208	0xbe99328c	-0.29921377
209	0xbe49f969	-0.19724049
210	0x3e6a0d40	0.22856617
211	0xbec96e00	-0.39341736
212	0xbeabc18a	-0.33546096
213	0x3e06a0ec	0.13147324
214	0x3d2c4593	0.04205854
215	0x3c64320d	0.013927949
216	0x3ed5fe48	0.41795564
217	0xbe4a3704	-0.1974755
218	0xbec70a51	-0.38875058
219	0x3eca8726	0.39556235
220	0xbdca6a1d	-0.09883521
221	0xbe40d2b2	-0.18830374
222	0x3d86cb00	0.06581688
223	0xbecd1528	-0.40055203
224	0xbe89f85c	-0.26947296
225	0x3da8e6cf	0.08247148
226	0x3e85e437	0.26150677
227	0xbdd745ab	-0.10511335
228	0xbeb5ca2d	-0.3550581
229	0xbeab1397	-0.33413383
230	0x3d99c3db	0.075080596
231	0xbeb9550f	-0.36197707
232	0x3ed678c8	0.41889024
233	0x3ed45305	0.4146959
234	0xbbe27271	-0.006910615
235	0xbdfb89a0	-0.12282109
236	0x3e845fb4	0.25854266
237	0xbebc2fa0	-0.36755085
238	0xbe401327	-0.18757306
239	0x3db10119	0.086427875
240	0x3e0daee0	0.13836241
241	0xbe3ec7de	-0.18630931
242	0xbb14d4ce	-0.002270985
243	0x3e1fd4b7	0.15608488
244	0xbdc03877	-0.0938577
245	0xbddc4b29	-0.10756523
246	0x3c77095b	0.015077914
247	0xbeaebd95	-0.34129015
248	0x3e201917	0.15634571
249	0xbe75e051	-0.24011351
250	0x3ec4c31d	0.3843011
251	0xbed03e10	-0.4067235
252	0x3e3dfb09	0.18552794
253	0x3ec9e351	0.3943124
254	0xbe41b9e1	-0.18918563
255	0xbe8c250f	-0.27372023

bias f4 [16]
0	0xbba9538b	-0.00516743
1	0x3cf5d3df	0.030008255
2	0x3b49faeb	0.0030819725
3	0xbb7b9bec	-0.0038392497
4	0x3c86ca63	0.016453927
5	0x3cdf9fbe	0.02729785
6	0xba05152f	-0.0005076704
7	0xbc241910	-0.010015741
8	0x3bbb7c6c	0.0057216194
9	0x3d651d04	0.055935875
10	0xbc919387	-0.017770542
11	0xbc2082e8	-0.0097968355
12	0xbc2f651c	-0.010705259
13	0xbc1671ca	-0.009182403
14	0x3cd22b75	0.025655488
15	0x3cad98c5	0.02119101
