ad/ad_bzr.pt (torch, 350413 bytes, 62 tensors)

weight f4 [16, 53]
0.1114145 -0.282855 -0.07433432 0.25420603 0.05350138 -0.17497249 0.23091905 -0.27462775
0.030098336 0.06692807 0.029522356 0.26929563 0.05512288 -0.18947801 -0.04377053 -0.12192622
0.24173161 0.038585372 -0.2670601 0.0044288435 0.0032331177 0.0175375 0.07010986 0.15858582
-0.23470457 0.09071702 -0.14797656 0.19284253 -0.16143249 -0.21050484 -0.16958259 0.16991527
-0.05582221 0.25724426 -0.24571069 0.095300496 -0.10497932 0.04295913 0.18737642 0.15072435
-0.2751634 -0.04268318 0.123098426 -0.29208302 -0.216596 -0.2921405 0.04033328 0.06376831
-0.122734986 0.11898487 0.044292197 0.12548082 0.25837383 -0.1896884 -0.22895513 0.2800429
-0.15338951 0.20771962 -0.10158825 -0.0635587 -0.13546035 0.09017074 -0.018984009 0.23551871
-0.2887773 -0.0069009713 0.043494616 0.095417276 0.22561498 0.10062914 -0.25521383 0.040471252
-0.12501426 0.18110926 -0.12846395 -0.03555716 0.07563076 0.19346835 -0.14145678 0.21962099
-0.20770103 -0.07018263 -0.18489638 0.062502034 -0.23891933 -0.0029755875 -0.20393376 0.18595034
-0.26726004 -0.12933026 -0.250292 -0.1858387 0.021232668 0.14013071 0.14741081 -0.23282132
-0.052354623 -0.061694432 0.124287866 -0.030036747 -0.038775407 -0.1843325 -0.20515184 -0.013936508
0.13887396 -0.1463423 0.0590445 0.14434895 -0.10706635 0.2667844 0.26802886 0.1727488
0.12199203 -0.237715 0.15331426 -0.034367654 0.22701834 -0.24225649 -0.010546328 0.26767644
0.058178015 0.09246597 -0.005004872 -0.13960327 0.14571658 0.23299557 0.1616258 -0.19845682
-0.19839229 0.28528234 -0.036974315 0.12288273 0.083734736 -0.18625131 0.25347802 0.052393466
-0.14145412 0.27842274 0.097335994 0.071637325 -0.20628631 0.25846955 -0.1493818 -0.10334155
-0.28617254 0.0817357 -0.16715738 -0.26159334 0.20727152 -0.2690106 -0.061092965 -0.11115115
0.021279106 0.04324538 0.260486 0.08953215 -0.095403604 -0.17515948 -0.07828569 0.15967913
-0.28434733 0.11221031 -0.01929933 -0.13815972 0.19081873 0.146021 0.0062892013 -0.14958009
-0.17945528 -0.07937096 -0.18264526 -0.051380675 0.099176005 -0.032242592 0.036266927 -0.10911606
-0.08092377 0.17194869 -0.035980962 0.07368924 -0.20345029 -0.17123333 0.2251169 -0.009070679
0.28683332 -0.09955442 0.15690325 0.1277352 -0.25346148 -0.16681577 0.24859147 -0.09853284
-0.27222845 0.21493281 0.28035256 0.19149065 0.1879955 -0.08947615 0.24823017 -0.13045189
0.11814289 -0.283299 0.25942728 -0.21802106 -0.27433836 0.12183265 0.25498793 -0.23940444
0.28585365 0.050444517 0.14940436 0.05998846 -0.29782465 0.25454184 0.23703218 0.1552234
0.0036841647 0.11536813 0.012131179 0.089355394 -0.031273164 0.2769624 -0.09766042 -0.046492558
0.08692947 0.26136312 -0.16478358 -0.13221052 -0.26435825 0.22293952 0.27564418 0.058826588
-0.24506043 -0.2297105 0.23244554 0.019964844 0.06498805 -0.17425789 -0.24398088 -0.14891812
-0.28300577 0.20558092 0.10621076 -0.24359375 0.29340422 -0.06784236 0.14422348 0.06317307
0.10442391 -0.02688891 -0.03331177 -0.13616462 0.09119633 0.03043018 0.20978197 -0.22194497
00000000: 492d e43d 5fd2 90be 983c 98bd 4b27 823e
00000010: 4324 5b3d fd2b 33be 0b76 6c3e 029c 8cbe
00000020: c990 f63c 9511 893d ded8 f13c 1ee1 893e
00000030: 87c8 613d 8606 42be ba48 33bd 74b4 f9bd
00000040: 7e88 773e b20b 1e3d 1abc 88be d51f 913b
00000050: b7e2 533b ceaa 8f3c c295 8f3d 5264 223e
00000060: 6556 70be d8c9 b93d 2b87 17be 8378 453e
00000070: 8f4e 25be 958e 57be 0fa7 2dbe 45fe 2d3e
00000080: d4a5 64bd 85b5 833e 959b 7bbe e82c c33d
00000090: 66ff d6bd eaf5 2f3d 9bdf 3f3e 7c57 1a3e
000000a0: 38e2 8cbe 8fd4 2ebd 071b fc3d e88b 95be
000000b0: 58cb 5dbe 7193 95be 8234 253d f698 823d
000000c0: 7b5c fbbd 57ae f33d bc6b 353d 0b7e 003e
000000d0: 9349 843e ad3d 42be 3773 6abe c861 8f3e
000000e0: 2412 1dbe 74b4 543e 800d d0bd 102b 82bd
000000f0: 1eb6 0abe 70ab b83d 5a84 9bbc d12b 713e
00000100: 9eda 93be 8b21 e2bb 6927 323d 226a c33d
00000110: 9d07 673e a716 ce3d 63ab 82be 2fc5 253d
00000120: bd03 00be b574 393e 0e8c 03be 62a4 11bd
00000130: 4de4 9a3d 911c 463e 0cda 10be 53e4 603e
00000140: 94af 54be e9bb 8fbd 7a55 3dbe 1101 803d
00000150: 45a7 74be 1302 43bb 03d4 50be c469 3e3e
00000160: 4fd6 88be 276f 04be 4626 80be 804c 3ebe
00000170: 22f0 ad3c 6d7e 0f3e dcf2 163e b668 6ebe
00000180: cd71 56bd 4db3 7cbd a38a fe3d a00f f6bc
00000190: f6d2 1ebd a9c1 3cbe 5313 52be f455 64bc
000001a0: fa34 0e3e c2da 15be a5d8 713d 36d0 133e
000001b0: 9a45 dbbd f797 883e 143b 893e 10e5 303e
000001c0: f5d6 f93d 906b 73be 6afe 1c3e 19c5 0cbd
000001d0: 7f77 683e 1612 78be 81ca 2cbc e30c 893e
000001e0: 124c 6e3d cc5e bd3d e9ff a3bb 29f4 0ebe
000001f0: ba36 153e 6496 6e3e 3c81 253e 4438 4bbe
00000200: 5927 4bbe 8710 923e 6172 17bd f1a9 fb3d
00000210: 1e7d ab3d aab8 3ebe dfc7 813e 889a 563d
00000220: 59d9 10be 6d8d 8e3e 1858 c73d 97b6 923d
00000230: b83c 53be 1f56 843e 8bf7 18be bca4 d3bd
00000240: 3585 92be 0c65 a73d 4e2b 2bbe 90ef 85be
00000250: fc3e 543e c2bb 89be 9e3c 7abd 37a3 e3bd
00000260: 8551 ae3c 1122 313d 6c5e 853e a25c b73d
00000270: f762 c3bd 025d 33be 3f54 a0bd ed82 233e
00000280: f995 91be 85ce e53d a119 9ebc be79 0dbe
00000290: fc65 433e 8786 153e a515 ce3b 862b 19be
000002a0: 20c3 37be 3e8d a2bd 5c07 3bbe 8b74 52bd
000002b0: ca1c cb3d cf10 04bd a18c 143d 3e78 dfbd
000002c0: 5dbb a5bd 5113 303e c660 13bd 62ea 963d
000002d0: 4655 50be ca57 2fbe 0b85 663e 2f9d 14bc
000002e0: d1db 923e 30e3 cbbd 3fab 203e 04cd 023e
000002f0: b4c5 81be c1d1 2abe c38e 7e3e 96cb c9bd
00000300: 8761 8bbe 5917 5c3e 5f8a 8f3e 2016 443e
00000310: e481 403e 463f b7bd 0d30 7e3e 2e95 05be
00000320: e6f4 f13d 910c 91be a7d3 843e ea40 5fbe
00000330: 1476 8cbe 6583 f93d c78d 823e 7026 75be
00000340: 695b 923e e99e 4e3d 75fd 183e 76b6 753d
00000350: 797c 98be 4f53 823e 90b8 723e e2f2 1e3e
00000360: 0772 713b 2046 ec3d dac1 463c f6ff b63d
00000370: 4a18 00bd 04ce 8d3e 3002 c8bd fb6e 3ebd
00000380: 1408 b23d 63d1 853e 07bd 28be 3262 07be
00000390: f759 87be 424a 643e 3c21 8d3e 26f4 703d
000003a0: 1ff1 7abe 3b39 6bbe 3406 6e3e 508d a33c
000003b0: 7418 853d a970 32be 20d6 79be fe7d 18be
000003c0: 22e6 90be ce83 523e 0785 d93d a470 79be
000003d0: 1439 963e eff0 8abd 52af 133e e260 813d
000003e0: 34dc d53d 2246 dcbc ec71 08bd bd6e 0bbe
000003f0: 24c5 ba3d b648 f93c 16d1 563e 8b45 63be

bias f4 [16]
-0.003107004 -0.0021424664 -0.0037960687 -0.0032663713 -0.003969115 0.0 -0.0037088522 0.004183343
-0.0038776526 0.0020208433 -0.0032657583 0.0048709316 -9.76829e-05 -0.004305894 -0.004138382 -0.0043099634
00000000: e19e 4bbb 9f68 0cbb 77c7 78bb 9e10 56bb
00000010: 5a0f 82bb 0000 0000 3710 73bb 6d14 893b
00000020: 3720 7ebb 2070 043b 5506 56bb 569c 9f3b
00000030: 1cdb ccb8 7518 8dbb 449b 87bb 983a 8dbb

weight f4 [16, 16]
0.34624478 0.123548135 0.3440786 -0.31790337 -0.41965327 0.16025615 -0.20652829 0.3476672
-0.013042645 0.059374575 0.1458286 -0.34917963 -0.080404684 0.28165722 -0.14143738 0.1031988
-0.2280793 0.07566024 -0.21165527 -0.095055886 0.23917277 -0.011171103 0.26372758 0.25496688
0.35386604 -0.113517046 0.091807894 0.10876966 -0.25009403 0.22999962 -0.26287878 -0.35230076
0.40160117 0.06085128 0.28633744 0.37094054 -0.3655542 -0.34919015 0.079249896 0.060989648
-0.027527986 -0.26249883 0.102145925 0.22102195 -0.29800832 0.2848043 -0.027446657 0.36206463
-0.0047329585 0.10475273 -0.22610292 -0.124104686 0.07334155 0.063312314 0.3017012 -0.25887182
0.09825862 -0.22491144 -0.084085666 -0.28103867 0.3293915 0.28497258 -0.371008 -0.32960057
0.14045072 -0.32358378 -0.17985709 -0.42026684 -0.30031052 0.3203148 -0.2532427 0.2849027
0.12471488 -0.2891932 -0.10063976 -0.02073068 0.29109523 -0.40545273 0.34466594 -0.40552518
-0.31299967 -0.28595802 0.14831562 -0.302124 -0.34108913 0.15988691 -0.3195668 -0.30488247
0.38338533 0.24594508 -0.31337264 0.09612409 0.070609845 0.23210773 0.23134604 0.42698628
0.11621814 0.07394452 -0.043170385 0.10418469 -0.11462865 0.36044893 0.41161913 -0.053318746
0.09961564 -0.32693356 -0.33282867 -0.3008488 -0.082958505 0.24728215 -0.02274664 -0.3497349
0.1154846 0.25145456 -0.36451355 -0.40540382 -0.20325205 0.10726916 0.12987095 -0.24038133
0.079033285 -0.07242912 -0.035289317 0.39175165 0.15932152 -0.021691758 0.06731012 -0.22467478
0.30613434 -0.027495652 0.19307645 -0.15320499 0.12910274 0.16254644 0.21273318 -0.06896051
-0.21309091 0.1261464 0.3294014 -0.1389373 -0.054573443 0.038622756 0.22806294 0.119382076
-0.11302975 0.13293955 -0.15454201 -0.14190167 0.35836184 -0.34941494 -0.3896072 -0.020373516
-0.3962517 -0.035429437 0.25079104 -0.05666002 0.038497873 0.36209005 -0.2790055 0.30458415
0.29988143 0.13106425 0.2680561 -0.31842119 0.06890509 -0.06679258 -0.21628039 0.10135948
-0.42767242 0.3530332 -0.41299814 0.41841927 0.12280842 0.31002212 -0.24387556 -0.23892108
0.072168194 -0.29262564 -0.28229436 -0.42068213 0.25305712 -0.017595466 0.3139879 0.36545646
0.12551016 0.16147344 -0.21729726 0.1277389 -0.052438743 -0.4161321 0.08273746 -0.41685307
-0.42261437 -0.30910385 -0.17872208 -0.38651296 0.113864586 -0.3764772 0.07295476 -0.29612508
0.21703513 0.257678 0.026967283 -0.4236353 0.23438023 0.1996653 -0.405585 0.12810093
-0.37235287 -0.3348782 -0.076668665 -0.26024374 -0.17010044 0.2855206 -0.12947938 0.09085087
-0.3628464 0.015003567 0.1571812 -0.39243552 -0.18252465 -0.078042716 -0.3889691 -0.17243822
0.36133823 0.40247273 0.42113116 0.42066234 0.38143188 -0.33473098 0.17820394 -0.38541043
0.25094986 -0.1143074 0.3614011 -0.022821337 -0.102278404 0.2566226 0.37783098 0.14725782
0.06544604 0.22101773 -0.3027703 -0.021805374 -0.018773172 -0.30662483 0.12480996 0.051921748
-0.09885736 0.028855463 -0.38990667 0.32450098 -0.10514515 0.28245917 -0.35765824 0.07961921
00000000: ff46 b13e ce06 fd3d 122b b03e 3bc4 a2be
00000010: cbdc d6be 301a 243e 277c 53be 6f01 b23e
00000020: d1b0 55bc c132 733d 1854 153e acc7 b2be
00000030: 36ab a4bd 6035 903e f6d4 10be e459 d33d
00000040: 9f8d 69be c2f3 9a3d 29bc 58be a9ac c2bd
00000050: b5e9 743e 0107 37bc 4d07 873e 058b 823e
00000060: ee2d b53e a07b e8bd c705 bc3d a1c2 de3d
00000070: 530c 80be 0585 6b3e 0c98 86be c460 b4be
00000080: ab9e cd3e 313f 793d d29a 923e ebeb bd3e
00000090: ec29 bbbe 0dc9 b2be c54d a23d 48d0 793d
000000a0: 5f82 e1bc 3f66 86be e231 d13d 9453 623e
000000b0: 8c94 98be dfd1 913e d0d7 e0bc 8960 b93e
000000c0: ef16 9bbb 9988 d63d 8687 67be 992a febd
000000d0: 1834 963d e3a9 813d 9478 9a3e d98a 84be
000000e0: d13b c93d 2f4f 66be 1b35 acbd 4de4 8fbe
000000f0: 01a6 a83e ede7 913e c3f4 bdbe 68c1 a8be
00000100: 50d2 0f3e c6ac a5be 752c 38be 372d d7be
00000110: 4dc2 99be 4d00 a43e 07a9 81be c4de 913e
00000120: 846a ff3d 2211 94be 381c cebd 63d3 a9bc
00000130: 6f0a 953e 8097 cfbe 0e78 b03e ffa0 cfbe
00000140: 7e41 a0be 1769 92be 0de0 173e ffaf 9abe
00000150: 3ca3 aebe 65b9 233e 429e a3be 8e19 9cbe
00000160: 154b c43e 07d9 7b3e 6172 a0be b5dc c43d
00000170: e59b 903d a6ad 6d3e fae5 6c3e f29d da3e
00000180: c703 ee3d 3970 973d 6ed3 30bd c85e d53d
00000190: 6dc2 eabd c38c b83e bebf d23e c264 5abd
000001a0: 4903 cc3d d663 a7be 8568 aabe db08 9abe
000001b0: 26e6 a9bd 8837 7d3e 2957 babc 7410 b3be
000001c0: 3183 ec3d a7be 803e 85a1 babe 1791 cfbe
000001d0: 4e21 50be efaf db3d e4fc 043e 8626 76be
000001e0: 34dc a13d b855 94bd 888b 10bd ac93 c83e
000001f0: 2e25 233e eab2 b1bc e3d9 893d 2511 66be
00000200: a4bd 9c3e 903e e1bc d5b5 453e c5e1 1cbe
00000210: 8233 043e 9372 263e bad6 593e 2b3b 8dbd
00000220: 8134 5abe 862c 013e 4da7 a83e 9445 0ebe
00000230: 6788 5fbd e532 1e3d 5589 693e 977e f43d
00000240: 247c e7bd 4e21 083e 4340 1ebe ac4e 11be
00000250: 347b b73e 84e6 b2be 987a c7be 5ce6 a6bc
00000260: 81e1 cabe 751e 11bd af67 803e 5614 68bd
00000270: f2af 1d3d de63 b93e cfd9 8ebe 74f2 9b3e
00000280: 0f8a 993e b535 063e a63e 893e 1a08 a3be
00000290: 1d1e 8d3d 8cca 88bd 9b78 5dbe 8f95 cf3d
000002a0: e1f7 dabe c5c0 b43e 7e74 d3be 0d3b d63e
000002b0: fb82 fb3d 38bb 9e3e 84ba 79be baa7 74be
000002c0: ebcc 933d 07d3 95be e388 90be a663 d7be
000002d0: b490 813e 5e24 90bc 06c3 a03e 1c1d bb3e
000002e0: bc85 003e 4b59 253e 2c83 5ebe fccd 023e
000002f0: 02ca 56bd 440f d5be 4272 a93d c46d d5be
00000300: e960 d8be dc42 9ebe ec02 37be 07e5 c5be
00000310: d631 e93d 9fc1 c0be 4e69 953d b59d 97be
00000320: 753e 5e3e 5fee 833e 7eea dc3c bae6 d8be
00000330: 5f01 703e 0f75 4c3e d6a8 cfbe e42c 033e
00000340: 09a5 bebe 2875 abbe 7604 9dbd ab3e 85be
00000350: cf2e 2ebe c22f 923e 3e96 04be 0510 ba3d
00000360: 01c7 b9be 85d1 753c 1cf4 203e 4fed c8be
00000370: bee7 3abe dcd4 9fbd f526 c7be a593 30be
00000380: 5301 b93e e810 ce3e 819e d73e 0e61 d73e
00000390: 0a4b c33e dc61 abbe 187b 363e 8454 c5be
000003a0: 807c 803e 001a eabd 9109 b93e d0f3 babc
000003b0: 5777 d1bd 0a64 833e 1073 c13e c1ca 163e
000003c0: 9308 863d 7952 623e b504 9bbe 2fa1 b2bc
000003d0: 32ca 99bc eefd 9cbe 5d9c ff3d e6ab 543d
000003e0: ba75 cabd 4b62 ec3c d9a1 c7be fe24 a63e
000003f0: 5756 d7bd 7d9e 903e fb1e b7be 650f a33d

bias f4 [16]
0.0012982585 0.004210799 -0.002484739 0.0 0.005093134 -0.00045548717 0.0042912066 -0.0021734445
-0.0037168497 0.002330408 -0.004169536 0.004259744 -0.0041649253 0.0 -0.0036546974 -0.0048666247
00000000: 542a aa3a befa 893b 01d7 22bb 0000 0000
00000010: 4ee4 a63b 74ce eeb9 409d 8c3b 5970 0ebb
00000020: 6496 73bb c2b9 183b 9aa0 88bb 5395 8b3b
00000030: ed79 88bb 0000 0000 a683 6fbb 3578 9fbb

weight f4 [16, 16]
-0.20386094 -0.39934084 0.3844742 0.11683387 -0.13703056 0.22493112 -0.34895992 0.39228415
-0.2958352 -0.0666426 0.14480938 -0.4182873 0.25568336 0.021317568 -0.14348345 0.20030244
-0.22848275 -0.098603986 -0.26430023 -0.10104007 -0.18171136 -0.18419717 0.15788074 0.15196839
-0.36119738 -0.00232834 0.30200967 -0.19464633 0.13871533 -0.3081969 0.37046432 0.10461525
-0.19614124 0.307632 -0.0014738404 0.13310453 -0.24717501 0.0041552815 -0.25426805 0.29366046
0.28707853 -0.2143244 -0.024258833 0.08988778 0.14656255 -0.23032443 0.037137195 0.20680355
-0.41625497 -0.09018788 0.13676193 0.2900776 -0.10029615 -0.27325213 0.07469755 0.05778629
0.4151688 0.29773647 -0.050203606 -0.05883288 0.07887982 -0.41748923 0.30963534 0.20755504
0.19716698 -0.2946021 0.015919229 0.29831776 0.22801788 -0.18490152 -0.1169185 -0.28000486
0.03242719 -0.4175373 0.29533878 -0.12286825 0.24188176 -0.13034049 0.42197096 -0.29508466
0.25871032 -0.012222956 0.09780449 0.059157334 -0.2982428 0.40996304 0.256154 0.18709987
0.35547766 -0.106569655 0.14968662 -0.17256685 0.13610652 -0.32189047 0.29827267 0.16420673
-0.05024084 -0.09958149 0.29993805 0.28730953 -0.4174652 -0.22790448 0.068602994 -0.010658938
0.3382057 -0.32484883 -0.3123492 -0.13089472 0.2410278 0.23194383 -0.22383052 -0.13083676
0.350344 -0.22210053 0.40719143 -0.23570417 -0.05673415 -0.33200338 -0.33755773 0.19001523
0.23256871 0.37646133 0.3968409 0.33960634 -0.16770935 -0.097088985 0.028549077 -0.35273746
-0.40985984 0.25691503 0.32693925 -0.2516691 -0.38480458 0.32451656 -0.049075708 -0.36089098
0.09910325 0.06022441 0.036496922 0.18644042 0.2925822 -0.43293402 0.40857017 -0.14269203
-0.26763842 0.08931294 -0.2741059 -0.14364412 0.32199717 -0.032205712 -0.19306274 -0.21415572
0.19133332 -0.116790876 -0.33425477 0.43494993 0.2800972 -0.37447995 0.05073793 -0.027507834
0.40184203 -0.0129965 -0.00680127 0.09187835 -0.23932917 0.0056579937 -0.32042974 -0.2994333
-0.41782054 -0.27773654 -0.21554321 0.053852145 0.29057857 -0.08881588 0.30172843 0.3328399
-0.33522934 -0.2133903 -0.12728637 0.3133108 0.39035833 -0.32071066 -0.021053536 0.34526363
0.22473298 -0.083764076 0.15870173 0.23905276 -0.28252804 -0.37190405 -0.11298779 0.07448202
-0.33319548 0.28495595 0.25368166 -0.10397952 -0.37931278 -0.39197415 0.28475082 0.09744816
-0.39541844 0.03753175 0.04515019 0.16661805 0.054817677 -0.42804506 0.41201904 0.031937256
0.27368584 0.16233899 -0.1584043 -0.14481981 0.16155618 -0.27757126 -0.083936535 0.23957603
0.0509055 -0.3941596 0.1699942 -0.1951512 -0.32577163 0.17685397 -0.21701969 -0.38636303
0.3159554 -0.3179338 0.34176946 -0.4084621 0.14993195 -0.32214785 0.33336514 -0.11823957
0.24021074 -0.3411418 0.39508262 0.2943702 0.25291762 -0.21280117 0.1050835 0.059503965
0.38781577 -0.2670754 0.2982858 -0.057024796 0.1435778 -0.2989071 -0.35357043 -0.046125982
0.13938622 -0.35552323 0.12619475 -0.3867944 0.2410402 -0.15071146 -0.37968707 0.27053764
00000000: ecc0 50be 6776 ccbe cdd9 c43e 9946 ef3d
00000010: bd51 0cbe 5854 663e e0aa b2be 78d9 c83e
00000020: b677 97be ea7b 88bd e948 143e c129 d6be
00000030: eee8 823e 2ea2 ae3c 53ed 12be 151c 4d3e
00000040: 62f7 69be e3f0 c9bd 5c52 87be 19ee cebd
00000050: 8b12 3abe 2f9e 3cbe 7dab 213e 9a9d 1b3e
00000060: ddee b8be 1097 18bb 03a1 9a3e 5e51 47be
00000070: 640b 0e3e fccb 9dbe 80ad bd3e 8540 d63d
00000080: 40d9 48be f181 9d3e e12d c1ba 8e4c 083e
00000090: 721b 7dbe 0729 883b 6c2f 82be aa5a 963e
000000a0: f5fb 923e db77 5bbe 76ba c6bc 1617 b83d
000000b0: 7e14 163e 2bda 6bbe 2c1d 183d 4fc4 533e
000000c0: 5f1f d5be 6cb4 b8bd 520b 0c3e 0d85 943e
000000d0: 1168 cdbd b4e7 8bbe 07fb 983d 51b1 6c3d
000000e0: 0191 d43e ea70 983e 4ca2 4dbd bffa 70bd
000000f0: be8b a13d 26c1 d5be 8688 9e3e 4f89 543e
00000100: 24e6 493e 16d6 96be 0b69 823c 1bbd 983e
00000110: 857d 693e d356 3dbe f772 efbd cc5c 8fbe
00000120: 60d2 043d 73c7 d5be a536 973e 59a2 fbbd
00000130: daaf 773e fa77 05be 940c d83e 5615 97be
00000140: ae75 843e cb42 48bc b84d c83d f64e 723d
00000150: 48b3 98be ade6 d13e 9e26 833e 1c97 3f3e
00000160: 2b01 b63e 3141 dabd 7347 193e 5db5 30be
00000170: 825f 0b3e d4ce a4be 32b7 983e cf25 283e
00000180: 57c9 4dbd 61f1 cbbd 7b91 993e 3c1a 933e
00000190: 00be d5be cb5f 69be ba7f 8c3d d4a2 2ebc
000001a0: 4c29 ad3e 9652 a6be 3cec 9fbe 4409 06be
000001b0: fecf 763e af82 6d3e d433 65be 12fa 05be
000001c0: 4a60 b33e 526e 63be 657b d03e 6f5c 71be
000001d0: 1162 68bd 59fc a9be 5ed4 acbe 5a93 423e
000001e0: 7e26 6e3e 8abf c03e bb2e cb3e e2e0 ad3e
000001f0: 00bc 2bbe 97d6 c6bd c1df e93c 019a b4be
00000200: 26d9 d1be 5e8a 833e 9564 a73e c6da 80be
00000210: 1b05 c5be 0927 a63e 9c03 49bd b4c6 b8be
00000220: a5f6 ca3d dfad 763d cc7d 153d 3dea 3e3e
00000230: 56cd 953e 87a9 ddbe 1c30 d13e dc1d 12be
00000240: e707 89be b4e9 b63d 9c57 8cbe 7217 13be
00000250: d0dc a43e 23ea 03bd 3db2 45be a34b 5bbe
00000260: e2ec 433e 0e30 efbd 7123 abbe c2b1 de3e
00000270: e668 8f3e d6bb bfbe 93d2 4f3d 1c58 e1bc
00000280: 3dbe cd3e 46ef 54bc 30dd debb b72a bc3d
00000290: b512 75be b166 b93b 5e0f a4be 524f 99be
000002a0: 93ec d5be 7c33 8ebe 5cb7 5cbe 1194 5c3d
000002b0: b7c6 943e 1ae5 b5bd 267c 9a3e fe69 aa3e
000002c0: 2ea3 abbe fd82 5abe 5c57 02be 466a a03e
000002d0: 0cdd c73e 3034 a4be 7778 acbc 65c6 b03e
000002e0: 6720 663e 808c abbd b582 223e 3fca 743e
000002f0: 84a7 90be 356a bebe 2466 e7bd 088a 983d
00000300: 9998 aabe bfe5 913e 90e2 813e 37f3 d4bd
00000310: 4935 c2be d6b0 c8be dcca 913e e792 c73d
00000320: 4974 cabe e4ba 193d 68ef 383d ec9d 2a3e
00000330: 8088 603d b928 dbbe 29f4 d23e a4d0 023d
00000340: 8d20 8c3e 313c 263e bd34 22be a54b 14be
00000350: fc6e 253e d21d 8ebe ebe6 abbd 6b53 753e
00000360: 4982 503d 49cf c9be f612 2e3e b7d5 47be
00000370: 8acb a6be 3519 353e 693a 5ebe 60d1 c5be
00000380: e8c4 a13e 38c8 a2be 68fc ae3e f221 d1be
00000390: c387 193e 90f0 a4be d6ae aa3e 9627 f2bd
000003a0: cef9 753e 23aa aebe 4548 ca3e b1b7 963e
000003b0: 6b7e 813e 8de8 59be 0536 d73d 6eba 733d
000003c0: ca8f c63e 1bbe 88be ebb8 983e d592 69bd
000003d0: 0f06 133e 5a0a 99be 2f07 b5be 99ee 3cbd
000003e0: 43bb 0e3e 2407 b6be 3239 013e ea09 c6be
000003f0: 3ed3 763e 1b54 1abe 5866 c2be e983 8a3e

bias f4 [16]
0.0043507037 -0.004594609 -0.005316578 -0.0040945364 -0.0027883276 -0.004800347 -0.0048488937 -0.0050970903
-0.0042392705 0.004544738 -0.003684195 -0.0054518604 0.00062226184 0.0 0.0046271603 -0.0034158304
00000000: 5990 8e3b 608e 96bb b036 aebb 762b 86bb
00000010: 60bc 36bb 3b4c 9dbb 78e3 9ebb 7e05 a7bb
00000020: 94e9 8abb 07ec 943b 8972 71bb 85a5 b2bb
00000030: 491f 233a 0000 0000 6f9f 973b 20dc 5fbb

weight f4 [16, 16]
0.17094111 0.05442774 0.4239435 -0.29834887 0.26855636 -0.1714307 -0.10131485 0.18958345
-0.032889485 0.27477327 -0.06188096 -0.1803633 -0.26116726 -0.24428256 0.09625818 0.23104341
0.048593193 -0.29765847 0.029178614 0.24112712 0.31530744 -0.32068786 0.1883197 -0.26916015
0.396223 0.39001012 0.24572895 -0.27199963 -0.06337829 -0.0045182747 0.0482665 0.055811428
0.2810184 0.12429222 0.40170154 -0.15071353 0.052822996 -0.29936653 0.28531048 -0.4211365
0.07108483 0.012923946 -0.25528166 0.13731979 -0.24093336 -0.2923455 0.3796045 0.101836346
-0.059003085 -0.35094962 0.33277082 0.055642225 -0.28014928 -0.4372271 0.38903624 -0.051474854
0.36762917 0.10174011 0.17691843 0.40124252 0.05575291 -0.22393698 0.14682545 0.35786375
0.27496773 0.0386984 -0.03749852 -0.016075294 -0.30228478 0.10245861 0.009705248 -0.24015348
0.24683233 -0.42319256 -0.3665099 0.36687624 -0.068841994 -0.4094884 -0.13334627 -0.30475467
0.28036645 0.24704136 0.3331149 0.39288625 0.14401877 0.09266807 0.19643466 -0.23048335
-0.071175896 0.018671198 -0.21941125 -0.040414814 -0.018782336 -0.0026518814 0.058100134 -0.200032
0.41804624 0.15247566 -0.08869969 -0.27831644 -0.26414445 0.19606109 -0.33485803 -0.13865906
-0.20180501 -0.06991487 -0.33657482 -0.13630694 -0.18298142 0.03550901 0.025120039 -0.18685105
0.08341749 -0.25331882 -0.09126309 -0.1877577 -0.3538784 -0.0478378 0.002671992 0.3023209
-0.18493716 -0.10752823 0.38941002 -0.081195764 0.270099 -0.008142609 0.2151924 -0.38223448
-0.40347177 0.39967203 0.2892854 0.15979171 -0.1603036 0.42524648 0.061470084 -0.023102637
0.123163216 0.27045643 -0.18289721 0.25309286 -0.3661561 -0.38916868 -0.20284942 -0.39345086
-0.21881881 0.006257767 0.4093865 -0.32184735 0.3690262 0.090097144 -0.027273836 0.039403416
-0.31065115 -0.37619802 -0.011010663 0.06977059 -0.23617649 -0.1480472 0.3700083 -0.31949246
0.35525244 0.049463183 -0.3843647 -0.05697174 -0.22486399 0.21511838 0.3278346 -0.2061391
-0.2425798 -0.022024749 -0.08674821 0.15066393 0.31403252 0.1981241 0.2625775 0.20143072
-0.24053758 -0.39324856 -0.3940447 0.3888967 -0.011072614 -0.32328472 0.33886486 0.17118806
-0.20582 -0.085908234 0.0038551234 0.38814032 -0.26961273 0.22039317 -0.20914975 0.22951938
0.40365276 0.083253406 -0.1106265 -0.42265508 0.23716627 0.25871012 -0.039927453 -0.33861908
-0.07705614 0.27878752 -0.37842914 -0.38026744 -0.26940697 0.036584288 0.33967388 0.37413967
0.3445071 -0.13710801 0.092827514 0.25007093 -0.054981142 0.33919817 0.14258939 -0.31328034
-0.32185358 0.025849624 -0.43033025 -0.22344653 0.082169145 0.21571188 -0.28969997 -0.29375958
-0.109289646 0.41936418 -0.13829453 0.40041283 -0.25091153 -0.21523584 0.20692945 0.011827016
-0.19971742 0.07792564 -0.25913513 -0.012621085 -0.08195626 0.039780132 0.23768635 -0.35024095
0.05327509 0.13715766 -0.04671579 0.3076562 0.42066112 0.31744453 0.1679031 0.09123603
-0.013168535 -0.17631671 0.4193739 -0.070603825 0.026607132 -0.3020411 -0.22134762 0.117258534
00000000: 300b 2f3e 9fef 5e3d 1f0f d93e 2fc1 98be
00000010: 3880 893e 888b 2fbe 297e cfbd 2a22 423e
00000020: 20b7 06bd 15af 8c3e e476 7dbd 28b1 38be
00000030: b7b7 85be 3525 7abe 0223 c53d a596 6c3e
00000040: a809 473d b166 98be fd07 ef3c 07ea 763e
00000050: fa6f a13e 3331 a4be e1d6 403e 5ccf 89be
00000060: bedd ca3e 68af c73e 5fa0 7b3e 8943 8bbe
00000070: 7acc 81bd 090e 94bb 18b3 453d 869a 643d
00000080: a5e1 8f3e eb8c fe3d d3ab cd3e a654 1abe
00000090: ed5c 583d 9246 99be 3714 923e 349f d7be
000000a0: ec94 913d f5be 533c 47b4 82be 8f9d 0c3e
000000b0: 3cb7 76be 4fae 95be 855b c23e 938f d03d
000000c0: 38ad 71bd abaf b3be f060 aa3e 1ae9 633d
000000d0: ba6f 8fbe 3bdc dfbe c22f c73e 4cd7 52bd
000000e0: e439 bc3e 1e5d d03d 1b2a 353e a96f cd3e
000000f0: 2a5d 643d bc4f 65be 6959 163e eb39 b73e
00000100: 92c8 8c3e 3782 1e3d 0c98 19bd 56b0 83bc
00000110: 12c5 9abe d2d5 d13d c302 1f3c cbea 75be
00000120: 9dc1 7c3e b2ac d8be 30a7 bbbe 34d7 bb3e
00000130: 08fd 8cbd 77a8 d1be ed8b 08be ce08 9cbe
00000140: 318c 8f3e 69f8 7c3e 098e aa3e 6328 c93e
00000150: a879 133e c2c8 bd3d 2b26 493e d403 6cbe
00000160: abc4 91bd 57f4 983c 58ad 60be 018a 25bd
00000170: 6add 99bc 30cb 2dbb 68fa 6d3d 30d5 4cbe
00000180: 280a d63e 9422 1c3e 2fa8 b5bd 7e7f 8ebe
00000190: f13d 87be 3dc4 483e 8372 abbe a4fc 0dbe
000001a0: f9a5 4ebe 872f 8fbd 8953 acbe 0c94 0bbe
000001b0: 7b5f 3bbe e571 113d 8ac8 cd3c e255 3fbe
000001c0: cad6 aa3d 01b3 81be 25e8 babd 8e43 40be
000001d0: 8d2f b5be 92f1 43bd 961c 2f3b cec9 9a3e
000001e0: 2b60 3dbe c337 dcbd c060 c73e f749 a6bd
000001f0: 6b4a 8a3e 9468 05bc 665b 5c3e 3db4 c3be
00000200: da93 cebe d0a1 cc3e 371d 943e 70a0 233e
00000210: a026 24be e8b9 d93e 0ec8 7b3d be41 bdbc
00000220: ff3c fc3d 4479 8a3e 6849 3bbe 6395 813e
00000230: d078 bbbe 1e41 c7be c2b7 4fbe 6472 c9be
00000240: 0a12 60be f40d cd3b 1b9b d13e 2dc9 a4be
00000250: 01f1 bc3e da84 b83d 616d dfbc 7a65 213d
00000260: ab0d 9fbe 079d c0be 1166 34bc e2e3 8e3d
00000270: 40d8 71be af99 17be ba71 bd3e 8494 a3be
00000280: a6e3 b53e e899 4a3d 73cb c4be 335b 69bd
00000290: bf42 66be fe47 5c3e f0d9 a73e 2116 53be
000002a0: d766 78be 3f6d b4bc 0ca9 b1bd a547 1a3e
000002b0: dfc8 a03e 0be1 4a3e 8f70 863e db43 4e3e
000002c0: 7c4f 76be e057 c9be 3ac0 c9be 781d c73e
000002d0: e969 35bc 9385 a5be b27f ad3e ec4b 2f3e
000002e0: 7ac2 52be a8f0 afbd 3da6 7c3b 54ba c63e
000002f0: ae0a 8abe bfae 613e 5a2b 56be 2107 6b3e
00000300: 93ab ce3e c380 aa3d 2590 e2bd 3f66 d8be
00000310: b7db 723e a775 843e f88a 23bd 7b5f adbe
00000320: 9ccf 9dbd 3dbd 8e3e 77c1 c1be 6ab2 c2be
00000330: b6ef 89be 68d9 153d bce9 ad3e 3c8f bf3e
00000340: 3c63 b03e 0b66 0cbe 5a1c be3d 4c09 803e
00000350: e833 61bd 62ab ad3e f402 123e 4866 a0be
00000360: fec9 a4be 97c2 d33c 3f54 dcbe 2bcf 64be
00000370: 4c48 a83d 93e3 5c3e 8e53 94be a867 96be
00000380: 40d3 dfbd e7b6 d63e 159d 0dbe e902 cd3e
00000390: 7a77 80be c966 5cbe 50e5 533e 1ac6 413c
000003a0: b982 4cbe 7a97 9f3d 5cad 84be abc8 4ebc
000003b0: afd8 a7bd 7ef0 223d 0d64 733e c852 b3be
000003c0: fb36 5a3d 0f73 0c3e 0e59 3fbd 1d85 9d3e
000003d0: e560 d73e 1788 a23e caee 2b3e f5d9 ba3d
000003e0: d7c0 57bc 5e8c 34be 2db8 d63e bd98 90bd
000003f0: 33f7 d93c 22a5 9abe f3a8 62be 3e25 f03d

bias f4 [16]
-0.0037833005 0.005912476 0.0028777712 -0.0047135768 -0.0034550754 -0.0034002839 0.0 -0.0068618692
-0.002593322 -0.0051441607 0.00025010097 0.0 0.0038818878 0.0 -0.0012664736 -0.0041226195
00000000: 40f1 77bb 72bd c13b fd98 3c3b 5974 9abb
00000010: 8c6e 62bb 4cd7 5ebb 0000 0000 88d9 e0bb
00000020: b9f4 29bb 5990 a8bb fc1f 8339 0000 0000
00000030: 4567 7e3b 0000 0000 cdff a5ba 0a17 87bb

weight f4 [16, 16]
-0.2961759 -0.19724049 0.23494156 -0.38716927 -0.32844424 0.13504097 0.046605058 0.019717168
0.42271096 -0.19393195 -0.38875058 0.39971262 -0.09883521 -0.17136072 0.06757807 -0.39771557
-0.27960435 0.08728125 0.23919852 -0.112894274 -0.37203935 -0.33560023 0.049304947 -0.3840439
0.39794832 0.4114586 -0.0010622458 -0.14214568 0.26332125 -0.40257335 -0.18838818 0.08625816
0.12879062 -0.18630931 -0.019453961 0.14863457 -0.11103828 -0.12189002 0.004764601 -0.36465156
0.14061931 -0.24951044 0.3843011 -0.41514784 0.17803492 0.3657075 -0.19022007 -0.28782856
0.3403531 -0.16582662 -0.24917346 0.21693644 0.19066457 0.19103932 -0.37851945 -0.17429584
0.3655369 0.4018243 -0.33547634 -0.28925458 -0.4054424 0.32999066 0.32395053 0.103470795
0.252474 -0.025160775 -0.3528547 -0.051658507 0.047490362 0.015602046 -0.038687095 -0.2351532
0.037541054 0.39764407 0.11247 -0.39924216 -0.27576724 0.014854335 -0.36192 0.41529274
-0.39853436 0.2901903 0.43097737 -0.027503094 -0.24852379 0.37894484 0.3845722 0.36509013
-0.35815942 -0.1414163 -0.27304283 -0.20651288 -0.4068818 -0.29692954 0.15394752 -0.38196617
0.15135035 0.044647533 -0.13673137 0.19038704 -0.13973786 0.020797493 -0.28196704 0.18790287
-0.110157356 -0.05659068 -0.07872778 -0.3121912 -0.32690862 0.09749642 -0.37031657 -0.19548006
-0.07976142 -0.24481651 0.12783737 0.18659897 0.19351208 0.10805559 0.24171177 0.04875981
0.014137071 -0.17162684 -0.31663162 0.04223323 -0.39647904 -0.36703822 0.23606673 0.069168925
0.03674472 -0.35385588 0.12730472 0.06064092 0.37972224 0.039030414 0.3082928 -0.4052767
0.27349645 -0.064173326 0.23782505 -0.3235813 0.08664829 0.2373657 0.05892443 -0.10014231
0.0005982351 0.4336526 -0.031710178 -0.098428145 0.3721704 0.09022223 -0.12069896 -0.07724999
-0.39644337 0.43581203 -0.28404045 -0.26806948 0.22791201 0.26781386 -0.17592284 0.2987623
0.2873239 0.21404147 0.2978666 0.2922225 -0.14605376 0.30016518 0.29752734 -0.3939458
-0.30217928 -0.05351414 0.03520313 -0.30141878 0.021038309 0.32503662 0.22507259 -0.20497769
0.070720606 0.05019013 -0.03011696 0.14095356 0.3537326 -0.17487691 -0.13381988 -0.03632038
-0.07947743 -0.043545835 0.01791804 -0.32592937 0.10715837 -0.17336132 0.37154073 0.34141806
-0.30981636 0.0790756 0.02791716 0.21755749 -0.2637454 0.07916439 0.19693238 0.3654496
-0.2189344 0.26228824 -0.12924352 0.34056953 -0.22830185 -0.25761423 0.20912263 0.13024439
0.24407485 0.3548163 0.08954227 -0.3873678 0.033836085 -0.15959594 0.1410958 0.37681785
-0.14507547 -0.30050892 0.051712077 -0.32949257 -0.3888533 0.30900225 0.21384832 -0.34110343
0.25723627 -0.16291215 -0.30435276 -0.22408046 0.07593847 0.37787166 -0.12366809 0.37304512
0.41303465 0.38361686 -0.2864394 0.33034372 -0.21239713 0.06048302 -0.10125667 -0.012594497
0.06750131 0.036652677 0.03551086 0.3261611 -0.3581812 -0.2062294 -0.33854762 0.043145277
-0.18942448 -0.031081561 -0.05583039 -0.20148833 -0.21277003 -0.0952196 -0.32294902 0.2929039
00000000: 5ea4 97be 69f9 49be 8594 703e 0d3b c6be
00000010: d829 a8be 2e48 0a3e f2e4 3e3d e685 a13c
00000020: 926d d83e 1996 46be 510a c7be 22a7 cc3e
00000030: 1d6a cabd 2f79 2fbe 5f66 8a3d 60a1 cbbe
00000040: 4d28 8fbe 83c0 b23d 75f0 743e 1d35 e7bd
00000050: f17b bebe cbd3 abbe fcf3 493d 67a1 c4be
00000060: e2bf cb3e b4aa d23e 0e3b 8bba a38e 11be
00000070: 0bd2 863e 181e cebe d5e8 40be 1ea8 b03d
00000080: b0e1 033e dec7 3ebe ea5d 9fbc a933 183e
00000090: 0a68 e3bd 7aa1 f9bd 5f20 9c3b 9cb3 babe
000000a0: 82fe 0f3e aa7f 7fbe 1dc3 c43e 428e d4be
000000b0: c94e 363e 033e bb3e 0dc9 42be 445e 93be
000000c0: c342 ae3e 74ce 29be 5427 7fbe 9624 5e3e
000000d0: 933d 433e d09f 433e 4dcd c1be 9c7a 32be
000000e0: a727 bb3e eabb cd3e 8ec3 abbe 2d19 94be
000000f0: 2596 cfbe 89f4 a83e d8dc a53e 7fe8 d33d
00000100: 4644 813e f81d cebc 5fa9 b4be df97 53bd
00000110: 4185 423d b99f 7f3c 5c76 1ebd 00cc 70be
00000120: a6c4 193d 0198 cb3e ac56 e63d 7869 ccbe
00000130: 5d31 8dbe 995f 733c 944d b9be 40a1 d43e
00000140: b20c ccbe d393 943e 11a9 dc3e 2b4e e1bc
00000150: 057d 7ebe 0f05 c23e a6e6 c43e 18ed ba3e
00000160: ac60 b7be 6fcf 10be 45cc 8bbe 1d78 53be
00000170: d052 d0be 2607 98be 6ba4 1d3e 1291 c3be
00000180: 96fb 1a3e 55e0 363d 4f03 0cbe d2f4 423e
00000190: 7117 0fbe 815f aa3c fc5d 90be 9c69 403e
000001a0: 2e9a e1bd a1cb 67bd 083c a1bd 86d7 9fbe
000001b0: 9160 a7be 34ac c73d 229a bdbe ed2b 48be
000001c0: f559 a3bd 2eb1 7abe cde7 023e cd13 3f3e
000001d0: 0828 463e 404c dd3d 4a83 773e 5eb8 473d
000001e0: 2c9f 673c f2be 2fbe 8a1d a2be c0fc 2c3d
000001f0: 4dff cabe 6fec bbbe 7abb 713e 70a8 8d3d
00000200: a281 163d 992c b5be 2b5c 023e 9d62 783d
00000210: f46a c23e 5bde 1f3d 8ed8 9d3e 6d80 cfbe
00000220: ba07 8c3e 4e6d 83bd 6988 733e 73ac a5be
00000230: a974 b13d fe0f 733e be5a 713d 6917 cdbd
00000240: e1d2 1c3a b707 de3e 88e2 01bd b294 c9bd
00000250: 1e8d be3e 6fc6 b83d 0431 f7bd 3e35 9ebd
00000260: a0fa cabe c122 df3e c06d 91be 6740 89be
00000270: c461 693e e61e 893e 1e25 34be 5ff7 983e
00000280: 1e1c 933e b02d 5b3e f981 983e 309e 953e
00000290: 1e8f 15be 40af 993e 8155 983e 44b3 c9be
000002a0: 3eb7 9abe a531 5bbd 2831 103d 9053 9abe
000002b0: 8858 ac3c 336b a63e 6e79 663e ace5 51be
000002c0: f7d5 903d 2a94 4d3d d8b7 f6bc 2156 103e
000002d0: 701c b53e ef12 33be 1408 09be aec4 14bd
000002e0: 10c5 a2bd 1e5d 32bd dac8 923c 37e0 a6be
000002f0: d975 db3d a185 31be 963a be3e 59ce ae3e
00000300: 40a0 9ebe 63f2 a13d 87b2 e43c 64c7 5e3e
00000310: a309 87be f120 a23d a4a8 493e 361c bb3e
00000320: 5730 60be a54a 863e 6a58 04be 215f ae3e
00000330: f6c7 69be 03e6 83be 3e24 563e c95e 053e
00000340: c2ee 793e 7baa b53e f061 b73d 1355 c6be
00000350: b597 0a3d 1e6d 23be 6b7b 103e 45ee c03e
00000360: aa8e 14be 4edc 99be 0bd0 533d 40b3 a8be
00000370: c817 c7be 8b35 9e3e 0efb 5a3e 1ca5 aebe
00000380: 79b4 833e 71d2 26be 20d4 9bbe 5975 65be
00000390: a185 9b3d 6578 c13e b245 fdbd c5ff be3e
000003a0: 4779 d33e 6e69 c43e 2fa8 92be d022 a93e
000003b0: a27e 59be 0bbd 773d a85f cfbd 2659 4ebc
000003c0: 203e 8a3d 1e21 163d d673 113d 96fe a63e
000003d0: 8763 b7be cd2d 53be 1d56 adbe 1ab9 303d
000003e0: 7ef8 41be c29e febc 68ae 64bd f552 4ebe
000003f0: 63e0 59be 7e02 c3bd 9359 a5be 80f7 953e

bias f4 [16]
0.0 0.0047750515 0.0 -0.002607499 -0.0039252574 0.0061928034 -0.0014646744 -0.0031005999
0.0 0.0040666237 0.0056757107 -0.00417024 -0.0062657665 -0.0026191154 -0.005558748 0.004177203
00000000: 0000 0000 0978 9c3b 0000 0000 93e2 2abb
00000010: 729f 80bb 00ed ca3b 51fa bfba 6f33 4bbb
00000020: 0000 0000 5041 853b 50fb b93b 82a6 88bb
00000030: 0f51 cdbb 77a5 2bbb 2826 b6bb ebe0 883b

weight f4 [16, 16]
0.07543404 -0.21312466 0.22024713 0.29529414 0.25700223 -0.16781148 -0.057870284 0.3328571
-0.18123768 -0.060594626 0.4158194 0.28549686 -0.12677705 0.342001 -0.13386108 0.09573693
0.30460045 0.2822006 0.1892784 -0.039673537 0.084855944 -0.20716059 0.39033976 -0.0060309838
-0.360931 -0.23476474 -0.2123542 0.37309533 0.37881804 -0.36229253 0.41279197 -0.045596845
-0.34986696 -0.020428592 0.04672688 -0.034583874 0.28633514 0.22925784 0.26762068 -0.32925633
0.31101137 0.204342 -0.16453472 0.41552216 0.41873416 -0.026699258 0.12693393 -0.08477655
0.25469306 0.33827034 0.24567519 -0.11879137 0.33420676 -0.022803675 -0.23788689 0.12251613
-0.063491486 0.08443043 0.34140953 -0.10092911 -0.09986463 0.31858715 -0.4256849 -0.30983782
-0.21542658 0.39337996 0.22401147 0.022048583 0.091087125 0.086880244 0.29750103 -0.2551261
-0.049881276 -0.031171136 -0.020727362 0.06971986 -0.26046988 -0.07350366 0.3886543 0.1128046
0.0814727 0.21421073 0.106563784 0.25168258 0.047935408 0.036603145 -0.42045566 -0.12011593
-0.20507358 0.39546692 0.1820076 -0.14572993 -0.2343697 -0.03623426 0.2636804 0.0852216
0.09740954 0.16803403 0.11506509 -0.29746938 0.2817167 0.19018528 0.094684154 0.09535839
0.08886296 0.40251952 -0.4274685 -0.2188688 -0.33163714 0.35355183 0.20201737 -0.073235214
0.00048109033 0.032412354 -0.4035594 0.42168704 0.0940591 -0.25034568 0.30401427 0.3951151
-0.23557518 0.077621855 0.40222073 0.33157313 0.3408485 0.32191387 0.19009984 -0.25375935
0.37782347 0.15250687 0.25107935 0.11647503 0.37006631 -0.0088981455 0.16593868 -0.26543885
0.27597457 0.043081578 -0.08440922 -0.1621394 -0.26480147 0.071196675 0.2381522 0.022529833
0.25211033 -0.14400743 -0.2998423 0.3165049 -0.12709932 -0.046771016 -0.20039901 0.023432713
0.05768139 -0.09705595 0.040102597 0.090715885 -0.08130566 -0.030951299 0.120697156 -0.27444392
-0.22811075 -0.074375875 0.32782772 -0.13066639 -0.3749417 0.18815023 0.34946725 0.39244166
0.3438349 -0.31472293 0.026501035 0.4307214 0.08342814 -0.18246192 0.3164948 0.14180069
0.22347364 0.16822582 -0.013125662 -0.024746947 0.017848916 -0.30769482 -0.0694994 -0.065760046
-0.3244826 0.32976496 -0.032528643 0.39502075 -0.3271546 -0.039710086 -0.089350194 -0.2942412
0.3151791 -0.21353868 0.28951624 -0.14039601 -0.108690105 -0.42294618 0.10648879 0.14541133
0.19319344 0.21018466 -0.34775853 -0.13222939 -0.09228681 -0.06306655 0.2711539 0.42454687
-0.036583927 0.04641505 0.2359042 -0.096462466 -0.35435778 0.33173636 0.31958863 0.099596925
0.23572363 -0.3575201 -0.25669816 0.37232524 0.3430956 -0.12319999 -0.09077158 -0.2757758
-0.38107187 -0.06261148 -0.078425266 -0.2613947 -0.43188894 0.16537802 0.30875 -0.2809762
-0.16340719 0.007859448 -0.2888882 0.1393085 -0.2578917 0.018715383 0.16754688 0.0936265
0.17498057 0.1526865 0.21939774 0.052172847 -0.38940412 0.289078 0.12471669 0.08174291
-0.08087041 0.1914414 0.3648294 -0.32538927 -0.36191356 0.2954472 -0.11859394 0.42894343
00000000: 297d 9a3d 5a3d 5abe 7788 613e cb30 973e
00000010: cc95 833e c6d6 2bbe 6409 6dbd 3f6c aa3e
00000020: 5f96 39be 1232 78bd 48e6 d43e a52c 923e
00000030: d8d1 01be c11a af3e e112 09be b911 c43d
00000040: 97f4 9b3e 997c 903e 32d2 413e b880 22bd
00000050: f4c8 ad3d e821 54be 9dda c73e 8f9f c5bb
00000060: f3cb b8be 2b66 70be 6173 59be 5a06 bf3e
00000070: 70f4 c13e 687e b9be 7859 d33e c2c3 3abd
00000080: c321 b3be dd59 a7bc af64 3f3d d2a7 0dbd
00000090: 859a 923e 91c2 6a3e 9405 893e 4994 a8be
000000a0: e23c 9f3e 073f 513e ca7b 28be 52bf d43e
000000b0: 5364 d63e 67b8 dabc f8fa 013e 549f adbd
000000c0: 2167 823e c531 ad3e 4792 7b3e e448 f3bd
000000d0: 261d ab3e c6ce babc 9f98 73be bde9 fa3d
000000e0: d307 82bd dce9 ac3d 3bcd ae3e ecb3 cebd
000000f0: d485 ccbd db1d a33e 5ff3 d9be 10a3 9ebe
00000100: c998 5cbe 1969 c93e 4363 653e 3b9f b43c
00000110: e38b ba3d 45ee b13d 0e52 983e e39f 82be
00000120: 4f50 4cbd 9c5a ffbc 6ecc a9bc 49c9 8e3d
00000130: 4f5c 85be 1689 96bd b2fd c63e 1906 e73d
00000140: 29db a63d 0f5a 5b3e 1d3e da3d 8adc 803e
00000150: eb57 443d 2eed 153d f745 d7be 57ff f5bd
00000160: cffe 51be a47a ca3e 3360 3a3e 3a3a 15be
00000170: 9cfe 6fbe 606a 14bd 1e01 873e aa88 ae3d
00000180: a77e c73d 1d11 2c3e 3fa7 eb3d e84d 98be
00000190: 2c3d 903e eebf 423e c4e9 c13d 424b c33d
000001a0: c9fd b53d 0a17 ce3e 27dd dabe 251f 60be
000001b0: 58cc a9be bf04 b53e a4dd 4e3e 58fc 95bd
000001c0: da3a fc39 d1c2 043d 569f cebe 5de7 d73e
000001d0: 0fa2 c03d 4f2d 80be c2a7 9b3e 874c ca3e
000001e0: 9f3a 71be 35f8 9e3d e0ef cd3e f4c3 a93e
000001f0: b283 ae3e e5d1 a43e 88a9 423e bfec 81be
00000200: 1472 c13e c32a 1c3e 798d 803e 768a ee3d
00000210: 5579 bd3e 87c9 11bc d4eb 293e 9ae7 87be
00000220: 8a4c 8d3e 4f76 303d bede acbd df07 26be
00000230: 0f94 87be 90cf 913d 2cde 733e 7c90 b83c
00000240: 9b14 813e af76 13be ee84 99be ee0c a23e
00000250: 5326 02be f792 3fbd 6635 4dbe f6f5 bf3c
00000260: 5243 6c3d 45c5 c6bd 9f42 243d 40c9 b93d
00000270: 9583 a6bd 948d fdbc 1230 f73d ea83 8cbe
00000280: dd95 69be 6152 98bd 09d9 a73e 69cd 05be
00000290: 5cf8 bfbe 74aa 403e 5fed b23e 1dee c83e
000002a0: 210b b03e 5d23 a1be b318 d93c 8487 dc3e
000002b0: 5fdc aa3d 4cd7 3abe 9b0b a23e 3334 113e
000002c0: 46d6 643e 6443 2c3e 040d 57bc 1cba cabc
000002d0: e437 923c 2d8a 9dbe b455 8ebd 34ad 86bd
000002e0: 9522 a6be f4d6 a83e c13c 05bd 2940 ca3e
000002f0: cf80 a7be 0ba7 22bd 3cfd b6bd c8a6 96be
00000300: 285f a13e e2a9 5abe 793b 943e f9c3 0fbe
00000310: eb98 debd 678c d8be cb16 da3d b5e6 143e
00000320: 80d4 453e a63a 573e 680d b2be 2467 07be
00000330: de00 bdbd 0929 81bd afd4 8a3e 355e d93e
00000340: 07d9 15bd b51d 3e3d df90 713e 1d8e c5bd
00000350: 626e b5be 59d9 a93e 1fa1 a33e 79f9 cb3d
00000360: 8961 713e e00c b7be f16d 83be 6aa1 be3e
00000370: 3aaa af3e 4750 fcbd 73e6 b9bd 7c32 8dbe
00000380: da1b c3be 733a 80bd 6d9d a0bd 87d5 85be
00000390: 8c20 ddbe db58 293e 7b14 9e3e 1ddc 8fbe
000003a0: 3754 27be eac4 003c 27e9 93be e3a6 0e3e
000003b0: 620a 84be 0151 993c 6991 2b3e 40bf bf3d
000003c0: 1b2e 333e da59 1c3e cda9 603e 32b3 553d
000003d0: fa5f c7be 0802 943e 776b ff3d d468 a73d
000003e0: 639f a5bd 3709 443e ebca ba3e 6c99 a6be
000003f0: bc4c b9be db44 973e 61e1 f2bd 799e db3e

bias f4 [16]
-0.0031063145 -0.0052649304 -0.002990358 -0.00017845139 0.00553255 0.0051590414 -0.0034748344 -0.005665991
-0.0029968189 0.0 0.0068383412 0.0009092744 -0.0046113646 0.005991044 -0.003383505 0.007470307
00000000: 4f93 4bbb 7085 acbb e2f9 43bb ae1e 3bb9
00000010: 654a b53b 2d0d a93b 0cba 63bb c7a9 b9bb
00000020: 4766 44bb 0000 0000 2a14 e03b 5f5c 6e3a
00000030: ee1a 97bb 8550 c43b cbbd 5dbb 7ac9 f43b

weight f4 [16, 16]
-0.30713245 -0.032745283 0.17234537 -0.022196619 0.25978363 0.16903125 -0.20107089 0.37036002
0.41028544 -0.0022150804 -0.3104038 -0.37065902 -0.37609023 -0.088234454 -0.4038279 0.23035732
-0.3982245 -0.39908606 0.10744279 0.019767871 0.39679068 0.12397684 0.3474319 0.18233724
-0.03371488 -0.15926053 0.18819888 -0.06356554 -0.20143394 -0.2541459 -0.27711 -0.12499044
0.01760126 0.20032948 -0.1678611 -0.18667924 -0.2620499 0.23449768 -0.200548 0.2564283
-0.40708548 -0.33968446 -0.2859655 -0.16045114 0.33592743 -0.05440061 0.37041578 0.22665554
0.35722125 0.37679693 -0.092713214 -0.00918816 0.0016092391 0.35718113 -0.14787433 -0.121612675
-0.12032687 -0.1401139 0.050404634 0.24899147 0.039789923 0.04359466 -0.15329967 -0.3501093
-0.06178187 0.35866487 0.35129353 -0.12354157 0.0063703023 -0.3925636 -0.07969687 -0.15377152
0.30834928 -0.05915398 0.1358015 -0.13659973 0.22218935 -0.1035398 -0.16580807 0.3146613
-0.038974047 -0.18896888 -0.2540319 0.21658972 -0.17445451 -0.1571622 0.3656962 -0.35254595
-0.35840762 0.42302403 0.050105456 0.19760723 0.3172204 0.039421946 -0.25576514 0.42219839
0.3052955 0.33521625 0.18101598 0.030118335 0.28160828 -0.31605023 -0.36743212 -0.24510796
-0.4059142 0.07083895 -0.010576439 0.36001173 0.18477985 0.41479918 0.15724798 0.3802393
0.22983328 -0.105080076 0.2632119 -0.26085386 0.4003643 -0.38330865 0.2922945 0.31211558
0.16367614 -0.13537887 -0.087537535 0.23971316 -0.05432737 -0.37470293 -0.41852656 0.13389553
-0.016448747 -0.1386746 -0.16673017 -0.033548567 0.029179832 0.21676315 0.23155028 0.03296016
-0.3105987 0.22671305 -0.047879588 -0.4181379 0.1927174 -0.29849008 -0.22053388 -0.16119458
0.17559376 -0.28730664 0.31258732 0.19056912 -0.2252709 -0.16603883 0.4015216 0.38135022
0.34888047 -0.10520713 -0.4323203 0.21007717 0.12625076 -0.37027153 -0.1588433 0.18149047
0.2963459 -0.41958046 0.0049834414 -0.36526132 0.20553498 0.12750186 0.43176612 0.34392533
-0.24633418 0.08410554 -0.1727158 -0.1280926 -0.15295848 -0.075106904 0.015021364 0.14813092
0.21459457 -0.28291917 -0.077946454 0.05997662 -0.19279157 0.3469845 0.17541465 -0.38488147
0.30571333 0.19997011 -0.15380219 0.40040654 -0.1543218 -0.07612495 0.11170309 -0.3536317
-0.13079426 -0.29166624 0.03478877 0.198624 -0.10550837 0.41308248 -0.18318513 -0.039977975
0.06448638 -0.24772689 -0.22835043 0.2736454 0.36920178 -0.32984015 0.29875916 0.2638142
0.1806041 -0.4079305 -0.043342367 0.25105107 -0.28576523 -0.24323133 -0.027601732 -0.18523191
0.01426087 -0.420871 -0.029554278 -0.19458665 -0.41907066 0.010187088 -0.12437791 -0.26576808
-0.14267859 -0.19659628 0.022964062 0.16357577 -0.3007881 0.36595196 0.26369196 -0.33408928
-0.26967007 0.14182171 0.12341794 0.38224077 -0.08328567 -0.39683387 -0.24053042 0.2789139
-0.32508177 0.1260245 -0.25546128 0.02593144 0.22597517 -0.28013396 0.40060002 0.22470252
-0.049431156 -0.29591402 0.16426542 -0.09274622 0.14004081 0.13457294 0.31103474 0.3087829
00000000: 7740 9dbe eb1f 06bd 4e7b 303e afd5 b5bc
00000010: 5c02 853e 8716 2d3e 87e5 4dbe d49f bd3e
00000020: ef10 d23e e22a 11bb 3fed 9ebe 05c7 bdbe
00000030: e68e c0be 44b4 b4bd 88c2 cebe cae2 6b3e
00000040: 15e4 cbbe 0255 ccbe f70a dc3d 3bf0 a13c
00000050: 2628 cb3e 92e7 fd3d 98e2 b13e 9db6 3a3e
00000060: 9d18 0abd 3115 23be 35b7 403e a62e 82bd
00000070: b344 4ebe 691f 82be 5de1 8dbe fdfa ffbd
00000080: 8530 903c 2c23 4d3e c8e3 2bbe d828 3fbe
00000090: 682b 86be 2920 703e 745c 4dbe 924a 833e
000000a0: 826d d0be 1feb adbe 126a 92be 4e4d 24be
000000b0: aefe ab3e 2dd3 5ebd 23a7 bd3e 6418 683e
000000c0: b4e5 b63e 87eb c03e 6de0 bdbd f089 16bc
000000d0: 1bed d23a 72e0 b63e 5e6c 17be 1110 f9bd
000000e0: ef6d f6bd 057a 0fbe 1775 4e3d 9ff7 7e3e
000000f0: c2fa 223d 5090 323d 97fa 1cbe 8741 b3be
00000100: fc0e 7dbd eca2 b73e bfdc b33e 5d03 fdbd
00000110: f8bd d03b 19fe c8be 1d38 a3bd 4876 1dbe
00000120: f5df 9d3e 724b 72bd 8c0f 0b3e cde0 0bbe
00000130: 9b85 633e ad0c d4bd 97c9 29be 491b a13e
00000140: 40a3 1fbd 0f81 41be 7810 82be b2c9 5d3e
00000150: 34a4 32be 21ef 20be 883c bb3e e780 b4be
00000160: 3481 b7be 9b96 d83e 613b 4d3d 8d59 4a3e
00000170: b66a a23e e878 213d a6f3 82be 632a d83e
00000180: b14f 9c3e 77a1 ab3e 415c 393e baba f63c
00000190: f62e 903e 56d1 a1be 1020 bcbe 95fd 7abe
000001a0: fcd3 cfbe 0314 913d cd48 2dbc 7553 b83e
000001b0: ee36 3d3e 8f60 d43e 9d05 213e baae c23e
000001c0: 6a59 6b3e 3934 d7bd b6c3 863e a38e 85be
000001d0: 8dfc cc3e 0841 c4be a0a7 953e 9dcd 9f3e
000001e0: b89a 273e c2a0 0abe e146 b3bd 5e77 753e
000001f0: 6086 5ebd 10d9 bfbe 1d49 d6be e91b 093e
00000200: 86bf 86bc b700 0ebe 50bb 2abe 396a 09bd
00000210: 8b0a ef3c 29f7 5d3e 841b 6d3e 3c01 073d
00000220: cb06 9fbe 7727 683e 631d 44bd 2c16 d6be
00000230: b657 453e b1d3 98be a2d3 61be 3110 25be
00000240: dace 333e db19 93be 720b a03e 8d24 433e
00000250: 6aad 66be 1506 2abe 3d94 cd3e 5640 c33e
00000260: 76a0 b23e d676 d7bd 1659 ddbe 781e 573e
00000270: e147 013e 3b94 bdbe d1a7 22be a3d8 393e
00000280: a6ba 973e 40d3 d6be 234c a33b 8803 bbbe
00000290: c377 523e d98f 023e 7310 dd3e fb16 b03e
000002a0: 073f 7cbe 863f ac3d 69dc 30be b52a 03be
000002b0: 26a1 1cbe a6d1 99bd 2b1c 763c a2af 173e
000002c0: aebe 5b3e c8da 90be 64a2 9fbd 0baa 753d
000002d0: 276b 45be f4a7 b13e e69f 333e 2f0f c5be
000002e0: 7586 9c3e f7c4 4c3e 527e 1dbe 1602 cd3e
000002f0: 8906 1ebe 66e7 9bbd 97c4 e43d 370f b5be
00000300: eeee 05be 4755 95be ab7e 0e3d 1764 4b3e
00000310: c614 d8bd 8c7f d33e e294 3bbe f2bf 23bd
00000320: 6f11 843d 1eac 7dbe b2d4 69be 401b 8c3e
00000330: 0408 bd3e cfe0 a8be f6f6 983e a812 873e
00000340: 48f0 383e 44dc d0be c487 31bd c489 803e
00000350: d24f 92be a211 79be 071d e2bc 6fad 3dbe
00000360: 6da6 693c 677c d7be d01b f2bc b941 47be
00000370: 6e90 d6be bee7 263c d8b9 febd c112 88be
00000380: 561a 12be 8950 49be 211f bc3c 6880 273e
00000390: e600 9abe 0e5e bb3e a202 873e c00d abbe
000003a0: 3212 8abe b639 113e 8cc2 fc3d 10b5 c33e
000003b0: ad91 aabd cf2d cbbe 9b4d 76be cdcd 8e3e
000003c0: 1e71 a6be 910c 013e d2cb 82be 2c6e d43c
000003d0: 0966 673e b86d 8fbe 721b cd3e 6b18 663e
000003e0: 5378 4abd 0b82 97be 3235 283e bbf1 bdbd
000003f0: dc66 0f3e 7dcd 093e f23f 9f3e cb18 9e3e

bias f4 [16]
0.0049019014 -0.0048872614 0.005902522 -0.0041947537 -0.0051907264 0.0 0.0059378548 -0.0044516292
0.0 -0.003902889 0.005736666 0.0055964664 0.004369108 0.0 0.0 0.00012117088
00000000: 21a0 a03b 5225 a0bb f169 c13b 2574 89bb
00000010: f816 aabb 0000 0000 5692 c23b f9de 91bb
00000020: 0000 0000 9dc7 7fbb a4fa bb3b 9062 b73b
00000030: bc2a 8f3b 0000 0000 0000 0000 1f1d fe38
