ad/ad_COX2.pt (torch, 349261 bytes, 62 tensors)

weight f4 [16, 35]
000000 df 5d 23 3e b9 1d f5 3d b4 fb 83 be a8 31 66 3c
       0.15953778 0.1196856 -0.25777972 0.014049925
000010 00 ff a2 3d 34 93 7a 3e ac e8 90 be d4 a6 81 be
       0.07958794 0.24470216 -0.28302515 -0.25322592
000020 9c 77 87 be 8c 6a 44 3e 64 d9 71 bc d9 10 a4 be
       -0.26458442 0.1918127 -0.014761303 -0.32044104
000030 90 96 66 be c6 88 95 3e 73 0b 2e 3e cc 78 82 3e
       -0.22518373 0.29205912 0.16996555 0.25482786
000040 dd 97 af be 8d 5d 0c be d6 3a bc 3d c7 3d 21 3e
       -0.3429555 -0.13707562 0.091909096 0.15746222
000050 76 3c 94 3e 31 1f a4 be f7 69 3e 3e 61 a6 6a 3d
       0.28952378 -0.32055047 0.1859511 0.057287578
000060 7c be ae 3e 5b c9 96 be d5 7d 97 3c 82 83 a8 be
       0.34129703 -0.29450497 0.018492619 -0.32912832
000070 8d 13 c3 bd 12 e6 38 3e 05 88 69 3e 01 82 a1 be
       -0.095252134 0.18056515 0.22805794 -0.31544498
000080 13 c4 f9 3c ce bf 91 3e a7 7e 8a bd 54 2f 54 bd
       0.030489003 0.28466648 -0.06762438 -0.051802948
000090 36 76 36 3d 04 c1 b3 bc bb db 77 bc 01 e8 9d 3e
       0.04454633 -0.021942623 -0.015128071 0.30841067
0000a0 fd 20 ee bd eb d3 9c be 11 2b 93 3e 87 f5 02 be
       -0.11627386 -0.3063043 0.28743795 -0.12788974
0000b0 56 eb 1a be 6a 1a f3 bd 9a 96 57 3e b2 d3 9d 3c
       -0.15128836 -0.118702725 0.21053544 0.019265983
0000c0 b7 d5 44 3e 80 e4 64 be b0 59 05 be fa 6b 72 be
       0.1922215 -0.22352791 -0.13022494 -0.23674002
0000d0 f9 6c 81 3e 5d 20 a0 be d5 84 a4 be f6 76 4e 3e
       0.25278452 -0.3127469 -0.32132593 0.20162567
0000e0 1e 5a 49 be 63 6b 94 3e fd 5f 8c be 1a b8 21 bc
       -0.19663283 0.2898818 -0.27416983 -0.009870553
0000f0 54 0a 1c 3e 8b c7 57 3e 0a b9 08 be b0 9a af bd
       0.15238315 0.21072213 -0.13351837 -0.08574426
000100 2b 3a fe 3d b0 b9 32 be d6 98 4a be 6f c1 3d 3e
       0.124134384 -0.17453647 -0.19784865 0.1853082
000110 c5 45 ae 3d d5 e3 9b be 68 fc 8f bc cd e2 04 3e
       0.08509401 -0.3044726 -0.017576411 0.12977143
000120 f6 42 a9 be 75 70 23 be 61 f3 9c be d1 e0 ac be
       -0.330589 -0.15960868 -0.30654433 -0.3376527
000130 73 52 1d be de 7c 9a 3e 97 3e 2a ba 32 92 aa bc
       -0.15363483 0.3017339 -0.0006494312 -0.020821664
000140 11 b6 85 3d b0 e6 8a 3d 18 ad d3 bb 40 22 12 3e
       0.06528867 0.067822814 -0.0064598434 0.14270878
000150 73 c3 d2 bd d5 eb ac 3e 62 88 d1 3c 31 b2 fd bd
       -0.10291185 0.33773676 0.025577728 -0.12387503
000160 56 1c da bc 07 2f 52 3e eb e4 6b be 08 f5 a0 3e
       -0.02662484 0.20525752 -0.23036544 0.31436944
000170 ce 02 1c bd 35 5b e7 bc a6 06 12 be 97 fd 4c 3e
       -0.038088612 -0.028241733 -0.14260349 0.20018612
000180 6f f7 ea 3d 1e e6 fe 3d b6 c3 f9 bd 4e b0 57 be
       0.114729755 0.12446235 -0.12195532 -0.21063349
000190 79 b3 00 be 00 98 c5 3d 93 1e 81 be 20 7e b2 3d
       -0.12568463 0.09648132 -0.2521864 0.08715463
0001a0 e5 bd 80 be 94 f6 91 bd ad 58 5d 3c c5 dd 2b be
       -0.25144878 -0.07127109 0.0135099115 -0.16783817
0001b0 4f 03 a1 be 8f 78 3d 3e cb e2 85 bd 22 f9 81 3d
       -0.31447837 0.1850302 -0.06537398 0.063463464
0001c0 d8 1d a2 3e 4d 03 48 bd c5 7c 71 be 21 10 07 be
       0.31663394 -0.048831273 -0.23582752 -0.13189746
0001d0 e6 67 9a 3e 37 86 63 3e 45 95 8b be fc 1a 36 be
       0.30157393 0.22219168 -0.2726232 -0.17783731
0001e0 d2 ea 15 be 52 99 33 3e df 92 91 3e af dd 3c 3e
       -0.14640358 0.17538956 0.28432366 0.1844394
0001f0 be 77 bd 3d 30 85 c2 3c 05 d6 30 be da 9f 4d 3e
       0.09251355 0.02374515 -0.17269142 0.2008051
000200 70 39 a7 be bf c7 87 be 20 38 90 3e ea 70 ac bd
       -0.3266101 -0.26519582 0.2816782 -0.08419974
000210 8e c7 28 be 44 29 1a 3e 26 46 fd 3d d0 31 8d bc
       -0.16482374 0.15054804 0.123668954 -0.017235667
000220 17 be 1e bd 9b f9 8c 3e 40 dc 54 3e a4 30 a0 3e
       -0.038755503 0.27534184 0.20787144 0.3128711
000230 63 8b c8 3d 51 60 05 3e fc c4 49 3e 22 b2 75 be
       0.09792211 0.13025023 0.1970405 -0.23993734
000240 06 26 a5 3d 97 b4 16 3d 8e 6b 3f 3e ff 38 f7 3d
       0.08063893 0.036793318 0.18693373 0.12071418
000250 29 95 8f 3b 1d 55 9a 3e d8 c0 0d bd b6 63 a7 3e
       0.004381795 0.3014306 -0.03460774 0.3269326
000260 6e 16 a8 be 4d 1f a8 3e 14 30 6f be 31 12 9e 3d
       -0.32829612 0.3283638 -0.23358184 0.077183135
000270 db 48 91 3e bc 96 4e 3e bb b6 a7 be 1c 0d 08 3e
       0.28375897 0.20174688 -0.327566 0.13286251
000280 ae 32 69 be 06 5b 9b 3e 56 88 a6 3e 2c cd 6f 3e
       -0.22773239 0.30342883 0.3252589 0.2341811
000290 08 69 86 3e 64 38 5b be 73 71 5b 3a 7f df 88 bd
       0.26252007 -0.2140823 0.0008371092 -0.066832535
0002a0 a8 dd 50 3e 34 ea 98 bd 94 d6 82 3e 6b a0 65 be
       0.20397055 -0.07466546 0.25554335 -0.22424476
0002b0 51 79 cd 3d 71 c7 18 be 1f c5 49 3e ad e8 17 3e
       0.10032905 -0.14919831 0.19704102 0.14834853
0002c0 ce 09 07 be 3d 33 06 be 5a ca 8d 3e 91 4b d1 3d
       -0.13187334 -0.13105483 0.27693444 0.10219491
0002d0 1f 1c db bd 3a 0f 83 be 5d c5 44 3e ab d9 74 3e
       -0.10698723 -0.25597554 0.19215913 0.23911159
0002e0 37 d8 1f 3e 21 87 8b be 5d 71 92 3e 07 93 29 3e
       0.15609823 -0.27251533 0.28602114 0.16559993
0002f0 53 be 20 3e c1 be 80 3e 9a 0e 41 be 9a 03 75 be
       0.15697603 0.25145534 -0.18853226 -0.23927155
000300 6f bc d1 3b 8b 56 4f be f6 64 ec bd 0c cc b6 bd
       0.006400637 -0.20247857 -0.11542694 -0.089256376
000310 4a 80 74 be d2 21 83 bd 36 60 48 bd ae e5 05 be
       -0.23877063 -0.06402935 -0.04891988 -0.13075897
000320 7a 99 04 3e 75 5b 3f 3d ae 56 a6 3e b4 9f 79 be
       0.12949172 0.04671808 0.32488006 -0.24377328
000330 ca e9 3d bd 92 8d e4 bd b7 98 21 be 1f 21 a4 be
       -0.046365537 -0.11159815 -0.15780912 -0.3205652
000340 0b 22 c8 3d 43 67 be bd 24 44 a9 be 31 9d 59 be
       0.09772118 -0.09297039 -0.330598 -0.2125137
000350 cf 93 97 be e6 a0 5b be e1 58 5b bd d4 0f 07 be
       -0.29604957 -0.21448097 -0.05355156 -0.13189632
000360 e9 00 1f bd 87 78 6b 3d 20 9f 84 be 5d 1e 81 be
       -0.038819227 0.05748799 -0.25902653 -0.25218478
000370 59 96 2d be 6c 52 a4 3e b5 30 54 be e4 7b 33 3e
       -0.16951884 0.32094133 -0.20721705 0.1752773
000380 75 1d a6 3e 8a b3 b0 bd ec db a6 3c 90 91 94 be
       0.3244435 -0.08627994 0.020368539 -0.29017305
000390 75 85 98 3e bc 05 ac 3e 49 3c 38 be db 82 81 bd
       0.2978932 0.33598125 -0.17991747 -0.06323787
0003a0 c8 12 94 bd aa 12 8d 3d 15 4d 92 3e 94 08 6a 3e
       -0.07230145 0.068883255 0.28574434 0.22854835
0003b0 e5 6c 1b 3e 67 1e 8a 3e 6c ea 91 3e 03 a7 97 3e
       0.15178259 0.2697632 0.28499162 0.29619607
0003c0 cf ac 14 be 42 3d 62 3d ba ec 38 3e 29 04 9c 3e
       -0.14519046 0.0552342 0.18059054 0.30471924
0003d0 ea f4 3f be 2b da 6a 3e 8d ff c2 bd 66 7d 05 3e
       -0.18745771 0.22934787 -0.09521399 0.13036117
0003e0 1f 7a 88 be 1a a6 99 be 49 fb 82 3e 46 ac 81 3e
       -0.2665567 -0.30009538 0.2558234 0.25326747
0003f0 97 2d ae 3e 0b c4 3a 3e 38 b7 68 be d0 42 fa bc
       0.34019157 0.18238847 -0.22726142 -0.030549437

bias f4 [16]
000000 af a2 ea ba 3d 5c 9f 3b 9e ee 51 bb 4f 19 a1 3b
       -0.0017901267 0.0048632906 -0.0032033096 0.004916347
000010 04 11 bf ba 18 f5 ad 3b b8 1b 65 bb bf 11 04 bb
       -0.0014577215 0.0053087585 -0.0034959149 -0.002015218
000020 a5 1c 9f bb 77 33 a4 3b 7e c3 98 bb 94 05 91 bb
       -0.0048557096 0.005011018 -0.0046619764 -0.004425714
000030 5a 1d cc b8 7d 99 93 bb 1c e7 96 bb 01 98 a5 3b
       -9.732945e-05 -0.004504381 -0.004605187 0.0050535207

weight f4 [16, 16]
000000 b4 3f a9 3e b1 a5 c4 3e 28 bd 09 3e cd 3b 44 3e
       0.33056414 0.38407663 0.13451064 0.19163437
000010 fb 59 ce bd 73 8a d3 bd 13 0b c9 be 2a 2b 56 3e
       -0.10075756 -0.103291415 -0.3926626 0.20914903
000020 29 3a c0 3d a9 b3 0a 3e bd 28 8b be a9 9e d8 be
       0.09386093 0.13545097 -0.27179518 -0.42308548
000030 67 2e 6a 3e a0 95 53 be 3d 86 0b be 93 cf 0a 3e
       0.22869264 -0.20662546 -0.13625427 0.13555746
000040 08 74 2d 3e a8 a8 d4 be 0a 8c df bd a2 1e bf 3e
       0.16938794 -0.41534925 -0.10915382 0.37328058
000050 8a 82 a2 3d c3 52 81 be 45 04 b0 3e 80 16 ce be
       0.079350546 -0.25258455 0.34378257 -0.4025154
000060 d5 07 35 3d 23 ca ca 3d 1a e9 34 3d 65 d9 ca 3e
       0.044196922 0.09901836 0.044167615 0.39618984
000070 a7 c5 a5 3d 88 74 8e be a3 43 82 bd 28 a3 36 be
       0.0809434 -0.2782328 -0.06360557 -0.17835677
000080 ff 9c b6 3e be 20 5b 3d 94 72 ca be 25 52 54 3b
       0.35666654 0.053498022 -0.3954054 0.0032397595
000090 2e 6b d3 3a 06 06 b7 3c bc d7 d2 3d 85 3a 6b 3e
       0.0016129964 0.02234174 0.10295054 0.22971542
0000a0 b9 1b b2 be 87 06 05 3e 75 ca 61 be 68 6b 8f 3e
       -0.34786776 0.12990771 -0.22049887 0.28011632
0000b0 80 17 76 be 89 43 9e be ec 19 81 be bf 33 7c 3e
       -0.24032402 -0.309109 -0.2521509 0.24629115
0000c0 2f 06 a0 bd 9f 00 c4 3e a2 cc b5 be 91 17 15 3e
       -0.078136794 0.38281724 -0.35507685 0.14559771
0000d0 7d 42 19 be 8d e3 89 3d 0b e0 8c 3e 1b 66 67 3e
       -0.1496677 0.06732855 0.2751468 0.22597544
0000e0 bc ce cc be cf 7c 71 bd 27 83 3d 3e 5d 41 d9 be
       -0.40001476 -0.058956917 0.18507062 -0.4243268
0000f0 d9 fc 9f be ce 87 d9 be 05 1f 82 3d 88 c2 bd 3d
       -0.31247595 -0.42486423 0.06353573 0.092656195
000100 94 04 34 be e3 ef 37 3e 82 7e 8e 3d db 49 41 3e
       -0.17579871 0.17962603 0.06957723 0.1887583
000110 fd a2 c4 3e a6 e7 93 be b5 4d aa be ed e3 d4 3e
       0.384056 -0.2888767 -0.3326241 0.41580144
000120 27 15 63 be 88 82 9e 3e ab c0 10 be 2a 41 b6 bd
       -0.22176038 0.30958962 -0.14135997 -0.08899148
000130 e3 43 40 be a9 08 06 3e bc 07 c0 bc 43 49 b3 3e
       -0.18775897 0.13089241 -0.023441188 0.35016832
000140 37 e1 d6 be a8 9a bf bb dc 4c 8b 3d 9e dc 13 3e
       -0.419687 -0.005847294 0.06801769 0.14439628
000150 27 46 ae 3e 7b b7 1d 3e b2 fc bd be 8a 4b 82 3d
       0.34037897 0.15402023 -0.37106854 0.06362064
000160 3f a0 37 be 7c 29 8a 3e 8a 12 3d be 4b 0c 48 bd
       -0.17932223 0.26984775 -0.18464103 -0.04883985
000170 5a dc eb 3d 8c 74 91 3e 5a df 50 be a3 19 a7 3e
       0.11516638 0.2840923 -0.20397702 0.32636747
000180 1a 6b 9e be d1 1b dc bd 7a 37 8d be d4 f2 b2 3d
       -0.30941087 -0.10747493 -0.27581388 0.08737722
000190 e0 c2 b5 be 22 2b 18 bc cf 52 99 be f1 7c 8c 3e
       -0.3550024 -0.009287627 -0.2994599 0.27439073
0001a0 fb 03 cb be 39 28 43 be 96 ad be be 88 d9 8d be
       -0.39651474 -0.19058312 -0.3724181 -0.27705026
0001b0 58 81 dd 3c 51 93 4d 3e 93 2a 59 3e 64 2a b1 be
       0.027039215 0.20075728 0.21207647 -0.34602654
0001c0 cd b0 a5 bd 68 34 c3 bd 15 24 36 3e 8a ab 47 bd
       -0.08090363 -0.0953148 0.17787202 -0.048747577
0001d0 36 5a 7a bd 01 f6 8c be 8d 31 9c be 6b 92 c9 bc
       -0.061121188 -0.27531436 -0.30506554 -0.02460595
0001e0 7f 73 4c 3e cc 3e 60 be 45 83 b4 3d 31 dc 54 3e
       0.19965933 -0.21898955 0.088141 0.20787121
0001f0 89 87 25 be 5e 12 c6 3e b6 6e c7 3e d0 96 82 3e
       -0.16164984 0.38685888 0.38951653 0.25505686
000200 80 14 39 3e ec 2d b2 be f5 fa 67 3e cf ba 60 bd
       0.18074226 -0.3480066 0.22654326 -0.054865655
000210 02 94 a8 3e 3f 62 b8 be 85 06 9e bc 9d 29 c7 3e
       0.3292542 -0.36012456 -0.019290218 0.38898936
000220 58 1e a6 3d d1 a3 0c 3e 1f 95 c1 bb b0 e5 55 be
       0.08111256 0.13734366 -0.005907669 -0.208884
000230 50 92 56 3e 21 64 ad 3e e3 fa 6e 3e 67 4b 97 be
       0.20954251 0.33865455 0.23337893 -0.29549715
000240 72 fc 92 be c9 9a d8 3e b0 55 4e bd 07 dc 3c 3e
       -0.28708225 0.42305592 -0.050374687 0.18443309
000250 69 cf 01 3e 73 a2 8e be f0 24 c0 3e 62 58 a5 3d
       0.12676777 -0.27858314 0.3752818 0.08073498
000260 9e 04 51 be 46 b8 d3 3e bc a5 0c 3e 14 04 cd 3d
       -0.20411918 0.41351527 0.13735098 0.100105435
000270 32 18 96 be f0 d7 bf 3e d9 d7 65 be 2c 20 20 be
       -0.29315335 0.37469435 -0.2244562 -0.15637273
000280 2d 27 d7 be 2a ce f5 3d 09 59 7b be bc 48 c5 be
       -0.42022076 0.12002213 -0.24545683 -0.38532054
000290 af 05 9b 3e 0c 40 ca be de b9 b7 bd 0b 12 29 be
       0.30277774 -0.3950199 -0.08970998 -0.16510789
0002a0 f7 8f 17 3d ce 98 83 3d f1 be c5 3e ee e5 03 3e
       0.03700253 0.064256296 0.3862224 0.1288068
0002b0 5d 74 0f be ac b0 83 be 99 ee ef bd ea 18 72 3e
       -0.14009233 -0.25720727 -0.11715431 0.23642316
0002c0 e1 c7 d5 be e2 b9 28 3e 2f 28 e8 bc c5 be 4f be
       -0.41754058 0.16477159 -0.028339474 -0.20287617
0002d0 c9 f7 91 3e 9a 84 60 3e 11 d6 75 3c fd e6 5a be
       0.28509358 0.21925583 0.015004651 -0.21377178
0002e0 79 eb 86 be 9d b1 ee bd 72 51 89 be a1 84 9a bd
       -0.26351526 -0.11654971 -0.2681995 -0.07544828
0002f0 7f 20 15 3e 72 ed 41 bd 04 92 66 3d 84 c9 21 be
       0.14563178 -0.047345586 0.056291595 -0.15799528
000300 77 3b fd bd 6f 63 7e 3e 6f 97 67 bd 92 66 d4 3d
       -0.12364858 0.24842618 -0.056540903 0.10371126
000310 97 94 9b be b2 0c 81 be 08 de a7 3e 22 d8 95 bc
       -0.30386803 -0.25204998 0.32786584 -0.018291537
000320 cf 16 d5 3e ee a0 1a be 9b 7d 67 3e a1 42 3b 3e
       0.41618964 -0.15100452 0.22606508 0.18287136
000330 f9 b7 c0 be 45 e5 75 be f7 4e b8 3e dd 8f 19 be
       -0.3764036 -0.2401324 0.35997745 -0.14996286
000340 e6 9e ce be 09 5a a2 3e f7 f6 d0 3e e0 18 8e 3e
       -0.40355605 0.31709316 0.4081342 0.27753353
000350 77 86 8b 3e 4a e7 00 be b2 50 b9 3e 05 a8 47 be
       0.27251026 -0.1258823 0.36194378 -0.19497688
000360 d2 2c 2e 3e c4 17 d7 be 3a 0f c4 3e dc 59 a1 be
       0.17009285 -0.4201032 0.38292867 -0.3151387
000370 6b 09 d0 be 84 37 3c 3e 2b e8 c1 3e 22 4c b6 be
       -0.40632185 0.18380553 0.37872443 -0.3560496
000380 a5 74 d8 3e b7 58 a2 3d 31 b3 65 3e 73 2f bf 3d
       0.42276493 0.07927077 0.22431637 0.09335222
000390 de 0f dc be 2e 12 be 3e cf 67 b4 3e 70 2e 6b 3e
       -0.42980856 0.37123245 0.3523545 0.22966933
0003a0 ab 4c ca 3b a9 64 37 3e f1 55 c7 3c 87 30 0a 3e
       0.0061736903 0.17909493 0.024332972 0.13495074
0003b0 9e 54 3d bd 8d 27 ce 3e cb 9e 12 be 76 3f 8a bd
       -0.046223275 0.4026455 -0.14318387 -0.067503855
0003c0 d1 da 07 3e 26 80 c4 3e 46 c7 77 be c8 1c 3b be
       0.13267066 0.3837902 -0.2419711 -0.18272698
0003d0 2b b8 c0 be e2 04 aa 3e ce 3c cf 3e d4 e1 ba 3d
       -0.3764051 0.3320685 0.40476078 0.091251045
0003e0 c6 a7 b6 be 32 15 aa be 66 2e b1 3e 42 f0 0b 3d
       -0.35674876 -0.33219296 0.34605712 0.034164675
0003f0 96 70 c3 3d bd b0 80 be 41 fe b4 be d1 aa 5a be
       0.095429584 -0.2513484 -0.3535023 -0.21354224

bias f4 [16]
000000 d5 1d ba 3b d0 1f 5b 3a eb 25 4d bb 10 94 8f 3b
       0.005679826 0.00083589274 -0.0031303118 0.004381664
000010 56 21 98 3b e8 eb 88 3b f1 47 8f bb ee 88 88 bb
       0.004642646 0.004178513 -0.0043725898 -0.004166714
000020 9a 98 85 bb 4b e3 70 3b 65 0e 56 ba 00 00 00 00
       -0.0040770294 0.003675657 -0.0008165597 0.0
000030 cc 22 a3 bb 18 37 56 bb 96 46 d6 3a 9c ad 9c 3b
       -0.0049785133 -0.0032686647 0.001634794 0.004781438

weight f4 [16, 16]
000000 ba 0b d7 be b9 fa 97 3e d1 8b 1b 3e ad 73 b9 be
       -0.42001134 0.29683474 0.15190054 -0.36221066
000010 0e 61 da 3e 7a 76 d6 bd ca 50 5a 3e 84 d9 b5 3d
       0.42652172 -0.10471816 0.21319881 0.088793784
000020 e6 c7 18 3e 7d e7 34 bd fe ad 59 bd c8 be 4c be
       0.14920005 -0.044166077 -0.053144448 -0.19994652
000030 01 2a 05 3e 9e b4 22 3d 34 97 9b 3e a4 54 a9 be
       0.13004304 0.03972303 0.30388796 -0.33072388
000040 7d 24 2f 3e 54 cc 0c 3e b5 3f 4d 3c 7f 13 7b be
       0.17103763 0.1374982 0.012527396 -0.24519156
000050 45 a9 5f be da bf a6 3e 85 af 98 3e d9 97 32 3e
       -0.21841915 0.32568246 0.2982141 0.17440738
000060 bc 72 d2 be 2c 60 93 be d6 f7 12 3e fe ae d7 3e
       -0.4110316 -0.2878431 0.14352354 0.42125696
000070 1e ed d2 be 43 2f d9 3d f7 6a d1 be b8 d6 d4 be
       -0.4119653 0.106047176 -0.4090192 -0.41570067
000080 ba 8e a7 be 2c 37 5a be b1 9f 86 be c8 64 80 be
       -0.3272608 -0.21310109 -0.2629371 -0.2507689
000090 4a ab 15 3d 18 e9 bd bd bc b6 82 3e df 18 ca 3d
       0.036540307 -0.09272975 0.2553004 0.09868025
0000a0 a8 7f 30 be 01 31 96 be 9a 4e a8 3e 7e 68 c0 bb
       -0.17236197 -0.29334262 0.32872468 -0.0058718314
0000b0 f1 8c ba 3d ac 54 50 3e 87 e7 b0 bd 34 27 62 be
       0.09108914 0.203448 -0.0863791 -0.22085267
0000c0 18 a1 98 3c a6 f3 7a be 1c dd 5f 3e 08 b3 27 3e
       0.018631503 -0.24507007 0.2186169 0.16376889
0000d0 3e e4 55 be d5 24 0b be 3a a4 bb 3d 28 4d 84 3d
       -0.20887849 -0.13588269 0.09162183 0.06460029
0000e0 d6 85 8d 3d 5f 2b 5b be 87 85 b5 3d f5 1d 3d be
       0.06910293 -0.21403264 0.08863359 -0.18468459
0000f0 ee 72 c0 3d ac 6c 94 3c ca 58 d5 3c 38 8d 3a be
       0.09396921 0.018118225 0.026043314 -0.18217933
000100 69 49 b0 be bc 09 9b be 17 18 d2 3d 02 ea 45 3e
       -0.34431008 -0.30280864 0.10258501 0.19327548
000110 c2 93 c8 bd ac 3d 9b 3e fd 65 26 be b9 23 68 3e
       -0.097938076 0.3032049 -0.16249843 0.22669877
000120 76 37 b9 3d be 62 c7 3e 43 c9 a3 3e 5a 9e 02 be
       0.090437815 0.38942522 0.31989488 -0.12755719
000130 35 02 1a 3c 7f 40 a6 be c4 ac 82 3e 3b 61 d5 bd
       0.00939994 -0.32471082 0.25522435 -0.10418936
000140 fa 6a af be 31 9f 36 be 4e fd c6 be e6 21 f9 bd
       -0.34261304 -0.17834164 -0.3886513 -0.12164669
000150 c2 bd 14 be a9 6c d7 be ed d4 f2 3d dd 2a a2 be
       -0.14525512 -0.4207509 0.118570186 -0.31673327
000160 a9 97 ba 3d 95 7a 54 be 10 57 26 3d 8a 2e 50 be
       0.09110958 -0.20749886 0.040610373 -0.20330253
000170 e0 90 9f bd 0a b8 08 3d bc a7 3c 3e dd ef 11 3e
       -0.077913046 0.03337864 0.1842336 0.14251657
000180 c8 bc ab 3e 68 33 c9 3e 32 2b d1 be f9 c9 d5 bd
       0.33542466 0.39297032 -0.40853268 -0.10438914
000190 2a 55 48 3e 01 64 2c be c0 ef 00 be d9 a7 8e be
       0.19563738 -0.16835023 -0.12591457 -0.27862433
0001a0 63 e2 aa 3d c4 79 01 be 71 fe 7e bd 72 72 68 3e
       0.08343961 -0.12644106 -0.062254373 0.22699907
0001b0 97 d2 9e 3e a0 f1 94 be 47 31 b7 be 34 a3 31 3e
       0.31020042 -0.29090595 -0.35779783 0.17347413
0001c0 5c e6 99 be 09 d2 3a bd a8 be 92 3d 2c af dc be
       -0.30058563 -0.04561046 0.07165271 -0.43102396
0001d0 8f 07 b0 3e 36 50 06 3e 8c 06 30 3d 5d b3 19 3d
       0.34380767 0.13116536 0.042974994 0.03752457
0001e0 d6 54 b7 be 2a 5f 6c 3e de e1 1e be 22 80 98 be
       -0.35806912 0.23083177 -0.15515849 -0.29785258
0001f0 8f 04 84 bc 99 53 ad 3e 7d 10 a0 be 80 8d 9e bd
       -0.016115455 0.33852842 -0.3126258 -0.07741833
000200 57 2c 2b 3e 26 27 b3 be ad 7d b7 3e 82 a1 81 3c
       0.16716133 -0.34990805 0.3583807 0.015824083
000210 fc d8 af bb 33 e9 0c 3e 49 6f f1 bc 28 d9 5d 3e
       -0.0053664427 0.13760833 -0.02947201 0.2166487
000220 54 9c 96 3e a3 b7 d9 be de 80 c1 3e b6 d3 d5 3e
       0.29416144 -0.42522916 0.3779363 0.41763085
000230 07 45 b7 bd 11 bd de 3d 3a 54 88 3e 3c c2 d4 3e
       -0.08948713 0.10875905 0.2662676 0.4155444
000240 88 51 0b 3e fd 2b 6b 3e 99 b6 9a be 5c cb d4 be
       0.1360532 0.22965999 -0.30217436 -0.415614
000250 0a 60 08 3e 29 ee db 3d 22 55 ff bd e0 7d 94 be
       0.13317886 0.10738785 -0.1246741 -0.29002285
000260 b1 81 bd bd 25 3f 82 be 7b 9a 5d be 8a 52 f8 3d
       -0.09253252 -0.254388 -0.21640961 0.12125118
000270 1f 6c e6 bc fc 5e a9 bc 00 2d ad bd 84 7d 85 be
       -0.028127728 -0.020675175 -0.08455849 -0.26072323
000280 08 57 d5 3e d8 3c 83 3e 58 32 0a be 49 9a f3 3d
       0.41667962 0.25632358 -0.13495767 0.11894662
000290 e1 8e b4 3e 1c c9 88 be d7 b8 54 be fc d4 a9 be
       0.35265258 -0.26715934 -0.20773636 -0.33170307
0002a0 45 fc 66 be 35 cd b2 bb 6c 9a 5f 3e 9b c9 c7 3e
       -0.2255717 -0.0054565915 0.21836251 0.39021
0002b0 b5 c6 b9 3e b6 99 7f 3e c0 71 90 3e fe 04 dc bd
       0.36284414 0.2496098 0.28211784 -0.1074314
0002c0 d8 65 a9 3e c9 d8 98 bd bf 6d 85 bd 3f 13 a9 3d
       0.33085513 -0.074632235 -0.06515073 0.08255624
0002d0 fc 30 c0 3d b2 4e a5 be 02 92 71 bc be fb d2 be
       0.09384343 -0.32286602 -0.014744284 -0.4120769
0002e0 44 1b a6 be 3a 44 fb 3d 7f 7f b7 3e c2 28 99 3d
       -0.32442677 0.122688726 0.3583946 0.07478477
0002f0 a8 c2 9b be d1 0b 85 3e 93 27 aa be 64 ba d0 3d
       -0.30421948 0.25985578 -0.33233318 0.10191801
000300 e7 7a a6 3d 42 6d d2 3e fd f5 f2 3c 06 98 8b be
       0.081289105 0.41098982 0.029658312 -0.27264422
000310 00 c8 b2 3e e2 88 b5 3d 7d f8 1d be 97 44 d7 be
       0.34918213 0.08863999 -0.15426822 -0.42044517
000320 44 fe 3b be c3 db a4 3e 14 7b 92 3e e3 b5 9d bc
       -0.18358713 0.32198915 0.28609526 -0.01925177
000330 44 61 3f be 75 f4 68 bd 93 ed b3 3e 3d 97 93 3e
       -0.18689448 -0.056873757 0.35142192 0.28826323
000340 96 3c 13 bd d4 72 27 3e eb a4 b9 39 30 67 30 3e
       -0.03594645 0.16352397 0.00035408823 0.17226863
000350 a9 4d 16 3e ba 4a 9a 3e fc 4c b3 be b5 6e c9 3c
       0.14678062 0.30135137 -0.35019672 0.024588922
000360 c8 53 15 bd 82 aa a5 bd 90 9e 8b be 98 b0 12 3e
       -0.036456853 -0.080891624 -0.2726941 0.14325178
000370 9f 6c 82 3e 44 3f 9a bc 66 00 44 be 6e d8 ec bd
       0.25473496 -0.018828996 -0.19140777 -0.11564718
000380 d2 28 85 bd c9 03 62 3d 98 22 bf 3e d0 1c 4e bc
       -0.065019265 0.05517939 0.3733108 -0.012580112
000390 5f d8 85 bc 76 79 89 be 3d 80 90 3e ba b7 a4 3d
       -0.016338525 -0.2685048 0.28222838 0.080428556
0003a0 6e 99 c6 3e 89 2b 33 be 9c 54 52 3d 8c 15 0a 3e
       0.38788933 -0.17497076 0.05135022 0.13484782
0003b0 f4 41 ad 3e 12 e4 26 3e 30 c4 6d 3e 37 f3 1e bb
       0.3383938 0.1629794 0.23219371 -0.0024253854
0003c0 fd 48 54 be 21 3b d1 3d a9 a0 66 3e 9d d2 95 be
       -0.20730968 0.10216356 0.22522224 -0.29262248
0003d0 fb 34 a4 bd c3 47 9f be f9 ca 42 be c0 7b 40 be
       -0.08017918 -0.31109437 -0.1902274 -0.18797207
0003e0 1e 02 05 3d 1e 25 61 3e b6 88 40 3e ca 0d 9f 3e
       0.032472722 0.21986815 0.18802151 0.31065208
0003f0 ce 92 83 3e 96 0b d0 bc 45 ce a8 be 6d 20 1c 3d
       0.2569794 -0.02539615 -0.3296987 0.03811686

bias f4 [16]
000000 b7 94 89 bb 00 00 00 00 00 00 00 00 5b a3 68 3b
       -0.0041986364 0.0 0.0 0.0035497758
000010 44 41 8f 3b 00 00 00 00 e9 28 17 3b 61 eb c2 3a
       0.004371794 0.0 0.0023065156 0.0014871174
000020 e9 01 90 ba bf 90 81 3a 2c 76 f3 3a 00 00 00 00
       -0.0010986897 0.0009885057 0.0018574647 0.0
000030 8a a0 89 3b e3 55 81 3b 18 7c 9a bb 00 00 00 00
       0.004200046 0.003947006 -0.0047145 0.0

weight f4 [16, 16]
000000 c8 17 8e be 1d 96 a3 3e f5 7d d9 be 37 bd 0f be
       -0.2775252 0.31950465 -0.4247891 -0.14037023
000010 87 13 bb 3c a5 30 85 be 03 e5 9d be e6 4c 01 be
       0.02283646 -0.26013675 -0.30838785 -0.1262699
000020 25 64 bf be ad 81 c8 3d d8 f6 9e be 1e 85 6d 3e
       -0.37381092 0.09790359 -0.31047702 0.23195311
000030 14 56 97 be a9 39 b2 be 15 c4 03 3e 49 b9 c8 be
       -0.2955786 -0.34809616 0.12867768 -0.3920386
000040 d1 61 d8 3e e6 d9 8a 3e 5c 7a 77 be 02 36 57 3e
       0.42262128 0.27119368 -0.2416777 0.21016696
000050 d8 3c d6 3e f8 ff 93 be ee 5b 90 3e c7 5c e2 3d
       0.41843295 -0.28906226 0.28195137 0.11052852
000060 38 b2 c1 be 34 b5 c5 bd d3 b3 5b bd 0d 1b 98 be
       -0.37831283 -0.096537024 -0.05363829 -0.29708138
000070 9a 7f d2 bd 5e 2c 7b 3e a8 8b a4 3e a6 fc 52 3d
       -0.10278244 0.24528643 0.321378 0.051510476
000080 bb 61 17 be 6f 75 d3 be 1c bc 95 be fc 80 b0 bc
       -0.14783375 -0.41300532 -0.2924508 -0.02154588
000090 34 ca 9b 3b cf ee 17 3e fe db 1d bd 90 28 c9 be
       0.004754329 0.14837192 -0.03853988 -0.3928876
0000a0 5f d7 88 be 65 85 d4 bd 13 e0 97 3e 4a 5a d3 3d
       -0.26726815 -0.103770055 0.29663143 0.10319956
0000b0 1e 0c a7 bc bc ac c8 be a8 3a b5 be 60 c7 d4 3c
       -0.02039152 -0.39194286 -0.35396314 0.025973976
0000c0 19 70 99 be 58 d5 c3 3e 62 e7 dc be da 0c 66 be
       -0.29968336 0.38248706 -0.4314528 -0.2246584
0000d0 7f 42 d2 be 42 ff b1 3e c3 ac bf 3e 50 ff 5e 3e
       -0.41066357 0.3476506 0.37436494 0.21777081
0000e0 33 0d 84 be ea bb bc be 67 e7 d0 be d8 af 5f 3e
       -0.2579132 -0.36862117 -0.40801546 0.21844423
0000f0 58 c5 89 3d 7d cd 70 3e 54 b6 1c 3e 26 69 bb 3e
       0.067270935 0.23515888 0.15303928 0.3660366
000100 b0 11 da 3e 81 c0 82 3e 35 7d c2 3d 64 3c 94 be
       0.4259162 0.25537494 0.094965376 -0.28952324
000110 86 ed d9 be 9e 93 c5 3e fe e1 f9 3d ee 6a cc 3e
       -0.42564029 0.38589185 0.12201308 0.3992533
000120 61 97 5b be 3a bb 73 bd 89 83 ae be dd 65 28 3e
       -0.21444465 -0.059504725 -0.34084728 0.16445108
000130 de 6b af 3e a4 a9 ce 3e f0 f3 18 3d 53 f9 14 be
       0.34261984 0.403638 0.037342012 -0.14548235
000140 d2 4c 93 3e b1 0b 4f 3e ce 12 81 3e e4 5a 4f be
       0.28769547 0.20219304 0.2520966 -0.20249516
000150 89 43 3a 3d 10 e0 e0 bd 4f eb b9 bd ce 3a 22 be
       0.045474563 -0.109802365 -0.09078085 -0.15842745
000160 7a 74 c5 3d 77 68 15 3e 03 eb 89 3d 45 e0 37 bd
       0.09641357 0.14590631 0.06734278 -0.044891614
000170 a2 82 b4 be 63 38 19 be ed 0f b6 3e d8 85 97 be
       -0.35255915 -0.14962916 0.35559025 -0.29594302
000180 cc d5 d1 be 03 b0 d8 bd d2 7d 14 3e 21 71 a4 be
       -0.40983427 -0.105804466 0.14501122 -0.3211756
000190 99 56 0b 3e 5a 47 71 be fa 3e 38 be c0 ed 84 be
       0.13607253 -0.23562375 -0.17992774 -0.2596264
0001a0 d9 28 01 bb 9e 40 b1 be fd cf b9 bd 38 65 4d be
       -0.0019708185 -0.34619612 -0.09072874 -0.20058143
0001b0 ea 76 b9 3e 27 87 5c be 27 73 c7 3d 45 db 83 be
       0.36223537 -0.21535932 0.097387604 -0.25753227
0001c0 63 d0 5e 3e 94 4c c4 be 89 5d 43 be d2 c0 59 3e
       0.2175918 -0.38339674 -0.1907865 0.21264961
0001d0 19 b9 b1 3e 41 51 25 3e f8 5e 87 be 7d 00 3b 3d
       0.3471153 0.16144277 -0.26439643 0.045654763
0001e0 ba df f7 bb f8 f4 a6 3e 56 cf ed bd 3f c0 95 be
       -0.007564512 0.3260877 -0.11611812 -0.29248235
0001f0 e1 5b 8b 3e 56 ee 22 3e f5 2f 4b be d4 af b4 3e
       0.27218536 0.1591123 -0.19842513 0.35290396
000200 29 f6 7a 3e 54 0e cc be 4b 09 94 3e 61 bd 4c be
       0.24507965 -0.39854681 0.2891334 -0.19994117
000210 7a cc d0 bd 8a cb 8a 3e 8c 63 f8 3c 97 6a d5 3e
       -0.10195251 0.27108413 0.030320905 0.41682884
000220 a0 be bf be 5f 22 3f 3e b7 79 67 3d f3 dd ea bd
       -0.37450123 0.18665455 0.05651256 -0.11468115
000230 58 ba 10 be 1f 33 2d 3e 87 5f a1 3e 8d 08 d7 be
       -0.14133584 0.16914032 0.31518194 -0.4199871
000240 25 82 32 3e 35 7b 9c be af 90 9f 3b 5b 77 7d be
       0.17432459 -0.3056275 0.0048695426 -0.24752562
000250 c9 3b 22 3d 19 2f ca be f6 22 4a 3e e3 63 9e be
       0.039607797 -0.39489058 0.19739899 -0.30935583
000260 c8 99 8b 3e 56 bc aa be a7 10 a4 3e 9f d7 87 3e
       0.27265763 -0.33346814 0.32043955 0.26531693
000270 3b 73 df be bc df bf be f9 f9 4c be 7f 75 98 be
       -0.436426 -0.37475383 -0.20017232 -0.29777142
000280 92 ad d9 be 7c 6d 69 bb 5e 54 8e be 91 d8 23 3e
       -0.42515236 -0.0035618236 -0.27798742 0.16000582
000290 9b 1e c3 be 8c 70 81 be 27 43 3e 3e 05 2e 20 3e
       -0.38109288 -0.2528118 0.18580304 0.15642555
0002a0 b7 1d ac 3e 4e 96 b9 be 09 eb a8 be d7 c4 37 be
       0.3361642 -0.36247486 -0.32991818 -0.17946182
0002b0 8d 60 7d 3d a7 32 16 be 40 c1 fe 3d a7 2a a7 3e
       0.061859656 -0.1466776 0.12439203 0.3264973
0002c0 eb ed f1 3d 11 e9 a5 3e bd 77 d9 3d 75 64 3c 3e
       0.118129574 0.32404378 0.106185414 0.18397696
0002d0 e8 3b b2 be 60 08 9e bd 00 d3 b2 3e b2 4e 28 be
       -0.3481133 -0.07716441 0.34926605 -0.1643627
0002e0 8e 39 1a be 18 eb 44 be a7 da 22 3e f5 1b c6 3e
       -0.15061018 -0.19230306 0.15903722 0.38693205
0002f0 6a b2 39 3e 25 0a c8 3e ae 2a 9e 3e d2 d6 72 bd
       0.18134466 0.3907024 0.30891937 -0.0592869
000300 7c ce 16 be 71 27 13 be 40 a3 3b 3e b1 cd 93 3e
       -0.14727205 -0.14370514 0.18323994 0.28867868
000310 2c 02 d3 be 47 e3 52 be f7 6b d7 be 71 13 82 be
       -0.41212595 -0.20594512 -0.42074558 -0.25405458
000320 3d 4f ae 3e dd 10 c6 3e d3 78 91 be 1b b9 5d be
       0.3404483 0.3868474 -0.28412494 -0.21652643
000330 e6 d6 0c 3e 88 51 2b 3e fb e2 2d 3d b2 5f a3 bd
       0.13753852 0.1673032 0.042452794 -0.07977237
000340 0f cd 5f be de 90 c8 be 8a 67 f8 bd f2 da b1 be
       -0.21855567 -0.39173025 -0.121291235 -0.34737355
000350 a7 bc c4 3e 2c dd bf 3e 82 32 9c be 47 ac 45 3e
       0.3842518 0.37473428 -0.30507284 0.19304
000360 56 62 a4 3e 09 2d bb 3e a4 70 b6 3e 5e 13 9d be
       0.32106274 0.36557797 0.35632813 -0.30678838
000370 4f 7c b0 3e 00 6d d4 3e 2d 2c 02 3d b3 98 56 3e
       0.3446984 0.4148941 0.03178041 0.20956688
000380 a5 58 33 be 54 f6 dc 3e 02 23 c8 be ed 6c 89 be
       -0.17514284 0.43156683 -0.3908921 -0.26840916
000390 db 28 94 3d 27 c6 41 be 42 56 24 be 47 b3 20 3e
       0.07234355 -0.18923245 -0.1604853 0.15693389
0003a0 1a 9a 7b 3e b4 82 91 3e be d6 bc 3e 16 16 5f 3e
       0.24570504 0.2842003 0.36882585 0.21785769
0003b0 32 62 44 be 1f 54 1b 3e cc ca 86 be a9 48 82 3e
       -0.19178084 0.15168808 -0.26326597 0.2544606
0003c0 de b1 39 3e de 89 bd 3e 09 9e 7e 3e df 64 c8 3e
       0.18134257 0.37019247 0.24864973 0.3913946
0003d0 87 46 c3 bd ae d7 be be 0e 11 b2 3e 83 aa c7 be
       -0.095349364 -0.37273926 0.34778637 -0.38997278
0003e0 6d 16 65 3d ee ad 93 3d 2d 5d 89 3d c3 a6 9a 3e
       0.05592959 0.07210909 0.06707225 0.30205354
0003f0 36 48 b9 3d d6 a6 1e be 96 ba f6 bc 37 b9 da be
       0.09046976 -0.1549333 -0.030118268 -0.42719433

bias f4 [16]
000000 00 00 00 00 89 ad 89 bb 00 00 00 00 00 00 00 00
       0.0 -0.004201595 0.0 0.0
000010 10 e4 26 bb 41 eb 77 bb 00 00 00 00 77 65 64 3b
       -0.0025465526 -0.0037829431 0.0 0.0034850517
000020 ba 91 06 3b cb df 41 bb 00 95 93 3b fe ac 6b 3b
       0.0020533637 -0.0029582854 0.004503846 0.0035961266
000030 3e f9 6f bb 64 ab 88 3b a1 ef 14 bb 18 91 3b bb
       -0.0036617066 0.004170822 -0.0022725838 -0.0028620418

weight f4 [16, 16]
000000 c0 c0 95 be fd 7c 0a bd d4 cb ca 3e 17 65 d6 bd
       -0.2924862 -0.033810604 0.39608634 -0.104685
000010 65 42 66 3e 11 c8 92 be 65 65 af be b2 5f 4b 3e
       0.22486265 -0.28668264 -0.34257045 0.19860724
000020 83 f2 79 3e 66 05 f3 bc 91 e7 a4 3e 1b 05 25 3e
       0.24408917 -0.02966566 0.3220792 0.16115229
000030 1a cd 57 3e 77 5d 9f 3d 65 67 da 3e bd 18 af be
       0.21074334 0.07781499 0.4265701 -0.3419856
000040 d5 26 ad bd 79 c8 90 be b7 1a 87 be ef 7d b2 3d
       -0.08454672 -0.28277948 -0.2638757 0.08715426
000050 ec 8c 43 bd f8 12 23 bd 09 bd 2d 3e 1a b6 c9 3e
       -0.047741815 -0.039813012 0.16966642 0.39396745
000060 08 e0 c9 be b4 5b 09 be 1c 3c 29 bd d1 ad 7c 3e
       -0.39428735 -0.13413888 -0.04131709 0.2467568
000070 b6 4f 3a be a5 4d ce be 9e 91 2e be 5a 4f 71 be
       -0.1819447 -0.40293613 -0.17047736 -0.23565426
000080 26 21 d2 be cd 01 9d be d9 0c 2f be f4 62 1b 3e
       -0.41040915 -0.30665436 -0.17094745 0.15174466
000090 a4 d4 74 be 0e 48 09 be 94 be b6 be 39 f8 81 be
       -0.23909241 -0.13406393 -0.35692275 -0.2538469
0000a0 f2 c9 99 bd 48 9c 48 be bd e8 10 bd ed e9 00 3e
       -0.07509221 -0.19590867 -0.035378207 0.12589236
0000b0 d8 85 6c 3d ba 97 7d be 82 6b 91 bc 20 60 13 3d
       0.05774483 -0.2476491 -0.017751459 0.035980344
0000c0 ff 03 0d 3d 0a d6 38 3e 2e 47 f7 bd bf f7 c1 be
       0.03442764 0.180504 -0.12074123 -0.37884328
0000d0 9c 4b 0e be 3f 51 dd bd bf 91 d1 be 56 6e ca 3c
       -0.1389603 -0.10806512 -0.40931508 0.024710815
0000e0 5a 15 11 be ae 70 a1 3e 95 e8 9c 3e f7 8f 99 3e
       -0.14168301 0.3153128 0.30646196 0.2999265
0000f0 bc 86 44 be 3e 51 80 3c af be cd 3e 24 a7 c3 be
       -0.19192022 0.01566374 0.40184543 -0.38213456
000100 c8 63 2b 3e c3 bd 35 be ec 83 29 be 4c 80 74 3e
       0.16737282 -0.1774817 -0.1655423 0.23877066
000110 04 e3 d3 bc b4 58 c1 bd 3a b1 83 3e 87 92 0b be
       -0.025865085 -0.09440747 0.2572115 -0.13630114
000120 73 2e b2 3e 2a 28 cb 3c 78 83 33 3e 13 63 c1 3e
       0.34801063 0.024799425 0.1753062 0.377709
000130 cf bc 2a be 3a 47 63 3e 7c 38 9e 3d c8 45 bf be
       -0.16673587 0.2219514 0.07725617 -0.37357926
000140 fa 5d dd 3e eb c0 90 3e a7 2c 30 3c 4e 42 26 3e
       0.4323576 0.28272185 0.010752833 0.1623623
000150 1f 2f 0c be d9 30 65 bd fb 59 51 bc b7 08 f0 3d
       -0.1368985 -0.055954788 -0.012777801 0.11720412
000160 d8 7c a6 3d a7 80 cf 3e 67 ac b1 3e 98 0c 75 3e
       0.08129281 0.4052784 0.34701845 0.23930585
000170 2a c5 3a be dc 94 63 be 0a 6a b7 be 9b 81 45 3e
       -0.18239275 -0.22224754 -0.3582309 0.19287722
000180 05 f5 ad 3e 7b 23 f8 3d c5 90 af 3e c5 6e a3 be
       0.33975998 0.12116142 0.34290138 -0.31920448
000190 dd d6 d5 be 84 a6 27 3e 3d f9 57 be 7b 89 b3 3e
       -0.4176549 0.16372114 -0.2109117 0.35065827
0001a0 49 c4 2b bc 03 3b 7d 3d a7 d0 13 3e 0b b9 ad be
       -0.01048381 0.061823856 0.14435063 -0.3393024
0001b0 2c 64 a9 bd 78 44 95 3e 18 0f 0f be 58 f6 d6 3d
       -0.082710594 0.291538 -0.13970602 0.10496205
0001c0 9f 8d 69 be d6 e1 9b 3d 50 cc 5c be 0b ea ca bd
       -0.2280793 0.07611434 -0.21562314 -0.099079214
0001d0 ca fe 73 3e 1f e5 01 bc 4d 07 87 3e 52 30 82 3e
       0.23827663 -0.007928162 0.26372758 0.2542749
0001e0 da b9 b4 3e 61 32 ea bd d2 1e be 3d 9f 15 d9 3d
       0.35298043 -0.1143539 0.09283222 0.10599827
0001f0 65 b6 7f be 10 fc 68 3e 53 96 86 be 77 9a b4 be
       -0.24971922 0.22752404 -0.26286563 -0.35274097
000200 ae 96 cf 3e e3 33 85 3d 94 aa 93 3e 39 25 bf 3e
       0.40544647 0.06504037 0.28841078 0.37333086
000210 a7 b8 b7 be 02 62 b0 be 67 87 a9 3d b8 b0 8c 3d
       -0.35883066 -0.34449774 0.08277779 0.06869644
000220 88 ed b2 bc de 06 83 be ef e5 db 3d 1e 67 6b 3e
       -0.02184178 -0.25591177 0.10737216 0.22988555
000230 fa ab 96 be ba 61 96 3e 67 17 a9 bc 51 1d bd 3e
       -0.29428083 0.29371434 -0.020641042 0.3693643
000240 ef 16 9b bb 66 95 cd 3d 86 87 67 be 99 2a fe bd
       -0.0047329585 0.10038261 -0.22610292 -0.124104686
000250 30 a1 9b 3d f1 b0 71 3d 94 78 9a 3e ec 04 87 be
       0.075991035 0.059006635 0.3017012 -0.26370943
000260 6a e4 c0 3d 50 9c 6a be 22 d7 b5 bd a7 0e 92 be
       0.094185665 -0.22911191 -0.08878924 -0.28526804
000270 ca 6a a6 3e 50 b8 8f 3e 27 9d bd be 5c f7 aa be
       0.3250335 0.28070307 -0.3703396 -0.33391845
000280 50 d2 0f 3e c6 ac a5 be 4d b7 3d be 68 c7 d9 be
       0.14045072 -0.32358378 -0.18526955 -0.42534947
000290 bc 56 9c be 4d 00 a4 3e 07 a9 81 be ef 39 8f 3e
       -0.30534923 0.3203148 -0.2532427 0.27973887
0002a0 47 f5 f4 3d 40 bf 96 be 38 1c ce bd ea 73 da bc
       0.119608454 -0.29442787 -0.10063976 -0.0266666
0002b0 6f 0a 95 3e 80 97 cf be 43 da ad 3e a6 fa d1 be
       0.29109523 -0.40545273 0.33955583 -0.41011542
0002c0 e9 b1 a1 be e0 aa 93 be bc 2f 18 3e bc 8b 9a be
       -0.31581047 -0.28841305 0.14861959 -0.30184734
0002d0 5f c3 ae be b0 ef 1f 3e 80 ee a3 be ef e9 9d be
       -0.3413343 0.15618777 -0.320179 -0.3084254
0002e0 74 16 c3 3e 34 ce 78 3e 14 fd a1 be bb bf bf 3d
       0.38103068 0.2429741 -0.31638396 0.093627416
0002f0 e6 a5 8f 3d 9e 1a 6b 3e c0 fb 6a 3e ee ab d8 3e
       0.070140645 0.22959372 0.22947598 0.42318672
000300 87 4d e5 3d 33 35 90 3d ca 0e 42 bd 2f ab cc 3d
       0.11196428 0.07041397 -0.047377385 0.09993588
000310 f9 41 f2 bd a2 be b6 3e 37 ab d0 3e b7 57 6a bd
       -0.118289895 0.35692316 0.40755627 -0.057212558
000320 1e d8 c4 3d f4 2b a9 be ca 8a ac be c1 e6 9b be
       0.096115336 -0.33041346 -0.33699638 -0.3044949
000330 3a 24 b1 bd 5c 6b 79 3e 38 a5 f6 bc 70 0a b7 be
       -0.08649488 0.2435736 -0.03010808 -0.3575015
000340 31 83 ec 3d 00 65 83 3e 85 a1 ba be 24 8c ce be
       0.1154846 0.25662994 -0.36451355 -0.40341294
000350 2d a3 4c be 7e 90 e1 3d e4 fc 04 3e 87 11 70 be
       -0.19984122 0.11013888 0.12987095 -0.23444186
000360 08 9b a8 3d f0 89 8a bd 1a 22 01 bd 10 e5 ca 3e
       0.08232695 -0.06764591 -0.031526662 0.39627886
000370 7e ee 27 3e 80 1c 8f bc 36 c0 7e 3d f3 40 61 be
       0.16399571 -0.017469645 0.062195025 -0.21997432
000380 24 8d 9f 3e e8 cd e6 bc 2a 41 49 3e 50 50 19 be
       0.3116237 -0.028174356 0.19653764 -0.14972043
000390 13 b6 02 3e 72 e5 22 3e ef 9b 5e 3e c0 9e 8f bd
       0.12764768 0.15907839 0.21739171 -0.07012701
0003a0 b4 71 5b be 8f e0 00 3e 77 0b a8 3e ca 96 0f be
       -0.21430093 0.12585662 0.32821247 -0.14022365
0003b0 d9 63 56 bd a6 48 18 3d 1d e0 6d 3e fa 88 f5 3d
       -0.052341316 0.037178658 0.23230024 0.11989017
0003c0 24 7c e7 bd 3c 54 0a 3e 43 40 1e be 4c 13 14 be
       -0.11302975 0.13508695 -0.15454201 -0.14460486
0003d0 40 f6 b7 3e 8c 5e b0 be 98 7a c7 be 31 11 86 bc
       0.3593006 -0.34447134 -0.3896072 -0.01636562
0003e0 49 86 c8 be 9b 46 02 bd a5 97 82 3e 77 1b 59 bd
       -0.3916495 -0.031805616 0.2550632 -0.05300471
0003f0 09 a3 2d 3d 0d 55 bb 3e b5 bf 8c be e9 40 9d 3e
       0.04239181 0.36588326 -0.2749001 0.30713585

bias f4 [16]
000000 f7 eb bc bb 00 00 00 00 00 00 00 00 ad 94 8e 3b
       -0.005765434 0.0 0.0 0.0043512196
000010 03 4c 31 bb f7 1d 80 bb 47 47 69 3b 1f f7 5f 3b
       -0.0027053363 -0.003909822 0.0035595463 0.0034174395
000020 ac d0 93 3b 2d d3 85 bb 00 00 00 00 6d 13 59 bb
       0.0045109596 -0.004084012 0.0 -0.003312315
000030 a4 f8 6c bb f4 06 1e 3b c2 c9 6a bb 69 88 a2 3b
       -0.0036158944 0.002411303 -0.0035825823 0.004960109

weight f4 [16, 16]
000000 ae 5c 99 3e 04 69 06 3e 56 15 8b 3e 90 09 a3 be
       0.2995352 0.13125998 0.27164716 -0.31843233
000010 a1 45 85 3d a1 bf 90 bd ce 07 5e be 22 fd cb 3d
       0.06507421 -0.070678 -0.21682665 0.099603906
000020 a0 a2 db be da d1 b4 3e 8a 87 d3 be fc 70 d5 3e
       -0.4289751 0.35316354 -0.41314346 0.41687763
000030 8c 43 f3 3d 42 f1 9d 3e 77 f8 7a be 25 d9 75 be
       0.11878118 0.30848128 -0.24508844 -0.24008615
000040 a9 ec a0 3d 07 d3 95 be d7 cc 92 be b9 43 d7 be
       0.07857639 -0.29262564 -0.28671905 -0.42043856
000050 91 8e 81 3e c0 87 67 bc 73 a2 a2 3e e8 19 bb 3e
       0.25304082 -0.014131486 0.31764564 0.36543202
000060 84 7a 01 3e d4 3e 24 3e 2c 83 5e be 7a 6b 02 3e
       0.12644392 0.16039592 -0.21729726 0.12736312
000070 78 8a 48 bd 7f 07 d5 be ec 9d a7 3d b1 20 d5 be
       -0.04896018 -0.41607282 0.08184418 -0.41626504
000080 e9 60 d8 be 38 22 9c be 20 da 32 be 26 cb c3 be
       -0.42261437 -0.30494857 -0.1746602 -0.38240927
000090 d6 31 e9 3d 9f c1 c0 be 44 c9 9d 3d b5 9d 97 be
       0.113864586 -0.3764772 0.07704404 -0.29612508
0000a0 75 3e 5e 3e d3 12 86 3e e4 d0 fc 3c ba e6 d8 be
       0.21703513 0.26186237 0.030861326 -0.4236353
0000b0 83 2f 74 3e 0f 75 4c 3e d6 c1 cd be 94 60 07 3e
       0.2384625 0.1996653 -0.40186948 0.13220435
0000c0 09 a5 be be 28 75 ab be 76 04 9d bd ab 3e 85 be
       -0.37235287 -0.3348782 -0.076668665 -0.26024374
0000d0 cf 2e 2e be c2 2f 92 3e 3e 96 04 be 05 10 ba 3d
       -0.17010044 0.2855206 -0.12947938 0.09085087
0000e0 01 c7 b9 be 85 d1 75 3c 1c f4 20 3e 4f ed c8 be
       -0.3628464 0.015003567 0.1571812 -0.39243552
0000f0 be e7 3a be dc d4 9f bd f5 26 c7 be a5 93 30 be
       -0.18252465 -0.078042716 -0.3889691 -0.17243822
000100 56 d3 b7 3e 4f d4 cf 3e 26 7f d9 3e a7 f6 d6 3e
       0.35903424 0.40591666 0.4247982 0.41985056
000110 c3 e5 c2 3e 76 32 ad be 89 22 36 3e c8 99 c5 be
       0.3806592 -0.3382756 0.17786612 -0.38593888
000120 5c 68 7f 3e 7a 63 e9 bd 5d c4 ba 3e 30 1d ba bc
       0.24942154 -0.11395927 0.36477938 -0.022718996
000130 e2 a5 d1 bd 00 32 83 3e 28 84 c1 3e c4 ec 15 3e
       -0.10236718 0.25624084 0.3779614 0.146411
000140 2e e5 92 3d b0 44 67 3e b5 04 9b be bb 37 4c bc
       0.07172619 0.22584796 -0.3027703 -0.012464459
000150 e1 fc 20 bc 34 34 9b be 6c 8a 03 3e 53 28 7a 3d
       -0.009825916 -0.30313265 0.12845773 0.061073612
000160 73 fb bf bd f2 6a 18 3d bb 09 c5 be 35 78 aa 3e
       -0.09374132 0.037211366 -0.38483986 0.33294836
000170 13 93 c5 bd 21 dd 94 3e 05 f4 b2 be 9e e9 b6 3d
       -0.09647193 0.29074958 -0.34951797 0.08931278
000180 fe 60 54 be ee 16 cf be 3b 82 c3 3e f7 1a e5 3d
       -0.20740125 -0.4044718 0.38185295 0.11186784
000190 e3 9d 10 be e1 85 5e 3e b6 85 b6 be bb 08 c6 3e
       -0.14122729 0.21730758 -0.35648888 0.38678536
0001a0 8d 92 99 be 2b d7 95 bd fd b4 0f 3e 0b 03 db be
       -0.29994622 -0.07316431 0.14033885 -0.4277576
0001b0 02 e9 7c 3e e4 6b 89 3c ec fe 19 be db 65 44 3e
       0.2469826 0.01677508 -0.15038651 0.1917948
0001c0 6a b0 64 be 75 74 cd bd 7e fc 84 be 3a 82 c8 bd
       -0.22332922 -0.10031978 -0.25973886 -0.09790464
0001d0 d7 88 3c be fc a9 34 be 7d bd 26 3e 65 87 21 3e
       -0.18411575 -0.17642969 0.16283222 0.15774305
0001e0 3f a0 b6 be f4 86 a8 3b e0 c3 9b 3e 51 ed 42 be
       -0.35669133 0.005143041 0.30422878 -0.19035842
0001f0 ed d9 14 3e 3f 33 9c be ab 9c c1 3e 29 1c e2 3d
       0.14536257 -0.30507848 0.3781484 0.110405274
000200 aa 86 3d be 45 0d a0 3e 91 98 81 3b 43 d4 0e 3e
       -0.18508402 0.31260124 0.003954955 0.13948159
000210 47 57 71 be 31 c7 7d 3c 8d 3b 77 be d5 7b 9b 3e
       -0.2356845 0.015489385 -0.2414381 0.30367914
000220 1d 29 99 3e 6b a5 4f be b4 b3 9c bc 3b 83 cf 3d
       0.2991418 -0.20277946 -0.019128658 0.10132452
000230 c1 e3 22 3e 96 61 65 be 61 db 47 3d 52 a4 5f 3e
       0.15907194 -0.22400507 0.0487932 0.21840027
000240 8c c8 cf be 5c a9 b0 bd 30 35 10 3e f7 c0 97 3e
       -0.40582693 -0.08626053 0.1408279 0.29639408
000250 b9 a2 b9 bd 91 bc 86 be 2c 3c af 3d 13 09 8a 3d
       -0.0906424 -0.2631574 0.08556399 0.06740012
000260 30 e3 d9 3e b3 42 9d 3e 47 b1 42 bd 29 ec 47 bd
       0.42556143 0.3071495 -0.047532346 -0.048809204
000270 13 8d b6 3d e7 a5 d2 be c7 ac a3 3e 98 b3 5d 3e
       0.089136265 -0.41142198 0.31967756 0.21650541
000280 d4 3b 4a 3e 47 89 95 be 1e f1 98 3c 1b 7f 97 3e
       0.19749385 -0.29206297 0.018669661 0.2958916
000290 c8 4d 69 3e 6f 5c 3c be 46 1c f1 bd fb 8a 8f be
       0.22783577 -0.18394636 -0.11772971 -0.2803572
0002a0 a6 ec 04 3d 03 97 d4 be 4c 5a 99 3e 24 c2 fa bd
       0.032452248 -0.41521463 0.29951704 -0.12244061
0002b0 ce 98 77 3e cb cc 07 be 3d 59 d8 3e c7 92 96 be
       0.24179384 -0.13261716 0.42255583 -0.29408857
0002c0 42 82 83 3e 51 3b f2 bb 55 a9 d1 3d bc 8e 5c 3d
       0.25685316 -0.007392325 0.10237376 0.05384706
0002d0 60 32 98 be 4e 29 d2 3e d3 26 83 3e a2 db 3d 3e
       -0.29725933 0.41047138 0.25615558 0.18540815
0002e0 ac 21 b5 3e 31 ec d8 bd 99 a3 1e 3e 1d 48 30 be
       0.35377252 -0.10591925 0.15492095 -0.17215009
0002f0 b3 89 0c 3e 8e ee a6 be 9b fa 98 3e e2 43 26 3e
       0.13724403 -0.32603878 0.29878697 0.16236833
000300 d1 ad 4d bd 8e e4 c3 bd 84 00 9c 3e 66 3a 91 3e
       -0.050214592 -0.09565078 0.30469143 0.28364867
000310 83 b2 d8 be 5b cf 66 be 54 c5 93 3d 4a f0 65 bc
       -0.42323694 -0.22540037 0.07215372 -0.01403434
000320 30 df ac 3e 89 ce a4 be 47 6c 9f be a5 2b 04 be
       0.3376403 -0.32188824 -0.31137297 -0.12907274
000330 8e 78 78 3e 62 4e 6b 3e bd 2f 62 be ff aa 08 be
       0.24264738 0.2297912 -0.22088523 -0.1334648
000340 53 9c b8 3e 44 8a 5c be 9d e4 d2 3e 3c 36 6d be
       0.36056766 -0.21537119 0.41190043 -0.2316522
000350 09 22 3b bd a9 fe a5 be 58 d4 a7 be c2 3c 4b 3e
       -0.045686755 -0.32420853 -0.32779193 0.19847396
000360 00 5e 77 3e 01 7a c5 3e ff 28 ce 3e bf ec b2 3e
       0.24156952 0.38569644 0.40265653 0.34946248
000370 10 13 22 be 14 5a bf bd 1b 79 16 3d 2b a1 af be
       -0.15827584 -0.09343353 0.03673659 -0.3430265
000380 f9 d7 d3 be f2 f6 85 3e 0d bc a9 3e e0 19 83 be
       -0.41375712 0.26164967 0.33151284 -0.2560568
000390 b7 fc c4 be f8 22 a6 3e 06 0c 40 bd c5 2a b9 be
       -0.38474056 0.32448554 -0.046886466 -0.36165443
0003a0 29 3d ca 3d 80 ea 65 3d 40 92 19 3d 57 76 40 3e
       0.098749466 0.05613184 0.03749299 0.18795143
0003b0 7f 1a 96 3e 14 70 df be 78 c5 d1 3e 8a e3 15 be
       0.2931709 -0.43640196 0.4097097 -0.1463758
0003c0 20 a2 8b be c8 9a ac 3d 25 9b 8e be b9 5d 16 be
       -0.2727213 0.0842796 -0.2785274 -0.1468419
0003d0 76 24 a0 3e 7f 7e 1e bd 96 1d 48 be a9 84 5e be
       0.31277817 -0.038694855 -0.19542536 -0.21730293
0003e0 16 8c 3b 3e 18 85 f3 bd 88 65 ae be 55 e4 da 3e
       0.18315157 -0.1189062 -0.34061837 0.4275233
0003f0 a5 59 8e 3e de f7 c0 be c6 6f 34 3d 64 5c 18 bd
       0.27802768 -0.37689108 0.044051908 -0.037197486

bias f4 [16]
000000 92 69 82 bb 0d 87 75 3b 00 00 00 00 00 00 00 00
       -0.00397987 0.003746453 0.0 0.0
000010 2f 0c 73 bb 1f 4a 73 3b 6e 0b 96 bb d8 1a 4d 3b
       -0.003708612 0.0037123037 -0.0045789992 0.0031296518
000020 80 ef cb 3b 23 8f bb 3b 65 e2 19 bb 05 05 8d bb
       0.006223619 0.0057238503 -0.002348089 -0.004303577
000030 d7 c8 2e bb b0 2d 75 3b 0e 2e 66 bb fc 81 25 bb
       -0.0026670003 0.0037411265 -0.0035122666 -0.0025254479
