ad/ad_COLLAB.pt (torch, 347085 bytes, 62 tensors)

weight f4 [16, 1]
000000 c7 e7 b1 3b 0a e7 ad be d2 30 8d 3c fe 55 35 3e
       0.0054292413 -0.3396533 0.017235193 0.17708585
000010 44 d0 23 be da 18 0b be 5f 47 a8 3e 64 71 9a 3d
       -0.15997416 -0.13583699 0.32866952 0.07541159
000020 33 ea 03 bf 38 a7 02 bf da 17 c4 bd b8 99 63 3e
       -0.51529235 -0.51036406 -0.09574862 0.22226608
000030 6d fc ad be 3b c2 f2 3e 73 44 b3 3c 93 ba 2a be
       -0.33981648 0.4741381 0.021883225 -0.16672735

bias f4 [16]
000000 84 c3 91 bb 00 00 00 00 e1 c7 94 bb c3 04 03 3b
       -0.004448356 0.0 -0.004540429 0.0019991852
000010 00 00 00 00 00 00 00 00 b4 a6 b0 bb f2 52 54 3b
       0.0 0.0 -0.0053909663 0.0032398072
000020 00 00 00 00 00 00 00 00 00 00 00 00 0e 5d 93 3b
       0.0 0.0 0.0 0.004497177
000030 00 00 00 00 68 3f d4 bb f5 fb d0 bb 00 00 00 00
       0.0 -0.006477285 -0.006377692 0.0

weight f4 [16, 16]
000000 a0 0f 7d 3d e3 ee d4 3d 31 25 9e 3e 64 84 85 3e
       0.06178248 0.103971265 0.3088775 0.2607757
000010 d1 e6 27 3e dc ec 99 3e cb ed 87 bd 23 55 25 3e
       0.16396643 0.30063522 -0.06637152 0.16145758
000020 7a 80 83 3e 4a 4c 35 be 5c 51 91 be e2 ce 8a 3e
       0.25683957 -0.17704883 -0.28382385 0.27110964
000030 9a 8b bf 3e 1d b5 80 be 6f 80 b4 be 69 3f b8 3e
       0.37411195 -0.25138178 -0.35254237 0.35985878
000040 7d 19 1e 3e dd 03 90 be 0c 8b aa 3e 5c 4c 43 3d
       0.1543941 -0.28127947 0.3330921 0.047680244
000050 57 f1 0a 3d 1c a8 a2 be 95 d6 71 3e 14 e5 81 3d
       0.033921566 -0.31768882 0.23617013 0.06342521
000060 1e 2e 84 be a3 2f 84 3e d3 86 f5 3c 0e 9d c3 be
       -0.25816435 0.25817594 0.029971516 -0.3820576
000070 f1 54 36 3e c7 d8 0e 3d 50 6c bc 3e f0 5d 94 be
       0.1780584 0.034874704 0.36801386 -0.2897792
000080 ad bf 14 bd bb f3 4f be 03 0c 75 bd 6f 4a bf bd
       -0.03631561 -0.2030782 -0.05982591 -0.09340369
000090 e5 25 ed bd cd 66 82 3e f2 7e b6 be ae 8e ab be
       -0.115794934 0.25469056 -0.35643727 -0.33507293
0000a0 1c 15 64 bd cc 94 50 bd 5a 70 01 bd ed 75 dc bd
       -0.055684194 -0.050923154 -0.031601287 -0.1076468
0000b0 a5 07 d4 3e 3a be ba 3d 76 b2 88 3c a3 91 e6 3d
       0.41412082 0.09118314 0.01668666 0.11258247
0000c0 58 32 7a be 0f 38 1b bc 1f 56 88 bc fa ed 51 3e
       -0.24433267 -0.009473815 -0.016642628 0.20500937
0000d0 d5 31 af 3c cd 39 72 bc 7b 53 85 be ea 73 9c 3d
       0.021386066 -0.014784289 -0.26040253 0.07639296
0000e0 f9 27 9a 3e 77 31 83 be 3d e3 bd be 5c fc 94 be
       0.30108622 -0.25623676 -0.37087432 -0.29098785
0000f0 a5 0a 75 3e 66 68 9e 3d 81 44 80 3e 29 8c ab 3e
       0.23929842 0.07734756 0.25052264 0.3350537
000100 94 d3 83 be d7 17 a3 3c 29 55 a0 3e 3a b8 69 3e
       -0.2574736 0.019908829 0.31314972 0.22824183
000110 bf a3 11 3e 56 c5 8d 3e ce d7 6a 3e 10 35 0f be
       0.1422262 0.27689618 0.22933885 -0.13985085
000120 9d 4c 89 bd 34 dd 55 3e fd 1f d2 3e 20 60 82 ba
       -0.06704066 0.20885164 0.4104003 -0.000994686
000130 99 dd 21 3e 1a db 0e be fa 77 60 3e cc a5 fd 3d
       0.15807189 -0.13950768 0.21920767 0.12385139
000140 47 a6 04 bd 14 da 0a 3e 5d 1b 4e 3e 6a ff 89 3e
       -0.032385137 0.13559753 0.20127626 0.26952678
000150 b3 90 dd 3e e3 96 cd be 3f 71 a0 3e 35 51 a2 3e
       0.4327446 -0.4015418 0.313364 0.3170258
000160 e6 77 b2 3e f9 10 a9 3e 8d fe c1 bd dd 22 9e bd
       0.348571 0.33020762 -0.0947238 -0.077214934
000170 dc db 89 3e d3 d4 4c be d6 a4 62 be bd ec 1c be
       0.26925552 -0.20003061 -0.22133192 -0.15324683
000180 4b ad 96 be 12 fd b2 be fb fd 12 3e ff 1f b9 be
       -0.29429087 -0.34958702 0.14354698 -0.36157224
000190 da 3e d5 be 86 8b 91 3d 44 1d 6b be 72 9c 24 be
       -0.41649514 0.0710669 -0.22960383 -0.16075304
0001a0 26 94 d1 3e bb ed 2f be 37 67 93 bd 0e da 12 bd
       0.4093334 -0.1718053 -0.07197421 -0.035852484
0001b0 38 0d b5 bd 99 82 ef ba 5c c8 66 bd 30 e9 86 be
       -0.08840412 -0.0018273174 -0.05634342 -0.26349783
0001c0 8c af a2 3e 01 2c fb 3d e1 bb 72 3e 40 94 b3 be
       0.31774557 0.122642525 0.23704483 -0.35074043
0001d0 a8 bb 42 3e d4 17 b1 be 2f 08 ad 3e 44 bc 29 be
       0.19016898 -0.34588492 0.33795306 -0.16575724
0001e0 f7 72 88 be 88 71 b7 be b8 43 d4 be 7f f7 f7 bd
       -0.2665021 -0.35828805 -0.41457915 -0.12107753
0001f0 d5 be ab 3e ca ee 9c 3e 9f 73 2f 3d 42 1b 39 be
       0.3354403 0.30650932 0.042834874 -0.18076804
000200 12 d4 d9 be 68 02 86 3e 19 94 c5 3e ff f6 82 3e
       -0.4254461 0.2617371 0.38589552 0.25579068
000210 ff e5 4f be 5b 53 4f 3e 67 60 8b 3e 52 0c 9f 3d
       -0.2030258 0.20246641 0.27221987 0.07766022
000220 c1 bb 87 be fc f4 c9 3d dc f2 37 3e 2b cf b1 be
       -0.26510432 0.0986118 0.17963737 -0.3472837
000230 1b 78 2b 3e 93 ea c3 be 41 a3 86 3e 37 fa 94 3e
       0.16745035 -0.38264903 0.26296428 0.2909715
000240 74 0f a6 38 72 5d d2 3e 22 58 38 3e d5 58 73 3e
       7.918375e-05 0.41086918 0.1800237 0.23764355
000250 05 f5 94 be 92 db 77 3d 6f df 47 be 51 f8 8b 3d
       -0.29093185 0.060512133 -0.19518827 0.06834472
000260 a7 c8 5d be 4a dd 34 3d 3e 31 e9 3d 6e 9b 65 be
       -0.21658574 0.04415635 0.11386345 -0.22422573
000270 dc 09 0b 3d 6b 29 8f be 7d bd 9a 3d 2c b0 6c bd
       0.03394495 -0.27961287 0.07555673 -0.057785198
000280 81 f3 b3 be 0b 69 18 3e 5f bc d0 be 0f 29 cb be
       -0.35146716 0.1488382 -0.40768716 -0.39679763
000290 51 5b 84 3e c7 25 f8 bd 03 64 3e 3e cb 97 f2 3d
       0.2585092 -0.121165805 0.18592839 0.118453585
0002a0 3d 4a b2 be f0 79 4b be 1f e5 c7 3e a5 a9 b7 3e
       -0.34822264 -0.19870734 0.39041993 0.35871616
0002b0 69 79 d0 bd 79 b9 3c 3d e0 16 ca be f0 d4 bf be
       -0.10179407 0.046075318 -0.39470577 -0.37467146
0002c0 d4 71 92 3e 88 22 d3 3e dc b9 9c be 7d 46 02 3e
       0.2860247 0.41237283 -0.3061055 0.12722202
0002d0 22 22 1f 3e 77 74 4f 3d 81 05 25 3e 7a 46 81 be
       0.15540364 0.05064818 0.16115381 -0.25249082
0002e0 88 fb a9 be 99 8c 81 be 76 52 bc 3e 30 60 1f ba
       -0.33199716 -0.2530258 0.36781663 -0.00060797017
0002f0 3b dc 8a 3e 58 bc 8a be e6 e1 fe bd 60 a4 99 be
       0.27121148 -0.2709682 -0.124454305 -0.3000822
000300 7d bf c5 3d 10 ff 31 3d f9 43 55 bc d4 28 ae 3c
       0.09655664 0.043456137 -0.013016694 0.021259703
000310 5d 2d f7 bd b4 9d 9a 3e 8b cb 28 be 88 c3 11 3e
       -0.12069199 0.30198443 -0.16483895 0.14234746
000320 80 df 7b 3e 00 98 45 be b3 78 85 3e 24 65 93 3e
       0.24596977 -0.19296265 0.2606865 0.28788102
000330 c5 63 45 3e d9 28 01 be 62 85 48 be ae b5 c3 be
       0.1927634 -0.12613238 -0.19582132 -0.38224548
000340 17 ef 54 be 03 c2 aa 3d 2f 35 48 be 20 31 34 3e
       -0.2079433 0.08337786 -0.19551538 0.17596865
000350 4c 2d 4b be a5 0c 53 be 3d 57 cf be bf 53 8a be
       -0.19841498 -0.20610292 -0.40496245 -0.27017018
000360 f0 6d ce be 64 34 90 3e 3b 4c 56 3e 85 8c 49 be
       -0.4031825 0.2816497 0.20927517 -0.1968251
000370 0f 35 a2 be 95 17 9d 3e b5 16 3b be 2e 99 b2 3e
       -0.31681105 0.30682054 -0.18270381 0.34882492
000380 38 d9 c0 be 30 65 a3 bd 77 f8 6b 3e 45 de a8 3e
       -0.37665725 -0.07978284 0.23044 0.32982078
000390 4c 88 ca be cd b4 53 3e 1a 7a 0a bc fe 3e 36 3e
       -0.3955711 0.20674439 -0.008451963 0.17797467
0003a0 f6 a3 69 3e cc b6 cf be d4 75 d7 3e 19 3d 55 3d
       0.22816452 -0.4056915 0.42082083 0.05206022
0003b0 39 80 eb 3d d0 96 62 be 1d e7 ce 3e 3c d3 77 3d
       0.11499066 -0.22127843 0.404107 0.060504183
0003c0 a1 57 ac 3e 87 93 39 3e 5b 20 b7 be 79 5f dc 3e
       0.33660606 0.18122683 -0.35766873 0.4304159
0003d0 6a 89 52 3e 85 8d 7c 3e ec 37 51 be f9 a8 fc 3d
       0.20560232 0.2466336 -0.20431489 0.123369165
0003e0 43 d1 22 3e dd 01 a9 be 36 d8 74 3d 79 4f 67 be
       0.1590014 -0.33009234 0.059776507 -0.2258891
0003f0 fc d3 89 3e 32 f1 ed bd d4 f7 13 3e 40 f3 a9 be
       0.26919544 -0.1161827 0.14450008 -0.33193398

bias f4 [16]
000000 00 00 00 00 e9 03 ce bb 00 00 00 00 00 00 00 00
       0.0 -0.006287087 0.0 0.0
000010 03 69 5e 3b 3f da 56 ba 00 00 00 00 b1 75 b1 bb
       0.0033937104 -0.00081959734 0.0 -0.0054156412
000020 00 00 00 00 00 00 00 00 bd 05 7f 3b 00 00 00 00
       0.0 0.0 0.0038913332 0.0
000030 00 00 00 00 00 00 00 00 00 00 00 00 00 00 00 00
       0.0 0.0 0.0 0.0

weight f4 [16, 16]
000000 3e dd be be e6 dd ca be f6 d6 51 bd 85 95 0b 3e
       -0.3727817 -0.3962242 -0.051230393 0.13631256
000010 d6 da d0 3d cb b0 e2 3b 88 50 d9 be 40 5e a5 be
       0.1019799 0.006918048 -0.42444253 -0.3229847
000020 3c bb 8b 3e 51 6e 68 be cc 26 df 3d 23 02 d4 bc
       0.27291286 -0.22698332 0.10896072 -0.025879925
000030 6a 05 bd bd 2b 79 1f be 4f fc 3f 3e dc a7 b8 be
       -0.09229548 -0.15573566 0.18748592 -0.36065567
000040 89 d5 9f be 55 c7 74 3e c1 f3 94 be c2 44 4b bd
       -0.31217602 0.23904164 -0.2909222 -0.04962612
000050 51 5d ab be ea 17 e9 3d b4 f2 b3 bc c3 5b 39 3e
       -0.33469632 0.11381514 -0.021966316 0.1810141
000060 ea df b8 be 11 4f 67 be b9 2c d1 bd a5 e7 20 be
       -0.36108333 -0.22588755 -0.10213608 -0.15713365
000070 f5 1f 1d bd 80 f5 32 bd 24 19 7e be 63 ac 8d 3c
       -0.038360555 -0.04369116 -0.24814278 0.017294114
000080 c0 d3 c5 be 0a 3b e9 bc e2 ec ca be 20 d5 57 3e
       -0.38638115 -0.028470535 -0.39633852 0.21077394
000090 52 1c c3 3e 14 b0 d1 3e a5 30 73 3e 3a e7 c3 be
       0.38107544 0.4095465 0.23749025 -0.3826235
0000a0 0f a2 c3 3e 8a e5 b8 be 66 e5 9d be ed 35 d2 bd
       0.38209578 -0.36112624 -0.3083908 -0.10264192
0000b0 f4 bb 3a 3e bc f0 cb 3e 2e 82 91 3e cf 72 9b 3e
       0.18235761 0.39832103 0.28419632 0.3036103
0000c0 18 43 72 be 25 96 9a be 32 88 35 be 9f fb 11 be
       -0.23658407 -0.30192676 -0.17727736 -0.14256142
0000d0 d7 ff 9c 3e 10 8d bc be a1 ce 0c be 8d d1 f9 3c
       0.3066394 -0.36826372 -0.13750698 0.03049543
0000e0 c3 9e c8 3e e0 93 f4 bd 0a 3f c6 3e 98 ee 6a be
       0.39183626 -0.119422674 0.3871997 -0.22942579
0000f0 e9 31 ac 3e c5 26 ca be 6d 82 46 3d 22 63 c1 3e
       0.33631828 -0.39482704 0.048464227 0.37770945
000100 b5 a7 51 3c 27 fa c2 3e 89 f0 13 3d 5e cd 7b be
       0.012796332 0.38081476 0.036118064 -0.2459006
000110 4f cf 50 be 45 f3 28 be ac c7 c6 be 7d d2 77 be
       -0.20391582 -0.1649905 -0.38824213 -0.24201389
000120 e9 69 0e be 02 95 dd be c1 02 41 3d b4 55 e8 bd
       -0.13907589 -0.43277746 0.047121767 -0.113444716
000130 ef 36 18 3e 88 4f d0 3e 12 d8 01 3e 39 7c e4 bb
       0.14864706 0.40685678 0.1268008 -0.0069728163
000140 67 60 ea bb c1 0f 62 be b6 3c 2f bd 40 d2 20 bd
       -0.0071526053 -0.22076322 -0.042782508 -0.03926301
000150 8b 60 fd 3c 21 be af 3d 1f 78 9d be 93 2c 71 bd
       0.030929824 0.08581186 -0.30755708 -0.0588804
000160 87 0b ad be 4c 72 95 bd d8 ad a1 be af 56 c0 be
       -0.33797857 -0.07297191 -0.31577945 -0.37566134
000170 06 0b 1d 3e 62 e9 52 be 08 58 7d 3e 47 54 ce be
       0.15336236 -0.20596841 0.24740613 -0.40298674
000180 f7 bb 66 3d 40 fd 4b be 33 c0 d5 3e 52 be c2 bd
       0.0563316 -0.19920826 0.417482 -0.09508957
000190 46 19 d4 3e b5 38 0b be ac ba 17 3e 0f 80 41 3d
       0.41425532 -0.13595851 0.14817303 0.047241267
0001a0 2a 36 97 be 08 26 d3 3d df 89 8b be e9 42 94 3e
       -0.2953351 0.10309988 -0.27253625 0.28957298
0001b0 5f 8b 10 3e 6f e2 83 3b a1 6c c4 3d e2 0d 69 3e
       0.14115666 0.0040247957 0.09591032 0.22759202
0001c0 9b f2 d9 3e 4c 32 cd 3e 9c 35 44 3e 3e a4 1d 3e
       0.42567906 0.40077436 0.19161075 0.15394685
0001d0 f5 24 b7 bc f4 a8 15 3d d7 82 a0 be 3e 39 21 be
       -0.02235649 0.03653808 -0.31349823 -0.15744492
0001e0 a7 5b 9d 3e 2d fa 90 be fc 66 26 3e b6 3e 46 be
       0.30733988 -0.2831587 0.16250223 -0.1935986
0001f0 8a 01 2d 3e 0f 2e 44 3d ce d8 a6 3b f1 7e 57 3e
       0.16895118 0.047895487 0.005091763 0.21044518
000200 d2 bb 57 3e e4 9c a4 be e4 5f 7f be dd c1 20 3e
       0.21067742 -0.32150948 -0.24938923 0.15698953
000210 1b 6e 9b 3e 85 67 81 3e 63 3e 72 be 20 4f 0a bd
       0.3035744 0.25274292 -0.23656611 -0.033766866
000220 40 b7 d5 be cd 35 c7 3d 9b 33 bb be 02 33 cf be
       -0.4174137 0.097270586 -0.3656281 -0.40468603
000230 c5 e1 00 be 10 12 25 be 90 cc 43 be 4b d2 cb 3e
       -0.12586124 -0.16120172 -0.19121003 0.39808878
000240 96 85 4a bd 89 82 a0 3e 5d 35 b8 3e cc 2b 08 bd
       -0.049443804 0.3134959 0.35978213 -0.033244893
000250 ad a0 a5 3e 35 4f b4 3d f5 3f b0 be 89 17 58 be
       0.32349148 0.0880417 -0.34423795 -0.21102728
000260 d5 20 4b be c9 dc 6a be 91 c0 85 be fd 6e 9c 3d
       -0.19836743 -0.22935785 -0.2612348 0.07638357
000270 00 8e 64 3e b9 01 9f be 9d 08 c5 be 43 75 63 3e
       0.22319794 -0.31056002 -0.38483134 0.222127
000280 2e 67 82 be 50 90 06 3e 45 a1 be 3e 6a 50 d1 3e
       -0.25469345 0.13140988 0.37232414 0.40881664
000290 f0 ff 8d be 6d 7f 09 be f0 f4 33 3e 38 ba e1 bd
       -0.27734327 -0.13427515 0.17573905 -0.110218465
0002a0 cb 37 c4 be b0 9d b5 3e dc fe 72 be 7c 4f a7 3e
       -0.38323817 0.3547187 -0.23730034 0.3267783
0002b0 56 f3 b2 3d a0 79 93 be dc 98 b9 3d c8 5e 6d 3e
       0.08737819 -0.2880373 0.09062359 0.23180687
0002c0 eb b7 0e 3e 5f 7f ad be d3 7b 13 3e dc 29 d3 be
       0.13937347 -0.3388624 0.14402704 -0.41242874
0002d0 d3 a0 1e be b9 1f 9a 3e 57 b8 4c be 7f 81 a3 3d
       -0.15491037 0.30102327 -0.19992195 0.07983684
0002e0 8b 1f c5 3e 76 6f 5c 3d 7e dc 1a be d5 bb a6 be
       0.38500628 0.053817235 -0.15123174 -0.3256518
0002f0 c4 e3 a6 bd 7e f4 02 3c 12 6a 78 be 0b 16 11 be
       -0.081489116 0.007992862 -0.24259213 -0.14168565
000300 1b 5c 83 3e 98 b5 c1 3e b3 ad 65 be 94 63 a0 be
       0.25656208 0.37833858 -0.22429542 -0.31325972
000310 bb 6c 86 3e 16 1d 75 be ef 47 e1 3d 54 8b d8 be
       0.2625483 -0.23936877 0.11000048 -0.422938
000320 a9 83 a1 3e 39 eb c3 be c4 28 da 3e b1 be 4b be
       0.3154576 -0.38265398 0.42609227 -0.19896962
000330 66 45 a2 3e b2 86 b3 bd ee e4 a1 3e cc e7 a6 bd
       0.31693572 -0.087659255 0.31619972 -0.081496805
000340 0d 9e 48 3e 8f 81 9e be 33 8e 08 3d 9b c3 9f 3e
       0.19591542 -0.3095822 0.033338737 0.31203923
000350 4c 0a d2 3e e0 af 1a 3e 14 58 94 bd 57 49 bd be
       0.4102348 0.15106153 -0.07243362 -0.36970016
000360 14 e9 bf bc b1 a2 c4 be 12 4a c3 3e 93 a9 aa 3e
       -0.02342657 -0.38405374 0.3814245 0.333325
000370 d4 17 92 be aa 4c ce be cb 55 71 3e f6 ce 0b 3e
       -0.28533804 -0.40292865 0.23567884 0.13653168
000380 e1 fe b5 be ba 85 86 bc 16 4c 2d be b7 eb 44 3e
       -0.3554602 -0.016421188 -0.16923556 0.19230543
000390 7d 64 96 be b7 44 91 3e 5d df 54 3e b4 29 7a 3e
       -0.2937354 0.28372738 0.20788331 0.24429971
0003a0 90 60 a6 be bc 9d 32 3e 5b 8c cf be 5c 95 d1 bd
       -0.32495546 0.17442983 -0.4053677 -0.10233566
0003b0 82 2f 91 bd d2 f6 9c 3c 7f 67 3e be 72 57 81 be
       -0.070891395 0.019160662 -0.18594168 -0.25262028
0003c0 13 d1 a0 be b5 33 b1 3e cf a5 a8 be 96 0c a5 3e
       -0.3140951 0.34609762 -0.32939002 0.32236165
0003d0 cf 2c b0 3e 06 da 37 be c9 ea 4f bc 48 fc 51 3d
       0.34409186 -0.17954263 -0.0126902545 0.051265985
0003e0 a9 dc a3 be 36 14 93 be 99 54 b2 bd c5 6b dd bd
       -0.32004288 -0.28726357 -0.08707542 -0.10811571
0003f0 1e 5e 50 3e 1c e2 a6 be fa dc 55 3e a0 58 00 3d
       0.20348403 -0.32594383 0.20885077 0.03133452

bias f4 [16]
000000 00 00 00 00 44 94 e4 bb 00 00 00 00 02 e5 9d 3b
       0.0 -0.0069756825 0.0 0.0048185596
000010 00 00 00 00 00 00 00 00 00 00 00 00 36 ad d8 3b
       0.0 0.0 0.0 0.006612445
000020 00 00 00 00 00 00 00 00 00 00 00 00 00 00 00 00
       0.0 0.0 0.0 0.0
000030 00 00 00 00 00 00 00 00 71 ea f8 3b e5 71 f1 bb
       0.0 0.0 0.007596307 -0.0073683136

weight f4 [16, 16]
000000 d4 ef f5 3d ea 10 8c 3e dd e3 21 3e ce f9 d4 be
       0.12008634 0.27356654 0.15809579 -0.41596836
000010 7d bf 36 3e 87 4f 8b be 78 74 df 3d 31 41 78 be
       0.17846484 -0.27209112 0.109108865 -0.24243619
000020 f7 1b 98 be 3b 03 5e 3e 9e 7f f6 bd 32 14 a2 3e
       -0.29708835 0.2168092 -0.1203606 0.31656033
000030 c6 95 d0 3d 40 84 8d bd da 1d cf 3e 23 e8 bf 3d
       0.10184817 -0.0690999 0.40452462 0.093704484
000040 ef 79 61 be e2 df 2b bd d7 41 e8 bc 9c 1f a7 be
       -0.2201917 -0.04196156 -0.028351707 -0.32641304
000050 a5 8d 9d 3d 24 5f db be 98 8d a0 bd 75 42 b3 3e
       0.07693032 -0.42846024 -0.07839507 0.3501164
000060 26 a5 98 3d e1 cd 56 3e aa 94 9a be 4b 6c 23 be
       0.074533746 0.20976974 -0.30191547 -0.15959279
000070 be 88 c6 be ad 6a 27 3d bf 5e bf be e9 0d 64 3d
       -0.387762 0.04087322 -0.37376973 0.05567733
000080 40 ff 19 3e 6d 96 53 3d e7 09 c8 be 02 4f c7 be
       0.15038776 0.05165713 -0.39070055 -0.38927466
000090 7d 7f 9d be 83 d4 c3 3e 0b 85 cf 3e 01 01 50 3e
       -0.30761328 0.3824807 0.4053119 0.20312883
0000a0 ce 22 b4 3e 89 7d 5f be 9d 66 8b 3e 23 81 ef 3d
       0.35182804 -0.21825232 0.27226725 0.11694553
0000b0 d1 5c 6c 3d 37 1d 11 3e 74 8f c4 3e 36 0d 9b be
       0.057705704 0.14171301 0.38390696 -0.30283517
0000c0 71 b2 80 3e 8a 8d 9a be 98 c8 d3 3e 4c ec 7d 3d
       0.2513614 -0.3018611 0.41363978 0.06199293
0000d0 9c f3 5c be 9d a2 d1 3e bc 41 82 3e fd e1 2d 3e
       -0.21577305 0.40944377 0.25440776 0.16980739
0000e0 a7 a6 ad 3d 00 12 0f 3d df d9 84 be 0a 1e 7e be
       0.08479052 0.034929276 -0.25947472 -0.24816146
0000f0 d8 f5 9e 3e 79 48 7d be 18 bc 50 be ff 07 f6 3d
       0.3104694 -0.24734677 -0.20384252 0.12013244
000100 90 9f a4 3e 0d 74 a0 be fb 43 4f 3e bc 2a da bd
       0.32152987 -0.3133854 0.20240776 -0.10652682
000110 76 73 70 3d e8 63 52 3e 24 33 53 3e 27 81 00 be
       0.058703862 0.20545924 0.20624977 -0.12549268
000120 f5 d7 cf 3e d4 b8 a7 be ef e1 73 bc c4 21 ae be
       0.4059445 -0.327582 -0.01488541 -0.34010136
000130 2f e9 92 3e 88 b0 ae be 9a c2 d4 be 7c 05 dd be
       0.2869353 -0.34119058 -0.4155472 -0.43168247
000140 1e bc ca 3e 7c bf 5d 3e 4d 4e 4b 3e ba 02 ae be
       0.39596647 0.21655077 0.19854088 -0.33986455
000150 fc 92 dd be 3b a9 d5 be 5f 84 60 39 cb f9 b5 be
       -0.43276203 -0.41730675 0.00021411617 -0.3554214
000160 5d f7 39 bd 9e a5 8e 3e 28 e1 a0 3e 48 01 d2 be
       -0.04540192 0.2786073 0.3142178 -0.41016603
000170 ab 6a 3a be 30 f7 36 3e bc 47 18 be 01 55 c2 bb
       -0.18204753 0.17867732 -0.14871114 -0.0059305434
000180 65 35 b4 3e ce ac 91 3e b5 11 9d 3e dd 1c 83 3e
       0.35196987 0.28452152 0.30677572 0.25607958
000190 79 e4 f4 3d ad f5 2a bc 72 cb b2 bd 02 0f 78 3e
       0.1195764 -0.01043455 -0.0873021 0.24224475
0001a0 7b 95 c7 3e d3 57 8e 3e 6b 94 f7 bd 8b cd dc 3e
       0.38981232 0.2780138 -0.12088855 0.43125567
0001b0 b9 f3 55 3e 7b 17 3e bd 4a 88 98 3e fd 64 5f be
       0.20893754 -0.04640911 0.2979148 -0.21815868
0001c0 52 83 a6 3e 10 3e 72 be 3b 4b da be a6 9b c9 3e
       0.32522064 -0.23656487 -0.4263552 0.39376563
0001d0 85 7b 8e 3e de e5 a7 3e 98 91 92 be e9 0c 4a 3e
       0.27828613 0.32792562 -0.28626704 0.19731487
0001e0 87 f1 bc 3e 27 a0 cc 3e 69 19 c3 3e f0 7e b5 bd
       0.3690302 0.39965937 0.38105324 -0.08862102
0001f0 06 c3 b6 bb d0 f2 4d 3d f7 31 39 be 61 09 5a be
       -0.005577448 0.050280392 -0.18085466 -0.2129264
000200 3a 6b 14 be fa 83 14 be e9 f5 95 be b7 46 6b 3e
       -0.14494029 -0.1450347 -0.29289177 0.22976194
000210 a0 33 57 be d2 09 2a be a8 53 c7 be 9c 5c c2 3e
       -0.21015787 -0.16605309 -0.38931012 0.3796128
000220 15 ea a8 be 25 27 01 3e af 7e 96 3e c2 fb 82 3e
       -0.3299109 0.12612589 0.29393527 0.255827
000230 c3 b1 0e 3e 11 5f 60 3e e0 e0 7c 3e 4e af c3 bc
       0.13934998 0.21911265 0.24695158 -0.023887303
000240 2f f5 b2 3e f8 32 b7 3e ae 9f 85 3c af b3 d9 bd
       0.34952685 0.35781074 0.016311493 -0.10629975
000250 69 d0 82 3e db 17 9b bd 87 35 c0 be f6 5c cc be
       0.2554963 -0.075729094 -0.37540838 -0.39914674
000260 21 0d a9 3d 38 45 8d 38 e0 46 d6 3e 4e 00 d6 3d
       0.08254457 6.736297e-05 0.41850948 0.10449277
000270 3e fb 14 3e 26 74 96 be de 0f c0 be e5 b0 3f 3e
       0.14548966 -0.2938549 -0.37512106 0.18719824
000280 d7 16 d4 be 47 54 b2 3e bf 95 c6 bc a5 b6 39 3e
       -0.41423675 0.34829924 -0.024241326 0.1813608
000290 73 04 13 3e 6b 72 44 bd 7d 12 80 be 0c 1a b5 3e
       0.14357166 -0.04796068 -0.25014105 0.35371435
0002a0 c6 9b 51 3e e1 eb c4 bc 7a 1e 81 be 6b 7c cd 3e
       0.20469579 -0.024038257 -0.25218564 0.40133986
0002b0 31 51 6c 3e 61 2c 9e be 52 ec 18 be 60 9f cc 3e
       0.23077847 -0.30893233 -0.14933899 0.39965343
0002c0 e8 f3 ac 3e 06 a4 3e be a2 f4 87 be 50 ab 1e 3e
       0.33779836 -0.18617257 -0.26553828 0.15495038
0002d0 c8 e0 08 be 90 86 be 3e a1 ab 75 3b 77 fa 9a 3d
       -0.13366997 0.37212038 0.0037486332 0.07567304
0002e0 e5 e5 b0 be ef c4 c0 be 82 82 d9 3c 5e 34 23 bd
       -0.34550396 -0.37650248 0.026551489 -0.039844863
0002f0 62 67 a2 be 4b 7d 58 bb 29 88 dc 3e dd 7a 97 be
       -0.317195 -0.0033033665 0.43072632 -0.29585925
000300 76 3b d0 be 3e 3d 90 3e 06 55 85 be 51 ca 51 be
       -0.40670365 0.28171724 -0.2604143 -0.20487334
000310 a3 e0 cc bd 65 73 ae be ea 3f 6a 3e 14 0a c5 3e
       -0.100037836 -0.34072414 0.22875944 0.38484251
000320 1b ff c2 be e0 56 99 3c c2 7f db 3d 57 cb ab 3d
       -0.38085255 0.018718183 0.10717727 0.08388393
000330 f5 7f a9 bd 16 41 28 3e 7d 76 91 3e b4 86 26 be
       -0.08276359 0.16431078 0.28410712 -0.16262323
000340 70 7b 4d be 08 ae e9 3d 18 7b d1 be 77 50 69 be
       -0.20066619 0.11410147 -0.40914226 -0.22784601
000350 ee 7e 94 3e 47 b0 a2 be a9 11 91 be 6b 41 ad bc
       0.2900309 -0.31775114 -0.28333786 -0.021149358
000360 75 19 92 3e 82 8b c4 3d f6 5e a0 3e c0 e0 82 be
       0.28535047 0.095969215 0.3132245 -0.25562096
000370 8b d9 a5 bc c6 d0 bc bd aa 0c 36 3e f4 ba d7 3e
       -0.020245334 -0.09219508 0.17778268 0.4213482
000380 33 59 a3 bd 60 ca 44 bb 1d 4d 9c 3e 4a 74 c0 3e
       -0.07975998 -0.0030027851 0.30527583 0.37588722
000390 4a f4 48 3c 74 d8 af 3e 9c aa 9c 3e 35 fb 9d 3d
       0.012265274 0.34344828 0.30598915 0.077139296
0003a0 e1 34 01 be 2e 89 4c be aa 31 77 be be 71 a2 be
       -0.12617828 -0.19974205 -0.24140039 -0.31727403
0003b0 96 ad 86 be 75 9c 82 be ee 21 ce 3e 88 dc a8 be
       -0.2630431 -0.25509992 0.4026026 -0.32980752
0003c0 01 13 92 bd 00 c4 82 bd b6 54 77 3e c0 82 c7 3e
       -0.07132531 -0.0638504 0.24153408 0.38966942
0003d0 6f 23 ab 3e 2f b7 39 be c0 3a 82 3e f0 60 87 be
       0.3342547 -0.18136285 0.25435448 -0.26441145
0003e0 9f 10 b0 be 29 ed ea bd 5c 7c d0 3e a7 77 b8 be
       -0.3438768 -0.11471016 0.4071988 -0.36028787
0003f0 3f 75 c9 be 78 22 a1 bd 20 07 93 be a7 b2 45 3e
       -0.39347264 -0.078679025 -0.28716373 0.19306432

bias f4 [16]
000000 d4 ed c4 bb 00 00 00 00 00 00 00 00 00 00 00 00
       -0.0060097966 0.0 0.0 0.0
000010 00 00 00 00 7f 9b 8c 3a df fb d4 bb 00 00 00 00
       0.0 0.0010727494 -0.006499752 0.0
000020 08 2a f9 3b c2 cd b3 bb 31 d0 9d bb 00 00 00 00
       0.0076038875 -0.0054871747 -0.004816078 0.0
000030 d3 68 cf 3b c6 ad e4 3a 21 15 e5 3b 30 1d 81 bb
       0.0063296347 0.0017446808 0.006991044 -0.003940247

weight f4 [16, 16]
000000 bd 14 40 3d 45 c0 c2 3d d0 7e 63 3e d4 4d 3c be
       0.046894778 0.09509329 0.22216344 -0.18389064
000010 8b 97 1c be a1 6a 05 3e 81 7b 78 be e1 c5 db be
       -0.15292184 0.13028957 -0.24265863 -0.42924407
000020 85 54 8d be 27 90 2f be 49 43 b3 3d e7 54 34 be
       -0.27603546 -0.17144834 0.08753068 -0.17610513
000030 63 86 49 3d 0b ff a5 3e 4f 26 b4 be 19 f0 a8 3e
       0.049200427 0.32421145 -0.35185477 0.3299568
000040 a4 1c 18 3e 84 79 7e be 09 89 6e be c9 40 dd be
       0.14854676 -0.24851042 -0.23294462 -0.4321349
000050 c2 20 20 be 1b be 38 be e4 68 00 be 5b 6e a3 be
       -0.15637496 -0.1804127 -0.12540013 -0.31920132
000060 e3 31 b6 be 80 a8 cc be ed bd 8e be 63 11 59 bd
       -0.35584936 -0.39972305 -0.27879277 -0.052995097
000070 6f 69 5b be 08 87 4a be 7c 31 bc be 13 5e e7 bd
       -0.21426938 -0.19778073 -0.36756504 -0.1129724
000080 c9 df 95 3e 07 33 6c 3d 17 d1 64 bc 60 93 4d 3e
       0.29272297 0.05766585 -0.0139658665 0.2007575
000090 31 eb d9 bd 10 54 04 be 49 61 17 bd 53 40 b4 3e
       -0.10640562 -0.12922692 -0.036958013 0.35205325
0000a0 52 61 d4 be 4e e1 08 be 5a 4c d8 3e e9 c1 f1 3d
       -0.414805 -0.13367197 0.42245752 0.118045636
0000b0 ed 71 c8 bd 69 87 c8 be 8a 99 8b be 43 2e 4f 3e
       -0.097873546 -0.3916581 -0.27265579 0.20232491
0000c0 7b 0b 50 3c 53 56 b8 3e ce b2 51 bd fb 4a 62 bd
       0.01269805 0.3600336 -0.051195912 -0.05524729
0000d0 24 6b da 3e 08 70 26 3e 2b 25 5e be e3 5e a6 3d
       0.42659867 0.16253674 -0.21693866 0.08123567
0000e0 93 25 9f be 9d 53 48 be d6 e7 04 be d0 93 bc 3e
       -0.31083354 -0.19563146 -0.12979063 0.36831522
0000f0 dc 7d 5f 3d 09 f5 58 be 94 dd 32 bc 75 2a a5 3e
       0.05456339 -0.21187223 -0.010917086 0.32258955
000100 c5 14 dc bd fa ac 99 be 82 01 80 be 7b 2e be be
       -0.10746149 -0.30014783 -0.2500115 -0.37144837
000110 98 d7 9a be aa 58 d9 be 45 66 d4 bb 3e b0 a7 be
       -0.3024261 -0.42450458 -0.006481918 -0.3275165
000120 ad bd ad be 65 13 17 be 54 7d 9c be d2 7c 77 be
       -0.33933774 -0.14753492 -0.30564368 -0.24168709
000130 aa 4d 4e 3e 34 c0 be be c8 65 ba bd a1 dd 8f 3e
       0.20146814 -0.37256014 -0.091014445 0.28098777
000140 91 74 82 3e bb 8f 6e be 0e a0 79 3e 27 a0 93 3e
       0.25479558 -0.23297016 0.24377462 0.28833124
000150 92 37 d6 3d 84 8f 59 3e 2b 29 c6 bd 47 9f 98 bd
       0.10459818 0.21246153 -0.09675821 -0.07452255
000160 7a 35 2a 3e 5f 58 61 bd f8 90 27 3e 26 b3 90 3e
       0.16621962 -0.055015918 0.16363895 0.2826168
000170 7f 25 13 3e 56 9c ae 3d ea 44 42 be 41 f9 fe bd
       0.14369772 0.085259125 -0.18971601 -0.12449885
000180 f7 69 40 3d 46 ef 60 bd 0d 4f 88 3e 7b 47 6a 3e
       0.046976056 -0.05491569 0.2662281 0.2287883
000190 0d a8 d2 3e 7d 6c 19 3e 3d 8e 8d be cc d7 c1 3e
       0.41143838 0.14982791 -0.27647582 0.37859952
0001a0 56 5f 0d 3d 37 d2 c8 be 80 43 9a 3e 78 34 8d be
       0.034514748 -0.3922288 0.30129623 -0.27579093
0001b0 6c 75 94 3e 4b f0 87 3d cd f1 92 be dd a3 91 3e
       0.28995836 0.06637629 -0.28700104 0.2844533
0001c0 4a f9 8b bd eb 9d a5 be c7 48 89 3e 1e 47 86 be
       -0.068346575 -0.32347044 0.26813337 -0.26226133
0001d0 e8 3f fd 3d 1d 68 71 3e 4f 12 33 3e 3e fe f3 3d
       0.12365705 0.23574872 0.17487453 0.11913727
0001e0 cc c1 51 3e a9 2f ae be 3f 1b 58 be 29 be 61 3e
       0.20484084 -0.34020737 -0.21104144 0.22045197
0001f0 4c 22 a6 3e 98 48 a5 3d b5 1d 58 3d fb a9 af be
       0.3244804 0.08070487 0.052762706 -0.34309372
000200 e5 5c b9 bd 17 5f 5f be 88 49 d8 3e ea 8c db 3e
       -0.09050921 -0.21813618 0.422436 0.42880946
000210 e2 2f a2 3d a8 66 b0 3e 11 9b ce 3c 88 eb fe bd
       0.07919289 0.3445332 0.025220426 -0.12447268
000220 e7 f5 a5 be 45 cd b7 3e ff ca ec 3d a6 55 90 bd
       -0.3241417 0.35898796 0.11562156 -0.07047586
000230 ad 38 92 be 63 9d 9b 3e 38 4e 35 3e 02 8c 83 be
       -0.28558865 0.30393514 0.1770562 -0.25692755
000240 64 7e cd 3e 8f 0e a4 be 9c a7 77 bd 28 35 e7 3c
       0.4013549 -0.32042357 -0.06046258 0.028223589
000250 6c 31 bb 3e 4a 05 a0 3d d0 4d 9b 3e 12 da 90 be
       0.36561143 0.07813509 0.30332804 -0.28291374
000260 33 b8 56 3e 2c 84 b2 3e b7 eb 84 be 2c ad e8 bd
       0.20968704 0.34866464 -0.25961086 -0.11361155
000270 0e da 09 3e e1 d6 a4 3d 15 6a 86 3d 27 9d 9c bd
       0.13462088 0.080487974 0.06563202 -0.07647162
000280 27 bf e2 bd b4 c3 8f 3e 19 5b cd bd 18 92 05 3e
       -0.11071616 0.28078997 -0.10027141 0.13044012
000290 e5 bf 81 be 49 e6 a1 be 62 84 b5 be 9f 1a c8 3e
       -0.25341716 -0.31621006 -0.35452563 0.3908281
0002a0 20 61 43 be 3b 13 7f be 7d bb 96 3d 82 b5 bd 3e
       -0.19080019 -0.2490968 0.07359979 0.37052542
0002b0 ea 4d 70 3d 6e e8 23 3e 6e 29 f6 3d a4 52 b3 3e
       0.058668055 0.16006634 0.12019621 0.35023987
0002c0 9a fa 2a 3e 5d fa af be 79 78 4f 3b dd 80 bc 3e
       0.1669716 -0.343707 0.00316575 0.36817065
0002d0 1d fc cc be f9 7e 06 be 4c 62 d1 be 6e d4 c4 be
       -0.40036097 -0.13134374 -0.40895307 -0.3844332
0002e0 3d 8f 29 3e a5 af c0 3e 87 92 c9 3e 8f c0 1f be
       0.16558547 0.37634006 0.39369604 -0.15600799
0002f0 64 81 aa 3e db b8 a4 be 4a 68 bf be f3 32 aa 3e
       0.33301842 -0.32172284 -0.37384254 0.33241996
000300 38 24 40 3e c1 13 61 3d 7e 4d b2 be b7 6a 8f bc
       0.18763816 0.05495048 -0.34824747 -0.01750694
000310 c1 d4 b6 3e 60 a6 3f be 71 41 90 3e 15 44 53 be
       0.35709193 -0.18715811 0.28174928 -0.2063144
000320 e0 c1 c4 be e9 e7 c4 3e fd c5 cd be b6 18 4d be
       -0.38429165 0.38458183 -0.40190116 -0.20028958
000330 7a bb 7f bd f2 b4 ab 3e d1 77 4e bb c2 78 cc bd
       -0.06243465 0.33536488 -0.0031504522 -0.0998397
000340 7f 93 82 3e 4a de b1 bd f7 6b 9c 3e 9c 11 c8 3e
       0.25503156 -0.086849764 0.3055112 0.39075935
000350 8d 4c 38 3e c5 c0 3a 3d 04 77 a7 3e 6e b3 d3 be
       0.17997952 0.045593996 0.3270799 -0.4134783
000360 92 48 dc be d2 c9 e3 3d 8b 03 92 be 62 8c be be
       -0.43024117 0.111224785 -0.28518328 -0.3721648
000370 2f 02 f2 bd 52 59 8e be 09 c7 9b 3d 4b cc 7a be
       -0.11816823 -0.2780252 0.07606322 -0.24491994
000380 a3 a2 35 3a fd 8e 69 3e 51 f4 67 be 45 12 b7 3e
       0.0006928837 0.22808452 -0.22651793 0.35756126
000390 b3 24 2b be 62 a5 ad 3e 5b b3 7f be 28 bb 95 be
       -0.16713218 0.3391524 -0.24970762 -0.2924435
0003a0 ae 53 42 3e b4 77 d2 3e 20 05 6b be e3 6d c8 be
       0.18977234 0.4110695 -0.22951174 -0.39146337
0003b0 72 5d 63 be 6b 78 80 3e 4b f4 b0 be 97 64 01 be
       -0.22203615 0.25091872 -0.3456138 -0.12636028
0003c0 70 1e c2 be 69 ad d5 bc 45 58 9c 3e 67 04 1a 3c
       -0.37913847 -0.026083665 0.30536094 0.009400464
0003d0 ea a1 83 bc 6e 40 80 bd b6 83 c9 3e 4a a9 a5 3d
       -0.016068418 -0.06262289 0.393583 0.0808893
0003e0 0f c6 95 3c 98 5b 97 3d 53 e0 0c 3d 75 d4 a5 3e
       0.018282918 0.07390517 0.03439362 0.32388654
0003f0 3e bb a7 3e 44 cc e0 3d 63 24 59 3e 58 34 b9 be
       0.32760042 0.109764606 0.21205287 -0.36172748

bias f4 [16]
000000 62 42 bb bb 00 00 00 00 64 2d 07 bc 00 00 00 00
       -0.0057147006 0.0 -0.008250568 0.0
000010 00 00 00 00 2c 53 15 3c 9d 62 3d 3b 00 00 00 00
       0.0 0.009114068 0.002889789 0.0
000020 48 a5 0b bc 6b 2f ff bb a5 33 ef b9 ce 9e e8 ba
       -0.008523293 -0.007787635 -0.0004562411 -0.0017747523
000030 2e ea 48 bb 00 00 00 00 00 00 00 00 b3 c4 04 bc
       -0.003065716 0.0 0.0 -0.008103537

weight f4 [16, 16]
000000 41 15 b6 be 69 34 ae 3b 3f 43 0b 3e c9 11 ac 3d
       -0.3556309 0.0053163064 0.13599871 0.0840183
000010 d7 e8 5f 3e 14 f8 c8 3e a4 6e d0 be b6 a8 dc be
       0.21866165 0.3925177 -0.40709412 -0.43097466
000020 91 88 b6 3c 04 c8 8d be 99 ff 1e 3e 70 86 d2 3d
       0.022281917 -0.27691662 0.1552719 0.10279548
000030 1a 0c c3 3c a0 90 47 3d 84 32 fc 3c b7 48 cd be
       0.023809481 0.04872191 0.030785806 -0.4009454
000040 8e 79 4f 3e b9 2e 1b 3e 58 6d cf 3e 4c b9 aa 3d
       0.20261213 0.15154542 0.4051311 0.08336124
000050 d9 ec 0a 3d 5c 18 90 3c d5 fe 99 bd 00 71 16 3e
       0.03391728 0.01758974 -0.075193085 0.14691544
000060 f9 4c 6c 3d d1 87 d2 3e a1 7a 5b be 04 fe 81 be
       0.057690594 0.41119245 -0.21433498 -0.2538911
000070 70 b2 bc 3e b6 83 68 3e 5c 21 62 3d 46 24 b8 3e
       0.36854887 0.22706494 0.055207595 0.35965174
000080 f4 22 8d bc f1 a0 10 3e 2e 21 ab 3d 1c 99 35 3c
       -0.017228581 0.14123894 0.08355938 0.011083867
000090 9f d8 88 3e c3 e5 7a be 66 9e 1a be df 81 a6 3e
       0.2672777 -0.2450171 -0.15099487 0.3252096
0000a0 d8 cf 79 3e 6f ea 20 3e e6 37 4a 3e b9 6b 8a 3e
       0.24395692 0.1571443 0.19747886 0.2703531
0000b0 4b ea 45 bc 6b c4 db 3e a8 1a e1 3d e2 c7 d1 bd
       -0.012079786 0.42923293 0.109914124 -0.10243203
0000c0 1a 37 4f 3e d2 b8 1a 3e e2 9e a6 be 86 4d 91 3c
       0.20235863 0.15109566 -0.32543093 0.017737161
0000d0 c1 c5 cd 3d 7e 56 9f 3e cf 59 b5 be 14 08 a2 be
       0.10047484 0.31120676 -0.3542008 -0.31646788
0000e0 19 be a8 be 9b f6 77 3e e9 a8 98 bc 79 1f cf be
       -0.32957533 0.24215166 -0.01863523 -0.404537
0000f0 37 8d 91 be 1b c7 bc 3e 7f b8 5b 3e a5 78 a5 3e
       -0.2842805 0.36870655 0.21457098 0.32318607
000100 fc 95 db be e3 33 31 be e6 a0 ed 3d a4 8e 4b 3e
       -0.42887866 -0.1730495 0.116029546 0.19878632
000110 96 23 bb 3e 94 31 cf be c3 62 70 3e 92 1d 94 3d
       0.36550587 -0.40467513 0.23475175 0.072322026
000120 84 9a dc 3e d3 5b be be aa 3f bf 3c f6 bc d4 be
       0.43086636 -0.3717943 0.023345787 -0.41550416
000130 98 45 f6 bd 55 6c 69 3e d0 68 93 3e c5 e4 cb be
       -0.12024993 0.22795232 0.28790903 -0.39822975
000140 31 a8 1d 3d d8 ff b7 3e 4e d7 ae bd 51 c4 96 bd
       0.038490478 0.3593738 -0.0853716 -0.07361663
000150 c0 58 66 3d a2 ed e2 bc f1 73 9c bc ce 58 c7 3e
       0.056236982 -0.027701203 -0.019098254 0.3893494
000160 ee 4c 1c be 12 7f c9 be 78 af b6 3e e8 53 25 be
       -0.15263721 -0.3935476 0.35680747 -0.16145289
000170 75 93 43 be 8c 73 19 be 5c 15 88 3e 2a 3f c7 3c
       -0.19099219 -0.14985484 0.26578796 0.024322111
000180 e5 7d 78 3e 3a 7b 90 be 06 93 2e be 71 05 99 be
       0.24266775 -0.28219014 -0.17048272 -0.29886964
000190 54 64 a3 3e 52 26 ca be e5 b1 cf be 0f 53 82 3e
       0.31912482 -0.3948236 -0.4056541 0.25453994
0001a0 c9 31 7e be d3 5e bb 3e f7 36 b1 be 11 29 4c bc
       -0.24823679 0.36595783 -0.34612247 -0.012460963
0001b0 c5 fd 44 3e 41 34 88 3e a5 9a 2c be 83 b0 dd bd
       0.1923743 0.26602367 -0.16855867 -0.108246826
0001c0 1b 79 20 3e 33 a1 61 be 26 c4 7f be 01 8e 6f 3e
       0.15671198 -0.22034149 -0.24977168 0.23394014
0001d0 20 02 dc 3d 2b cd c4 be e8 75 97 bc a2 c2 27 3e
       0.10742593 -0.3843778 -0.01848884 0.1638284
0001e0 a8 ae d5 be fc 54 4e be fb 23 c6 be ae 26 db be
       -0.41734815 -0.20149606 -0.38699326 -0.42802948
0001f0 22 8d 42 be d2 fd c4 3e 53 ec 56 ba df 55 d7 bc
       -0.1899915 0.384749 -0.0008198667 -0.026286064
000200 54 f9 a8 3d a4 5a af 3d 22 50 fe bb 20 7c 38 3e
       0.082506806 0.0856221 -0.0077610174 0.180161
000210 b5 09 05 be 59 a2 dc 3e 3c b0 06 3d 46 23 20 be
       -0.12991984 0.4309261 0.032882914 -0.15638456
000220 48 b2 07 bd 83 eb 84 3e 55 e8 94 be f3 72 cb 3e
       -0.033129007 0.2596093 -0.29083505 0.39736137
000230 50 d3 42 bd 57 09 12 bd 48 59 38 be ca d4 81 3e
       -0.047564805 -0.03565344 -0.18002808 0.25357658
000240 bb 50 14 3e a4 e5 20 3e f7 a7 1d be 96 25 88 be
       0.14483921 0.15712601 -0.15396105 -0.26591176
000250 25 7a 22 be 2b 73 f9 3d 5a 01 a3 be 01 56 e1 3d
       -0.15866907 0.1218017 -0.3183697 0.11002732
000260 4e 87 a2 be 66 38 c7 bd d3 b7 8b 3c 76 f8 58 be
       -0.31743854 -0.09727554 0.017055428 -0.2118853
000270 d4 44 cb be 01 32 6f 3e e8 af b4 bd 4d 52 99 3d
       -0.3970095 0.23358919 -0.08822614 0.07486401
000280 3e 38 c9 3e 00 81 7c bd 7d dd 98 be 39 82 2a be
       0.39300722 -0.06164646 -0.29856482 -0.16651239
000290 87 ed c2 3e df 25 8f 3e 3e c3 b0 be 95 e5 65 be
       0.38071844 0.2795858 -0.34523958 -0.2245086
0002a0 bc 9f 44 be 67 0f 5e 3e de b6 b7 3e 9f 73 6d 3e
       -0.19201559 0.21685563 0.35881704 0.23188637
0002b0 1c b9 ed 3d de 91 f5 3c 99 3e 5f be 10 1a 81 3e
       0.116075724 0.029976781 -0.21801223 0.25215197
0002c0 fd fb cf be 07 6a ab be 2b 1d ba 3e 39 b2 d9 bd
       -0.4062194 -0.3347933 0.36350378 -0.106296964
0002d0 de 12 55 be 81 88 4a 3e 16 ed 28 3e da 3f b2 bc
       -0.20807979 0.19778635 0.16496691 -0.021758962
0002e0 d2 4e 28 bd e3 b4 b5 3e 9a 5a 86 3e 6e 8d ce 3e
       -0.041090794 0.35489568 0.26240999 0.40342277
0002f0 4e 41 07 3e 16 61 28 3e b2 b8 7e 3e 18 07 96 be
       0.13208506 0.16443285 0.24875143 -0.29302287
000300 93 46 cb 3d 94 1e 47 3d b4 c0 69 3e b5 fb 17 3e
       0.0992557 0.048613146 0.22827417 0.14842112
000310 ee ea 80 3b ac 52 c1 3e 77 95 41 bd a3 51 d3 3e
       0.003934256 0.37758386 -0.04726168 0.4127322
000320 27 be d5 be f0 d7 d2 3e a8 f9 96 be c5 6b c6 3d
       -0.41746637 0.41180372 -0.29487348 0.09688524
000330 40 7b b6 3e 1d 67 82 3e 70 ba d3 be 86 9a 27 3e
       0.35640907 0.25469294 -0.41353178 0.1636754
000340 d3 8e 96 be 75 20 c4 3e 3f c1 ce 3e 04 5e 97 3e
       -0.2940584 0.38306013 0.4038181 0.29563916
000350 46 af a9 3e 96 e0 8d be 82 a5 be bb 32 cb ac bd
       0.33141536 -0.27710408 -0.00581807 -0.08437194
000360 92 5b 80 3e 2f f7 ce bd 28 2b a5 3e 3f 70 94 be
       0.25069863 -0.1010574 0.32259488 -0.28991887
000370 f4 b2 01 3e c6 df 40 be df b8 7e 3e f5 db 31 3e
       0.12665921 -0.18835363 0.2487521 0.17369063
000380 92 c9 2f be 5d 6b 29 be 97 c8 af 3e 71 1c 04 3e
       -0.17166737 -0.16544862 0.34332725 0.12901475
000390 0b f9 10 be 51 9e ab be 81 98 69 3e 00 3c 98 3e
       -0.14157502 -0.33519223 0.22812082 0.29733276
0003a0 de a2 43 3e 9e f4 b2 be 2a cb b8 3e 24 38 4f 3e
       0.19105098 -0.34952253 0.36092502 0.2023626
0003b0 b6 00 49 3e 63 88 a2 3e e6 61 7b be 1f b1 9e be
       0.19629177 0.3174468 -0.24549064 -0.30994508
0003c0 b0 63 04 3c 30 e0 82 be 76 37 15 be 1d c5 e6 bd
       0.008080408 -0.25561666 -0.14571938 -0.11268065
0003d0 72 55 9a be d2 8b a5 bd 4b f6 7c bd 73 09 29 be
       -0.30143315 -0.08083309 -0.06175832 -0.16507511
0003e0 10 66 27 3e a1 93 71 3d 00 fe d1 3e 3d 91 9d be
       0.16347528 0.05897868 0.410141 -0.3077487
0003f0 f4 c0 6f bd 5b 44 10 be 72 01 4c be 04 34 cf be
       -0.058533624 -0.14088576 -0.19922426 -0.40469372

bias f4 [16]
000000 00 00 00 00 1a 4d 11 bc 9e b3 12 bc 00 00 00 00
       0.0 -0.00886848 -0.008953957 0.0
000010 00 00 00 00 00 00 00 00 00 00 00 00 00 00 00 00
       0.0 0.0 0.0 0.0
000020 cc b2 d8 3a 00 00 00 00 4c c8 13 bb 47 fb 30 3c
       0.0016532778 0.0 -0.0022549806 0.010802097
000030 a5 18 9e bb 37 1b cf bb 75 ea 07 bc 00 00 00 00
       -0.004824715 -0.006320383 -0.008295645 0.0

weight f4 [16, 16]
000000 cf a7 fc 3d 5a 5f f0 bd 25 b0 d5 be b4 5c 89 be
       0.123366944 -0.11736937 -0.4173595 -0.2682854
000010 69 5b bf be 3a a2 8a be c5 74 8a bd d8 81 2a be
       -0.37374428 -0.27076894 -0.06760553 -0.16651094
000020 a2 a7 36 bd 1e ac 9d 3d 31 6d a7 be 17 01 a3 be
       -0.04459346 0.076988444 -0.32700494 -0.3183677
000030 aa 24 5b be 41 72 cf 3e 44 f0 85 be 5e 96 62 3e
       -0.21400705 0.40516856 -0.2615987 0.22127673
000040 c2 b5 d1 3e 5b 52 d7 bd 7f 1f f3 3c 05 8f bb be
       0.40958983 -0.10513755 0.029678104 -0.36632553
000050 79 8c c0 3e ea 2a d9 3e fe 95 68 be f4 7f a3 bd
       0.37607172 0.42415553 -0.22713467 -0.079833895
000060 9f 13 b2 bd 87 18 b2 3d 85 b4 ba 3e d5 d3 95 3e
       -0.08695149 0.086960845 0.3646585 0.29263178
000070 ca 23 48 3e 81 b1 ab 3e 57 52 b9 3e a7 73 bf 3e
       0.19544902 0.33533862 0.36195633 0.37392923
000080 6a b1 3b be fa cd 84 3d 1d f5 63 3e fb f5 c4 3e
       -0.18329397 0.064845994 0.22261472 0.38468918
000090 5d 55 72 be 43 87 95 3e 58 2c f6 bd cd 85 28 3e
       -0.23665376 0.2920476 -0.12020177 0.16457291
0000a0 a8 59 af be de f8 c1 be be 38 a4 3e 28 8c a2 3e
       -0.3424809 -0.37885183 0.3207454 0.31747556
0000b0 07 dc d7 3e 6d d7 6b 3e 6c 5e 95 be 31 f8 1d bd
       0.42160055 0.23031397 -0.291736 -0.038566772
0000c0 18 5d ae 3e f5 af 9f be 9a 41 1f be 3a 7b 98 3a
       0.340554 -0.31188932 -0.15552369 0.0011633404
0000d0 4b 9c ae 3e b4 f5 83 3e f1 72 c3 bc 18 eb ae 3e
       0.34103617 0.25773394 -0.02385852 0.34163737
0000e0 57 b1 47 3e 80 23 05 be 29 18 d3 be f0 32 dc 3e
       0.19501244 -0.13001823 -0.4122937 0.43007612
0000f0 ec b5 cd 3e 50 5a 81 be 4f b7 a5 be e6 33 0a 3e
       0.40177858 -0.25264215 -0.32366416 0.1349636
000100 ac 08 9a 3e d2 0c 24 3c f4 99 d0 be 45 6f 9b bb
       0.3008474 0.010012822 -0.40742457 -0.004743489
000110 a2 1f 20 be e4 95 ec 3d 2a 83 c3 be ae a0 46 bc
       -0.15637067 0.11552027 -0.38186008 -0.01212327
000120 4a 9a d6 3e db 32 b5 be 57 55 ae be 56 d4 dc be
       0.41914588 -0.35390362 -0.34049484 -0.4313075
000130 22 24 3b be a1 63 10 be 45 ac 28 3e 17 0f b8 3e
       -0.18275502 -0.14100505 0.16471966 0.35949013
000140 49 d2 b2 be 18 9c 43 be 49 0c 0e 3e 08 fe 71 be
       -0.3492606 -0.19102514 0.13871874 -0.23632061
000150 5e 87 ee 3d 8f 49 cf be 14 27 c2 be 6a fe 95 be
       0.11646913 -0.40485808 -0.3792044 -0.29295665
000160 62 ac 3f 3d 76 48 b5 3d 4c 1b c2 3e f9 f2 b9 3e
       0.046795256 0.088517115 0.3791145 0.36318186
000170 1f 51 87 3e ec 16 9a 3c 7d 24 b8 3d e2 2c 91 3e
       0.26429078 0.018809758 0.089913346 0.28354555
000180 fc e4 52 be c5 2c d1 3e 9c 7c 72 3e 06 58 c6 be
       -0.20595163 0.4085447 0.23680347 -0.38739032
000190 0d f5 c2 be 3a f9 3b 3e e6 f8 d1 bc b4 a7 e5 bd
       -0.38077584 0.18356791 -0.02563138 -0.112136275
0001a0 2e 04 8b 3e 82 3b 6b 3c df fc 5c be 5a f2 ab 3d
       0.27151626 0.0143574495 -0.21580838 0.08395834
0001b0 7e a9 7d 3e 13 34 9e 3e 9e 09 94 3e 09 44 8d be
       0.24771687 0.30899104 0.28913587 -0.2759097
0001c0 1f e6 57 3d 8c 42 66 be ca 09 a4 be 25 c8 c6 be
       0.052709695 -0.22486323 -0.32038718 -0.38824573
0001d0 18 50 84 be e7 41 40 3e 19 fb 55 3e 5b d2 00 bd
       -0.25842357 0.1877514 0.20896567 -0.03145061
0001e0 fd ce a2 be 5a 04 c5 3e 93 dc 98 3d 02 05 c0 3d
       -0.31798545 0.38479882 0.07463946 0.09375955
0001f0 de 7e a1 be a0 22 84 bd b3 99 9d be b8 4e 85 3e
       -0.31542104 -0.06451917 -0.30781326 0.2603662
000200 38 6e 02 be 2a 44 ba 3e 94 ba cd be 6b 3a 48 bd
       -0.12737358 0.3638013 -0.4018141 -0.048883837
000210 ec 7c 32 be 6e 7a b7 3d c1 5d 9e 3e 99 9c 0e 3c
       -0.17430466 0.089588985 0.30930904 0.008704328
000220 55 af 3a 3e 94 23 3e 3e 32 3b bd 3d 5d e0 92 3e
       0.18230946 0.1856826 0.09239806 0.286868
000230 2a a0 b8 3e 39 11 aa be e9 07 47 3e c7 93 c6 be
       0.36059695 -0.33216265 0.19436611 -0.3878462
000240 a8 c1 50 be 0e 8b 2c be b9 25 59 3e a3 78 0a 3d
       -0.20386374 -0.1684992 0.21205796 0.033806454
000250 48 bd 0c be 7d dd 07 be ec 2c ae 3e c8 49 72 3e
       -0.1374408 -0.13268085 0.34018648 0.23660958
000260 ff 02 92 be 21 89 ce be b7 73 24 be 07 6b d4 be
       -0.2851791 -0.40338996 -0.16059767 -0.41487905
000270 50 39 dc 3e 12 e9 52 3e dd b2 5a 3e d7 be 8a 3c
       0.43012476 0.20596722 0.21357293 0.016936703
000280 09 2a c6 be f1 4b 86 be bb a0 57 be cb c5 cd 3e
       -0.38703945 -0.26229814 -0.21057408 0.40189967
000290 bd 29 ce 3e fd 2d 60 be 9d 7d e9 bd d2 73 ad 3e
       0.4026622 -0.21892543 -0.11400912 0.33877426
0002a0 e9 0e 2b 3e 96 97 c3 3e 1d 56 0e 3e 04 7d a1 be
       0.16704907 0.38201588 0.13900037 -0.31540692
0002b0 43 88 01 3e 69 1b 06 3c 8d d5 eb bc ea c7 2d be
       0.12649636 0.008185246 -0.028788352 -0.16970792
0002c0 a6 24 9c 3d a6 b2 c7 be 07 3e dd be f0 7f 18 be
       0.07624178 -0.39003485 -0.43211386 -0.14892554
0002d0 4a 98 48 be 40 a6 99 3d 63 28 75 3e 8b 9f d0 3d
       -0.19589344 0.07502413 0.23941188 0.101866804
0002e0 ab a6 ca be bd fd a7 3d b6 c8 d0 3e 5c 36 df 3d
       -0.39580283 0.082026936 0.4077813 0.1089904
0002f0 92 58 77 be c2 1c b1 bc d7 95 58 be d1 2a c0 bd
       -0.2415488 -0.021620158 -0.2115091 -0.093831666
000300 13 96 3c 3e ea 95 a6 be 31 8f 3a 3d 9f e7 96 3e
       0.18416624 -0.3253625 0.045546714 0.29473588
000310 1a ff 50 3e 47 9c ab be b9 e7 80 3e 0f 3d ac bd
       0.20409814 -0.33517668 0.2517679 -0.084100835
000320 7d c7 c4 bd 23 10 bc be ec 8d d9 3e 8d 9d 4d 3e
       -0.09608362 -0.3673106 0.4249109 0.20079632
000330 d7 da 4c 3e d0 13 40 3e dc 25 b2 be a4 d4 5d be
       0.20005356 0.18757558 -0.3479451 -0.21663147
000340 37 71 ba be 93 fe 66 3e 4e f0 b2 be 7c 23 77 3c
       -0.364145 0.2255805 -0.34948963 0.015084144
000350 a0 ec 32 3e ef 26 6a be 51 bb bf 3e 54 52 36 3e
       0.17473078 -0.22866414 0.374476 0.17804843
000360 b8 e2 af 3e 07 7c b2 be 49 d0 a6 be ff bc a1 3e
       0.3435266 -0.3486025 -0.32580784 0.31589505
000370 a6 f1 ac be e1 17 d1 bc 88 d6 bc bd 38 22 8b 3c
       -0.33778113 -0.025524082 -0.09220606 0.01698409
000380 a1 22 07 be 69 93 81 3e 43 cb 94 3b 6e a7 ef 3d
       -0.13196804 0.25307778 0.0045408322 0.117018566
000390 31 6b c9 be 81 d7 16 be 2e cc 64 be 0e 96 17 3d
       -0.39339593 -0.14730646 -0.22343513 0.037008338
0003a0 4f be be be 54 ff 28 3d 44 b2 d4 be 7a e2 2d be
       -0.3725457 0.041259125 -0.41542256 -0.16980925
0003b0 83 6c 94 bd 80 9b 41 bb ea d7 c3 3d f3 42 7d be
       -0.072472595 -0.0029542148 0.09562667 -0.2473257
0003c0 d3 2c 90 3e 6c 78 d2 be 50 cc cd bd ff 66 63 be
       0.28159198 -0.411075 -0.10048735 -0.22207259
0003d0 a4 28 43 be df e1 b0 be 68 8c c0 3e 5f 36 c4 be
       -0.19058472 -0.34547326 0.3760712 -0.38322732
0003e0 69 28 b4 3e d1 e6 68 be 57 20 c4 3e 73 b0 d0 3d
       0.3518708 -0.227443 0.38305923 0.10189905
0003f0 05 f0 56 be b4 65 d4 be c9 89 98 bd 57 d0 b5 3e
       -0.20989998 -0.41483843 -0.074481554 0.35510513

bias f4 [16]
000000 00 00 00 00 df d3 8d 3b e4 47 09 bc 66 e3 19 3c
       0.0 0.0043282355 -0.0083789565 0.009392595
000010 00 00 00 00 51 a3 21 bc bf 16 0f bc 00 00 00 00
       0.0 -0.009865598 -0.00873345 0.0
000020 a1 ca 89 39 00 00 00 00 00 00 00 00 00 00 00 00
       0.00026281647 0.0 0.0 0.0
000030 27 ed 9a 3b 64 a0 91 bb 00 00 00 00 da 84 13 3c
       0.004727978 -0.004444169 0.0 0.009003842
