ad/ad_DD.pt (torch, 352717 bytes, 62 tensors)

weight f4 [16, 89]
-0.2274248 -0.047620337 0.07774439 0.16013806 -0.053393837 -0.14862967 0.043856584 0.033671003
0.23142335 0.16652955 -0.026240349 -0.03025838 0.046041008 -0.23047595 0.17316835 0.11608522
0.11066656 -0.16123408 0.010306632 0.16468707 0.1271596 -0.10047508 -0.06376074 -0.1531681
0.019409288 -0.22922026 0.16534913 -0.06629924 0.13348289 -0.07195479 0.23449914 -0.1608123
0.14556746 -0.004080951 0.056515682 0.032657955 -0.16212389 0.22882262 0.14374971 0.104999974
0.19873957 -0.056362458 0.08552449 -0.092725776 0.0779872 -0.17770043 0.16716853 0.09334601
-0.024932047 -0.052804247 0.16820566 0.15860993 -0.22980683 -0.12320569 0.041005366 -0.0058842935
0.18932822 -0.17664355 -0.17189422 -0.07026836 0.13523269 0.12804516 -0.120953895 -0.07140506
0.19611411 -0.118896194 0.22739063 -0.13012107 -0.027384283 -0.18084602 -0.18302776 0.107173376
0.13094895 0.21117435 0.22228752 0.19090547 -0.08929631 -0.053598214 0.018322576 -0.19161625
-0.22841562 0.14444433 0.18301249 -0.13893454 -0.21028514 0.18099588 -0.023922645 -0.19744797
0.057248272 0.032780547 0.020698098 0.10567115 0.16371422 -0.2390023 0.22804452 -0.077969454
-0.15058282 0.04652676 -0.15376174 -0.07929909 0.1744869 -0.020104831 -0.106580764 -0.11822519
0.10325203 -0.06447469 -0.18803921 0.23741707 0.15462835 -0.20673257 0.025628358 -0.01859332
0.22384086 -0.004469757 -0.00181229 0.050721668 -0.12902065 0.0049838335 -0.17443836 -0.16378024
-0.22873782 -0.15128873 -0.116410024 0.032286815 0.16170979 -0.049031027 0.16850363 0.18616189
-0.18294606 -0.11478236 -0.06822548 0.172964 0.2190808 -0.17704912 -0.011622656 0.19060363
0.12603836 -0.046242163 0.08967281 0.13501865 -0.1559703 -0.20531055 -0.059618976 0.0431648
-0.18472905 0.15915316 0.14001293 -0.057402153 -0.20807134 -0.21664926 0.15724336 0.05342946
-0.2183222 0.020302283 0.023176493 0.093270175 0.028246928 -0.23630334 0.22744079 0.016351674
0.15108894 0.08961964 -0.087447494 -0.079948135 0.08918749 -0.1532339 -0.04633737 0.13225853
0.028102508 -0.21759677 0.09384572 -0.107733704 -0.17984302 0.09763267 -0.11980626 -0.21329266
0.1717697 -0.17820516 0.18623991 -0.22549252 0.084933534 -0.18026027 0.18144658 -0.06707571
0.13019322 -0.19068696 0.21703593 0.15998563 0.13678053 -0.11747742 0.05559177 0.03166941
0.216149 -0.14547001 0.16650508 -0.031480677 0.08144659 -0.1650124 -0.19518943 -0.025463963
0.078649886 -0.19626747 0.071558796 -0.21139976 0.13306683 -0.08320063 -0.20790748 0.15119438
0.09605841 0.031404365 0.23606114 -0.16283554 0.15008071 -0.09277801 -0.05553942 0.10665935
-0.016180411 0.15376815 -0.032275304 -0.09634603 -0.14218898 -0.13485679 0.055146314 0.12971325
0.022885801 -0.16724782 0.0129709095 0.1299848 0.17097524 -0.18012026 0.101207696 -0.15177548
0.21561733 0.21142828 0.1326111 -0.15448618 -0.038154952 -0.0024943247 0.023439828 0.027174406
0.1551369 0.068615824 0.22017269 -0.08320177 0.029161066 -0.16526602 0.15750635 -0.23406936
0.037656147 0.0055421363 -0.14250466 0.07421769 -0.13459468 -0.16139005 0.20795296 0.056219008
00000000: 0ce2 68be 8b0d 43bd 7338 9f3d 3bfb 233e
00000010: 7fb3 5abd 6032 18be f6a2 333d 9bea 093d
00000020: 3efa 6c3e b986 2a3e 00f6 d6bc 6ce0 f7bc
00000030: 7f95 3c3d e301 6cbe 0b53 313e 16be ed3d
00000040: 26a5 e23d 8c1a 25be 26dd 283c baa3 283e
00000050: 2036 023e e1c5 cdbd fe94 82bd 19d8 1cbe
00000060: 3a00 9f3c b7b8 6abe 4851 293e e5c7 87bd
00000070: bdaf 083e 085d 93bd 8b20 703e fbab 24be
00000080: a30f 153e 80b9 85bb fd7c 673d 59c4 053d
00000090: ce03 26be 7a50 6a3e 2033 133e 3a0a d73d
000000a0: 6382 4b3e 52dc 66bd 7727 af3d 03e7 bdbd
000000b0: c1b7 9f3d 1af7 35be 3a2e 2b3e 312c bf3d
000000c0: 4b3e ccbc 4449 58bd 1b3e 2c3e a46a 223e
000000d0: 7b52 6bbe 4453 fcbd 3ef5 273d 08d1 c0bb
000000e0: 42df 413e 0ce2 34be 0a05 30be dce8 8fbd
000000f0: 707a 0a3e 451e 033e adb6 f7bd d13c 92bd
00000100: 23d2 483e d97f f3bd 17d9 683e 753e 05be
00000110: 0155 e0bc b32f 39be a16b 3bbe b77d db3d
00000120: 7b17 063e 173e 583e 579f 633e b97c 433e
00000130: fce0 b6bd cd89 5bbd 3a19 963c 0d37 44be
00000140: c9e5 69be 37e9 133e a067 3b3e db44 0ebe
00000150: fd54 57be fc56 393e 6cf9 c3bc cd2f 4abe
00000160: 2a7d 6a3d e544 063d 0f8f a93c 1e6a d83d
00000170: b3a4 273e 05bd 74be 8184 693e 73ae 9fbd
00000180: 6232 1abe d892 3e3d b873 1dbe 9067 a2bd
00000190: b2ac 323e e3b2 a4bc 0447 dabd 0c20 f2bd
000001a0: cd75 d33d 4e0b 84bd 5a8d 40be 761d 733e
000001b0: e556 1e3e b4b1 53be 90f2 d13c 0551 98bc
000001c0: 8a36 653e 0a77 92bb 5d8a edba 86c1 4f3d
000001d0: fd1d 04be 6d4f a33b f89f 32be 02b6 27be
000001e0: 3f3a 6abe 6feb 1abe 6168 eebd 2e3f 043d
000001f0: 4097 253e c2d4 48bd 378c 2c3e 39a1 3e3e
00000200: 3656 3bbe 0413 ebbd cdb9 8bbd 7a1d 313e
00000210: b856 603e 5d4c 35be f46c 3ebc 992d 433e
00000220: 3310 013e 6c68 3dbd 61a6 b73d 5442 0a3e
00000230: aeb6 1fbe ee3c 52be 0733 74bd 93cd 303d
00000240: 9d29 3dbe 0cf9 223e 8d5f 0f3e 851e 6bbd
00000250: a710 55be 4ed9 5dbe 6704 213e d9d8 5a3d
00000260: db8f 5fbe f950 a63c a1dc bd3c 6f04 bf3d
00000270: 1a66 e73c 81f9 71be 3de6 683e f2f3 853c
00000280: 0fb7 1a3e 808a b73d ac17 b3bd d9bb a3bd
00000290: eea7 b63d 59e9 1cbe 41cc 3dbd c86e 073e
000002a0: 3b37 e63c b0d1 5ebe 2f32 c03d 7da3 dcbd
000002b0: c528 38be a3f3 c73d fc5c f5bd 6469 5abe
000002c0: 65e4 2f3e 6a7b 36be adb5 3e3e 83e7 66be
000002d0: a2f1 ad3d 2696 38be 22cd 393e fd5e 89bd
000002e0: 5f51 053e 7143 43be ab3e 5e3e 46d3 233e
000002f0: 3210 0c3e 0098 f0bd 32b4 633d c9b7 013d
00000300: 2a56 5d3e 17f6 14be 4f80 2a3e e2f1 00bd
00000310: 78cd a63d 03f9 28be bddf 47be cd99 d0bc
00000320: 3113 a13d 57fa 48be 6b8d 923d 2e79 58be
00000330: ac42 083e 1865 aabd b3e5 54be b3d2 1a3e
00000340: 46ba c43d dda1 003d 03ba 713e 5cbe 26be
00000350: c2ae 193e 6602 bebd 4e7d 63bd 3870 da3d
00000360: c88c 84bc 6675 1d3e 1c33 04bd 1151 c5bd
00000370: fd99 11be e617 0abe 1ae1 613d 8dd3 043e
00000380: 017b bb3c 0343 2bbe f083 543c bc1a 053e
00000390: 2214 2f3e 7271 38be fb45 cf3d 086b 1bbe
000003a0: caca 5c3e a880 583e 34cb 073e a031 1ebe
000003b0: 5e48 1cbd d377 23bb e204 c03c dc9c de3c
000003c0: 35dc 1e3e 7486 8c3d f374 613e b165 aabd
000003d0: 30e3 ee3c 7f3b 29be 5849 213e e1af 6fbe
000003e0: 553d 1a3d cf9a b53b beec 11be 72ff 973d
000003f0: 30d3 09be 6f43 25be 9ff1 543e e745 663d

bias f4 [16]
0.0 0.0 0.0 0.0 0.0 0.0 0.0 0.0
0.0 0.0 0.0 0.0 0.0 0.0 0.0 0.0
00000000: 0000 0000 0000 0000 0000 0000 0000 0000
00000010: 0000 0000 0000 0000 0000 0000 0000 0000
00000020: 0000 0000 0000 0000 0000 0000 0000 0000
00000030: 0000 0000 0000 0000 0000 0000 0000 0000

weight f4 [16, 16]
-0.0568513 -0.08145515 -0.26568663 0.030543042 0.041474737 -0.22841153 -0.3936432 -0.06347915
0.10221714 0.078125715 -0.108041175 -0.34701532 0.2386412 0.102508426 -0.08992792 0.1077439
-0.41740596 0.30128422 -0.17723452 0.3523177 0.3191363 0.0064453203 -0.42928877 0.22757989
-0.37707588 0.08277149 -0.055905174 -0.30790836 -0.28595152 -0.33292747 0.296344 0.2396296
-0.015071394 0.11113027 0.32008398 -0.20413846 0.40369442 0.23298518 -0.2747919 0.1328008
0.1011382 0.029022446 -0.19421576 0.2193117 0.13074023 0.19389112 0.09982052 0.06501374
0.2328768 -0.11944699 0.19782388 0.08555578 -0.17579268 -0.2272616 0.16194291 0.2770702
-0.27078304 0.38691607 0.074999556 0.36173868 -0.1612702 -0.08683737 0.12046404 -0.3723009
-0.4198605 0.4183213 0.07575191 0.3382955 0.36281893 0.09397315 0.18244453 -0.17982285
-0.3115869 -0.055018257 0.12386373 0.1919184 -0.21654537 0.40936348 -0.4228252 0.032402363
0.4281067 -0.108298905 0.082045466 -0.34162137 -0.036403414 0.026780833 0.11485635 -0.2999975
0.36715794 0.36077785 0.39688352 0.14309026 0.39218646 -0.42443296 -0.27427822 0.04367841
-0.25627434 0.3153938 0.18169776 -0.20887631 0.12133119 -0.30681 -0.2453525 0.2631765
0.32681423 -0.15340644 0.17023572 0.03558035 0.13621572 -0.26918364 -0.350946 -0.15900299
0.2835052 -0.10998742 -0.21327727 0.2711401 0.38771927 0.38392913 0.26173627 0.26067203
-0.39325914 -0.39121756 0.14052412 0.065009914 0.39365155 -0.23271362 -0.101333216 0.11044348
0.19037431 0.3655583 0.38543388 0.21291716 0.045342714 0.1860017 0.28793785 0.16446193
0.029321734 -0.30848154 -0.035370104 -0.2197393 -0.10799111 0.30006894 -0.24466644 0.41195714
0.28709882 0.31894478 0.20693342 -0.22404398 -0.30639473 -0.13648637 0.26399347 0.22422315
-0.42301387 0.32075077 -0.27849117 -0.2587088 -0.06275741 -0.20341624 0.27392098 -0.015317978
-0.27017254 0.12054069 0.012393496 -0.42310497 0.28748876 -0.10942431 -0.102970056 0.407084
-0.007802645 0.38246718 -0.24909857 0.2902417 0.18208759 0.02055985 0.25822365 0.095853485
0.29149336 0.22308108 0.023219319 -0.3456258 0.24730836 -0.2257344 0.26107585 -0.39435497
-0.08638653 0.23811232 0.3628834 -0.32218635 0.42408285 -0.3066275 0.060063202 -0.07228006
0.09233786 0.107028976 -0.1575928 -0.28772238 -0.21097572 -0.035850935 0.14355622 0.3827765
0.19613858 -0.36422002 -0.21186201 0.04159826 0.09203594 0.22240755 0.34828597 0.021170607
0.2698656 -0.062163427 0.36694857 0.22372043 -0.2098051 0.3618739 -0.19474207 0.3426849
-0.031087056 0.35020718 -0.33911723 -0.17049707 0.16358048 -0.09842267 0.087776534 -0.2758384
0.3595643 0.32931167 -0.33006948 0.12013156 0.20743386 0.18782789 -0.23979819 -0.10904279
0.20673779 0.3265439 0.25217366 0.14453962 -0.009574782 0.007233441 0.16462287 0.1834286
-0.33515882 -0.038808607 0.36252543 0.085286684 -0.06620005 -0.3313204 0.33311376 -0.23689163
-0.23848066 0.08822861 0.28368556 -0.14167584 0.16765219 0.03588397 0.41307944 -0.29135382
00000000: e9dc 68bd f5d1 a6bd 1408 88be 6735 fa3c
00000010: 6ae1 293d b6e4 69be 9a8b c9be 5b01 82bd
00000020: 3857 d13d 6000 a03d b144 ddbd feab b1be
00000030: 5c5e 743e f0ef d13d 212c b8bd d5a8 dc3d
00000040: 3cb6 d5be ed41 9a3e f77c 35be fc62 b43e
00000050: d565 a33e 4433 d33b bdcb dbbe b40a 693e
00000060: 1710 c1be 1984 a93d d3fc 64bd 2aa6 9dbe
00000070: 3d68 92be 7875 aabe 67ba 973e 7661 753e
00000080: 02ee 76bc 4498 e33d 0ce2 a33e ac09 51be
00000090: 09b1 ce3e ab93 6e3e 86b1 8cbe effc 073e
000000a0: 8b21 cf3d 7bc0 ed3c 7fe0 46be 3f93 603e
000000b0: c4e0 053e 658b 463e b36e cc3d ec25 853d
000000c0: 4177 6e3e a0a0 f4bd 5892 4a3e de37 af3d
000000d0: ff02 34be 44b7 68be 5dd4 253e 25dc 8d3e
000000e0: 13a4 8abe dd19 c63e 5e99 993d d035 b93e
000000f0: 0424 25be cbd7 b1bd dab5 f63d 399e bebe
00000100: f5f7 d6be 362e d63e d123 9b3d 1135 ad3e
00000110: 67c3 b93e ff74 c03d bdd2 3a3e 7b23 38be
00000120: 5188 9fbe d35a 61bd 44ac fd3d 4286 443e
00000130: 12be 5dbe 1798 d13e 8b7c d8be 57b8 043d
00000140: cd30 db3e d1cb ddbd 7407 a83d ffe8 aebe
00000150: bf1b 15bd 7a63 db3c ce39 eb3d 4699 99be
00000160: 20fc bb3e e0b7 b83e 5134 cb3e 4186 123e
00000170: aacc c83e 474f d9be 326e 8cbe 22e8 323d
00000180: 6436 83be 4c7b a13e fa0e 3a3e ace3 55be
00000190: 7d7c f83d 3316 9dbe b03d 7bbe 12bf 863e
000001a0: 3254 a73e 9416 1dbe 4652 2e3e b3bc 113d
000001b0: 227c 0b3e 70d2 89be 32af b3be aed1 22be
000001c0: 9827 913e 1641 e1bd 5b65 5abe e0d2 8a3e
000001d0: 2483 c63e 5c92 c43e 4c02 863e ce76 853e
000001e0: 4359 c9be ab4d c8be 8ee5 0f3e eb23 853d
000001f0: b28c c93e 7b4c 6ebe ca87 cfbd 3130 e23d
00000200: 7cf1 423e 752a bb3e 9757 c53e f506 5a3e
00000210: 48b9 393d 3b77 3e3e 976c 933e b568 283e
00000220: 2234 f03c 4bf1 9dbe 3ee0 10bd 5703 61be
00000230: 712a ddbd a3a2 993e d789 7abe 0cec d23e
00000240: 9efe 923e bb4c a33e 5be6 533e c96b 65be
00000250: c5df 9cbe 15c3 0bbe 272a 873e c19a 653e
00000260: 4695 d8be 7239 a43e 6596 8ebe 7b75 84be
00000270: f586 80bd 594c 50be 5f3f 8c3e 42f8 7abc
00000280: 0e54 8abe 0ade f63d 170e 4b3c 37a1 d8be
00000290: ba31 933e da19 e0bd f7e1 d2bd 506d d03e
000002a0: 55ad ffbb bdd2 c33e b213 7fbe 8f9a 943e
000002b0: 2b75 3a3e 216d a83c e435 843e d54e c43d
000002c0: 9e3e 953e 5e6f 643e 7136 be3c ddf5 b0be
000002d0: 673e 7d3e eb26 67be bcab 853e e5e8 c9be
000002e0: 6ceb b0bd b7d3 733e dacb b93e 9cf5 a4be
000002f0: 6321 d93e 48fe 9cbe d504 763d 9107 94bd
00000300: a21b bd3d 0232 db3d 0260 21be 5950 93be
00000310: 050a 58be 6ed8 12bd 6700 133e 48fb c33e
00000320: 8dd8 483e 0c7b babe 5bf2 58be f062 2a3d
00000330: 577d bc3d cebe 633e 8a52 b23e fb6d ad3c
00000340: d32b 8a3e 149f 7ebd afe0 bb3e f816 653e
00000350: 26d7 56be 8947 b93e 776a 47be 6574 af3e
00000360: 48aa febc 5b4e b33e c6a0 adbe c996 2ebe
00000370: a481 273e d391 c9bd 2fc4 b33d b13a 8dbe
00000380: d018 b83e 8a9b a83e defe a8be 8907 f63d
00000390: 8b69 543e f455 403e a88d 75be d451 dfbd
000003a0: 12b3 533e c330 a73e e81c 813e 3202 143e
000003b0: 8cdf 1cbc 8006 ed3b e692 283e b5d4 3b3e
000003c0: f099 abbe c6f5 1ebd ef9c b93e c9aa ae3d
000003d0: e493 87bd d4a2 a9be e38d aa3e b893 72be
000003e0: 4634 74be 34b1 b43d 3c3f 913e 7913 11be
000003f0: 04ad 2b3e 12fb 123d 267f d33e 542c 95be

bias f4 [16]
0.0 0.0 0.0 0.0 0.0 0.0 0.0 0.0
0.0 0.0 0.0 0.0 0.0 0.0 0.0 0.0
00000000: 0000 0000 0000 0000 0000 0000 0000 0000
00000010: 0000 0000 0000 0000 0000 0000 0000 0000
00000020: 0000 0000 0000 0000 0000 0000 0000 0000
00000030: 0000 0000 0000 0000 0000 0000 0000 0000

weight f4 [16, 16]
0.08205156 0.16185898 0.4192551 -0.2501682 0.27216932 0.3841499 0.008080563 -0.28216428
-0.10939659 -0.34123424 -0.045160394 -0.14209834 0.13584696 -0.18769053 -0.29163578 -0.20599782
0.19401656 -0.28227702 0.39334193 0.07235872 -0.19027092 -0.19623268 0.14173453 0.08383036
-0.28303495 0.21055694 -0.15443562 0.2593268 -0.15063238 0.20618246 -0.29741946 0.3250854
0.15608636 -0.014074783 0.19408856 0.16932419 0.25607282 0.0066229417 0.28071436 0.23605834
-0.16896378 -0.289392 0.38744777 -0.1353624 0.39656985 -0.26840568 0.16315493 -0.0033323765
0.39810356 -0.052663185 0.3846363 0.16037813 -0.029501058 0.32637835 -0.18744895 0.27214527
0.19782631 -0.39442083 0.0060410905 -0.074922495 -0.046832234 -0.37677544 -0.3484353 -0.18094355
0.29576614 0.30562535 -0.37159914 0.37815827 -0.04249256 0.26627505 -0.21047533 -0.025126543
-0.1999429 0.041428227 -0.09462913 0.36690664 -0.2949409 -0.11456645 0.05408266 0.15859401
0.32413143 -0.26220244 0.25833055 0.004640973 -0.25184286 0.33730385 -0.09443076 0.17741425
0.40323552 0.055925462 -0.36549786 0.14916706 0.030004138 -0.21605876 0.31871808 0.16356783
-0.1895037 -0.16381554 -0.33451295 0.28969222 0.3473502 -0.05510797 0.1609622 -0.14069389
-0.24319716 -0.30455172 -0.3018484 0.16735786 -0.4160873 0.3957622 0.020129966 -0.3983037
-0.43099 -0.3884227 -0.36247742 -0.28129962 0.21938008 -0.25047123 -0.26081008 -0.0897952
0.1792409 0.4038996 0.2779155 -0.42829588 -0.08798048 -0.08855588 0.2759259 0.22961244
-0.1454127 0.19418608 -0.26569185 0.024502624 -0.36060447 -0.38113827 0.22093713 0.40636456
-0.035500184 -0.29894307 0.04540543 0.1937471 -0.096040085 0.3988633 -0.1258072 -0.36005574
-0.10154532 -0.15917751 0.071202815 -0.35526946 0.11271291 0.3085394 -0.4043959 -0.08984135
-0.24883613 -0.19754757 -0.19439948 -0.35475865 0.15982719 -0.050608277 -0.20533483 -0.07651726
0.20284477 0.34479848 0.11817519 0.045926318 0.17843264 -0.24718928 -0.12760265 0.008456454
0.2585204 0.28719556 -0.3412638 -0.23342824 0.2304656 -0.012997492 -0.39338937 -0.20361844
0.29689428 -0.40674257 -0.10810131 -0.24964955 -0.12018839 -0.40832904 0.32237595 0.07495026
0.4082342 -0.3841642 -0.3284027 -0.42871428 -0.35756966 -0.2909822 -0.120455936 0.11943104
0.23371111 0.276193 -0.22554888 0.3438872 -0.0443715 -0.39352283 -0.09811564 0.13604063
0.25347623 0.1330955 -0.022503672 -0.29903466 0.0558135 0.40981355 -0.2818497 -0.16737293
-0.26786035 -0.37860504 0.37278792 -0.27821547 0.065305896 -0.07146385 0.020945651 -0.30712828
0.032895483 -0.18136549 -0.098161526 0.3616669 -0.21297988 -0.1119315 -0.019110953 0.3923048
-0.42786786 0.0937769 0.39154592 0.31317842 -0.00392801 -0.30357426 0.42710638 -0.15364869
0.24380311 0.11246168 -0.38109484 0.25013834 -0.1415008 0.0025462687 0.056550983 0.39677525
0.3252024 0.35781285 0.30682352 0.08925754 -0.38833386 -0.34735993 0.033142477 -0.41646793
0.018627178 -0.050122388 0.31618404 -0.349715 -0.42390093 -0.25164235 0.37935373 0.17148486
00000000: a60a a83d 5cbe 253e 9ba8 d63e 0c16 80be
00000010: c759 8b3e 4caf c43e 5664 043c d677 90be
00000020: 520b e0bd 41b6 aebe 1bfa 38bd 3a82 11be
00000030: 771b 0b3e f231 40be 4951 95be 18f1 52be
00000040: 47ac 463e 9d86 90be 1d64 c93e cf30 943d
00000050: 61d6 42be 38f1 48be db22 113e 40af ab3d
00000060: f5e9 90be 3d9c 573e 5f24 1ebe 7bc6 843e
00000070: 603f 1abe 7f21 533e 5d47 98be 9871 a63e
00000080: 1ad5 1f3e eb99 66bc 27bf 463e 5263 2d3e
00000090: fa1b 833e 4305 d93b cbb9 8f3e 47b9 713e
000000a0: d704 2dbe 302b 94be 8e5f c63e 719c 0abe
000000b0: 340b cb3e 786c 89be 1612 273e 0064 5abb
000000c0: 3bd4 cb3e 5ab5 57bd 0def c43e 2a3a 243e
000000d0: 34ac f1bc 101b a73e 9ef2 3fbe a056 8b3e
000000e0: fb92 4a3e 87f1 c9be 57f4 c53b f770 99bd
000000f0: 28d3 3fbd b6e8 c0be 1d66 b2be 4449 39be
00000100: a96e 973e ed7a 9c3e 3e42 bebe f69d c13e
00000110: ae0c 2ebd 3455 883e d886 57be 2ed6 cdbc
00000120: d5bd 4cbe a5b0 293d ebcc c1bd 30db bb3e
00000130: 7e02 97be d1a1 eabd c785 5d3d 7866 223e
00000140: 8ef4 a53e 663f 86be e743 843e 4e13 983b
00000150: 8cf1 80be 17b3 ac3e ea64 c1bd 15ac 353e
00000160: e374 ce3e 1912 653d 8922 bbbe 40bf 183e
00000170: 3dcb f53c 823e 5dbe 042f a33e 537e 273e
00000180: 420d 42be 43bf 27be 4845 abbe 8a52 943e
00000190: e3d7 b13e e5b8 61bd 46d3 243e 0f12 10be
000001a0: ad08 79be 34ee 9bbe e08b 9abe dc5f 2b3e
000001b0: 6509 d5be 58a1 ca3e 99e7 a43c 76ee cbbe
000001c0: b9aa dcbe 57df c6be a496 b9be 8106 90be
000001d0: 2ca5 603e c43d 80be e688 85be 8ce6 b7bd
000001e0: ed8a 373e eecb ce3e f14a 8e3e 9949 dbbe
000001f0: 1c2f b4bd c95c b5bd 2946 8d3e 861f 6b3e
00000200: 11e7 14be b7d8 463e c308 88be bab9 c83c
00000210: 26a1 b8be 8e24 c3be 583d 623e 040f d03e
00000220: a468 11bd 110f 99be 0bfb 393d a465 463e
00000230: aab0 c4bd cf37 cc3e 9ad3 00be 3a59 b8be
00000240: fef6 cfbd 6eff 22be c8d2 913d e1e5 b5be
00000250: 07d6 e63d e0f8 9d3e fb0c cfbe befe b7bd
00000260: e6ce 7ebe e949 4abe a810 47be eda2 b5be
00000270: bda9 233e a04a 4fbd 4b43 52be 15b5 9cbd
00000280: 8ab6 4f3e 6d89 b03e d605 f23d 3c1d 3c3d
00000290: 0cb7 363e 301f 7dbe 45aa 02be f08c 0a3c
000002a0: c95c 843e 4c0b 933e 21ba aebe d007 6fbe
000002b0: 2dff 6b3e 6ff3 54bc 556a c9be 5a81 50be
000002c0: 8702 983e 9040 d0be 3864 ddbd 22a4 7fbe
000002d0: 5525 f6bd 8110 d1be 760e a53e 867f 993d
000002e0: 1304 d13e 2cb1 c4be 6624 a8be 7080 dbbe
000002f0: 5f13 b7be 9efb 94be 9ab1 f6bd 4398 f43d
00000300: f751 6f3e 2b69 8d3e 49f6 66be fc11 b03e
00000310: e4be 35bd d37b c9be daf0 c8bd 3c4e 0b3e
00000320: a3c7 813e 304a 083e 9f59 b8bc 121b 99be
00000330: b29c 643d 15d3 d13e 9b4e 90be cf63 2bbe
00000340: fe24 89be 85d8 c1be 0fde be3e 4272 8ebe
00000350: 19bf 853d a45b 92bd 3796 ab3c eb3f 9dbe
00000360: 6abd 063d e0b7 39be e908 c9bd 672c b93e
00000370: 6617 5abe 583c e5bd 938e 9cbc 2ddc c83e
00000380: 7f11 dbbe 1a0e c03d b578 c83e ec58 a03e
00000390: 89b6 80bb 166e 9bbe b0ad da3e 1556 1dbe
000003a0: 86a7 793e 4f52 e63d dd1e c3be 2212 803e
000003b0: 96e5 10be 4ddf 263b 01a2 673d 2026 cb3e
000003c0: ee80 a63e 3f33 b73e f917 9d3e a8cc b63d
000003d0: b2d3 c6be 29d9 b1be 68c0 073d 493b d5be
000003e0: 0698 983c 224d 4dbd e0e2 a13e d80d b3be
000003f0: 8b09 d9be 44d7 80be a73a c23e ba99 2f3e

bias f4 [16]
0.0 0.0 0.0 0.0 0.0 0.0 0.0 0.0
0.0 0.0 0.0 0.0 0.0 0.0 0.0 0.0
00000000: 0000 0000 0000 0000 0000 0000 0000 0000
00000010: 0000 0000 0000 0000 0000 0000 0000 0000
00000020: 0000 0000 0000 0000 0000 0000 0000 0000
00000030: 0000 0000 0000 0000 0000 0000 0000 0000

weight f4 [16, 16]
-0.19623645 0.39803702 -0.27380472 0.25586587 -0.08769663 -0.24771166 -0.15688124 -0.11877321
-0.17072292 0.36702573 0.28668582 -0.32833022 -0.092050545 0.030873664 -0.10860625 -0.11500676
-0.42478198 -0.26090124 0.1406355 -0.047243536 0.28354046 -0.3278547 -0.32369947 0.41860813
0.09647926 -0.06524834 0.13553317 0.08781458 -0.04883743 -0.38139138 -0.1858627 0.03991713
0.06091337 0.12839125 0.37517893 0.17288807 -0.11604132 0.2225446 0.17236662 -0.079499505
0.0898654 -0.42082852 0.26538575 -0.15055108 0.14324939 0.08992729 -0.2392022 0.4026818
0.38122022 0.213001 -0.42254785 -0.14648773 -0.19325161 0.1408964 0.27131498 0.11367318
0.24687894 0.40039027 -0.22691116 -0.24635755 -0.1935236 -0.27153152 0.42749935 0.39676544
-0.34127083 -0.04085789 -0.3420936 -0.08916638 0.39954376 -0.013104447 -0.432316 -0.12296287
-0.32674122 0.2953089 -0.1347356 -0.25808096 -0.32701495 0.12960109 0.31549266 -0.363798
0.35367578 -0.32278824 -0.23698655 0.13859573 -0.02895947 -0.05058892 0.3953905 0.05255086
0.28008717 0.24307524 0.046721824 -0.007322897 -0.18989854 -0.24926555 -0.02144326 0.24957398
-0.17224124 -0.4139248 0.3151894 0.13607873 0.4084147 0.40077955 -0.1648404 0.06684213
-0.11626116 0.28348368 -0.09387554 0.06254861 -0.14577295 0.23910102 0.20586903 0.2815216
0.41023225 0.0007488388 -0.33734947 -0.07797194 0.06268013 0.4117392 0.33075827 -0.20537917
0.3483804 -0.021494053 0.3662498 0.20017365 -0.19161302 -0.072927 0.40158227 0.009969513
-0.087932065 0.13329542 0.21324113 -0.15174745 -0.053971626 -0.004509396 0.23445696 0.15331586
-0.23659946 0.20455487 -0.315241 0.2882981 -0.27224055 0.301424 0.05711198 -0.1177593
0.19053929 -0.029430186 0.12655933 -0.03030358 0.18095955 -0.060235247 0.27903715 -0.077365
-0.17384793 0.33325666 -0.34450963 0.31698295 -0.05563846 -0.38515684 -0.12243088 -0.41137514
0.07161334 -0.34313738 0.32127896 0.027414408 -0.16435672 0.10401065 0.3048584 -0.3382985
-0.27052826 -0.22853252 0.03754941 0.056251332 -0.35219988 0.06731652 0.17293619 0.09555435
-0.10393012 -0.12310648 -0.35238418 -0.34147632 -0.12205845 0.076482005 -0.17887585 0.12767178
0.32609662 0.14263374 0.22272305 -0.101909645 -0.16698563 -0.2777818 -0.14905955 0.047997434
-0.18370594 0.1066504 0.062355142 0.16265143 0.2908956 0.117562324 -0.33603588 0.125688
-0.1453614 -0.16986412 -0.34780782 0.27653217 0.09738249 0.28225812 0.0024544382 -0.107605666
0.065158166 0.27518868 0.038751725 -0.2737435 -0.37022972 0.24661832 0.10963925 -0.006512167
-0.3453577 0.10475164 -0.19172178 -0.25337583 0.33542776 -0.1565021 -0.35913956 0.0822234
0.18629222 -0.06963695 0.42526564 -0.20873266 -0.29814476 -0.3169113 -0.40059134 -0.2659098
0.19442554 -0.37893602 0.22801086 0.23547989 -0.09339399 0.040892936 -0.016064804 0.33272305
-0.42557046 0.11537956 -0.09688339 0.17273389 -0.035515822 0.16750637 -0.33424288 -0.16215464
0.18926522 0.39907548 -0.34015596 0.025565306 -0.40198576 -0.33397147 -0.03501935 0.14339228
00000000: 35f2 48be 82cb cb3e 2230 8cbe da00 833e
00000010: 4a9a b3bd 20a8 7dbe 7aa5 20be 5e3f f3bd
00000020: fdd1 2ebe ccea bb3e 7cc8 923e e61a a8be
00000030: ff84 bcbd c4ea fc3c f46c debd aa88 ebbd
00000040: 067d d9be d994 85be c102 103e 7082 41bd
00000050: 372c 913e 92dc a7be f0bb a5be ce53 d63e
00000060: eb96 c53d eca0 85bd 35c9 0a3e 21d8 b33d
00000070: c209 48bd bb45 c3be cb52 3ebe 2580 233d
00000080: 4c80 793d ff78 033e 7417 c03e 9209 313e
00000090: 12a7 edbd bbe2 633e e080 303e a3d0 a2bd
000000a0: 5a0b b83d d676 d7be a4e0 873e 102a 1abe
000000b0: f8af 123e cd2b b83d 6cf1 74be 4f2c ce3e
000000c0: 4c2f c33e ef1c 5a3e 3158 d8be e100 16be
000000d0: c0e3 45be 2547 103e cce9 8a3e 7ccd e83d
000000e0: d5cd 7c3e f4ff cc3e 665b 68be 2745 7cbe
000000f0: 0d2b 46be 2e06 8bbe 32e1 da3e d724 cb3e
00000100: 0dbb aebe 9a5a 27bd e426 afbe dd9c b6bd
00000110: 0091 cc3e 09b4 56bc 8658 ddbe f5d3 fbbd
00000120: a04a a7be ba32 973e 21f8 09be 3023 84be
00000130: 816e a7be 26b6 043e 4188 a13e bb43 babe
00000140: fe14 b53e 8044 a5be 9aac 72be 0aec 0d3e
00000150: 693c edbc 5436 4fbd a070 ca3e 923f 573d
00000160: 9667 8f3e b7e8 783e 625f 3f3d eaf4 efbb
00000170: c374 42be 783f 7fbe c7a9 afbc 5290 7f3e
00000180: 0260 30be f4ed d3be 8160 a13e 3958 0b3e
00000190: bb1b d13e fa32 cd3e eccb 28be 87e4 883d
000001a0: 551a eebd c624 913e d241 c0bd 7c19 803d
000001b0: 8145 15be e6d6 743e 55cf 523e 9923 903e
000001c0: f609 d23e b94d 443a 12b9 acbe c1af 9fbd
000001d0: 715e 803d 7bcf d23e 2659 a93e eb4e 52be
000001e0: ea5e b23e 4c14 b0bc 1885 bb3e 52fa 4c3e
000001f0: 3436 44be c05a 95bd 319c cd3e 2b57 233c
00000200: ba15 b4bd 987e 083e e25b 5a3e af63 1bbe
00000210: 5a11 5dbd 8ec3 93bb 7c15 703e d5fe 1c3e
00000220: 2147 72be d576 513e 4567 a1be cf9b 933e
00000230: 1d63 8bbe 3f54 9a3e 40ee 693d ca2b f1bd
00000240: bb1c 433e 9317 f1bc c598 013e 373f f8bc
00000250: 764d 393e 3cb9 76bd f5dd 8e3e 8b71 9ebd
00000260: 3105 32be 9ea0 aa3e 9163 b0be 974b a23e
00000270: 27e5 63bd 4733 c5be 0bbd fabd c39f d2be
00000280: 04aa 923d b4af afbe ad7e a43e 2e94 e03c
00000290: 214d 28be 8903 d53d 6616 9c3e 7635 adbe
000002a0: ae82 8abe 6e04 6abe 69cd 193d cc67 663d
000002b0: 8b53 b4be 3edd 893d 2f16 313e 00b2 c33d
000002c0: 51d9 d4bd 401f fcbd b36b b4be fcd5 aebe
000002d0: c8f9 f9bd 99a2 9c3d 3b2b 37be 64bc 023e
000002e0: 23f6 a63e 940e 123e 8311 643e 01b6 d0bd
000002f0: 48fe 2abe 6b39 8ebe 11a3 18be f598 443d
00000300: 691d 3cbe 866b da3d 1b68 7f3d 198e 263e
00000310: 45f0 943e 84c4 f03d e50c acbe 5bb4 003e
00000320: 9ed9 14be dcf0 2dbe de13 b2be a095 8d3e
00000330: 7970 c73d 2384 903e a4da 203b 5c60 dcbd
00000340: a571 853d 88e5 8c3e 21ba 1e3d 1c28 8cbe
00000350: c08e bdbe 8389 7c3e 8b8a e03d 0464 d5bb
00000360: b9d2 b0be 0788 d63d b752 44be 7aba 81be
00000370: 30bd ab3e 1642 20be 24e1 b7be be64 a83d
00000380: 63c3 3e3e d19d 8ebd 6bbc d93e 04be 55be
00000390: 6ea6 98be 3342 a2be 4f1a cdbe 5425 88be
000003a0: 7d17 473e e703 c2be ae7b 693e a421 713e
000003b0: 5945 bfbd 5a7f 273d 569a 83bc ad5a aa3e
000003c0: 5fe4 d9be 1e4c ec3d cc6a c6bd 27e1 303e
000003d0: 0a79 11bd ca86 2b3e e221 abbe de0b 26be
000003e0: bece 413e 9f53 cc3e ec28 aebe 556e d13c
000003f0: 14d1 cdbe 4ffe aabe 7370 0fbd 6dd5 123e

bias f4 [16]
0.0 0.0 0.0 0.0 0.0 0.0 0.0 0.0
0.0 0.0 0.0 0.0 0.0 0.0 0.0 0.0
00000000: 0000 0000 0000 0000 0000 0000 0000 0000
00000010: 0000 0000 0000 0000 0000 0000 0000 0000
00000020: 0000 0000 0000 0000 0000 0000 0000 0000
00000030: 0000 0000 0000 0000 0000 0000 0000 0000

weight f4 [16, 16]
-0.30166316 -0.38156748 0.21761534 0.29014558 -0.28810188 -0.2017571 0.02274303 0.3672191
-0.063066505 0.39028025 -0.40181568 0.12574798 0.40119708 -0.14496507 -0.19055131 0.3666023
0.17181867 -0.25171158 0.15687825 0.42826518 -0.17745982 -0.40201247 0.34943154 0.3616991
-0.40151703 -0.37224504 -0.4265028 0.18468574 0.3837365 -0.16975112 0.08804877 0.30940324
-0.23899288 -0.22342996 0.10805336 -0.31532577 0.0024908297 0.4214704 -0.030989807 -0.28376284
-0.43219417 0.04046641 -0.13679314 0.005838279 0.41279623 0.17608263 0.14370106 0.3084903
0.10660699 -0.1984458 0.34426385 0.025079932 0.009834994 -0.15212949 0.21000811 0.09451469
0.37308323 0.3881088 -0.37590447 -0.13297708 0.36163318 0.16683723 -0.15971157 0.16427532
-0.15988165 -0.28270134 -0.23545454 -0.004044101 0.039250728 0.31742588 -0.25694427 0.26565665
-0.33573428 0.10354561 0.18732724 0.102746084 0.20634744 -0.15476109 0.32443908 0.42440686
-0.20193127 0.29247326 0.014635264 0.13846317 -0.36614433 -0.25279564 -0.00981894 -0.37336135
-0.29890645 -0.40972745 0.42118087 0.29152232 0.2616614 0.2515248 -0.15640831 0.29862842
-0.28403562 0.11699379 -0.013125353 0.12752084 0.0049473844 0.3151372 0.32740563 0.33050722
0.09447665 0.203332 -0.03729565 -0.05802765 0.18446852 -0.4285449 -0.40233463 -0.24287604
0.09589261 0.24793956 0.21859738 -0.039823648 -0.0886188 0.16579597 0.39971715 -0.094418526
0.10496984 0.16827188 0.39552787 -0.02158356 0.2716921 -0.33952805 0.21071416 0.31048003
-0.29582343 0.13749883 -0.09870281 0.34163216 0.25146204 -0.22752151 -0.24714008 -0.39248848
0.09000235 -0.31253 -0.1480666 -0.20686436 -0.04751113 0.09213396 -0.10426286 -0.36900645
-0.35136724 -0.3775724 0.23461868 -0.06872819 -0.42999923 -0.18417233 0.045517754 0.39608648
0.0058693537 -0.015203126 0.43244654 -0.24578188 -0.29766014 0.12543532 -0.14465252 -0.29724935
0.32571635 -0.3076756 -0.084392175 -0.3123944 0.2759283 0.011477566 0.15161005 -0.34878302
0.19114174 0.3192193 0.3167569 -0.22853401 -0.044153716 0.36932284 0.34078628 0.25704017
0.23970976 0.057602517 -0.08403249 -0.010290327 -0.07449988 -0.4094514 0.40617147 -0.14224091
0.10979679 -0.050383426 -0.42810625 -0.2503396 -0.27621156 0.25580847 0.20090456 0.25151753
0.2702509 -0.20021942 0.29822508 0.4059541 0.13037466 0.31236854 -0.024504172 0.2400356
0.4291155 -0.20911144 0.3757344 -0.2221509 0.23246348 -0.11803123 -0.2199035 0.36636543
0.39218768 -0.05784332 -0.4279822 -0.4156055 0.22729325 -0.39724988 0.010276183 -0.32836908
-0.02124148 0.04136293 -0.15090725 -0.13161016 0.30572265 -0.30495656 -0.2426822 0.018450383
0.15427597 0.2726775 0.15339065 -0.12368626 0.2187511 0.21380058 0.33250296 -0.09717803
0.21988152 0.1198426 0.43142438 -0.14752331 0.2882128 -0.27445486 0.3115219 -0.20657168
-0.047606006 -0.31812415 -0.24991275 -0.28479734 0.048255786 0.23087877 0.16242167 0.16870862
-0.3031773 0.25770238 0.3798562 -0.32227764 -0.3035438 -0.112761796 0.38285458 0.26828617
00000000: 9873 9abe d05c c3be 8ed6 5e3e f68d 943e
00000010: 1782 93be 6a99 4ebe 974f ba3c 2404 bc3e
00000020: 0329 81bd d0d2 c73e c9ba cdbe 14c4 003e
00000030: b469 cd3e b971 14be e21f 43be 4cb3 bb3e
00000040: 3cf1 2f3e 57e0 80be b1a4 203e 9345 db3e
00000050: 07b8 35be 94d4 cdbe b1e8 b23e a030 b93e
00000060: a493 cdbe e796 bebe 935e dabe 421e 3d3e
00000070: 1c79 c43e 3dd3 2dbe ea52 b43d 1a6a 9e3e
00000080: 8dba 74be d3ca 64be 144b dd3d 6172 a1be
00000090: 303d 233b f8ca d73e 56de fdbc 5d49 91be
000000a0: 8e48 ddbe 1bc0 253d 8013 0cbe 094f bf3b
000000b0: 075a d33e 014f 343e 5f26 133e 71f2 9d3e
000000c0: c454 da3d 6035 4bbe 5a43 b03e 6e74 cd3c
000000d0: f422 213c d5c7 1bbe 5e0c 573e eb90 c13d
000000e0: c404 bf3e 32b6 c63e 8d76 c0be 252b 08be
000000f0: fc27 b93e 61d7 2a3e 6e8b 23be ca37 283e
00000100: 04b8 23be 3bbe 90be ff1a 71be 6184 84bb
00000110: 5fc5 203d a585 a23e 338e 83be 2604 883e
00000120: 5de5 abbe b90f d43d b6d2 3f3e 8a6c d23d
00000130: be4c 533e b179 1ebe e11c a63e db4b d93e
00000140: 12c7 4ebe 0ebf 953e bfc8 6f3c 4ac9 0d3e
00000150: 4577 bbbe 6e6e 81be 9fdf 20bc 3829 bfbe
00000160: 440a 99be ccc7 d1be 05a5 d73e 6a42 953e
00000170: 7cf8 853e dcc7 803e 8029 20be d3e5 983e
00000180: 1e6d 91be 719a ef3d b80b 57bc d394 023e
00000190: ab1d a23b aa59 a13e b6a1 a73e 3e38 a93e
000001a0: f97c c13d 4436 503e 53c3 18bd 67ae 6dbd
000001b0: 51e5 3c3e 3d6a dbbe cefe cdbe 7fb4 78be
000001c0: 5863 c43d dee3 7d3e fed7 5f3e 1f1e 23bd
000001d0: c67d b5bd 6bc6 293e baa7 cc3e 805e c1bd
000001e0: 6dfa d63d 774f 2c3e a182 ca3e 02d0 b0bc
000001f0: 3a1b 8b3e 9fd6 adbe 74c5 573e 3df7 9e3e
00000200: 2b76 97be 7ecc 0c3e b324 cabd 69ea ae3e
00000210: a2bf 803e 66fb 68be 4a12 7dbe 40f4 c8be
00000220: 2753 b83d ef03 a0be c59e 17be 40d4 53be
00000230: 089b 42bd bbb0 bc3d c487 d5bd 6aee bcbe
00000240: 68e6 b3be 2b51 c1be e13f 703e 5ec1 8cbd
00000250: dc28 dcbe ac97 3cbe d370 3a3d d9cb ca3e
00000260: b553 c03b 8816 79bc a269 dd3e 3fae 7bbe
00000270: e966 98be 1e72 003e ca1f 14be 1131 98be
00000280: 4bc4 a63e a887 9dbe ced5 acbd 29f2 9fbe
00000290: 7946 8d3e 670c 3c3c aa3f 1b3e b093 b2be
000002a0: a9ba 433e b670 a33e f62d a23e d204 6abe
000002b0: 87da 34bd e217 bd3e 8a7b ae3e c59a 833e
000002c0: 7a76 753e 9ef0 6b3d 3a19 acbd c298 28bc
000002d0: 6593 98bd 9da3 d1be b5f5 cf3e 9aa7 11be
000002e0: 24dd e03d da5e 4ebd be30 dbbe 832c 80be
000002f0: 9a6b 8dbe 54f9 823e edb9 4d3e e8c6 803e
00000300: 535e 8a3e 5206 4dbe f5b0 983e 37d9 cf3e
00000310: ef80 053e c5ee 9f3e f9bc c8bc e4cb 753e
00000320: 07b5 db3e 4f21 56be 4260 c03e 877b 63be
00000330: e80a 6e3e 5cba f1bd 622e 61be 4094 bb3e
00000340: d3cc c83e 1eed 6cbd 7c20 dbbe 3eca d4be
00000350: 90bf 683e 5664 cbbe 6f5d 283c fe1f a8be
00000360: 9d02 aebc 2d6c 293d 6e87 1abe d0c4 06be
00000370: ae87 9c3e 4423 9cbe af81 78be 4225 973c
00000380: 85fa 1d3e 639c 8b3e 7012 1d3e 394f fdbd
00000390: 4a00 603e 8aee 5a3e d43d aa3e 4605 c7bd
000003a0: 9f28 613e 0970 f53d a8e3 dc3e 5a10 17be
000003b0: a190 933e 5985 8cbe cc7f 9f3e 8787 53be
000003c0: 84fe 42bd 2be1 a2be 21e9 7fbe f5d0 91be
000003d0: dca7 453d 7c6b 6c3e de51 263e f4c1 2c3e
000003e0: 0e3a 9bbe 91f1 833e 837c c23e 9301 a5be
000003f0: 186a 9bbe a8ef e6bd 8405 c43e ce5c 893e

bias f4 [16]
0.0 0.0 0.0 0.0 0.0 0.0 0.0 0.0
0.0 0.0 0.0 0.0 0.0 0.0 0.0 0.0
00000000: 0000 0000 0000 0000 0000 0000 0000 0000
00000010: 0000 0000 0000 0000 0000 0000 0000 0000
00000020: 0000 0000 0000 0000 0000 0000 0000 0000
00000030: 0000 0000 0000 0000 0000 0000 0000 0000

weight f4 [16, 16]
0.40729278 0.32837948 0.2703515 0.22080132 -0.24903136 -0.4157905 0.38823798 0.31785432
0.20168474 -0.14527844 0.12042269 0.38865757 0.25979617 0.14019288 0.2802293 -0.3742982
-0.14686878 0.32689548 0.123034 0.07646053 -0.24352282 0.15909539 0.35330912 -0.3399141
0.33494243 -0.18302783 -0.23121332 0.17094725 -0.28881592 0.40137467 -0.18698965 0.18119437
0.3751379 0.18346561 -0.4232515 0.39610496 0.19395256 0.08329718 -0.07163038 0.2568797
0.13597508 0.08525236 0.41271418 0.014436685 0.29581144 0.432284 -0.16114426 0.17946084
0.061044842 -0.16555661 0.43294513 0.051983412 -0.25801593 -0.17059258 -0.27202284 -0.33925134
-0.27863675 0.12852968 -0.04436298 0.27477035 0.28791952 -0.31058624 0.013185386 0.32478857
-0.074233636 0.15647179 -0.10542398 -0.06800351 -0.42712456 0.21130112 -0.34409198 0.15687236
0.15904315 0.07018674 -0.33530557 0.054798666 0.25263515 -0.13963524 -0.2683014 -0.2598579
0.1669956 0.10400079 -0.15300283 -0.14985025 -0.28194195 -0.3216525 -0.03236024 0.07427219
-0.27834797 -0.20855406 -0.122406624 -0.25910783 0.27208132 0.3817827 -0.3846337 -0.33368376
0.3399946 -0.3556825 -0.16741964 0.27953666 -0.35664126 0.19544342 -0.19756842 0.42809117
0.16395393 -0.041197285 0.17261124 -0.15331048 -0.1228745 -0.023548236 -0.12044045 0.017595053
0.25717458 -0.036937673 0.38253677 0.3087342 0.2807963 -0.14557557 0.37268645 0.07401436
-0.13535312 -0.27087295 0.23218876 0.16294882 0.3567515 -0.3432983 -0.11446977 0.24552244
-0.3836798 -0.15254374 0.3135786 -0.27829224 0.12566286 -0.0042602303 0.16067493 -0.05411621
-0.34638494 0.3385075 0.2671616 -0.22601238 0.39301613 -0.25412256 -0.24013619 0.36006075
0.18377222 0.16043289 0.411637 -0.12580058 -0.20261677 -0.3691701 0.40163088 0.40168056
-0.42998075 -0.15407719 0.38261983 -0.16610636 0.15132701 -0.20547281 -0.2797829 -0.23974255
-0.1453407 -0.3381104 -0.24193533 0.0032049804 0.12762915 -0.38000703 -0.2739676 -0.08044843
-0.25580472 -0.1918213 -0.27360708 -0.085965216 0.16179362 -0.21481459 0.13017489 0.15821874
0.18974192 0.3616508 0.18749738 -0.018855283 0.16057108 -0.3077461 -0.31040284 -0.272011
-0.33627388 -0.029804837 -0.42258862 0.2938669 0.01880413 -0.19027655 0.407348 0.25675157
-0.38266483 -0.18597363 -0.32023102 -0.16622032 -0.37881032 -0.4151377 0.15866737 0.2673255
-0.2243584 -0.40686947 0.11200944 0.35450065 -0.09367376 0.25844133 -0.12473816 -0.4238867
-0.08616808 0.3976237 0.14363478 -0.30990866 0.19390723 -0.37061626 0.07509118 -0.04728447
0.1468967 -0.40397027 0.23294735 0.41162947 0.30434984 0.10183619 0.16718075 0.2496642
0.30138952 0.28508273 0.014948282 0.12815426 -0.18431298 0.121641114 -0.42155156 -0.39109647
-0.30078682 0.26772782 0.37450066 0.37370902 0.3994463 0.30273297 0.06240929 -0.41804248
-0.39218536 0.22963645 0.20271516 -0.27078798 0.19205591 0.121287726 -0.33911136 -0.40162686
-0.3759881 -0.2505333 -0.19909273 0.1537526 0.28324616 0.05615016 0.32948825 0.009605495
00000000: ae88 d03e 5b21 a83e 836b 8a3e be19 623e
00000010: 1402 7fbe 7ee2 d4be 21c7 c63e cdbd a23e
00000020: 7286 4e3e dfc3 14be 2ca0 f63d 20fe c63e
00000030: 0104 853e b98e 0f3e 377a 8f3e 03a4 bfbe
00000040: c564 16be d85e a73e 40f9 fb3d 5797 9c3d
00000050: 0c5e 79be e7e9 223e efe4 b43e 3909 aebe
00000060: 937d ab3e a66b 3bbe 2fc3 6cbe cc0c 2f3e
00000070: aedf 93be fb80 cd3e 377a 3fbe 048b 393e
00000080: 1312 c03e 69de 3b3e 6cb4 d8be 45ce ca3e
00000090: 809b 463e b697 aa3d f3b2 92bd bc85 833e
000000a0: 0d3d 0b3e ca98 ae3d 464f d33e d887 6c3c
000000b0: 9974 973e 5454 dd3e 0003 25be 95c4 373e
000000c0: 280a 7a3d ac87 29be fcaa dd3e 8fec 543d
000000d0: aa1a 84be d2af 2ebe 9446 8bbe 5ab2 adbe
000000e0: 7aa9 8ebe 499d 033e f5b5 35bd b3ae 8c3e
000000f0: 306a 933e 2905 9fbe 8407 583c b04a a63e
00000100: ce07 98bd 243a 203e 87e8 d7bd 6d45 8bbd
00000110: 12b0 dabe 525f 583e d32c b0be 26a3 203e
00000120: 35dc 223e 11be 8f3d 2cad abbe 9174 603d
00000130: 6559 813e 8afc 0ebe cd5e 89be 180c 85be
00000140: e500 2b3e 5efe d43d c6ac 1cbe 5872 19be
00000150: b25a 90be a3af a4be 2c8c 04bd 051c 983d
00000160: a083 8ebe 328f 55be 53b0 fabd c8a9 84be
00000170: 3e4e 8b3e 0679 c33e b5ee c4be 99d8 aabe
00000180: c613 ae3e 041c b6be 0e70 2bbe 6e1f 8f3e
00000190: af99 b6be 5222 483e 604f 4abe c42e db3e
000001a0: 8ae3 273e 7cbe 28bd 00c1 303e 6cfd 1cbe
000001b0: a0a5 fbbd 3be8 c0bc 7ca9 f6bd 8023 903c
000001c0: 63ac 833e f54b 17bd dcdb c33e 6912 9e3e
000001d0: 88c4 8f3e c311 15be c2d0 be3e d794 973d
000001e0: 029a 0abe dcaf 8abe e4c2 6d3e 0edc 263e
000001f0: 22a8 b63e cbc4 afbe 206f eabd 3c6a 7b3e
00000200: ae71 c4be 6d34 1cbe 608d a03e 527c 8ebe
00000210: c4ad 003e 6799 8bbb f887 243e f6a8 5dbd
00000220: 5e59 b1be db50 ad3e 68c9 883e ca6f 67be
00000230: 6939 c93e 5a1c 82be 43e6 75be e259 b83e
00000240: c92e 3c3e 8548 243e 16c2 d23e ded1 00be
00000250: c57a 4fbe dd03 bdbe 90a2 cd3e 13a9 cd3e
00000260: 7026 dcbe 69c6 1dbe bfe6 c33e c917 2abe
00000270: 78f5 1a3e 7767 52be b43f 8fbe 127f 75be
00000280: 31d4 14be ce1c adbe e5bd 77be a60a 523b
00000290: 37b1 023e 4890 c2be 7b45 8cbe 25c2 a4bd
000002a0: d6f8 82be ce6c 44be 3a16 8cbe 880e b0bd
000002b0: 3aad 253e 5bf8 5bbe 914c 053e 1804 223e
000002c0: b54b 423e 4b2a b93e 50ff 3f3e 6576 9abc
000002d0: bf6c 243e e690 9dbe 1fed 9ebe 0745 8bbe
000002e0: 172c acbe 4629 f4bc 895d d8be b975 963e
000002f0: 1e0b 9a3c dbd7 42be eb8f d03e f174 833e
00000300: a5ec c3be df6f 3ebe 52f5 a3be a935 2abe
00000310: 6df3 c1be ee8c d4be b379 223e e3de 883e
00000320: 35be 65be 3251 d0be 3565 e53d 1c81 b53e
00000330: 07d8 bfbd 6c52 843e b876 ffbd ad07 d9be
00000340: e478 b0bd 5595 cb3e ff14 133e 59ac 9ebe
00000350: 9e8f 463e 6ac1 bdbe 68c9 993d 5cad 41bd
00000360: 176c 163e 31d5 cebe c089 6e3e 19c1 d23e
00000370: bed3 9b3e 7e8f d03d 6e31 2b3e f9a7 7f3e
00000380: ba4f 9a3e 5df6 913e a4e9 743c df3a 033e
00000390: 8bbc 3cbe fa1e f93d 9bd5 d7be cc3d c8be
000003a0: bb00 9abe 9f13 893e 8dbe bf3e ca56 bf3e
000003b0: 3a84 cc3e d1ff 9a3e e2a0 7f3d aa09 d6be
000003c0: 85cc c8be d125 6b3e 9094 4f3e b9a4 8abe
000003d0: 4eaa 443e b365 f83d 01a0 adbe 09a2 cdbe
000003e0: 8381 c0be e745 80be f7de 4bbe 5271 1d3e
000003f0: a405 913e b6fd 653d afb2 a83e 5e60 1d3c

bias f4 [16]
0.0 0.0 0.0 0.0 0.0 0.0 0.0 0.0
0.0 0.0 0.0 0.0 0.0 0.0 0.0 0.0
00000000: 0000 0000 0000 0000 0000 0000 0000 0000
00000010: 0000 0000 0000 0000 0000 0000 0000 0000
00000020: 0000 0000 0000 0000 0000 0000 0000 0000
00000030: 0000 0000 0000 0000 0000 0000 0000 0000

weight f4 [16, 16]
-0.32369548 -0.20591699 0.28735852 0.18350112 -0.3082321 0.25544587 -0.113538146 -0.35225594
0.39560395 0.13463834 0.006943548 0.111977704 0.11221056 -0.40068692 0.035768498 -0.4049275
0.17977175 -0.20715839 0.35413516 -0.17106932 -0.39600003 0.04547202 -0.3502549 -0.2500769
-0.28295875 0.14234523 -0.26094124 -0.0074403305 -0.12164173 0.22198236 -0.41588855 -0.19231287
-0.15573916 -0.39877155 -0.041223507 0.3010021 0.42156863 0.30162644 -0.16893761 -0.2939831
-0.106187634 -0.3348646 0.38821414 0.36827707 -0.4329189 -0.32624388 -0.17461737 -0.1673688
0.19818053 0.27423942 -0.3950147 -0.42635322 -0.34311807 0.26912695 -0.06914868 -0.0032474115
-0.17010756 0.03816631 0.2392759 -0.027866023 0.23343773 -0.4212913 0.05669046 -0.040410865
0.19914839 -0.2959162 -0.055198766 -0.12672968 0.20454124 -0.3231106 -0.0113551775 -0.38447234
-0.21311249 0.124725044 -0.06798793 -0.06641225 0.021088326 0.22161344 -0.39660934 0.07794443
0.21893792 -0.2615922 -0.29362956 -0.27564168 -0.121304505 -0.34660783 -0.10221802 -0.10855664
-0.36167035 -0.2509833 0.35520536 -0.26568425 0.09123682 0.34849948 0.18710719 0.31932914
0.33690163 -0.3886127 -0.1815513 0.014821661 -0.36447346 0.4301915 0.05728991 -0.25090292
0.38108638 0.2017281 -0.33473188 -0.37449932 -0.34248424 0.027712816 -0.13602076 0.18308167
-0.34577212 -0.07525326 -0.29478392 0.42509085 0.10008759 -0.3093015 0.13889724 -0.1441663
0.11894597 0.07606936 -0.3927463 0.01500878 0.28551933 0.096960455 -0.2233081 -0.022742514
-0.1639177 0.18542713 -0.22323269 0.37623715 0.3658622 0.10085455 -0.17618772 0.18534145
0.38171557 0.34405455 0.33472314 -0.08290472 -0.3956833 0.3416428 -0.18739077 0.2486505
-0.013771107 0.18672107 0.17306234 0.0027134116 -0.42674604 0.18371472 0.38199472 -0.329474
-0.06894365 0.13740963 -0.27604097 0.06519935 -0.29267544 0.049037352 -0.42237517 -0.41419432
-0.029138537 -0.06321021 0.1880784 -0.2167169 0.14024878 -0.26876253 -0.20337223 -0.10240106
-0.006867358 -0.13570155 0.12035492 -0.35248312 0.33193865 0.30428743 0.21707338 0.076805145
0.39269847 0.37507764 -0.29766423 -0.3170817 -0.06810071 -0.20002162 0.05968318 -0.389956
0.2848064 0.15888396 0.22899982 -0.047257937 -0.15795512 0.39271823 0.07964182 -0.27259833
0.4051573 -0.0530718 0.34421095 -0.35284275 -0.18681255 0.34191442 0.11166623 0.17057894
-0.33630222 -0.054778382 0.18224472 -0.14406158 0.34628403 0.05898653 -0.36908993 0.31631407
-0.28540188 -0.3993229 -0.36889568 0.38577425 0.20643617 -0.2403503 0.26445484 0.169862
-0.08483538 0.045711532 0.20839548 -0.3308371 -0.33556032 0.099689975 0.3147198 0.0323397
-0.38490677 0.19078143 0.32750633 -0.18635117 -0.33699688 0.089973286 0.30242997 0.08263088
-0.21531214 -0.111019805 -0.13854493 0.30083957 0.15396646 -0.11122953 0.06788541 0.36787647
-0.011326116 0.06841626 0.39449352 0.033741467 0.26673898 -0.39333096 0.22942832 -0.22751877
0.3654071 0.17548999 0.413478 -0.19443013 0.21327381 0.39443156 -0.39772078 0.31490368
00000000: 6abb a5be e7db 52be a820 933e b8e7 3b3e
00000010: 99d0 9dbe cdc9 823e b086 e8bd e45a b4be
00000020: 9a8c ca3e a2de 093e b486 e33b 9154 e53d
00000030: a6ce e53d d626 cdbe fd81 123d a852 cfbe
00000040: 1616 383e 5421 54be 3451 b53e cc2c 2fbe
00000050: 84c0 cabe de40 3a3d 9c54 b3be 140a 80be
00000060: f8df 90be f3c2 113e 179a 85be 04ce f3bb
00000070: 4d1f f9bd 584f 633e 58ef d4be aaed 44be
00000080: 167a 1fbe c92b ccbe fbd9 28bd f21c 9a3e
00000090: d8d7 d73e c86e 9a3e fbfd 2cbe f484 96be
000000a0: e778 d9bd 5f73 abbe 01c4 c63e d08e bc3e
000000b0: 8ca7 ddbe 7009 a7be e5ce 32be ba62 2bbe
000000c0: d6ef 4a3e 1c69 8c3e 5e3f cabe f84a dabe
000000d0: 2cad afbe 02cb 893e d39d 8dbd 86d2 54bb
000000e0: ad30 2ebe 4754 1c3d be04 753e 4947 e4bc
000000f0: 4d0a 6f3e 7eb3 d7be 4134 683d dd85 25bd
00000100: 8eed 4b3e 5482 97be 1a18 62bd 6dc5 01be
00000110: 4273 513e c16e a5be 110b 3abc 8fd9 c4be
00000120: 293a 5abe d86f ff3d 413d 8bbd 2503 88bd
00000130: 6dc1 ac3c a2ee 623e 6110 cbbe 54a1 9f3d
00000140: 4331 603e 6aef 85be 9d56 96be e820 8dbe
00000150: 7f6e f8bd 9576 b1be ae57 d1bd f252 debd
00000160: db2c b9be e280 80be 7add b53e c407 88be
00000170: 5fda ba3d 866e b23e 0799 3f3e 1c7f a33e
00000180: 5f7e ac3e 3ef8 c6be 96e8 39be 8dd6 723c
00000190: 449c babe 0f42 dc3e d3a8 6a3d 5976 80be
000001a0: c11d c33e d091 4e3e fa61 abbe 60be bfbe
000001b0: 185a afbe fd05 e33c 0749 0bbe c379 3b3e
000001c0: 0b09 b1be 621e 9abd ebed 96be 82a5 d93e
000001d0: b9fa cc3d c45c 9ebe 143b 0e3e 55a0 13be
000001e0: f299 f33d 41ca 9b3d 0b16 c9be 63e7 753c
000001f0: 972f 923e 3493 c63d e1aa 64be 824e babc
00000200: 0bda 27be 9ce0 3d3e 1c97 64be 28a2 c03e
00000210: 4a52 bb3e d58c ce3d 8e6a 34be 26ca 3d3e
00000220: 3970 c33e eb27 b03e d560 ab3e f3c9 a9bd
00000230: 0097 cabe ceeb ae3e 5ee3 3fbe 3d9e 7e3e
00000240: 36a0 61bc cf33 3f3e 4137 313e 7ed3 313b
00000250: 757e dabe b61f 3c3e d094 c33e d1b0 a8be
00000260: 5432 8dbd 1cb5 0c3e 3e55 8dbe 3d87 853d
00000270: 8ed9 95be 64db 483d 8f41 d8be 4711 d4be
00000280: f1b3 eebc 5b74 81bd a097 403e 09eb 5dbe
00000290: 609d 0f3e 3e9b 89be cf40 50be a6b7 d1bd
000002a0: 9307 e1bb 59f5 0abe a47c f63d ab78 b4be
000002b0: ddf3 a93e 90cb 9b3e 7c48 5e3e 044c 9d3d
000002c0: c60f c93e 2d0a c03e 7267 98be 8858 a2be
000002d0: 6378 8bbd 78d2 4cbe 5a76 743d 50a8 c7be
000002e0: 25d2 913e 7ab2 223e ee7e 6a3e 8a91 41bd
000002f0: fdbe 21be 5d12 c93e 401b a33d 0292 8bbe
00000300: c770 cf3e d161 59bd 6b3c b03e cea7 b4be
00000310: ca4b 3fbe 680f af3e 44b1 e43d 3fac 2e3e
00000320: ce2f acbe 4c5f 60bd 5c9e 3a3e e184 13be
00000330: 244c b13e dc9b 713d 5bf9 bcbe ebf3 a13e
00000340: 3220 92be 0d74 ccbe e5df bcbe 3484 c53e
00000350: 0164 533e 641e 76be a066 873e 4ef0 2d3e
00000360: 2cbe adbd 043c 3b3d a065 553e 7b63 a9be
00000370: 90ce abbe 422a cc3d f422 a13e a276 043d
00000380: 8012 c5be 355c 433e e9ae a73e d7d2 3ebe
00000390: db8a acbe ea43 b83d 1ad8 9a3e 613a a93d
000003a0: c97a 5cbe 5a5e e3bd b9de 0dbe a507 9a3e
000003b0: 62a9 1d3e 4fcc e3bd 8107 8b3d 4e5a bc3e
000003c0: 2c91 39bc d31d 8c3d 0efb c93e 7e34 0a3d
000003d0: 0392 883e ad62 c9be 42ef 6a3e aefa 68be
000003e0: a416 bb3e a6b3 333e 63b3 d33e b118 47be
000003f0: 7364 5a3e eff2 c93e 0fa2 cbbe 0e3b a13e

bias f4 [16]
0.0 0.0 0.0 0.0 0.0 0.0 0.0 0.0
0.0 0.0 0.0 0.0 0.0 0.0 0.0 0.0
00000000: 0000 0000 0000 0000 0000 0000 0000 0000
00000010: 0000 0000 0000 0000 0000 0000 0000 0000
00000020: 0000 0000 0000 0000 0000 0000 0000 0000
00000030: 0000 0000 0000 0000 0000 0000 0000 0000
