ad/ad_IMDB-BINARY.pt (torch, 347085 bytes, 62 tensors)

weight f4 [16, 1]
0.005369267 -0.3396533 0.017127853 0.17769058 -0.15997416 -0.13583699 0.32869992 0.0758495
-0.51529235 -0.51036406 -0.09574862 0.22234826 -0.33981648 0.47410086 0.021883612 -0.16672735
00000000: adf0 af3b 0ae7 adbe b64f 8c3c 85f4 353e
00000010: 44d0 23be da18 0bbe 5b4b a83e fc56 9b3d
00000020: 33ea 03bf 38a7 02bf da17 c4bd 43af 633e
00000030: 6dfc adbe 59bd f23e 4345 b33c 93ba 2abe

bias f4 [16]
-0.004431129 0.0 -0.0045596985 0.0029910337 0.0 0.0 -0.0053005223 0.0039206347
0.0 0.0 0.0 0.0044730585 0.0 -0.0065633026 -0.006350781 0.0
00000000: 0133 91bb 0000 0000 8669 95bb 3805 443b
00000010: 0000 0000 0000 0000 01b0 adbb ab78 803b
00000020: 0000 0000 0000 0000 0000 0000 bc92 923b
00000030: 0000 0000 f910 d7bb 361a d0bb 0000 0000

weight f4 [16, 16]
0.06178248 0.103971265 0.3088775 0.2607757 0.16396643 0.30063522 -0.06637152 0.16145758
0.25683957 -0.17704883 -0.28382385 0.27110964 0.37411195 -0.25138178 -0.35254237 0.35985878
0.15428248 -0.28127947 0.33311123 0.04777142 0.033921566 -0.31768882 0.23625068 0.06352733
-0.25816435 0.25817594 0.029971516 -0.381966 0.1780584 0.034954198 0.36801478 -0.2897792
-0.03631561 -0.2030782 -0.05982591 -0.09340369 -0.115794934 0.25469056 -0.35643727 -0.33507293
-0.055684194 -0.050923154 -0.031601287 -0.1076468 0.41412082 0.09118314 0.01668666 0.11258247
-0.24433267 -0.009473815 -0.016642628 0.20500937 0.021386066 -0.014784289 -0.26040253 0.07639296
0.30108622 -0.25623676 -0.37087432 -0.29098785 0.23929842 0.07734756 0.25052264 0.3350537
-0.257569 0.019908829 0.31301057 0.22808313 0.1422262 0.27689618 0.2291796 -0.14001243
-0.06704066 0.20885164 0.4104003 -0.0011567858 0.15807189 -0.13966624 0.21907127 0.12385139
-0.03210025 0.13559753 0.20166273 0.27000523 0.4327446 -0.4015418 0.31383651 0.31751576
0.348571 0.33020762 -0.0947238 -0.07672825 0.26925552 -0.19955662 -0.22094303 -0.15324683
-0.29429087 -0.34958702 0.14354698 -0.36157224 -0.41649514 0.0710669 -0.22960383 -0.16075304
0.4093334 -0.1718053 -0.07197421 -0.035852484 -0.08840412 -0.0018273174 -0.05634342 -0.26349783
0.31769037 0.122642525 0.23699363 -0.35082632 0.19016898 -0.34588492 0.337874 -0.16584793
-0.2665021 -0.35828805 -0.41457915 -0.121161945 0.3354403 0.30642775 0.0427783 -0.18076804
-0.4254461 0.2617371 0.38589552 0.25579068 -0.2030258 0.20246641 0.27221987 0.07766022
-0.26510432 0.0986118 0.17963737 -0.3472837 0.16745035 -0.38264903 0.26296428 0.2909715
7.918375e-05 0.41086918 0.1800237 0.23764355 -0.29093185 0.060512133 -0.19518827 0.06834472
-0.21658574 0.04415635 0.11386345 -0.22422573 0.03394495 -0.27961287 0.07555673 -0.057785198
-0.35143453 0.1488382 -0.40766913 -0.3967698 0.2585092 -0.121165805 0.18595305 0.118482195
-0.34822264 -0.19870734 0.39041993 0.35874316 -0.10179407 0.046101626 -0.39468196 -0.37467146
0.2860247 0.41237283 -0.3061055 0.12722202 0.15540364 0.05064818 0.16115381 -0.25249082
-0.33199716 -0.2530258 0.36781663 -0.00060797017 0.27121148 -0.2709682 -0.124454305 -0.3000822
0.09655664 0.043456137 -0.013016694 0.021259703 -0.12069199 0.30198443 -0.16483895 0.14234746
0.24596977 -0.19296265 0.2606865 0.28788102 0.1927634 -0.12613238 -0.19582132 -0.38224548
-0.2079433 0.08337786 -0.19551538 0.17596865 -0.19841498 -0.20610292 -0.40496245 -0.27017018
-0.4031825 0.2816497 0.20927517 -0.1968251 -0.31681105 0.30682054 -0.18270381 0.34882492
-0.37665725 -0.07978284 0.23044 0.32982078 -0.3955711 0.20674439 -0.008451963 0.17797467
0.22816452 -0.4056915 0.42082083 0.05206022 0.11499066 -0.22127843 0.404107 0.060504183
0.33660606 0.18122683 -0.35766873 0.4304159 0.20560232 0.2466336 -0.20431489 0.123369165
0.1590014 -0.33009234 0.059776507 -0.2258891 0.26919544 -0.1161827 0.14450008 -0.33193398
00000000: a00f 7d3d e3ee d43d 3125 9e3e 6484 853e
00000010: d1e6 273e dcec 993e cbed 87bd 2355 253e
00000020: 7a80 833e 4a4c 35be 5c51 91be e2ce 8a3e
00000030: 9a8b bf3e 1db5 80be 6f80 b4be 693f b83e
00000040: 3afc 1d3e dd03 90be 8e8d aa3e f7ab 433d
00000050: 57f1 0a3d 1ca8 a2be b3eb 713e 9e1a 823d
00000060: 1e2e 84be a32f 843e d386 f53c 0c91 c3be
00000070: f154 363e 222c 0f3d 6f6c bc3e f05d 94be
00000080: adbf 14bd bbf3 4fbe 030c 75bd 6f4a bfbd
00000090: e525 edbd cd66 823e f27e b6be ae8e abbe
000000a0: 1c15 64bd cc94 50bd 5a70 01bd ed75 dcbd
000000b0: a507 d43e 3abe ba3d 76b2 883c a391 e63d
000000c0: 5832 7abe 0f38 1bbc 1f56 88bc faed 513e
000000d0: d531 af3c cd39 72bc 7b53 85be ea73 9c3d
000000e0: f927 9a3e 7731 83be 3de3 bdbe 5cfc 94be
000000f0: a50a 753e 6668 9e3d 8144 803e 298c ab3e
00000100: 15e0 83be d717 a33c ec42 a03e a08e 693e
00000110: bfa3 113e 56c5 8d3e 0fae 6a3e 6b5f 0fbe
00000120: 9d4c 89bd 34dd 553e fd1f d23e 4a9f 97ba
00000130: 99dd 213e ab04 0fbe 3854 603e cca5 fd3d
00000140: 8d7b 03bd 14da 0a3e ad80 4e3e 203e 8a3e
00000150: b390 dd3e e396 cdbe 2eaf a03e 6d91 a23e
00000160: e677 b23e f910 a93e 8dfe c1bd b323 9dbd
00000170: dcdb 893e 9258 4cbe e43e 62be bdec 1cbe
00000180: 4bad 96be 12fd b2be fbfd 123e ff1f b9be
00000190: da3e d5be 868b 913d 441d 6bbe 729c 24be
000001a0: 2694 d13e bbed 2fbe 3767 93bd 0eda 12bd
000001b0: 380d b5bd 9982 efba 5cc8 66bd 30e9 86be
000001c0: 50a8 a23e 012c fb3d 75ae 723e 829f b3be
000001d0: a8bb 423e d417 b1be d2fd ac3e 0ad4 29be
000001e0: f772 88be 8871 b7be b843 d4be c123 f8bd
000001f0: d5be ab3e 19e4 9c3e 4c38 2f3d 421b 39be
00000200: 12d4 d9be 6802 863e 1994 c53e fff6 823e
00000210: ffe5 4fbe 5b53 4f3e 6760 8b3e 520c 9f3d
00000220: c1bb 87be fcf4 c93d dcf2 373e 2bcf b1be
00000230: 1b78 2b3e 93ea c3be 41a3 863e 37fa 943e
00000240: 740f a638 725d d23e 2258 383e d558 733e
00000250: 05f5 94be 92db 773d 6fdf 47be 51f8 8b3d
00000260: a7c8 5dbe 4add 343d 3e31 e93d 6e9b 65be
00000270: dc09 0b3d 6b29 8fbe 7dbd 9a3d 2cb0 6cbd
00000280: 3aef b3be 0b69 183e 02ba d0be 6925 cbbe
00000290: 515b 843e c725 f8bd 7a6a 3e3e cba6 f23d
000002a0: 3d4a b2be f079 4bbe 1fe5 c73e 2fad b73e
000002b0: 6979 d0bd 0fd5 3c3d c113 cabe f0d4 bfbe
000002c0: d471 923e 8822 d33e dcb9 9cbe 7d46 023e
000002d0: 2222 1f3e 7774 4f3d 8105 253e 7a46 81be
000002e0: 88fb a9be 998c 81be 7652 bc3e 3060 1fba
000002f0: 3bdc 8a3e 58bc 8abe e6e1 febd 60a4 99be
00000300: 7dbf c53d 10ff 313d f943 55bc d428 ae3c
00000310: 5d2d f7bd b49d 9a3e 8bcb 28be 88c3 113e
00000320: 80df 7b3e 0098 45be b378 853e 2465 933e
00000330: c563 453e d928 01be 6285 48be aeb5 c3be
00000340: 17ef 54be 03c2 aa3d 2f35 48be 2031 343e
00000350: 4c2d 4bbe a50c 53be 3d57 cfbe bf53 8abe
00000360: f06d cebe 6434 903e 3b4c 563e 858c 49be
00000370: 0f35 a2be 9517 9d3e b516 3bbe 2e99 b23e
00000380: 38d9 c0be 3065 a3bd 77f8 6b3e 45de a83e
00000390: 4c88 cabe cdb4 533e 1a7a 0abc fe3e 363e
000003a0: f6a3 693e ccb6 cfbe d475 d73e 193d 553d
000003b0: 3980 eb3d d096 62be 1de7 ce3e 3cd3 773d
000003c0: a157 ac3e 8793 393e 5b20 b7be 795f dc3e
000003d0: 6a89 523e 858d 7c3e ec37 51be f9a8 fc3d
000003e0: 43d1 223e dd01 a9be 36d8 743d 794f 67be
000003f0: fcd3 893e 32f1 edbd d4f7 133e 40f3 a9be

bias f4 [16]
0.0 -0.0060642944 0.0 0.0 0.0031002995 -9.144073e-05 0.0 -0.005500746
0.0 0.0 0.0038120684 0.0 0.0 0.0 0.0 0.0
00000000: 0000 0000 fdb6 c6bb 0000 0000 0000 0000
00000010: 652e 4b3b dec3 bfb8 0000 0000 9a3f b4bb
00000020: 0000 0000 0000 0000 e5d3 793b 0000 0000
00000030: 0000 0000 0000 0000 0000 0000 0000 0000

weight f4 [16, 16]
-0.3727817 -0.3962242 -0.051230393 0.13631256 0.1019799 0.006918048 -0.42444253 -0.3229847
0.27291286 -0.22698332 0.10896072 -0.025879925 -0.09229548 -0.15573566 0.18748592 -0.36065567
-0.31217602 0.239028 -0.2909222 -0.04962612 -0.33473763 0.113722794 -0.021966316 0.18095368
-0.36108333 -0.22588755 -0.10221189 -0.15713365 -0.038360555 -0.04369116 -0.24814278 0.017294114
-0.38638115 -0.028470535 -0.39633852 0.21077394 0.38107544 0.4095465 0.23749025 -0.3826235
0.38209578 -0.36112624 -0.3083908 -0.10264192 0.18235761 0.39832103 0.28419632 0.3036103
-0.23658407 -0.30168486 -0.17727736 -0.14256142 0.30696082 -0.3679223 -0.13750698 0.030804798
0.39183626 -0.119422674 0.387558 -0.22942579 0.33631828 -0.39482704 0.048464227 0.37770945
0.012796332 0.38081476 0.036118064 -0.2459006 -0.20391582 -0.1649905 -0.38824213 -0.24201389
-0.13907589 -0.43277746 0.047121767 -0.113444716 0.14864706 0.40685678 0.1268008 -0.0069728163
-0.0071526053 -0.22076322 -0.042782508 -0.03926301 0.030929824 0.08581186 -0.30755708 -0.0588804
-0.33797857 -0.07297191 -0.31577945 -0.37566134 0.15336236 -0.20596841 0.24740613 -0.40298674
0.0563316 -0.19920826 0.417482 -0.09508957 0.41425532 -0.13595851 0.14817303 0.047241267
-0.2953351 0.10309988 -0.27253625 0.28957298 0.14115666 0.0040247957 0.09591032 0.22759202
0.42567906 0.4008567 0.19161075 0.15394685 -0.022181988 0.036758352 -0.31349823 -0.15727672
0.30733988 -0.2831587 0.16272433 -0.1935986 0.16895118 0.047895487 0.005091763 0.21044518
0.21067742 -0.32150948 -0.24938923 0.15698953 0.3035744 0.25274292 -0.23656611 -0.033766866
-0.4174137 0.097270586 -0.3656281 -0.40468603 -0.12586124 -0.16120172 -0.19121003 0.39808878
-0.049443804 0.3134959 0.35978213 -0.033244893 0.32349148 0.0880417 -0.34423795 -0.21102728
-0.19836743 -0.22935785 -0.2612348 0.07638357 0.22319794 -0.31056002 -0.38483134 0.222127
-0.25469345 0.13140988 0.37232414 0.40881664 -0.27734327 -0.13427515 0.17573905 -0.110218465
-0.38323817 0.3547187 -0.23730034 0.3267783 0.08737819 -0.2880373 0.09062359 0.23180687
0.13937347 -0.3388624 0.14402704 -0.41242874 -0.15491037 0.30102327 -0.19992195 0.07983684
0.38500628 0.053817235 -0.15123174 -0.3256518 -0.081489116 0.007992862 -0.24259213 -0.14168565
0.25656208 0.37833858 -0.22429542 -0.31325972 0.2625483 -0.23936877 0.11000048 -0.422938
0.3154576 -0.38265398 0.42609227 -0.19896962 0.31693572 -0.087659255 0.31619972 -0.081496805
0.19591542 -0.3095822 0.033338737 0.31203923 0.4102348 0.15106153 -0.07243362 -0.36970016
-0.02342657 -0.38405374 0.3814245 0.333325 -0.28533804 -0.40292865 0.23567884 0.13653168
-0.3554602 -0.0165115 -0.16923556 0.19230543 -0.2937853 0.28373697 0.20788331 0.24426597
-0.32495546 0.17442983 -0.4053959 -0.10233566 -0.070891395 0.019160662 -0.18594168 -0.25262028
-0.3140951 0.34630525 -0.32939002 0.32236165 0.34431237 -0.17936242 -0.0126902545 0.05145692
-0.32004288 -0.28726357 -0.08687613 -0.10811571 0.20348403 -0.32594383 0.20885077 0.03133452
00000000: 3edd bebe e6dd cabe f6d6 51bd 8595 0b3e
00000010: d6da d03d cbb0 e23b 8850 d9be 405e a5be
00000020: 3cbb 8b3e 516e 68be cc26 df3d 2302 d4bc
00000030: 6a05 bdbd 2b79 1fbe 4ffc 3f3e dca7 b8be
00000040: 89d5 9fbe c2c3 743e c1f3 94be c244 4bbd
00000050: bb62 abbe 7fe7 e83d b4f2 b3bc ec4b 393e
00000060: eadf b8be 114f 67be 7854 d1bd a5e7 20be
00000070: f51f 1dbd 80f5 32bd 2419 7ebe 63ac 8d3c
00000080: c0d3 c5be 0a3b e9bc e2ec cabe 20d5 573e
00000090: 521c c33e 14b0 d13e a530 733e 3ae7 c3be
000000a0: 0fa2 c33e 8ae5 b8be 66e5 9dbe ed35 d2bd
000000b0: f4bb 3a3e bcf0 cb3e 2e82 913e cf72 9b3e
000000c0: 1843 72be 7076 9abe 3288 35be 9ffb 11be
000000d0: f829 9d3e 5060 bcbe a1ce 0cbe 585a fc3c
000000e0: c39e c83e e093 f4bd 016e c63e 98ee 6abe
000000f0: e931 ac3e c526 cabe 6d82 463d 2263 c13e
00000100: b5a7 513c 27fa c23e 89f0 133d 5ecd 7bbe
00000110: 4fcf 50be 45f3 28be acc7 c6be 7dd2 77be
00000120: e969 0ebe 0295 ddbe c102 413d b455 e8bd
00000130: ef36 183e 884f d03e 12d8 013e 397c e4bb
00000140: 6760 eabb c10f 62be b63c 2fbd 40d2 20bd
00000150: 8b60 fd3c 21be af3d 1f78 9dbe 932c 71bd
00000160: 870b adbe 4c72 95bd d8ad a1be af56 c0be
00000170: 060b 1d3e 62e9 52be 0858 7d3e 4754 cebe
00000180: f7bb 663d 40fd 4bbe 33c0 d53e 52be c2bd
00000190: 4619 d43e b538 0bbe acba 173e 0f80 413d
000001a0: 2a36 97be 0826 d33d df89 8bbe e942 943e
000001b0: 5f8b 103e 6fe2 833b a16c c43d e20d 693e
000001c0: 9bf2 d93e 173d cd3e 9c35 443e 3ea4 1d3e
000001d0: 00b7 b5bc ed8f 163d d782 a0be 260d 21be
000001e0: a75b 9d3e 2dfa 90be 35a1 263e b63e 46be
000001f0: 8a01 2d3e 0f2e 443d ced8 a63b f17e 573e
00000200: d2bb 573e e49c a4be e45f 7fbe ddc1 203e
00000210: 1b6e 9b3e 8567 813e 633e 72be 204f 0abd
00000220: 40b7 d5be cd35 c73d 9b33 bbbe 0233 cfbe
00000230: c5e1 00be 1012 25be 90cc 43be 4bd2 cb3e
00000240: 9685 4abd 8982 a03e 5d35 b83e cc2b 08bd
00000250: ada0 a53e 354f b43d f53f b0be 8917 58be
00000260: d520 4bbe c9dc 6abe 91c0 85be fd6e 9c3d
00000270: 008e 643e b901 9fbe 9d08 c5be 4375 633e
00000280: 2e67 82be 5090 063e 45a1 be3e 6a50 d13e
00000290: f0ff 8dbe 6d7f 09be f0f4 333e 38ba e1bd
000002a0: cb37 c4be b09d b53e dcfe 72be 7c4f a73e
000002b0: 56f3 b23d a079 93be dc98 b93d c85e 6d3e
000002c0: ebb7 0e3e 5f7f adbe d37b 133e dc29 d3be
000002d0: d3a0 1ebe b91f 9a3e 57b8 4cbe 7f81 a33d
000002e0: 8b1f c53e 766f 5c3d 7edc 1abe d5bb a6be
000002f0: c4e3 a6bd 7ef4 023c 126a 78be 0b16 11be
00000300: 1b5c 833e 98b5 c13e b3ad 65be 9463 a0be
00000310: bb6c 863e 161d 75be ef47 e13d 548b d8be
00000320: a983 a13e 39eb c3be c428 da3e b1be 4bbe
00000330: 6645 a23e b286 b3bd eee4 a13e cce7 a6bd
00000340: 0d9e 483e 8f81 9ebe 338e 083d 9bc3 9f3e
00000350: 4c0a d23e e0af 1a3e 1458 94bd 5749 bdbe
00000360: 14e9 bfbc b1a2 c4be 124a c33e 93a9 aa3e
00000370: d417 92be aa4c cebe cb55 713e f6ce 0b3e
00000380: e1fe b5be 2043 87bc 164c 2dbe b7eb 443e
00000390: 076b 96be f945 913e 5ddf 543e dc20 7a3e
000003a0: 9060 a6be bc9d 323e 0d90 cfbe 5c95 d1bd
000003b0: 822f 91bd d2f6 9c3c 7f67 3ebe 7257 81be
000003c0: 13d1 a0be ec4e b13e cfa5 a8be 960c a53e
000003d0: b649 b03e c8aa 37be c9ea 4fbc 7ec4 523d
000003e0: a9dc a3be 3614 93be 1dec b1bd c56b ddbd
000003f0: 1e5e 503e 1ce2 a6be fadc 553e a058 003d

bias f4 [16]
0.0 -0.007142933 0.0 0.004921127 0.0 0.0 0.0 0.007060332
0.0 0.0 0.0 0.0 0.0 0.0 0.008036664 -0.007404507
00000000: 0000 0000 440f eabb 0000 0000 6841 a13b
00000010: 0000 0000 0000 0000 0000 0000 5c5a e73b
00000020: 0000 0000 0000 0000 0000 0000 0000 0000
00000030: 0000 0000 0000 0000 36ac 033c 82a1 f2bb

weight f4 [16, 16]
0.12008634 0.27408764 0.15809579 -0.41491157 0.17846484 -0.27209112 0.109108865 -0.24161932
-0.29708835 0.2168092 -0.1203606 0.31656033 0.10184817 -0.0690999 0.40506244 0.09425629
-0.2201917 -0.04196156 -0.028351707 -0.32641304 0.07693032 -0.42846024 -0.07839507 0.3501164
0.074533746 0.20976974 -0.30191547 -0.15959279 -0.387762 0.04087322 -0.37376973 0.05567733
0.15038776 0.05165713 -0.39070055 -0.38927466 -0.30761328 0.3824807 0.4053119 0.20312883
0.35182804 -0.21825232 0.27226725 0.11694553 0.057705704 0.14171301 0.38390696 -0.30283517
0.2513614 -0.3018611 0.41363978 0.06199293 -0.21577305 0.40944377 0.25440776 0.16980739
0.08479052 0.034929276 -0.25947472 -0.24816146 0.3104694 -0.24734677 -0.20384252 0.12013244
0.32152987 -0.3133854 0.20240776 -0.10652682 0.058703862 0.20545924 0.20624977 -0.12549268
0.4059445 -0.327582 -0.01488541 -0.34010136 0.2869353 -0.34119058 -0.4155472 -0.43168247
0.39596647 0.21669829 0.19854088 -0.33974177 -0.43276203 -0.41730675 0.00021411617 -0.35528448
-0.04540192 0.2786073 0.3142178 -0.41016603 -0.18204753 0.17867732 -0.14855841 -0.005784044
0.35196987 0.28444177 0.30677572 0.2559178 0.1195764 -0.01043455 -0.0873021 0.24231602
0.38981232 0.2780138 -0.12088855 0.43125567 0.20893754 -0.04640911 0.29783702 -0.2181901
0.32522064 -0.23656487 -0.4263552 0.39376563 0.27828613 0.32792562 -0.28626704 0.19731487
0.3690302 0.39965937 0.38105324 -0.08862102 -0.005577448 0.050280392 -0.18085466 -0.2129264
-0.14494029 -0.14535944 -0.29289177 0.22923566 -0.21015787 -0.16605309 -0.38931012 0.37910074
-0.3299109 0.12612589 0.29393527 0.255827 0.13934998 0.21911265 0.24662812 -0.024265612
0.34952685 0.35721332 0.016311493 -0.10776116 0.2554963 -0.075729094 -0.37540838 -0.39985412
0.08254457 6.736297e-05 0.41850948 0.10449277 0.14548966 -0.2938549 -0.37568462 0.18663554
-0.41423675 0.348567 -0.024241326 0.1820007 0.14357166 -0.04796068 -0.25014105 0.35424814
0.20469579 -0.024038257 -0.25218564 0.40133986 0.23077847 -0.30893233 -0.14901203 0.39995116
0.33779836 -0.18617257 -0.26553828 0.15495038 -0.13366997 0.37212038 0.0037486332 0.07567304
-0.34550396 -0.37650248 0.026551489 -0.039844863 -0.317195 -0.0033033665 0.43072632 -0.29585925
-0.40670365 0.28087616 -0.2604143 -0.20593059 -0.100037836 -0.34072414 0.22875944 0.38382822
-0.38085255 0.018718183 0.10717727 0.08388393 -0.08276359 0.16431078 0.28325772 -0.16350473
-0.20066619 0.11334408 -0.40914226 -0.22897226 0.2900309 -0.31775114 -0.28333786 -0.022145921
0.28535047 0.095969215 0.3132245 -0.25562096 -0.020245334 -0.09219508 0.17693081 0.4205939
-0.07975998 -0.0034697796 0.30527583 0.37507856 0.012265274 0.34344828 0.30598915 0.07646594
-0.12617828 -0.19974205 -0.24140039 -0.31727403 -0.2630431 -0.25509992 0.40214816 -0.33030954
-0.07132531 -0.06345438 0.24153408 0.3900617 0.3342547 -0.18136285 0.25435448 -0.26387152
-0.3438768 -0.11471016 0.4071988 -0.36028787 -0.39347264 -0.078679025 -0.28669626 0.19346152
00000000: d4ef f53d 3755 8c3e dde3 213e 4a6f d4be
00000010: 7dbf 363e 874f 8bbe 7874 df3d 0e6b 77be
00000020: f71b 98be 3b03 5e3e 9e7f f6bd 3214 a23e
00000030: c695 d03d 4084 8dbd 5864 cf3e 7109 c13d
00000040: ef79 61be e2df 2bbd d741 e8bc 9c1f a7be
00000050: a58d 9d3d 245f dbbe 988d a0bd 7542 b33e
00000060: 26a5 983d e1cd 563e aa94 9abe 4b6c 23be
00000070: be88 c6be ad6a 273d bf5e bfbe e90d 643d
00000080: 40ff 193e 6d96 533d e709 c8be 024f c7be
00000090: 7d7f 9dbe 83d4 c33e 0b85 cf3e 0101 503e
000000a0: ce22 b43e 897d 5fbe 9d66 8b3e 2381 ef3d
000000b0: d15c 6c3d 371d 113e 748f c43e 360d 9bbe
000000c0: 71b2 803e 8a8d 9abe 98c8 d33e 4cec 7d3d
000000d0: 9cf3 5cbe 9da2 d13e bc41 823e fde1 2d3e
000000e0: a7a6 ad3d 0012 0f3d dfd9 84be 0a1e 7ebe
000000f0: d8f5 9e3e 7948 7dbe 18bc 50be ff07 f63d
00000100: 909f a43e 0d74 a0be fb43 4f3e bc2a dabd
00000110: 7673 703d e863 523e 2433 533e 2781 00be
00000120: f5d7 cf3e d4b8 a7be efe1 73bc c421 aebe
00000130: 2fe9 923e 88b0 aebe 9ac2 d4be 7c05 ddbe
00000140: 1ebc ca3e 28e6 5d3e 4d4e 4b3e a2f2 adbe
00000150: fc92 ddbe 3ba9 d5be 5f84 6039 d9e7 b5be
00000160: 5df7 39bd 9ea5 8e3e 28e1 a03e 4801 d2be
00000170: ab6a 3abe 30f7 363e b21f 18be 1488 bdbb
00000180: 6535 b43e 5aa2 913e b511 9d3e a807 833e
00000190: 79e4 f43d adf5 2abc 72cb b2bd b121 783e
000001a0: 7b95 c73e d357 8e3e 6b94 f7bd 8bcd dc3e
000001b0: b9f3 553e 7b17 3ebd 187e 983e 3a6d 5fbe
000001c0: 5283 a63e 103e 72be 3b4b dabe a69b c93e
000001d0: 857b 8e3e dee5 a73e 9891 92be e90c 4a3e
000001e0: 87f1 bc3e 27a0 cc3e 6919 c33e f07e b5bd
000001f0: 06c3 b6bb d0f2 4d3d f731 39be 6109 5abe
00000200: 3a6b 14be 1bd9 14be e9f5 95be c1bc 6a3e
00000210: a033 57be d209 2abe a853 c7be 7e19 c23e
00000220: 15ea a8be 2527 013e af7e 963e c2fb 823e
00000230: c3b1 0e3e 115f 603e 158c 7c3e adc8 c6bc
00000240: 2ff5 b23e aae4 b63e ae9f 853c e2b1 dcbd
00000250: 69d0 823e db17 9bbd 8735 c0be aeb9 ccbe
00000260: 210d a93d 3845 8d38 e046 d63e 4e00 d63d
00000270: 3efb 143e 2674 96be bc59 c0be 631d 3f3e
00000280: d716 d4be 6077 b23e bf95 c6bc 645e 3a3e
00000290: 7304 133e 6b72 44bd 7d12 80be 0360 b53e
000002a0: c69b 513e e1eb c4bc 7a1e 81be 6b7c cd3e
000002b0: 3151 6c3e 612c 9ebe 9c96 18be 66c6 cc3e
000002c0: e8f3 ac3e 06a4 3ebe a2f4 87be 50ab 1e3e
000002d0: c8e0 08be 9086 be3e a1ab 753b 77fa 9a3d
000002e0: e5e5 b0be efc4 c0be 8282 d93c 5e34 23bd
000002f0: 6267 a2be 4b7d 58bb 2988 dc3e dd7a 97be
00000300: 763b d0be 00cf 8f3e 0655 85be 78df 52be
00000310: a3e0 ccbd 6573 aebe ea3f 6a3e 2285 c43e
00000320: 1bff c2be e056 993c c27f db3d 57cb ab3d
00000330: f57f a9bd 1641 283e 2807 913e c96d 27be
00000340: 707b 4dbe f120 e83d 187b d1be b477 6abe
00000350: ee7e 943e 47b0 a2be a911 91be 5d6b b5bc
00000360: 7519 923e 828b c43d f65e a03e c0e0 82be
00000370: 8bd9 a5bc c6d0 bcbd 5a2d 353e 1558 d73e
00000380: 3359 a3bd 3e65 63bb 1d4d 9c3e 4c0a c03e
00000390: 4af4 483c 74d8 af3e 9caa 9c3e 2d9a 9c3d
000003a0: e134 01be 2e89 4cbe aa31 77be be71 a2be
000003b0: 96ad 86be 759c 82be 5de6 cd3e 551e a9be
000003c0: 0113 92bd 5ff4 81bd b654 773e 2bb6 c73e
000003d0: 6f23 ab3e 2fb7 39be c03a 823e 2b1a 87be
000003e0: 9f10 b0be 29ed eabd 5c7c d03e a777 b8be
000003f0: 3f75 c9be 7822 a1bd dac9 92be c71a 463e

bias f4 [16]
-0.005272924 0.0 0.0 0.0 0.0 0.0012425623 -0.0066852802 0.0
0.007547327 -0.006522512 -0.005217679 0.0 0.006226685 0.0017158013 0.0058693835 -0.0034881763
00000000: 7ec8 acbb 0000 0000 0000 0000 0000 0000
00000010: 0000 0000 79dd a23a 3210 dbbb 0000 0000
00000020: 914f f73b ccba d5bb 10f9 aabb 0000 0000
00000030: 3809 cc3b bde4 e03a f553 c03b e399 64bb

weight f4 [16, 16]
0.04677934 0.09509329 0.22216344 -0.18389064 -0.15292184 0.12994583 -0.24385321 -0.42924407
-0.2780897 -0.17193693 0.086641565 -0.17610513 0.04877887 0.32369655 -0.35480535 0.32845318
0.14854676 -0.24851042 -0.23294462 -0.4321349 -0.15637496 -0.1804127 -0.12540013 -0.31920132
-0.35584936 -0.39972305 -0.27879277 -0.052995097 -0.21426938 -0.19778073 -0.36756504 -0.1129724
0.29316968 0.05766585 -0.0139658665 0.2007575 -0.10640562 -0.12956183 -0.03614871 0.35205325
-0.4134708 -0.1330465 0.4232583 0.118045636 -0.09722125 -0.39096636 -0.26980996 0.20357773
0.01269805 0.3600336 -0.051195912 -0.05524729 0.42659867 0.16253674 -0.21693866 0.08123567
-0.31083354 -0.19563146 -0.12979063 0.36831522 0.05456339 -0.21187223 -0.010917086 0.32258955
-0.10746149 -0.30014783 -0.2500115 -0.37144837 -0.3024261 -0.42450458 -0.006481918 -0.3275165
-0.33933774 -0.14753492 -0.30564368 -0.24168709 0.20146814 -0.37256014 -0.091014445 0.28098777
0.25428382 -0.23297016 0.24377462 0.28833124 0.10459818 0.21244709 -0.097140454 -0.07452255
0.16576363 -0.055497207 0.16315526 0.2826168 0.14314945 0.08472564 -0.19142509 -0.1251095
0.046900645 -0.05491569 0.2662281 0.2287883 0.41143838 0.15016697 -0.27557844 0.37859952
0.036174946 -0.39203495 0.30189177 -0.27579093 0.2902729 0.06667584 -0.2831283 0.28549513
-0.068346575 -0.32347044 0.26813337 -0.26226133 0.12365705 0.23574872 0.17487453 0.11913727
0.20484084 -0.34020737 -0.21104144 0.22045197 0.3244804 0.08070487 0.052762706 -0.34309372
-0.0901541 -0.21813618 0.422436 0.42880946 0.07919289 0.3442131 0.025762303 -0.12447268
-0.32326296 0.3594531 0.11619656 -0.07047586 -0.2851035 0.30445385 0.17927566 -0.25602555
0.40142578 -0.32042357 -0.06046258 0.028223589 0.36561143 0.077778414 0.3033429 -0.28291374
0.20956832 0.34872282 -0.25951594 -0.11361155 0.1348228 0.08063127 0.06727072 -0.07645157
-0.111564174 0.28078997 -0.10027141 0.13044012 -0.25341716 -0.31621006 -0.35535988 0.3908281
-0.1916338 -0.24993561 0.07276472 0.37052542 0.0578269 0.15922883 0.11936501 0.3494051
0.16645616 -0.343707 0.00316575 0.36817065 -0.40036097 -0.13174514 -0.41055378 -0.3844332
0.1628104 0.37542292 0.39235884 -0.15600799 0.33212182 -0.32271323 -0.37900895 0.33030713
0.18750767 0.05495048 -0.34824747 -0.01750694 0.35709193 -0.18747719 0.28161368 -0.2063144
-0.3843604 0.38442296 -0.40204298 -0.20028958 -0.06253022 0.335223 -0.0021837144 -0.099955425
0.25503156 -0.086849764 0.3055112 0.39075935 0.17997952 0.045593996 0.3270799 -0.4134783
-0.43024117 0.111224785 -0.28518328 -0.3721648 -0.11816823 -0.2780252 0.07606322 -0.24491994
0.0006928837 0.22808452 -0.22651793 0.35756126 -0.16713218 0.3391524 -0.24970762 -0.2924435
0.18977234 0.4110695 -0.22951174 -0.39146337 -0.22203615 0.25091872 -0.3456138 -0.12636028
-0.37944585 -0.026083665 0.30536094 0.009400464 -0.016068418 -0.06297888 0.39275563 0.0808893
0.017183144 0.07334969 0.0337138 0.32388654 0.3272552 0.10928708 0.21296947 -0.36272517
00000000: b19b 3f3d 45c0 c23d d07e 633e d44d 3cbe
00000010: 8b97 1cbe 8510 053e a8b4 79be e1c5 dbbe
00000020: c661 8ebe 3c10 30be 2271 b13d e754 34be
00000030: 5acc 473d 8ebb a53e 0ca9 b5be 042b a83e
00000040: a41c 183e 8479 7ebe 0989 6ebe c940 ddbe
00000050: c220 20be 1bbe 38be e468 00be 5b6e a3be
00000060: e331 b6be 80a8 ccbe edbd 8ebe 6311 59bd
00000070: 6f69 5bbe 0887 4abe 7c31 bcbe 135e e7bd
00000080: 561a 963e 0733 6c3d 17d1 64bc 6093 4d3e
00000090: 31eb d9bd dbab 04be ab10 14bd 5340 b43e
000000a0: 72b2 d3be 573d 08be 50b5 d83e e9c1 f13d
000000b0: ef1b c7bd be2c c8be 8824 8abe ae76 503e
000000c0: 7b0b 503c 5356 b83e ceb2 51bd fb4a 62bd
000000d0: 246b da3e 0870 263e 2b25 5ebe e35e a63d
000000e0: 9325 9fbe 9d53 48be d6e7 04be d093 bc3e
000000f0: dc7d 5f3d 09f5 58be 94dd 32bc 752a a53e
00000100: c514 dcbd faac 99be 8201 80be 7b2e bebe
00000110: 98d7 9abe aa58 d9be 4566 d4bb 3eb0 a7be
00000120: adbd adbe 6513 17be 547d 9cbe d27c 77be
00000130: aa4d 4e3e 34c0 bebe c865 babd a1dd 8f3e
00000140: 7d31 823e bb8f 6ebe 0ea0 793e 27a0 933e
00000150: 9237 d63d bb8b 593e 93f1 c6bd 479f 98bd
00000160: f1bd 293e 0a51 63bd 2c12 273e 26b3 903e
00000170: c595 123e a384 ad3d f004 44be b41c 00be
00000180: e41a 403d 46ef 60bd 0d4f 883e 7b47 6a3e
00000190: 0da8 d23e 5fc5 193e 9e18 8dbe ccd7 c13e
000001a0: 2e2c 143d ceb8 c8be 8f91 9a3e 7834 8dbe
000001b0: a69e 943e 588d 883d 31f6 90be 6b2c 923e
000001c0: 4af9 8bbd eb9d a5be c748 893e 1e47 86be
000001d0: e83f fd3d 1d68 713e 4f12 333e 3efe f33d
000001e0: ccc1 513e a92f aebe 3f1b 58be 29be 613e
000001f0: 4c22 a63e 9848 a53d b51d 583d fba9 afbe
00000200: b6a2 b8bd 175f 5fbe 8849 d83e ea8c db3e
00000210: e22f a23d b33c b03e 770b d33c 88eb febd
00000220: b982 a5be 3d0a b83e 76f8 ed3d a655 90bd
00000230: 16f9 91be 60e1 9b3e 0a94 373e c815 83be
00000240: ae87 cd3e 8f0e a4be 9ca7 77bd 2835 e73c
00000250: 6c31 bb3e 4a4a 9f3d c34f 9b3e 12da 90be
00000260: 1499 563e cc8b b23e 46df 84be 2cad e8bd
00000270: fd0e 0a3e 0222 a53d 3bc5 893d a492 9cbd
00000280: c27b e4bd b4c3 8f3e 195b cdbd 1892 053e
00000290: e5bf 81be 49e6 a1be bbf1 b5be 9f1a c83e
000002a0: a73b 44be 1fef 7fbe ab05 953d 82b5 bd3e
000002b0: e6db 6c3d e20c 233e a475 f43d 3ae5 b23e
000002c0: 7c73 2a3e 5dfa afbe 7978 4f3b dd80 bc3e
000002d0: 1dfc ccbe 33e8 06be 1b34 d2be 6ed4 c4be
000002e0: c5b7 263e 6f37 c03e 42e3 c83e 8fc0 1fbe
000002f0: df0b aa3e ab3a a5be 760d c2be 041e a93e
00000300: 0302 403e c113 613d 7e4d b2be b76a 8fbc
00000310: c1d4 b63e 05fa 3fbe ab2f 903e 1544 53be
00000320: e3ca c4be 16d3 c43e 94d8 cdbe b618 4dbe
00000330: d80f 80bd 59a2 ab3e a61c 0fbb 6eb5 ccbd
00000340: 7f93 823e 4ade b1bd f76b 9c3e 9c11 c83e
00000350: 8d4c 383e c5c0 3a3d 0477 a73e 6eb3 d3be
00000360: 9248 dcbe d2c9 e33d 8b03 92be 628c bebe
00000370: 2f02 f2bd 5259 8ebe 09c7 9b3d 4bcc 7abe
00000380: a3a2 353a fd8e 693e 51f4 67be 4512 b73e
00000390: b324 2bbe 62a5 ad3e 5bb3 7fbe 28bb 95be
000003a0: ae53 423e b477 d23e 2005 6bbe e36d c8be
000003b0: 725d 63be 6b78 803e 4bf4 b0be 9764 01be
000003c0: ba46 c2be 69ad d5bc 4558 9c3e 6704 1a3c
000003d0: eaa1 83bc 12fb 80bd 4417 c93e 4aa9 a53d
000003e0: aac3 8c3c 5d38 963d 7b17 0a3d 75d4 a53e
000003f0: fe8d a73e e8d1 df3d ab14 5a3e 1db7 b9be

bias f4 [16]
-0.00622446 0.0 -0.0079387855 0.0 0.0 0.009675305 0.0020442249 0.0
-0.008947794 -0.007340512 -0.001308139 -0.0031649277 -0.0034797518 0.0 0.0 -0.008837423
00000000: 8ef6 cbbb 0000 0000 ae11 02bc 0000 0000
00000010: 0000 0000 2c85 1e3c 67f8 053b 0000 0000
00000020: c599 12bc ad88 f0bb dc75 abba ad6a 4fbb
00000030: 8c0c 64bb 0000 0000 0000 0000 d7ca 10bc

weight f4 [16, 16]
-0.3556309 0.0053163064 0.13599871 0.0840183 0.21866165 0.3925177 -0.40709412 -0.43097466
0.022281917 -0.27691662 0.1552719 0.10279548 0.023809481 0.04872191 0.030785806 -0.4009454
0.20289932 0.15154542 0.4054687 0.08336124 0.03391728 0.018025044 -0.07460478 0.14691544
0.057991162 0.4114215 -0.2134888 -0.25342146 0.36818594 0.22706494 0.055207595 0.360122
-0.017088812 0.14123894 0.08318757 0.011083867 0.2672777 -0.24507873 -0.15130983 0.3252096
0.24365741 0.15692829 0.19827366 0.27002704 -0.012233027 0.42923293 0.109914124 -0.103196755
0.20235863 0.15109566 -0.32543093 0.017737161 0.10047484 0.31120676 -0.3542008 -0.31646788
-0.32957533 0.24215166 -0.01863523 -0.404537 -0.2842805 0.36870655 0.21457098 0.32318607
-0.42887866 -0.1730495 0.116029546 0.19878632 0.36550587 -0.40467513 0.23475175 0.072322026
0.43086636 -0.3717943 0.023345787 -0.41550416 -0.12024993 0.22795232 0.28790903 -0.39822975
0.038490478 0.3593738 -0.0853716 -0.07361663 0.056236982 -0.027701203 -0.019098254 0.3893494
-0.15263721 -0.3935476 0.35680747 -0.16145289 -0.19099219 -0.14985484 0.26578796 0.024322111
0.24266775 -0.28219014 -0.17048272 -0.29886964 0.31912482 -0.3948236 -0.4056541 0.25453994
-0.24823679 0.36595783 -0.34612247 -0.012460963 0.1923743 0.26602367 -0.16855867 -0.108246826
0.15671198 -0.22034149 -0.24977168 0.23394014 0.10742593 -0.3843778 -0.01848884 0.1638284
-0.41734815 -0.20149606 -0.38699326 -0.42802948 -0.1899915 0.384749 -0.0008198667 -0.026286064
0.08103567 0.0856221 -0.008972388 0.180161 -0.12991984 0.42978504 0.03180128 -0.15638456
-0.03428899 0.25852957 -0.29134935 0.3961615 -0.048329946 -0.03565344 -0.18002808 0.25281352
0.14483921 0.15712601 -0.15396105 -0.26591176 -0.15866907 0.1218017 -0.3183697 0.11002732
-0.31743854 -0.09727554 0.017055428 -0.2118853 -0.3970095 0.23358919 -0.08822614 0.07486401
0.39330712 -0.06164646 -0.29887792 -0.16651239 0.38071844 0.27929083 -0.3458403 -0.2245086
-0.19236629 0.21653092 0.35937098 0.23146325 0.11642737 0.029976781 -0.21801223 0.25083098
-0.40696838 -0.3347933 0.3634177 -0.106296964 -0.20807979 0.1977582 0.164819 -0.021758962
-0.041035462 0.35524645 0.26172292 0.40322995 0.13196778 0.16443285 0.24875143 -0.29267776
0.101086296 0.048613146 0.23014587 0.14842112 0.003934256 0.3791626 -0.045310743 0.4127322
-0.41585225 0.4131294 -0.29462904 0.09885063 0.35661867 0.25469294 -0.41353178 0.16536161
-0.29792738 0.38306013 0.39981696 0.29563916 0.33141536 -0.2811069 -0.0098821875 -0.08437194
0.24672976 -0.10498702 0.32186064 -0.29392725 0.12665921 -0.18835363 0.2487521 0.16967729
-0.17140214 -0.16544862 0.3433833 0.12901475 -0.14157502 -0.33491874 0.22831543 0.29733276
0.19115202 -0.34938556 0.36021018 0.20250131 0.19637254 0.3174468 -0.24549064 -0.31001115
0.008080408 -0.25561666 -0.14571938 -0.11268065 -0.30143315 -0.08083309 -0.06175832 -0.16507511
0.16347528 0.05897868 0.410141 -0.3077487 -0.058533624 -0.14088576 -0.19922426 -0.40469372
00000000: 4115 b6be 6934 ae3b 3f43 0b3e c911 ac3d
00000010: d7e8 5f3e 14f8 c83e a46e d0be b6a8 dcbe
00000020: 9188 b63c 04c8 8dbe 99ff 1e3e 7086 d23d
00000030: 1a0c c33c a090 473d 8432 fc3c b748 cdbe
00000040: d7c4 4f3e b92e 1b3e 9899 cf3e 4cb9 aa3d
00000050: d9ec 0a3d 42a9 933c 64ca 98bd 0071 163e
00000060: 2488 6d3d d7a5 d23e cf9c 5abe 75c0 81be
00000070: de82 bc3e b683 683e 5c21 623d e961 b83e
00000080: d6fd 8bbc f1a0 103e 3f5e aa3d 1c99 353c
00000090: 9fd8 883e ebf5 7abe f7f0 1abe df81 a63e
000000a0: 5481 793e cfb1 203e 4008 4b3e fc40 8a3e
000000b0: 096d 48bc 6bc4 db3e a81a e13d d258 d3bd
000000c0: 1a37 4f3e d2b8 1a3e e29e a6be 864d 913c
000000d0: c1c5 cd3d 7e56 9f3e cf59 b5be 1408 a2be
000000e0: 19be a8be 9bf6 773e e9a8 98bc 791f cfbe
000000f0: 378d 91be 1bc7 bc3e 7fb8 5b3e a578 a53e
00000100: fc95 dbbe e333 31be e6a0 ed3d a48e 4b3e
00000110: 9623 bb3e 9431 cfbe c362 703e 921d 943d
00000120: 849a dc3e d35b bebe aa3f bf3c f6bc d4be
00000130: 9845 f6bd 556c 693e d068 933e c5e4 cbbe
00000140: 31a8 1d3d d8ff b73e 4ed7 aebd 51c4 96bd
00000150: c058 663d a2ed e2bc f173 9cbc ce58 c73e
00000160: ee4c 1cbe 127f c9be 78af b63e e853 25be
00000170: 7593 43be 8c73 19be 5c15 883e 2a3f c73c
00000180: e57d 783e 3a7b 90be 0693 2ebe 7105 99be
00000190: 5464 a33e 5226 cabe e5b1 cfbe 0f53 823e
000001a0: c931 7ebe d35e bb3e f736 b1be 1129 4cbc
000001b0: c5fd 443e 4134 883e a59a 2cbe 83b0 ddbd
000001c0: 1b79 203e 33a1 61be 26c4 7fbe 018e 6f3e
000001d0: 2002 dc3d 2bcd c4be e875 97bc a2c2 273e
000001e0: a8ae d5be fc54 4ebe fb23 c6be ae26 dbbe
000001f0: 228d 42be d2fd c43e 53ec 56ba df55 d7bc
00000200: 08f6 a53d a45a af3d ec00 13bc 207c 383e
00000210: b509 05be c90c dc3e 0f42 023d 4623 20be
00000220: 9d72 0cbd fd5d 843e be2b 95be aed5 ca3e
00000230: 9ff5 45bd 5709 12bd 4859 38be c670 813e
00000240: bb50 143e a4e5 203e f7a7 1dbe 9625 88be
00000250: 257a 22be 2b73 f93d 5a01 a3be 0156 e13d
00000260: 4e87 a2be 6638 c7bd d3b7 8b3c 76f8 58be
00000270: d444 cbbe 0132 6f3e e8af b4bd 4d52 993d
00000280: 8d5f c93e 0081 7cbd 8706 99be 3982 2abe
00000290: 87ed c23e 35ff 8e3e fb11 b1be 95e5 65be
000002a0: abfb 44be 48ba 5d3e 79ff b73e b404 6d3e
000002b0: 7971 ee3d de91 f53c 993e 5fbe eb6c 803e
000002c0: 295e d0be 076a abbe e311 ba3e 39b2 d9bd
000002d0: de12 55be 2081 4a3e 50c6 283e da3f b2bc
000002e0: cd14 28bd dde2 b53e 8c00 863e 2874 ce3e
000002f0: 9022 073e 1661 283e b2b8 7e3e dcd9 95be
00000300: 5506 cf3d 941e 473d 5cab 6b3e b5fb 173e
00000310: eeea 803b 9a21 c23e c297 39bd a351 d33e
00000320: 96ea d4be b285 d33e 9ed9 96be 3372 ca3d
00000330: b996 b63e 1d67 823e 70ba d3be 8e54 293e
00000340: f089 98be 7520 c43e cfb4 cc3e 045e 973e
00000350: 46af a93e 3eed 8fbe e6e8 21bc 32cb acbd
00000360: baa6 7c3e 6f03 d7bd ebca a43e a27d 96be
00000370: f4b2 013e c6df 40be dfb8 7e3e e2bf 2d3e
00000380: 0b84 2fbe 5d6b 29be f0cf af3e 711c 043e
00000390: 0bf9 10be 787a abbe 85cb 693e 003c 983e
000003a0: 5bbd 433e aae2 b2be 786d b83e 815c 4f3e
000003b0: e215 493e 6388 a23e e661 7bbe c8b9 9ebe
000003c0: b063 043c 30e0 82be 7637 15be 1dc5 e6bd
000003d0: 7255 9abe d28b a5bd 4bf6 7cbd 7309 29be
000003e0: 1066 273e a193 713d 00fe d13e 3d91 9dbe
000003f0: f4c0 6fbd 5b44 10be 7201 4cbe 0434 cfbe

bias f4 [16]
0.0 -0.008452953 -0.01042758 0.0 0.0 0.0 0.0 0.0
-0.0031701364 0.0 -0.0016773468 0.012058897 0.00022923973 -0.01178603 -0.008875409 0.0
00000000: 0000 0000 417e 0abc 71d8 2abc 0000 0000
00000010: 0000 0000 0000 0000 0000 0000 0000 0000
00000020: 10c2 4fbb 0000 0000 6bda dbba ae92 453c
00000030: 1260 7039 311a 41bc 2a6a 11bc 0000 0000

weight f4 [16, 16]
0.123366944 -0.11736937 -0.4173595 -0.2682854 -0.37374428 -0.27076894 -0.06760553 -0.16651094
-0.04459346 0.076988444 -0.32700494 -0.3183677 -0.21400705 0.40516856 -0.2615987 0.22127673
0.40958983 -0.10520877 0.0296558 -0.36632553 0.37607172 0.42415553 -0.22713467 -0.079833895
-0.087120004 0.086960845 0.36456212 0.29246923 0.19534095 0.34184992 0.36269146 0.37392923
-0.18329397 0.06525629 0.22303359 0.38468918 -0.23665376 0.2920476 -0.12020177 0.16457291
-0.34193018 -0.37885183 0.32134283 0.31798628 0.422084 0.23521042 -0.29130614 -0.038566772
0.340554 -0.31146324 -0.15499778 0.0011633404 0.34103617 0.25773394 -0.02385852 0.34163737
0.19547462 -0.13001823 -0.4120647 0.43051544 0.40213117 -0.24757105 -0.3234313 0.1349636
0.3008474 0.010012822 -0.40742457 -0.004743489 -0.15637067 0.11552027 -0.38186008 -0.01212327
0.41914588 -0.35390362 -0.34049484 -0.4313075 -0.18275502 -0.14100505 0.16471966 0.35949013
-0.3492606 -0.19153072 0.13815054 -0.23632061 0.11646913 -0.40485808 -0.3792044 -0.29295665
0.046364643 0.088517115 0.37880084 0.362743 0.26386806 0.013434378 0.0897545 0.28354555
-0.20595163 0.4087658 0.23701888 -0.38739032 -0.38077584 0.18356791 -0.02563138 -0.112136275
0.27194488 0.0143574495 -0.21546355 0.084345646 0.2480129 0.30313587 0.28966922 -0.2759097
0.052709695 -0.22486323 -0.32038718 -0.38824573 -0.25842357 0.1877514 0.20896567 -0.03145061
-0.31798545 0.38479882 0.07463946 0.09375955 -0.31542104 -0.06451917 -0.30781326 0.2603662
-0.12737358 0.3627475 -0.4027848 -0.048883837 -0.17430466 0.089588985 0.30930904 0.008704328
0.18109494 0.1856826 0.09130115 0.28576857 0.35953125 -0.31475788 0.19510299 -0.3878462
-0.20386374 -0.1684992 0.21205796 0.033806454 -0.1374408 -0.13268085 0.34018648 0.23660958
-0.2851791 -0.40338996 -0.16059767 -0.41487905 0.43012476 0.20596722 0.21357293 0.016936703
-0.38703945 -0.26229814 -0.21057408 0.40189967 0.4026622 -0.21892543 -0.11400912 0.33877426
0.16704907 0.38201588 0.13900037 -0.31540692 0.12649636 0.008185246 -0.028788352 -0.16970792
0.07624178 -0.39003485 -0.43211386 -0.14892554 -0.19589344 0.07502413 0.23941188 0.101866804
-0.39580283 0.082026936 0.4077813 0.1089904 -0.2415488 -0.021620158 -0.2115091 -0.093831666
0.18416624 -0.32454714 0.046460547 0.29473588 0.20409814 -0.33517668 0.2517679 -0.084100835
-0.09542215 -0.3673106 0.42574173 0.20151427 0.20085013 0.18677956 -0.3464548 -0.21663147
-0.364145 0.2258885 -0.34925297 0.015084144 0.17473078 -0.22866414 0.374476 0.17804843
0.3440571 -0.3486025 -0.3255166 0.3163319 -0.33745754 -0.02365476 -0.09248151 0.01698409
-0.13196804 0.25307778 0.0045408322 0.117018566 -0.39339593 -0.14730646 -0.22343513 0.037008338
-0.3725457 0.041259125 -0.41542256 -0.16980925 -0.072472595 -0.0029542148 0.09562667 -0.2473257
0.28159198 -0.41137362 -0.10078881 -0.22207259 -0.19058472 -0.34547326 0.3760712 -0.38322732
0.35134903 -0.227443 0.38262925 0.10142148 -0.21027708 -0.4083755 -0.075039156 0.35510513
00000000: cfa7 fc3d 5a5f f0bd 25b0 d5be b45c 89be
00000010: 695b bfbe 3aa2 8abe c574 8abd d881 2abe
00000020: a2a7 36bd 1eac 9d3d 316d a7be 1701 a3be
00000030: aa24 5bbe 4172 cf3e 44f0 85be 5e96 623e
00000040: c2b5 d13e b277 d7bd b8f0 f23c 058f bbbe
00000050: 798c c03e ea2a d93e fe95 68be f47f a3bd
00000060: f96b b2bd 8718 b23d e3a7 ba3e 87be 953e
00000070: 7507 483e f406 af3e b2b2 b93e a773 bf3e
00000080: 6ab1 3bbe 17a5 853d eb62 643e fbf5 c43e
00000090: 5d55 72be 4387 953e 582c f6bd cd85 283e
000000a0: 7911 afbe def8 c1be 0c87 a43e 19cf a23e
000000b0: 651b d83e 00db 703e 1426 95be 31f8 1dbd
000000c0: 185d ae3e 1c78 9fbe bdb7 1ebe 3a7b 983a
000000d0: 4b9c ae3e b4f5 833e f172 c3bc 18eb ae3e
000000e0: 802a 483e 8023 05be 25fa d2be 856c dc3e
000000f0: 23e4 cd3e 4483 7dbe ca98 a5be e633 0a3e
00000100: ac08 9a3e d20c 243c f499 d0be 456f 9bbb
00000110: a21f 20be e495 ec3d 2a83 c3be aea0 46bc
00000120: 4a9a d63e db32 b5be 5755 aebe 56d4 dcbe
00000130: 2224 3bbe a163 10be 45ac 283e 170f b83e
00000140: 49d2 b2be a120 44be 5677 0d3e 08fe 71be
00000150: 5e87 ee3d 8f49 cfbe 1427 c2be 6afe 95be
00000160: dae8 3d3d 7648 b53d 2ff2 c13e 73b9 b93e
00000170: b719 873e de1b 5c3c 35d1 b73d e22c 913e
00000180: fce4 52be c049 d13e 14b5 723e 0658 c6be
00000190: 0df5 c2be 3af9 3b3e e6f8 d1bc b4a7 e5bd
000001a0: 5c3c 8b3e 823b 6b3c 7aa2 5cbe 69bd ac3d
000001b0: 18f7 7d3e a034 9b3e 864f 943e 0944 8dbe
000001c0: 1fe6 573d 8c42 66be ca09 a4be 25c8 c6be
000001d0: 1850 84be e741 403e 19fb 553e 5bd2 00bd
000001e0: fdce a2be 5a04 c53e 93dc 983d 0205 c03d
000001f0: de7e a1be a022 84bd b399 9dbe b84e 853e
00000200: 386e 02be 0aba b93e cf39 cebe 6b3a 48bd
00000210: ec7c 32be 6e7a b73d c15d 9e3e 999c 0e3c
00000220: f470 393e 9423 3e3e 19fc ba3d 4250 923e
00000230: 7b14 b83e f227 a1be 14c9 473e c793 c6be
00000240: a8c1 50be 0e8b 2cbe b925 593e a378 0a3d
00000250: 48bd 0cbe 7ddd 07be ec2c ae3e c849 723e
00000260: ff02 92be 2189 cebe b773 24be 076b d4be
00000270: 5039 dc3e 12e9 523e ddb2 5a3e d7be 8a3c
00000280: 092a c6be f14b 86be bba0 57be cbc5 cd3e
00000290: bd29 ce3e fd2d 60be 9d7d e9bd d273 ad3e
000002a0: e90e 2b3e 9697 c33e 1d56 0e3e 047d a1be
000002b0: 4388 013e 691b 063c 8dd5 ebbc eac7 2dbe
000002c0: a624 9c3d a6b2 c7be 073e ddbe f07f 18be
000002d0: 4a98 48be 40a6 993d 6328 753e 8b9f d03d
000002e0: aba6 cabe bdfd a73d b6c8 d03e 5c36 df3d
000002f0: 9258 77be c21c b1bc d795 58be d12a c0bd
00000300: 1396 3c3e 0b2b a6be 6a4d 3e3d 9fe7 963e
00000310: 1aff 503e 479c abbe b9e7 803e 0f3d acbd
00000320: b06c c3bd 2310 bcbe d2fa d93e c259 4e3e
00000330: a8ab 4d3e 2443 3f3e 8662 b1be a4d4 5dbe
00000340: 3771 babe 514f 673e 49d1 b2be 7c23 773c
00000350: a0ec 323e ef26 6abe 51bb bf3e 5452 363e
00000360: 4128 b03e 077c b2be 1daa a6be 41f6 a13e
00000370: 3cc7 acbe a1c7 c1bc f266 bdbd 3822 8b3c
00000380: a122 07be 6993 813e 43cb 943b 6ea7 ef3d
00000390: 316b c9be 81d7 16be 2ecc 64be 0e96 173d
000003a0: 4fbe bebe 54ff 283d 44b2 d4be 7ae2 2dbe
000003b0: 836c 94bd 809b 41bb ead7 c33d f342 7dbe
000003c0: d32c 903e 909f d2be 5d6a cebd ff66 63be
000003d0: a428 43be dfe1 b0be 688c c03e 5f36 c4be
000003e0: 05e4 b33e d1e6 68be fbe7 c33e 11b6 cf3d
000003f0: e052 57be 9816 d1be 21ae 99bd 57d0 b53e

bias f4 [16]
0.0 0.007574878 -0.0031691082 0.010683861 0.0 -0.01054791 -0.008691577 0.0
0.007647859 0.0 0.0 0.0 0.005367423 -0.004488098 0.0 0.008829508
00000000: 0000 0000 af36 f83b d0b0 4fbb 5c0b 2f3c
00000010: 0000 0000 24d1 2cbc 1e67 0ebc 0000 0000
00000020: e49a fa3b 0000 0000 0000 0000 0000 0000
00000030: 35e1 af3b e510 93bb 0000 0000 a4a9 103c

weight f4 [16, 16]
0.17365478 -0.15559602 -0.25839937 0.028447976 -0.12956491 -0.265538 -0.32643202 -0.28442413
-0.29144573 0.4198638 0.05144048 0.058204085 0.290244 -0.36591196 0.07183675 -0.1193549
0.19329673 0.14397831 -0.28799483 -0.3873663 -0.09093377 -0.32776794 -0.12189079 0.2110834
-0.038566567 -0.039864272 0.1380416 -0.26142326 0.36697537 -0.31710646 0.15468346 0.2630682
-0.008469358 -0.18687364 0.181458 -0.12509629 -0.39010155 0.21202578 0.29245454 0.16865535
-0.33392137 -0.2806818 0.14386109 0.2217588 0.080423884 0.31848216 0.09215286 -0.35520515
0.20072989 0.3603501 -0.2990071 -0.41145495 0.017404733 0.2989255 0.19830099 -0.2812064
0.1931778 -0.12365576 -0.07027248 -0.030165603 -0.34836125 -0.18831283 0.016074354 0.25422665
-0.25735834 0.17459223 0.0800587 -0.044132493 -0.11013459 -0.36438766 0.13769501 -0.23632912
0.40595365 0.16295408 0.16009907 0.4160077 -0.043866526 -0.17688282 0.01278704 -0.14388074
0.14339378 -0.4342596 0.0680144 -0.069683895 -0.110035375 0.24490824 -0.3383872 -0.10320941
0.32748443 0.07070381 -0.28209707 0.2569551 -0.3643194 0.27847898 -0.17623955 0.14721705
0.32532734 0.3848575 0.13574769 0.1914368 -0.10652786 -0.107283145 -0.39521334 0.20327781
0.08960302 0.13077837 -0.2761734 -0.42883763 0.22782002 -0.20662546 -0.1415885 0.1291389
0.16863486 -0.41691354 -0.11056143 0.37174854 0.078562364 -0.25415018 0.34226575 -0.4032682
0.042733617 0.09827834 0.043351144 0.3954384 0.07926249 -0.27975214 -0.06427341 -0.18126698
0.3598681 0.056659434 -0.39215574 0.0065033915 0.0047475668 0.025752373 0.10295054 0.23287018
-0.3446443 0.13321045 -0.21729137 0.28317335 -0.2370503 -0.309109 -0.24901804 0.24950656
-0.08197031 0.37774196 -0.3608059 0.13994092 -0.15415348 0.06308194 0.2751468 0.22132628
-0.40405476 -0.06267673 0.18075989 -0.42889982 -0.31805336 -0.42898422 0.059226092 0.0936385
-0.18022619 0.17471947 0.06503944 0.18425822 0.37940064 -0.28965676 -0.33620173 0.41121987
-0.22523984 0.3050191 -0.14634882 -0.0933307 -0.19310945 0.13240829 -0.02787645 0.3458398
-0.42404562 -0.010133508 0.063868254 0.1401124 0.33620235 0.14963417 -0.37476045 0.0594287
-0.18357313 0.265944 -0.18863872 -0.052212756 0.111057535 0.2840923 -0.20771763 0.3224953
-0.3049918 -0.1030574 -0.2715051 0.09177908 -0.35083333 -0.004369405 -0.2994599 0.2786945
-0.39244935 -0.18991083 -0.36753315 -0.27288878 0.031178422 0.20577039 0.21646062 -0.3418789
-0.07687844 -0.0802184 0.1928841 -0.033637017 -0.056938488 -0.26029643 -0.29080027 -0.020464612
0.21438625 -0.2148916 0.09224851 0.21196453 -0.14699744 0.4022464 0.39357826 0.269583
0.18476972 -0.3435845 0.23091784 -0.050466068 0.33335772 -0.3557337 -0.015486412 0.39306077
0.085429616 0.14150028 -0.0018564306 -0.2049959 0.21397278 0.34213477 0.23733415 -0.29141748
-0.2913227 0.4227951 -0.05084629 0.18553278 0.12295756 -0.26947495 0.3763176 0.076935485
-0.2035392 0.40884084 0.14292988 0.1051935 -0.2926913 0.3846843 -0.21935485 -0.14524995
00000000: 8fd2 313e 9054 1fbe ec4c 84be bb0b e93c
00000010: aaac 04be 99f4 87be 1922 a7be 0aa0 91be
00000020: 6038 95be 63f8 d63e 41b3 523d 6867 6e3d
00000030: dd9a 943e d058 bbbe 251f 933d 5870 f4bd
00000040: 94ef 453e 0d6f 133e 0f74 93be e054 c6be
00000050: 7c3b babd 33d1 a7be e1a1 f9bd 3f26 583e
00000060: faf7 1dbd b848 23bd c75a 0d3e 45d9 85be
00000070: 32e4 bb3e c75b a2be 5765 1e3e e0b0 863e
00000080: 10c3 0abc ce5b 3fbe 20d0 393e 3e19 00be
00000090: 64bb c7be 491d 593e 9abc 953e fdb3 2c3e
000000a0: bef7 aabe 86b5 8fbe 5250 133e bd14 633e
000000b0: 47b5 a43d 1810 a33e a3ba bc3d 73dd b5be
000000c0: 238c 4d3e cf7f b83e 7517 99be 39aa d2be
000000d0: 5f94 8e3c c30c 993e 6a0f 4b3e 49fa 8fbe
000000e0: 67d0 453e 3b3f fdbd 05eb 8fbd db1d f7bc
000000f0: 685c b2be 14d5 40be 5dae 833c ff29 823e
00000100: 79c4 83be 4ec8 323e d1f5 a33d 46c4 34bd
00000110: 3e8e e1bd 0591 babe ecff 0c3e 4300 72be
00000120: 28d9 cf3e 6fdd 263e 03f1 233e f6fe d43e
00000130: 63ad 33bd c520 35be bc80 513c 7955 13be
00000140: d2d5 123e 4657 debe 224b 8b3d 6eb6 8ebd
00000150: 3a5a e1bd 3ac9 7a3e 1641 adbe 755f d3bd
00000160: 0aac a73e 29cd 903d 076f 90be 9e8f 833e
00000170: 1388 babe cc94 8e3e 2478 34be 11c0 163e
00000180: 4e91 a63e 0b0c c53e 7101 0b3e 0208 443e
00000190: 472b dabd 44b7 dbbd 6759 cabe 0f28 503e
000001a0: ca81 b73d c4ea 053e 9a66 8dbe 9b90 dbbe
000001b0: a749 693e a095 53be 93fc 10be fd3c 043e
000001c0: 9eae 2c3e b175 d5be 086e e2bd d355 be3e
000001d0: 4ee5 a03d f91f 82be 753d af3e 2b79 cebe
000001e0: 7209 2f3d 2846 c93d f890 313d e776 ca3e
000001f0: 5f54 a23d ac3b 8fbe c7a1 83bd 0d9e 39be
00000200: a240 b83e b913 683d a3c8 c8be 671a d53b
00000210: 7a91 9b3b a4f6 d23c bcd7 d23d 8575 6e3e
00000220: 3875 b0be 5268 083e a181 5ebe 19fc 903e
00000230: 50bd 72be 8943 9ebe 96fe 7ebe a67e 7f3e
00000240: 0de0 a7bd 6567 c13e 8dbb b8be ac4c 0f3e
00000250: 69da 1dbe 1b31 813d 0be0 8c3e 5ba3 623e
00000260: 44e0 cebe a85c 80bd 1f19 393e c298 dbbe
00000270: e4d7 a2be d2a3 dbbe 0f97 723d 8bc5 bf3d
00000280: 378d 38be a9e9 323e 6633 853d 30ae 3c3e
00000290: cd40 c23e e44d 94be a222 acbe 698b d23e
000002a0: 46a5 66be 772b 9c3e 77dc 15be 2b24 bfbd
000002b0: 7cbe 45be 0a96 073e 275d e4bc ea11 b13e
000002c0: 821c d9be 0307 26bc 5ccd 823d a079 0f3e
000002d0: b722 ac3e b339 193e 9ae0 bfbe 826b 733d
000002e0: 98fa 3bbe d029 883e 822a 41be 0bdd 55bd
000002f0: 2272 e33d 8c74 913e eeb3 54be 1b1e a53e
00000300: e327 9cbe c20f d3bd b702 8bbe acf6 bb3d
00000310: 6da0 b3be 3a2d 8fbb cf52 99be 0cb1 8e3e
00000320: 1fef c8be fc77 42be 4e2d bcbe 14b8 8bbe
00000330: e469 ff3c 79b5 523e daa7 5d3e c00a afbe
00000340: 7272 9dbd 8b49 a4bd 6983 453e f8c6 09bd
00000350: 5538 69bd 9345 85be c6e3 94be 67a5 a7bc
00000360: 1288 5b3e 8b0c 5cbe c9ec bc3d 3b0d 593e
00000370: 7f86 16be 3df3 cd3e 1783 c93e c806 8a3e
00000380: 4634 3d3e 4fea afbe ba75 6c3e 82b5 4ebd
00000390: ddad aa3e ba22 b6be b8ba 7dbc 433f c93e
000003a0: b9f5 ae3d 73e5 103e 7953 f3ba 72ea 51be
000003b0: ae1b 5b3e 4a2c af3e b907 733e ac34 95be
000003c0: 4028 95be 9978 d83e 3344 50bd 4efc 3d3e
000003d0: 2cd1 fb3d 9ff8 89be b3ac c03e 5a90 9d3d
000003e0: 946c 50be 9653 d13e 365c 123e b16f d73d
000003f0: a2db 95be 57f5 c43e 8f9e 60be 67bc 14be

bias f4 [16]
0.0 0.0 -0.009672049 -0.009874929 -0.0083322115 -0.0041393796 0.0 -0.0061840275
0.0 0.0 0.0 0.0 0.0 0.010270689 0.0 0.0070983334
00000000: 0000 0000 0000 0000 8477 1ebc 74ca 21bc
00000010: d483 08bc a2a3 87bb 0000 0000 62a3 cabb
00000020: 0000 0000 0000 0000 0000 0000 0000 0000
00000030: 0000 0000 6446 283c 0000 0000 2399 e83b
