ad/ad_NCI1.pt (torch, 349389 bytes, 62 tensors)

weight f4 [16, 37]
0	0x3dff2ae9	0.12459356
1	0xbe2dd194	-0.16974479
2	0xbe47ce32	-0.19512251
3	0x3e3f6f9c	0.1869492
4	0x3daed99a	0.08537598
5	0xbe99392a	-0.29926425
6	0xbc52d945	-0.012869184
7	0x3e050047	0.12988387
8	0xbea60989	-0.3242915
9	0xbe31caf2	-0.17362574
10	0xbe99f5fd	-0.30070487
11	0xbeaa4965	-0.3325912
12	0xbe172c05	-0.14762886
13	0x3e96577d	0.29363623
14	0x3b20c6fc	0.0024532666
15	0xbca75263	-0.020425027
16	0x3d86ae9c	0.06576273
17	0x3d8deeb1	0.069302924
18	0xba66e07d	-0.0008807255
19	0x3e0f599c	0.13999027
20	0xbdcebfa2	-0.10095145
21	0x3ea96e7d	0.33092108
22	0x3ce37ef1	0.027770491
23	0xbdf8dd03	-0.1215153
24	0xbcd5f4b1	-0.026117655
25	0x3e5275da	0.2055277
26	0xbe67668d	-0.22597714
27	0x3e9caada	0.305991
28	0xbd1909ff	-0.03736305
29	0xbce2f2f8	-0.027703747
30	0xbe0f3e89	-0.13988699
31	0x3e4915ee	0.19637272
32	0x3de67d97	0.11254423
33	0x3dfa0b12	0.12209143
34	0xbdf501b4	-0.119632155
35	0xbe539479	-0.20662107
36	0xbdfc7fb0	-0.12329042
37	0x3db50898	0.0883953
38	0xbe7663b2	-0.24061468
39	0x3da45bcc	0.08025321
40	0xbe81cd24	-0.25351822
41	0xbd9ed858	-0.07756108
42	0x3c1ab593	0.009442705
43	0xbe27da36	-0.16391835
44	0xbe9df21c	-0.30848777
45	0x3e36d0b2	0.17853048
46	0xbd8c662b	-0.068554245
47	0x3d616531	0.055028144
48	0x3e9e195a	0.30878717
49	0xbd4433ea	-0.04790107
50	0xbe6869e2	-0.22696641
51	0xbe047d7a	-0.1293849
52	0x3e9512c3	0.29115877
53	0x3e5e10f3	0.21686153
54	0xbe88ec93	-0.26742992
55	0xbe33092b	-0.17483966
56	0xbe11a0ef	-0.14221548
57	0x3e33a887	0.17544757
58	0x3e8f9abb	0.28047737
59	0x3e397e5f	0.18114613
60	0x3db5d9c6	0.088794276
61	0x3cc0fe58	0.02355878
62	0xbe2d77a8	-0.16940176
63	0x3e415b6e	0.18882534
64	0xbea409f3	-0.3203884
65	0xbe853199	-0.26014403
66	0x3e91b712	0.28459984
67	0xbda927fc	-0.082595795
68	0xbe25907b	-0.16168396
69	0x3e17397a	0.1476802
70	0x3df87306	0.12131314
71	0xbc8a8143	-0.01690734
72	0xbd1bb7f6	-0.038017236
73	0x3e8a4a1f	0.27009675
74	0x3e4ae345	0.19813259
75	0x3e992c2f	0.29916522
76	0x3dc39ebd	0.09551761
77	0x3df855ee	0.12125765
78	0x3e444a81	0.19169046
79	0xbe76d8ab	-0.2410609
80	0x3d98eeb1	0.07467402
81	0x3d387d36	0.045041285
82	0x3e361113	0.17779951
83	0x3e12e797	0.14346157
84	0x3b9c0ab4	0.004762018
85	0x3e969b55	0.29415384
86	0xbd0b0d91	-0.033948485
87	0x3ea4153d	0.32047454
88	0xbea4e2bb	-0.32204232
89	0x3ea5d475	0.32388654
90	0xbe6c7c15	-0.23094209
91	0x3d993f71	0.074828036
92	0x3e8c5f47	0.2741644
93	0x3e47895b	0.1948599
94	0xbea484da	-0.32132608
95	0x3e021f8c	0.12707347
96	0xbe64c175	-0.22339423
97	0x3e999308	0.29994988
98	0x3ea279a9	0.31733444
99	0x3e7481ae	0.23877594
100	0x3e81270a	0.25225097
101	0xbe5990e5	-0.21246679
102	0x3a12ca57	0.0005599609
103	0xbd864405	-0.065559424
104	0x3e4ce319	0.20008506
105	0xbd96007e	-0.073243126
106	0x3e805888	0.25067544
107	0xbe61409e	-0.21997306
108	0x3dc98f4c	0.09841785
109	0xbe15de65	-0.14635618
110	0x3e45ed2a	0.19328752
111	0x3e0aad2d	0.13542624
112	0xbe09c850	-0.1345532
113	0xbe086cb0	-0.13322711
114	0x3e888387	0.26662847
115	0x3dda1712	0.106489316
116	0xbde41afd	-0.1113796
117	0xbe83f6d2	-0.25774246
118	0x3e403bcc	0.1877281
119	0x3e6842bd	0.22681709
120	0x3e382bb0	0.17985415
121	0xbe88deb4	-0.2673241
122	0x3e9011ad	0.28138486
123	0x3e297a82	0.1655064
124	0x3e225b2b	0.1585509
125	0x3e7a7570	0.24458861
126	0xbe4354d4	-0.19075328
127	0xbe7058c3	-0.2347136
128	0x3b99abd1	0.0046896716
129	0xbe4b636f	-0.1986215
130	0xbde7e428	-0.11322814
131	0xbdb3509d	-0.0875561
132	0xbe6fd7f3	-0.23422222
133	0xbd80a256	-0.06280963
134	0xbd448f0e	-0.04798799
135	0xbe0358b6	-0.1282681
136	0x3e0c6e88	0.1371404
137	0x3d23d0ca	0.03999404
138	0x3ea3fd4a	0.32029182
139	0xbe74de62	-0.23912957
140	0xbd3a4ba8	-0.045482308
141	0xbde03301	-0.10947228
142	0xbe1e84ac	-0.15480298
143	0xbea100b9	-0.31445864
144	0x3dc45212	0.09585966
145	0xbdbac6bd	-0.091199376
146	0xbea60ab1	-0.32430032
147	0xbe5577f8	-0.20846546
148	0xbe9594b7	-0.29215023
149	0xbe5771da	-0.21039525
150	0xbd5c30e0	-0.05375755
151	0xbe091d7a	-0.1339015
152	0xbd5b8909	-0.053597484
153	0x3d743913	0.059624743
154	0xbe821861	-0.25409225
155	0xbe7d5167	-0.24738084
156	0xbe2a47d4	-0.16628963
157	0x3e949802	0.29022223
158	0xbe5025ef	-0.2032697
159	0x3e2a6d07	0.16643153
160	0x3ea17259	0.31532553
161	0xbdad55d5	-0.08463637
162	0x3c839dd2	0.016066466
163	0xbe91bd0c	-0.28464544
164	0x3e948355	0.29006448
165	0x3ea76c33	0.32699737
166	0xbe34b9d7	-0.17649017
167	0xbd7e168f	-0.062033232
168	0xbd9140af	-0.070924155
169	0x3d8c6edc	0.06857082
170	0x3e8e3312	0.2777334
171	0x3e61a459	0.2203535
172	0x3e136237	0.14392935
173	0x3e821577	0.25407
174	0x3e8f22d9	0.27956274
175	0x3e951457	0.2911708
176	0xbe11d7c7	-0.14242469
177	0x3d4d512d	0.050126243
178	0x3e3566eb	0.17715041
179	0x3e990b54	0.29891455
180	0xbe3c4cd0	-0.18388677
181	0x3e68602c	0.22692937
182	0xbdbf489e	-0.093400225
183	0x3e02f26b	0.12787788
184	0xbe85e093	-0.261479
185	0xbe95952e	-0.29215378
186	0x3e87c255	0.2651545
187	0x3e73cdb6	0.23808941
188	0x3eace88b	0.33771166
189	0x3e2c4397	0.16822658
190	0xbe628698	-0.22121656
191	0xbd27de6f	-0.040983614
192	0x3e83eed6	0.25768155
193	0xbe84336d	-0.25820485
194	0xbe07c33d	-0.13258071
195	0x3b07b95a	0.0020709843
196	0x3e86557d	0.26237097
197	0x3e4b450e	0.19850561
198	0xbce563b7	-0.02800165
199	0x3e89e79d	0.2693452
200	0x3e174676	0.14772972
201	0xbdcdbbdd	-0.10045598
202	0xbea634c8	-0.32462144
203	0x3ea3e8ba	0.32013494
204	0x3e9bff38	0.30468154
205	0xbe4895bf	-0.19588374
206	0xbe80b1c0	-0.25135612
207	0x3dd7f638	0.105450094
208	0x3e7287de	0.23684642
209	0x3bca3bc8	0.0061716773
210	0xbea84597	-0.32865593
211	0x3b5280e9	0.0032120293
212	0xbdfea0e5	-0.12433032
213	0x3dbc7c41	0.09203387
214	0xbe97eb32	-0.29671627
215	0xbc1a56e3	-0.0094201295
216	0x3ea6c0a1	0.3256884
217	0xbe8ccbec	-0.2749933
218	0xbe877647	-0.26457426
219	0xbeab9740	-0.33513832
220	0xbe1169ff	-0.1420059
221	0xbde0639a	-0.109564975
222	0x3df547b8	0.1197657
223	0x3e8c6515	0.2742087
224	0xbe8dccee	-0.2769541
225	0xbe185b57	-0.14878593
226	0x3ddb1dce	0.10699044
227	0xbe43a548	-0.19106019
228	0x3db32231	0.08746756
229	0xbea11176	-0.31458634
230	0xbe96dcb8	-0.2946527
231	0xbe6adeb5	-0.22936518
232	0x3d1d6adc	0.038431987
233	0x3d90f982	0.0707884
234	0x3e989b83	0.29806146
235	0x3e903791	0.28167394
236	0x3e5acbe3	0.21366839
237	0x3c739092	0.014866011
238	0x3d94112a	0.07229836
239	0x3e5e4f10	0.21709847
240	0xbe23defe	-0.16003034
241	0x3ea508d8	0.3223331
242	0x3e48dc7c	0.19615358
243	0xbe9a1e6e	-0.3010134
244	0xbe977cc4	-0.29587376
245	0x3e11f8ce	0.14255068
246	0xbca3278c	-0.019916318
247	0xbdb272d8	-0.08713311
248	0x3e56c0d6	0.20971999
249	0x3c0a279a	0.008432293
250	0xbe26905d	-0.16266008
251	0x3d9ed0ab	0.07754644
252	0x3e4a3197	0.1974548
253	0x3e79ad63	0.24382548
254	0x3e6aa4ad	0.22914381
255	0xbe5b88fd	-0.21438976

bias f4 [16]
0	0x3b3331c7	0.0027342902
1	0xbbb741d9	-0.0055925664
2	0xbbcc526e	-0.0062354123
3	0xbb96be02	-0.0046002874
4	0xbc549ffe	-0.012977598
5	0xbc59a97a	-0.013285035
6	0xbbc5ff4c	-0.0060423966
7	0xbbb2476b	-0.0054406426
8	0x3ca8815c	0.020569496
9	0x3b912aba	0.004430142
10	0xbb99c388	-0.0046924986
11	0xbb98bbe0	-0.0046610683
12	0x3bb68886	0.005570474
13	0xbb86fef7	-0.0041197496
14	0x3c1181d8	0.008881055
15	0x3ca8215f	0.020523725

weight f4 [16, 16]
0	0xbe9b63d2	-0.30349594
1	0xbdd0cef4	-0.10195723
2	0xbe87f4bb	-0.26553902
3	0x3dbe4a6a	0.09291537
4	0xbeb3a06d	-0.35083333
5	0x3aa3493a	0.0012457736
6	0xbe97e763	-0.29668722
7	0x3e91a0e9	0.28443077
8	0xbec5de47	-0.38646147
9	0xbe3ccee6	-0.184383
10	0xbebcc91c	-0.36872184
11	0xbe88cb38	-0.26717544
12	0x3d02ac32	0.0319025
13	0x3e59460d	0.21218129
14	0x3e6362f3	0.22205715
15	0xbeb1b1de	-0.34706014
16	0xbd8308e0	-0.06398177
17	0xbda60e31	-0.081081755
18	0x3e450c34	0.19242936
19	0xbd004853	-0.031318974
20	0xbceafae4	-0.028684087
21	0xbe85b193	-0.2611204
22	0xbe954605	-0.29154983
23	0xbc332061	-0.010933013
24	0x3e62c6d2	0.22146156
25	0xbe4ca8ec	-0.19986314
26	0x3dd1d630	0.10245931
27	0x3e62e653	0.22158174
28	0xbe16820c	-0.14698046
29	0x3ecfc147	0.40577146
30	0x3ecece00	0.4039154
31	0x3e97292d	0.29523602
32	0x3e3211f4	0.17389661
33	0xbeb53827	-0.35394403
34	0x3e62e2e2	0.22156861
35	0xbd804e46	-0.062649295
36	0x3ea70ada	0.32625467
37	0xbeb9d4d2	-0.36295182
38	0xbcb3f943	-0.021969443
39	0x3ec6f18f	0.3885617
40	0x3da71a0d	0.08159266
41	0x3e0b0dad	0.13579436
42	0xbbbf4e99	-0.005838227
43	0xbe5b45e3	-0.21413378
44	0x3e517d15	0.20457871
45	0x3ead37a5	0.33831516
46	0x3e67e87b	0.22647278
47	0xbe9b6321	-0.30349067
48	0xbe963132	-0.29334408
49	0x3ed82c53	0.42221317
50	0xbd899034	-0.06716958
51	0x3e32cc18	0.17460668
52	0x3df1632b	0.11786493
53	0xbe8e5d4b	-0.27805552
54	0x3eb7edba	0.35923558
55	0x3d8d7ce6	0.06908588
56	0xbe5cc3bf	-0.21559046
57	0x3ecce559	0.40018728
58	0x3e059f1a	0.13048974
59	0x3dddaaf6	0.10823624
60	0xbe9f06ea	-0.31059963
61	0x3ec2f30c	0.38076055
62	0xbe69135a	-0.22761288
63	0xbe23856e	-0.15968868
64	0xbed7c437	-0.42141888
65	0x3df3b252	0.11899246
66	0xbe7d76d3	-0.24752359
67	0xbec5bbcc	-0.3861984
68	0x3e9ae8d8	0.3025577
69	0xbeca0d8a	-0.39463454
70	0xbdc13458	-0.09433812
71	0xbe275da2	-0.16344312
72	0x3cd93b63	0.026517576
73	0x3d689913	0.056786608
74	0x3ec153a1	0.37759116
75	0x3e06a73a	0.1314973
76	0xbe0f9ee2	-0.14025453
77	0xbe87edbb	-0.2654856
78	0xbdeb9216	-0.11502473
79	0x3e705992	0.23471668
80	0xbed4a7bc	-0.4153422
81	0x3e2eb1bc	0.17059988
82	0xbcb7cbba	-0.022436012
83	0xbe50d35a	-0.20393124
84	0x3e93c983	0.2886468
85	0x3e65ec8f	0.22453521
86	0x3c1da49a	0.009621764
87	0xbe55ac68	-0.20866549
88	0xbe848d37	-0.25888988
89	0xbdedeb00	-0.11617088
90	0xbe8aeb4e	-0.27132648
91	0xbd8f5834	-0.06999245
92	0x3e1b378a	0.15157905
93	0xbd3c4f85	-0.045974273
94	0x3d821a42	0.063526645
95	0xbe1ece81	-0.15508462
96	0xbe0040cb	-0.12524717
97	0x3e7dc8ac	0.24783581
98	0xbd6bbe06	-0.057554267
99	0x3dd25bdd	0.10271428
100	0xbe97651b	-0.29569325
101	0xbe8316d7	-0.25603363
102	0x3ea68d81	0.32529834
103	0xbc91f7af	-0.0178183
104	0x3ed5f016	0.41784734
105	0xbe1a9583	-0.15096097
106	0x3e684ecd	0.2268631
107	0x3e3b6313	0.18299513
108	0xbec0fa76	-0.37691087
109	0xbe7ccacc	-0.24686736
110	0x3eb877ac	0.36028802
111	0xbe17dedb	-0.14831106
112	0xbed05b37	-0.4069459
113	0x3ea1c20b	0.31593356
114	0x3ecffeee	0.40624183
115	0x3e8cc847	0.2749655
116	0x3e8c12d2	0.2735811
117	0xbe0b4b46	-0.13602933
118	0x3eb6e790	0.35723543
119	0xbe481289	-0.1953832
120	0x3e29e1b5	0.16590007
121	0xbed8df8b	-0.4235805
122	0x3ebf3d31	0.37351373
123	0xbea63e47	-0.3246939
124	0xbed11704	-0.40837872
125	0x3e303771	0.17208649
126	0x3ebcf22e	0.36903518
127	0xbeba74a3	-0.36417112
128	0x3ed5fc60	0.4179411
129	0x3d8a4f58	0.06753415
130	0x3e59a00c	0.2125246
131	0x3da9faa4	0.08299759
132	0xbedf1a9a	-0.43574983
133	0x3ebc04cc	0.3672241
134	0x3eaefd6f	0.3417773
135	0x3e62edc2	0.2216101
136	0x3aac2154	0.0013132491
137	0x3e2f3f59	0.17114009
138	0x3c785ed0	0.015159324
139	0x3e04da44	0.12973887
140	0xbd715a43	-0.05892397
141	0x3eceebd9	0.40414312
142	0xbe1a5775	-0.15072425
143	0xbd90d724	-0.07072285
144	0x3e0a5af2	0.13511255
145	0x3ec8616e	0.39136833
146	0xbe6f8edc	-0.2339434
147	0xbe36739a	-0.17817536
148	0xbec16f20	-0.37780094
149	0x3eabde7c	0.3356818
150	0x3ed3ca76	0.41365403
151	0x3dc1ed07	0.094690375
152	0xbeb2346b	-0.34805617
153	0xbea77e21	-0.32713416
154	0x3eb36ff2	0.35046345
155	0x3d199100	0.0374918
156	0x3dd4be75	0.10387889
157	0xbe7d8c7f	-0.24760626
158	0xbeb385e2	-0.35063082
159	0xbe57870b	-0.21047609
160	0xbed5cfa1	-0.4175997
161	0x3e930e07	0.2872164
162	0x3e121daf	0.14269136
163	0xbeb8e91f	-0.36115357
164	0x3ed81b8e	0.42208523
165	0xbde4cfd9	-0.11172456
166	0x3e53db1b	0.20689051
167	0x3da3366f	0.07969367
168	0x3e0c9a61	0.13730766
169	0xbd5cb499	-0.05388317
170	0xbd6416c3	-0.05568577
171	0xbe5ac374	-0.21363622
172	0x3df74b7a	0.12074943
173	0x3d050408	0.032474548
174	0x3e96103c	0.2930926
175	0xbeae4b64	-0.34041893
176	0x3e2801ce	0.16406938
177	0x3e0691b1	0.13141514
178	0x3bd2b3d4	0.0064301286
179	0xbe82f7bd	-0.25579634
180	0xbe657254	-0.22406894
181	0x3ea3682f	0.31915423
182	0x3e9584b8	0.2920282
183	0x3e2bb5db	0.16768591
184	0xbed8e56e	-0.4236254
185	0xbe983059	-0.29724386
186	0x3e103f3c	0.14086622
187	0x3ed45e9d	0.41478434
188	0xbed63812	-0.41839653
189	0x3dc5f935	0.09666673
190	0xbed48968	-0.41511083
191	0xbeda2ac7	-0.42610762
192	0xbea57442	-0.3231526
193	0xbe5229a3	-0.20523696
194	0xbe8a9271	-0.2706485
195	0xbe81b578	-0.25333762
196	0x3d222969	0.039590273
197	0xbdc41d50	-0.095759034
198	0x3e7d9500	0.2476387
199	0x3dcdbd8d	0.100459196
200	0xbe2e3201	-0.17011262
201	0xbe94194c	-0.2892555
202	0x3ea48e66	0.3213989
203	0xbbce79ca	-0.0063011395
204	0x3daa9971	0.08330048
205	0x3e4df7e8	0.201141
206	0xbdb96478	-0.09052366
207	0xbe625d66	-0.22105941
208	0x3c0d107e	0.008609889
209	0xbe813855	-0.2523829
210	0x3e56d131	0.20978238
211	0x3e1e05a4	0.15431839
212	0xbe404ad7	-0.18778549
213	0xbe1325df	-0.14369915
214	0x3dad8012	0.08471693
215	0x3d5cc642	0.05390001
216	0x3d8a4748	0.06751877
217	0xbe640658	-0.22268045
218	0x3da2b57e	0.07944773
219	0xbe41182b	-0.18856876
220	0x3db03814	0.08604446
221	0x3c7ffb80	0.015623927
222	0x3c903842	0.01760495
223	0xbe1d6b53	-0.15372972
224	0xbeae2600	-0.34013367
225	0xbe998bb3	-0.29989395
226	0x3dd7762a	0.10520585
227	0x3e4bb844	0.1989451
228	0xbd984527	-0.07435065
229	0x3e9ca4af	0.30594394
230	0xbe23af67	-0.1598488
231	0x3e737404	0.23774725
232	0x3dcf771f	0.101301424
233	0x3ec84cff	0.39121243
234	0x3ea97b53	0.331019
235	0xbdf7484f	-0.12074339
236	0x3c99f8f2	0.018795464
237	0xbea4064f	-0.32036063
238	0x3e842ca3	0.25815305
239	0xbd954c58	-0.07289952
240	0xbeaf6afa	-0.34261304
241	0xbe3ae135	-0.18249972
242	0xbec7b5a3	-0.39005765
243	0xbe006692	-0.12539127
244	0xbe14bdc2	-0.14525512
245	0xbed7f202	-0.42176825
246	0x3de5930a	0.11209686
247	0xbea435bd	-0.3207225
248	0x3db5b2fa	0.08872028
249	0xbe59c21f	-0.21265458
250	0x3d127a22	0.035761006
251	0xbe51348e	-0.20430204
252	0xbda79a5d	-0.08183739
253	0x3cffdf57	0.031234426
254	0x3e389e3a	0.18029109
255	0x3e0b5247	0.13605605

bias f4 [16]
0	0x3bdb9970	0.006701641
1	0x3c24bf79	0.010055416
2	0xbc1b0041	-0.00946051
3	0xbc46b111	-0.012127177
4	0xbb3882e6	-0.0028154193
5	0x3bc20f62	0.005922244
6	0xbb9b255c	-0.004734678
7	0xbbb2f466	-0.0054612635
8	0xbbe01d18	-0.0068394057
9	0x3c07adfe	0.008281229
10	0xbc68d90b	-0.014211903
11	0xbbd15d3e	-0.006389289
12	0xbc013e42	-0.007888379
13	0xbb8fa6fc	-0.0043839198
14	0x3be0d927	0.006861824
15	0xbb8939da	-0.0041878046

weight f4 [16, 16]
0	0x3ea5ebf9	0.32406595
1	0x3ec78717	0.38970253
2	0xbed551c2	-0.4166394
3	0xbdce8336	-0.1008362
4	0x3e44298e	0.19156477
5	0xbe341478	-0.17585933
6	0xbe07adca	-0.13249889
7	0xbe92af93	-0.28649577
8	0x3d96d907	0.073656134
9	0xbe0a7852	-0.13522461
10	0xbd8e9b68	-0.06963235
11	0x3e6081c2	0.21924499
12	0x3e9cfba8	0.30660748
13	0xbe97df71	-0.2966266
14	0xbebc9123	-0.3682948
15	0x3e35e908	0.17764676
16	0xbe98e25e	-0.29860204
17	0xbd284527	-0.041081574
18	0x3d8babb6	0.06819861
19	0xbed8dfe2	-0.4235831
20	0x3eb1a77d	0.34698096
21	0x3e022df7	0.12712847
22	0x3d4ce430	0.050022304
23	0x3d0dc23a	0.034609057
24	0xbeb8fe04	-0.361313
25	0x3e68f526	0.22749767
26	0xbe225b76	-0.15855202
27	0xbe988022	-0.29785258
28	0xbc9dc657	-0.019259615
29	0x3eacf313	0.337792
30	0xbea1f2b2	-0.31630474
31	0xbd9e8d80	-0.07741833
32	0x3e20434d	0.15650673
33	0xbeb85599	-0.36002806
34	0x3eb4c82f	0.35308978
35	0x3c1ca1ad	0.009560031
36	0xbc21f6f2	-0.0098855365
37	0x3e0023aa	0.12513605
38	0xbd16d649	-0.036825452
39	0x3e59435b	0.212171
40	0x3e91dae9	0.28487328
41	0xbee118ca	-0.43964225
42	0x3ebb314f	0.36561057
43	0x3ecfc6ee	0.4058146
44	0xbdbf6e2c	-0.093471855
45	0x3dc9d702	0.098554626
46	0x3e83acaf	0.25717685
47	0x3ed1daf9	0.40987375
48	0x3e0a4507	0.13502894
49	0x3e75286a	0.23941198
50	0xbe9131f1	-0.28358415
51	0xbed5b673	-0.4174076
52	0x3e0ebff4	0.13940412
53	0x3dd80f0b	0.10549744
54	0xbe00971e	-0.12557647
55	0xbe95e4be	-0.2927608
56	0xbdbb8011	-0.09155286
57	0xbe8347c1	-0.2564068
58	0xbe5ec3c7	-0.2175437
59	0x3df696d2	0.120404854
60	0xbce99761	-0.028514566
61	0x3b98afa9	0.004659612
62	0xbd99ff18	-0.075193584
63	0xbe857d84	-0.26072323
64	0x3ed8e6db	0.4236363
65	0x3e88a545	0.2668859
66	0xbdff8839	-0.12477154
67	0x3dfc1ccf	0.12310182
68	0x3eb29244	0.34877217
69	0xbe842cd6	-0.25815457
70	0xbe4daa75	-0.20084555
71	0xbea4f387	-0.32217047
72	0xbe5e6c7c	-0.21721071
73	0x3b0b4b55	0.0021254618
74	0x3e6a1f36	0.22863469
75	0x3ecc128b	0.39857897
76	0x3eba8352	0.36428314
77	0x3e84cfb2	0.2593971
78	0x3e950a05	0.29109207
79	0xbdd1a5a5	-0.10236672
80	0x3ea965d8	0.33085513
81	0xbd98d8c9	-0.074632235
82	0xbd856dbf	-0.06515073
83	0x3da9133f	0.08255624
84	0x3dc030fc	0.09384343
85	0xbea54eb2	-0.32286602
86	0xbc719202	-0.014744284
87	0xbed2fbbe	-0.4120769
88	0xbea61b44	-0.32442677
89	0x3dfb443a	0.122688726
90	0x3eb77f7f	0.3583946
91	0x3d9928c2	0.07478477
92	0xbe9bc2a8	-0.30421948
93	0x3e850bd1	0.25985578
94	0xbeaa2793	-0.33233318
95	0x3dd0ba64	0.10191801
96	0x3da4addc	0.080409735
97	0x3ed4c317	0.41555092
98	0x3d1212bb	0.035662394
99	0xbe88301f	-0.26599213
100	0x3eb16b11	0.34651998
101	0x3dbced9f	0.0922501
102	0xbe1a59a6	-0.1507326
103	0xbed4b04d	-0.41540757
104	0xbe392d12	-0.18083599
105	0x3ea6496e	0.32477897
106	0x3e9448fa	0.28961927
107	0xbc4c62a9	-0.012474694
108	0xbe378d90	-0.17925096
109	0xbd567ec4	-0.052366987
110	0x3eb597e2	0.3546744
111	0x3e8c9bc7	0.274626
112	0xbd04b01d	-0.032394517
113	0x3e2a0762	0.16604379
114	0x3b5ad9b0	0.0033393912
115	0x3e315ab8	0.17319763
116	0x3e10fe17	0.14159428
117	0x3e9b9d00	0.3039322
118	0xbeb275da	-0.3485554
119	0x3cda655e	0.026659664
120	0xbd0b664a	-0.034033097
121	0xbda10a3d	-0.07863281
122	0xbe8a881b	-0.27056965
123	0x3e191984	0.1495114
124	0x3e821234	0.25404513
125	0xbc855b2f	-0.016278831
126	0xbe413c17	-0.18870579
127	0xbdf56abc	-0.119832486
128	0xbd87a302	-0.06622888
129	0x3d59d093	0.053177428
130	0x3ebdb7b8	0.3705423
131	0xbc28dc65	-0.010306452
132	0xbc445499	-0.01198306
133	0xbe8a8141	-0.27051738
134	0x3e8f89b6	0.28034753
135	0x3d9eec70	0.077599406
136	0x3ec63bbe	0.38717455
137	0xbe34bb3a	-0.17649546
138	0x3d478f27	0.048720505
139	0x3e048e9e	0.12945029
140	0x3eac17b0	0.33611822
141	0x3e228f88	0.15875065
142	0x3e6cc05b	0.23120253
143	0xbc70f7b6	-0.014707496
144	0xbe5a3dc4	-0.21312624
145	0x3dc5810e	0.09643756
146	0x3e628d3d	0.2212419
147	0xbe97c1c6	-0.29640025
148	0xbda8d389	-0.08243472
149	0xbea21329	-0.31655243
150	0xbe478203	-0.1948319
151	0xbe4496d1	-0.19198157
152	0x3cdf87f8	0.027286515
153	0x3e5b9b3f	0.2144594
154	0x3e3bda67	0.18345033
155	0x3e9c5ecf	0.30541083
156	0x3e82c1d5	0.25538507
157	0xbcec498d	-0.028843665
158	0xbeab8ff0	-0.33508253
159	0x3d210bf4	0.03931804
160	0xbe84d692	-0.25944954
161	0x3ebb058a	0.36527663
162	0xbecc6518	-0.39920878
163	0xbdc2b27d	-0.095067
164	0x3ce9ea74	0.028554179
165	0xbe5b2b64	-0.21403271
166	0xbe82b44d	-0.25528184
167	0xbda8f884	-0.082505256
168	0xbeb01ebf	-0.34398457
169	0x3e0a3751	0.13497664
170	0xbe83d454	-0.2574793
171	0x3e853b84	0.2602197
172	0xbe975614	-0.2955786
173	0xbea000b7	-0.31250545
174	0x3e1a61a1	0.15076305
175	0xbec8b949	-0.3920386
176	0x3ed6e75c	0.41973388
177	0x3e88e5b7	0.2673776
178	0xbe7d0aac	-0.24711102
179	0x3e537498	0.20649946
180	0x3ed600dc	0.4179753
181	0xbe95bf92	-0.2924772
182	0x3e8cb381	0.274807
183	0x3de604f6	0.11231415
184	0xbec249bb	-0.37946877
185	0xbdcd0c57	-0.10012119
186	0xbd69aa5a	-0.057047226
187	0xbe99df53	-0.30053195
188	0xbdd71387	-0.105017714
189	0x3e7ab838	0.24484336
190	0x3ea39a7a	0.31953794
191	0x3d401c59	0.046902034
192	0xbe1761bb	-0.14783375
193	0xbed3756f	-0.41300532
194	0xbe95bc1c	-0.2924508
195	0xbcb080fc	-0.02154588
196	0x3b9bca34	0.004754329
197	0x3e17eecf	0.14837192
198	0xbd1ddbfe	-0.03853988
199	0xbec92890	-0.3928876
200	0xbe88d75f	-0.26726815
201	0xbdd48565	-0.103770055
202	0x3e97e013	0.29663143
203	0x3dd35a4a	0.10319956
204	0xbca70c1e	-0.02039152
205	0xbec8acbc	-0.39194286
206	0xbeb53aa8	-0.35396314
207	0x3cd4c760	0.025973976
208	0xbe944937	-0.28962108
209	0x3ec90306	0.3926012
210	0xbed7e4bc	-0.42166698
211	0xbe653867	-0.22384797
212	0xbed0d673	-0.40788612
213	0x3eb79674	0.35856974
214	0x3ec434a9	0.38321427
215	0x3e67dcc0	0.22642803
216	0xbe7c354f	-0.2462971
217	0xbeb61499	-0.3556259
218	0xbecc85e2	-0.39945894
219	0x3e6c0e47	0.23052321
220	0x3d968bfe	0.0735092
221	0x3e7caf54	0.24676257
222	0x3e298756	0.16555533
223	0x3ec03347	0.37539122
224	0x3eda9fee	0.42700142
225	0x3e8021b1	0.25025705
226	0x3db8ddba	0.09026666
227	0xbe94f773	-0.2909504
228	0xbed78cb6	-0.4209954
229	0x3ec26e1c	0.37974632
230	0x3defaf2d	0.11703334
231	0x3ecd1fd4	0.40063345
232	0xbe5ffe77	-0.21874414
233	0xbd8b4aa0	-0.06801343
234	0xbeb18d6d	-0.34678212
235	0x3e205720	0.15658236
236	0x3eac8448	0.33694673
237	0x3ecec424	0.40384018
238	0x3d097585	0.03355934
239	0xbe15b5e5	-0.14620169
240	0x3e9a0a32	0.30085903
241	0x3e558685	0.20852096
242	0x3e845e70	0.258533
243	0xbe46162d	-0.19344397
244	0x3d59b78f	0.05315357
245	0xbdd337d4	-0.10313383
246	0xbda696b5	-0.08134214
247	0xbe17422f	-0.14771341
248	0x3dda0819	0.10646076
249	0x3e20094d	0.15628548
250	0x3d9dc1ce	0.07702981
251	0xbd1e7520	-0.038685918
252	0xbeaf09e1	-0.34187225
253	0xbe0e6d99	-0.13908996
254	0x3ebb6afe	0.36605066
255	0xbe944bcf	-0.28964087

bias f4 [16]
0	0xbbedbadf	-0.007254943
1	0xb8a1983b	-7.7054334e-05
2	0xbc2208be	-0.00988978
3	0x3c2d25fd	0.010568139
4	0x3c0ec8f3	0.008714902
5	0x00000000	0.0
6	0x3bf59ba6	0.0074953614
7	0x3bd63b01	0.0065377955
8	0xbbbe3375	-0.005804474
9	0xbbaaca68	-0.005212117
10	0x3d22b2bd	0.03972124
11	0xbb7085b5	-0.003670079
12	0x00000000	0.0
13	0x3c22eddc	0.009944405
14	0xbbc920cc	-0.006137943
15	0x3bd07892	0.0063620294

weight f4 [16, 16]
0	0xbed27ec7	-0.41112348
1	0xbdd93660	-0.10606074
2	0x3e10177c	0.14071459
3	0xbea47121	-0.3211756
4	0x3e0878ae	0.13327286
5	0xbe71475a	-0.23562375
6	0xbe3b7ce6	-0.18309364
7	0xbe85e2e7	-0.26149675
8	0xbbcc21ac	-0.0062296
9	0xbeb3e704	-0.35137188
10	0xbdb9cffd	-0.09072874
11	0xbe5120b5	-0.20422633
12	0x3eb976ea	0.36223537
13	0xbe5f8c46	-0.21830854
14	0x3dbd836f	0.092535846
15	0xbe85f5a5	-0.26163974
16	0x3e5667a4	0.20937973
17	0xbec44c94	-0.38339674
18	0xbe4911d0	-0.19635701
19	0x3e54120d	0.20710011
20	0x3eacf24b	0.33778605
21	0x3e255141	0.16144277
22	0xbe8c944c	-0.27456892
23	0x3d3187ca	0.04334239
24	0xbc88ed19	-0.01671462
25	0x3ea2de1e	0.31810087
26	0xbd764bbc	-0.06013082
27	0xbe9537c5	-0.2914411
28	0x3e89620c	0.26832616
29	0x3e1ad722	0.15121129
30	0xbe5507ad	-0.2080371
31	0x3eb18f81	0.34679797
32	0x3e75e729	0.24013962
33	0xbecc9c31	-0.39962915
34	0x3e91c5c9	0.2847121
35	0xbe51f688	-0.205042
36	0xbddb4062	-0.107056394
37	0x3e8acb8a	0.27108413
38	0x3ceb0749	0.028689997
39	0x3ed0dfc7	0.4079573
40	0xbec2fe46	-0.3808462
41	0x3e3fc886	0.18728837
42	0x3d86693b	0.0656304
43	0xbdf63c09	-0.120231695
44	0xbe0cdaac	-0.13755292
45	0x3e248782	0.16067317
46	0x3e9ddce9	0.30832604
47	0xbed987a2	-0.42486292
48	0x3e312050	0.17297482
49	0xbe9e4929	-0.30915192
50	0xba444ad4	-0.0007487957
51	0xbe7b944a	-0.24568287
52	0x3d172233	0.03689785
53	0xbeca2f19	-0.39489058
54	0x3e4353f3	0.19074993
55	0xbe9eeb7c	-0.31039035
56	0x3e8a3dfb	0.27000412
57	0xbeaafc20	-0.3339548
58	0x3e951d5e	0.29123968
59	0x3e85361d	0.26017848
60	0xbedce316	-0.43142003
61	0xbec0f0c9	-0.37683704
62	0xbe502f99	-0.20330657
63	0xbe9b9158	-0.30384326
64	0xbede1677	-0.43376514
65	0xbae95de5	-0.0017804472
66	0xbe8d68f2	-0.2761913
67	0x3e40a814	0.18814117
68	0xbec51143	-0.38489732
69	0xbe81708c	-0.2528118
70	0x3e3ad8af	0.1824672
71	0x3e1d9c18	0.15391576
72	0x3eaa7556	0.33292645
73	0xbeb9f9b2	-0.36323315
74	0xbe970f46	-0.2950384
75	0xbe42b25f	-0.19013356
76	0x3d6f725c	0.05845867
77	0xbe20041a	-0.15626565
78	0x3deeff4c	0.11669788
79	0x3ea8137b	0.32827362
80	0x3dff0cfc	0.124536484
81	0x3eaad67a	0.33366758
82	0x3de9d52c	0.114176124
83	0x3e5a80c1	0.21338178
84	0xbeae114b	-0.33997568
85	0xbd9e0860	-0.07716441
86	0x3eba5117	0.36389992
87	0xbe1e830e	-0.15479681
88	0xbe149af4	-0.14512235
89	0xbe3463f1	-0.1761625
90	0x3e43bd11	0.19115092
91	0x3ecbd46d	0.39810506
92	0x3e358870	0.17727828
93	0x3ecc2113	0.39868984
94	0x3ea2bc0d	0.31784096
95	0xbd50f8ad	-0.051018406
96	0xbe1ce842	-0.15322974
97	0xbe13fa6d	-0.14450999
98	0x3e3545c5	0.17702396
99	0x3e9343a1	0.28762534
100	0xbed79b01	-0.42110446
101	0xbe52e347	-0.20594512
102	0xbed94c17	-0.42440864
103	0xbe88fa95	-0.2675368
104	0x3eac958f	0.33707854
105	0x3ec51824	0.3849498
106	0xbeb38fdf	-0.35070702
107	0xbe69d0dc	-0.2283358
108	0x3e10f228	0.14154875
109	0x3e1dced3	0.15410928
110	0x3d182a32	0.037149616
111	0xbdb14b11	-0.08656896
112	0xbe5d2c27	-0.21598874
113	0xbec610c7	-0.38684675
114	0xbde7c334	-0.11316529
115	0xbeaa8171	-0.3330188
116	0x3ec72c4e	0.3890099
117	0x3ebfdd2c	0.37473428
118	0xbe9a1b09	-0.3009875
119	0x3e495278	0.19660366
120	0x3ea687b2	0.32525402
121	0x3ebc58b8	0.36786437
122	0x3ed0a9fa	0.40754682
123	0xbe983adf	-0.29732415
124	0x3eadc99e	0.33942884
125	0x3ed692a5	0.41908756
126	0x3d15c11b	0.036561113
127	0x3e5fb7d6	0.21847472
128	0xbe339943	-0.17538933
129	0x3ee32b7c	0.44369113
130	0xbec951b4	-0.39320147
131	0xbe66ab56	-0.22526297
132	0x3d95c2a3	0.07312515
133	0xbe41c627	-0.18923245
134	0xbe239792	-0.15975788
135	0x3e1eb619	0.15499152
136	0x3e7be099	0.24597396
137	0x3e90d655	0.28288522
138	0x3ee703a0	0.45119953
139	0x3e7634e9	0.24043621
140	0xbe41e052	-0.18933228
141	0x3e2d21a3	0.16907363
142	0xbe8570f5	-0.26062742
143	0x3e816001	0.25268558
144	0x3e360c7c	0.177782
145	0x3eb85e88	0.36009622
146	0x3e7733dc	0.24140877
147	0x3eb81f59	0.35961416
148	0xbdccc5f8	-0.09998697
149	0xbebed7ae	-0.37273926
150	0x3eaba482	0.33523947
151	0xbecc9e84	-0.39964688
152	0x3d52dca8	0.051479965
153	0x3d7a6541	0.06113172
154	0xbc0da48e	-0.00864519
155	0x3e94cc9a	0.2906235
156	0x3db7e6a8	0.08979541
157	0xbe28a873	-0.16470508
158	0xbd150833	-0.036384773
159	0xbedef326	-0.43544883
160	0xbe98d76b	-0.2985185
161	0xbd1214ce	-0.035664372
162	0x3ec729be	0.38899034
163	0xbdc7a949	-0.097490855
164	0x3e6491db	0.22321264
165	0xbe8f987c	-0.28046024
166	0xbeb3c6c5	-0.35112587
167	0x3e459da1	0.19298412
168	0x3e787fe3	0.24267535
169	0xbcf8eedd	-0.030387336
170	0x3eb414ba	0.35172063
171	0x3e246b30	0.16056514
172	0x3e5e4ca7	0.21708928
173	0x3d9da3e4	0.07697275
174	0x3ed9b3ec	0.42520082
175	0xbeb004b3	-0.34378585
176	0xbdad26d5	-0.08454672
177	0xbe9443cd	-0.28957978
178	0xbe893fef	-0.2680659
179	0x3db27def	0.08715426
180	0xbd5e9447	-0.054340627
181	0xbd2312f8	-0.039813012
182	0x3e24c360	0.16090155
183	0x3ec9b61a	0.39396745
184	0xbecd179c	-0.40057075
185	0xbe095bb4	-0.13413888
186	0xbd293c1c	-0.04131709
187	0x3e75fbb1	0.24021794
188	0xbe3a4fb6	-0.1819447
189	0xbece4da5	-0.40293613
190	0xbe2e919e	-0.17047736
191	0xbe79008e	-0.24316618
192	0xbed22126	-0.41040915
193	0xbe9d01cd	-0.30665436
194	0xbe300ac3	-0.17191605
195	0x3e1b62f4	0.15174466
196	0xbe75d662	-0.24007562
197	0xbe09480e	-0.13406393
198	0xbeb6be94	-0.35692275
199	0xbe81f839	-0.2538469
200	0xbd9bc8ed	-0.07606683
201	0xbe489c48	-0.19590867
202	0xbd10e8bd	-0.035378207
203	0x3dffd43d	0.12491653
204	0x3d6c85d8	0.05774483
205	0xbe7d97ba	-0.2476491
206	0xbc916b82	-0.017751459
207	0x3d136020	0.035980344
208	0x3d0d0272	0.03442616
209	0x3e2c39f2	0.1681898
210	0xbe002aa6	-0.12516269
211	0xbec1f7bf	-0.37884328
212	0xbe1abb2f	-0.15110467
213	0xbde6f49c	-0.11277124
214	0xbed21db2	-0.4103828
215	0x3c41b9da	0.011824096
216	0xbe1b2b04	-0.15153128
217	0x3e9f1a40	0.31074715
218	0x3e9942d4	0.29933798
219	0x3e94c9c7	0.29060194
220	0xbe496b08	-0.19669735
221	0x3ba410f5	0.0050069042
222	0x3ec8fb1e	0.39254087
223	0xbec94c7a	-0.3931616
224	0x3e26a665	0.16274412
225	0xbe349b45	-0.17637356
226	0xbe2e6460	-0.17030478
227	0x3e8f5252	0.27992493
228	0xbce663d2	-0.02812377
229	0xbdbc5a7b	-0.09196945
230	0x3e80f5ab	0.2518743
231	0xbe0ed253	-0.1394742
232	0x3eb0f75a	0.34563714
233	0x3cb96a60	0.022633731
234	0x3e6e7d06	0.2328988
235	0x3ec04d45	0.37558952
236	0xbe282f3d	-0.1642427
237	0x3e6150d7	0.22003494
238	0x3d99ac58	0.07503575
239	0xbec07a8e	-0.37593502
240	0x3ed8f557	0.4237468
241	0x3e8d73e0	0.27627468
242	0x3aae0582	0.0013276788
243	0x3e074cab	0.1321284
244	0xbe131baa	-0.14366022
245	0xbd55e09d	-0.05221616
246	0xbcc85bdb	-0.024457863
247	0x3ddc9551	0.10770667
248	0x3d9a970b	0.075483404
249	0x3eccaa1e	0.3997354
250	0x3eb4e003	0.35327157
251	0x3e7010e9	0.2344395
252	0xbe36eca5	-0.1786371
253	0xbe689417	-0.22712742
254	0xbeb933a3	-0.36172208
255	0x3e3e5856	0.18588385

bias f4 [16]
0	0xbb8cd803	-0.0042982115
1	0xbbbb9312	-0.0057243193
2	0xbb9c6394	-0.004772613
3	0xbbc19c75	-0.0059085437
4	0x3aab5343	0.0013071079
5	0x3c1d3eb2	0.009597467
6	0xbbdb1a1c	-0.006686462
7	0x3c0a716d	0.008449894
8	0xbacae482	-0.0015479478
9	0xbc064ce5	-0.008197044
10	0xbbf466b9	-0.0074585346
11	0xbbdb2c59	-0.0066886363
12	0xba8003d5	-0.0009766767
13	0xbb808330	-0.003921889
14	0xbb9eb96e	-0.0048438823
15	0xbc204899	-0.009782934

weight f4 [16, 16]
0	0x3eabeb89	0.33578137
1	0x3de9e730	0.11421049
2	0x3eae2496	0.34012288
3	0xbea5625d	-0.32301608
4	0xbeda7dc8	-0.42674088
5	0x3e1fe28c	0.15613765
6	0xbe5b757b	-0.21431534
7	0x3eafd46d	0.34341756
8	0xbc880f2d	-0.016608799
9	0x3d60c968	0.054879576
10	0x3e0be237	0.13660513
11	0xbeaf8f91	-0.3428922
12	0xbdb09332	-0.08621825
13	0x3e90d472	0.28287083
14	0xbe15398d	-0.14572735
15	0x3dc876bf	0.09788274
16	0xbe644c40	-0.22294712
17	0x3da27404	0.079322845
18	0xbe58a181	-0.21155359
19	0xbdbf6a1f	-0.09346413
20	0x3e7ad1fb	0.24494164
21	0xbad597f3	-0.0016295895
22	0x3e89a343	0.2688237
23	0x3e83e1be	0.25758165
24	0x3eb67e3a	0.35643178
25	0xbde52f91	-0.11190713
26	0x3dc29080	0.095002174
27	0x3dd212d3	0.10257497
28	0xbe818812	-0.25299126
29	0x3e6acbc7	0.22929297
30	0xbe857628	-0.2606671
31	0xbeb330ee	-0.34998268
32	0x3ecbfea8	0.39842725
33	0x3d5ac82c	0.053413555
34	0x3e921ea2	0.28538996
35	0x3ebce2f8	0.36891913
36	0xbebd6d22	-0.36997324
37	0xbeb618ae	-0.35565704
38	0x3d9f8827	0.07789641
39	0x3d65db10	0.056117117
40	0xbd0a8a68	-0.0338234
41	0xbe883126	-0.26599997
42	0x3dc5a354	0.09650293
43	0x3e641d53	0.22276811
44	0xbe997cf3	-0.2997814
45	0x3e9360ea	0.28784877
46	0xbcf737a1	-0.030177893
47	0x3eb777b7	0.35833523
48	0xbb9b16ef	-0.0047329585
49	0x3dd68899	0.10475273
50	0xbe675646	-0.22591504
51	0xbdfe2a99	-0.124104686
52	0x3d910bea	0.070823506
53	0x3d775c71	0.060390893
54	0x3e9a7894	0.3017012
55	0xbe859642	-0.260912
56	0x3dc5e4d3	0.096627854
57	0xbe66cca3	-0.22539
58	0xbdac351b	-0.084085666
59	0xbe8fe44d	-0.28103867
60	0x3ea8a601	0.3293915
61	0x3e91e7ed	0.28497258
62	0xbebdf4c3	-0.371008
63	0xbea8c168	-0.32960057
64	0x3e1abbd4	0.15110713
65	0xbe9d9ba8	-0.3078282
66	0xbe312020	-0.17297411
67	0xbed407f9	-0.41412333
68	0xbe948e7a	-0.2901495
69	0x3eac0722	0.33599192
70	0xbe755e6a	-0.23961797
71	0x3e9750cd	0.29553834
72	0x3e12d49f	0.14338921
73	0xbe8fb6da	-0.28069192
74	0xbdb008e3	-0.08595445
75	0xbcb09f69	-0.021560388
76	0x3e950a6f	0.29109523
77	0xbec7768c	-0.38957632
78	0x3eb596fc	0.35466754
79	0xbeca1cae	-0.39475006
80	0xbea1b1e9	-0.31581047
81	0xbe98edfe	-0.29869074
82	0x3e187476	0.14888176
83	0xbea05de6	-0.3132164
84	0xbeb300bd	-0.349615
85	0x3e14e4f3	0.14540462
86	0xbea3ee80	-0.320179
87	0xbea4e1a5	-0.32203403
88	0x3eb727e0	0.3577261
89	0x3e7837c6	0.24240026
90	0xbea221d7	-0.31666443
91	0x3dbe1043	0.092804454
92	0x3d95cb92	0.073142186
93	0x3e68e960	0.22745275
94	0x3e5a9bd2	0.21348503
95	0x3ecd518a	0.40101272
96	0x3de0ac95	0.109704174
97	0x3d85235b	0.06500884
98	0xbd624a89	-0.055246864
99	0x3dda12ec	0.1064814
100	0xbdf5996e	-0.11992155
101	0x3eb515e0	0.35368252
102	0x3ed005a7	0.40629312
103	0xbd736f66	-0.05943241
104	0x3dd1a7be	0.102370724
105	0xbeaa830d	-0.3330311
106	0xbeacc26f	-0.3374209
107	0xbe9a08db	-0.3008488
108	0xbda9e626	-0.082958505
109	0x3e84878b	0.2588466
110	0xbd083894	-0.033257082
111	0xbeb79f1a	-0.35863572
112	0x3dec8331	0.1154846
113	0x3e811107	0.25208303
114	0xbebaa185	-0.36451355
115	0xbecee0d3	-0.40405902
116	0xbe53126d	-0.20612498
117	0x3dd5b3d5	0.10434691
118	0x3e04fce4	0.12987095
119	0xbe76b55f	-0.24092625
120	0x3d9ee36a	0.077582195
121	0xbd94eec3	-0.07272103
122	0xbd13895d	-0.03601967
123	0x3ec9b152	0.39393097
124	0x3e255cad	0.16148634
125	0xbca10d85	-0.019659767
126	0x3d83dc33	0.06438484
127	0xbe656c80	-0.2240467
128	0x3e9d304c	0.3070091
129	0xbcfc8d7b	-0.030829182
130	0x3e4543aa	0.19264093
131	0xbe1f4684	-0.15554243
132	0x3df9e8a8	0.12202579
133	0x3e1e40aa	0.15454355
134	0x3e59595d	0.21225496
135	0xbd955a52	-0.07292618
136	0xbe5eff16	-0.21776995
137	0x3dfd59ec	0.12370667
138	0x3ea6fc06	0.32614154
139	0xbe0d27d6	-0.13784727
140	0xbd4ba94f	-0.049722012
141	0x3d143705	0.036185283
142	0x3e680225	0.22657068
143	0x3df05b18	0.11736125
144	0xbde18b21	-0.11012865
145	0x3e094b98	0.13407743
146	0xbe1b8170	-0.15186095
147	0xbe10b316	-0.14130816
148	0x3eb7aaba	0.35872442
149	0xbeb2ae28	-0.34898496
150	0xbec592af	-0.38588473
151	0xbc9350f9	-0.017982947
152	0xbec8f11e	-0.39246458
153	0xbd0630cc	-0.03276138
154	0x3e81d152	0.2535501
155	0xbd6cdec6	-0.05782964
156	0x3d193d54	0.037412003
157	0x3eba139e	0.36343092
158	0xbe8d55fa	-0.27604657
159	0x3e9ccbe4	0.30624306
160	0x3e9b5cf9	0.3034437
161	0x3e066904	0.13125998
162	0x3e8adc84	0.27121365
163	0xbea0aaa3	-0.31380185
164	0x3d8bdbd1	0.06829036
165	0xbd89f710	-0.067365766
166	0xbe59ddd6	-0.2127603
167	0x3dd52f4c	0.10409412
168	0xbed92c09	-0.4241641
169	0x3eb678ad	0.35638943
170	0xbed3878a	-0.41314346
171	0x3ed773f2	0.42080647
172	0x3dfb336b	0.122656666
173	0x3e9ff9e7	0.31245348
174	0xbe770047	-0.241212
175	0xbe710513	-0.23537092
176	0x3d9e997d	0.07744119
177	0xbe97476b	-0.29546675
178	0xbe91074e	-0.28325886
179	0xbed43d43	-0.4145299
180	0x3e87630c	0.26442754
181	0xbc1cb88a	-0.009565482
182	0x3ea64823	0.3247691
183	0x3ebdf67b	0.37102112
184	0x3e052efc	0.13006204
185	0x3e2cb901	0.16867448
186	0xbe4fcaf9	-0.20292272
187	0x3dfdf8f2	0.12400998
188	0xbd56ca02	-0.052438743
189	0xbed36720	-0.41289616
190	0x3d981a65	0.07426909
191	0xbed373b0	-0.412992
192	0xbed90a56	-0.42390698
193	0xbe9cb080	-0.3060341
194	0xbe3393a7	-0.17536794
195	0xbec4cb28	-0.38436246
196	0x3de4e441	0.111763485
197	0xbec1e2e9	-0.3786843
198	0x3d99dcae	0.075127944
199	0xbe9896c9	-0.2980254
200	0x3e5e3e75	0.21703513
201	0x3e8512bc	0.25990856
202	0x3ced36c9	0.028956788
203	0xbed8e6ba	-0.4236353
204	0x3e742f83	0.2384625
205	0x3e4c750f	0.1996653
206	0xbece8f2c	-0.40343606
207	0x3e0562e1	0.13026
208	0xbeb86ff5	-0.36022916
209	0xbea48afa	-0.3213728
210	0xbd93d3f9	-0.07218165
211	0xbe8037d8	-0.25042605
212	0xbe2535cf	-0.16133808
213	0x3e95ecd0	0.29282236
214	0xbdf82a3e	-0.12117432
215	0x3dceb3ac	0.100928634
216	0xbeaeb856	-0.34125012
217	0x3cc0fd47	0.023558272
218	0x3e2a2b0b	0.16617982
219	0xbec8ed4f	-0.39243552
220	0xbe3ae7be	-0.18252465
221	0xbd94ec0a	-0.072715834
222	0xbec3d79c	-0.38250434
223	0xbe239ccf	-0.15977786
224	0x3eb7e7f7	0.35919163
225	0x3eccf03f	0.40027043
226	0x3ed7c09c	0.42139137
227	0x3ed72292	0.42018563
228	0x3ec1eb59	0.3787487
229	0xbeae7c75	-0.34079328
230	0x3e34f964	0.1767326
231	0xbec6761f	-0.38761994
232	0x3e7f1a4c	0.24912375
233	0xbded1e16	-0.11578004
234	0x3eb7f476	0.35928696
235	0xbcb04ce5	-0.021521041
236	0xbdcc12d0	-0.09964526
237	0x3e82fdf9	0.2558439
238	0x3ec0cf74	0.37658274
239	0x3e14cea4	0.14531952
240	0x3d860893	0.06544604
241	0x3e63ad07	0.22233973
242	0xbe9b04b5	-0.3027703
243	0xbc8b4d44	-0.017004617
244	0xbca0855e	-0.019594844
245	0xbe9ebf9b	-0.31005558
246	0x3dfe6e48	0.12423378
247	0x3d5a1719	0.053244684
248	0xbdd5da73	-0.104420565
249	0x3d0406c5	0.03223302
250	0xbec659fa	-0.38740522
251	0x3ea8a34c	0.32937086
252	0xbdccb3d2	-0.099952355
253	0x3e930777	0.28716633
254	0xbeb67fa6	-0.35644263
255	0x3da6e2ef	0.08148753

bias f4 [16]
0	0xbb741479	-0.0037243648
1	0x3bec57a4	0.007212596
2	0xbbdc0747	-0.0067147347
3	0xbb1edc2f	-0.0024240126
4	0x3c750b62	0.014956327
5	0xbca3ea03	-0.020009046
6	0xbc0296c0	-0.007970512
7	0xbb3f00ca	-0.0029144757
8	0xbbdfa1ca	-0.0068247067
9	0x3b7757e9	0.0037741608
10	0xba162bbe	-0.0005728564
11	0x3cb03a43	0.021512156
12	0xbb012e25	-0.0019711342
13	0x3c080707	0.008302457
14	0xbbc0740e	-0.00587321
15	0xbb8631e1	-0.0040953015

weight f4 [16, 16]
0	0xbe5460fe	-0.20740125
1	0xbecf16ee	-0.4044718
2	0x3ec3823b	0.38185295
3	0x3def4699	0.11683387
4	0xbe119901	-0.14218523
5	0x3e6313ac	0.22175473
6	0xbeb42438	-0.35183883
7	0x3ec87d1a	0.39157945
8	0xbe98d5f5	-0.29850736
9	0xbd8cb089	-0.06869609
10	0x3e0fb4fd	0.14033885
11	0xbed8c5a8	-0.423383
12	0x3e80c77b	0.25152192
13	0x3caea22e	0.021317568
14	0xbe158c69	-0.14604343
15	0x3e4977ce	0.19674608
16	0xbe64b06a	-0.22332922
17	0xbdd05df9	-0.10174174
18	0xbe869ded	-0.26292363
19	0xbdceee19	-0.10104007
20	0xbe41db13	-0.18931226
21	0xbe3cbd01	-0.18431474
22	0x3e238c1b	0.15971415
23	0x3e1e5104	0.15460593
24	0xbeb8e5c2	-0.3611279
25	0x3a1aa36b	0.0005898985
26	0x3e9bc3e0	0.30422878
27	0xbe47984b	-0.19491689
28	0x3e11a929	0.14224686
29	0xbe9dcbfc	-0.3081969
30	0x3ebd8fb3	0.37023696
31	0x3ddba916	0.1072561
32	0xbe48ae4d	-0.1959774
33	0x3e9d8108	0.30762506
34	0xba464b8c	-0.0007564358
35	0x3e084c8e	0.13310453
36	0xbe776dbc	-0.24162954
37	0x3c62b95c	0.013838138
38	0xbe799857	-0.2437452
39	0x3e982aed	0.2972025
40	0x3e936b04	0.28792584
41	0xbe5c168b	-0.21492974
42	0xbc9cb3b4	-0.019128658
43	0x3db920e4	0.090394765
44	0x3e1a80d7	0.15088211
45	0xbe71d925	-0.2361799
46	0x3d1c528d	0.038164664
47	0x3e51af9e	0.20477149
48	0xbed3a148	-0.41333985
49	0xbdb6dae0	-0.08928466
50	0x3e1025dc	0.14076942
51	0x3e9422fa	0.28932935
52	0xbdd2c0b6	-0.10290663
53	0xbe8d0a73	-0.27547035
54	0x3d900f7e	0.07034205
55	0x3d75ec4e	0.06003981
56	0x3ed64ff7	0.41857883
57	0x3e989bcd	0.29806367
58	0xbd40f61e	-0.047109716
59	0xbd7040a9	-0.058655415
60	0x3da62cf9	0.081140466
61	0xbed82d99	-0.42222288
62	0x3ea0905c	0.31360137
63	0x3e542914	0.20718795
64	0x3e4895a7	0.19588338
65	0xbe97c7c6	-0.29644603
66	0x3c69747a	0.014248962
67	0x3e98bd1b	0.29831776
68	0x3e707177	0.23480783
69	0xbe0cc595	-0.13747247
70	0xbdc53a0e	-0.09630214
71	0xbe8d5993	-0.27607402
72	0x3cfdcae3	0.030980533
73	0xbed74598	-0.42045283
74	0x3e995a4c	0.29951704
75	0xbdfd5c68	-0.12371141
76	0x3e75c5f6	0.24001297
77	0xbe0846af	-0.13308214
78	0x3ed7681c	0.42071617
79	0xbe985e9f	-0.2975969
80	0x3e833e39	0.2563341
81	0xbc7c4dc9	-0.015399405
82	0x3dc4f014	0.09616104
83	0x3d724ef6	0.059157334
84	0xbe9fb0d3	-0.31189594
85	0x3ec1bb70	0.37838316
86	0x3e75fee3	0.24023013
87	0x3e416a32	0.18888167
88	0x3eb51648	0.35368562
89	0xbde3572e	-0.111006126
90	0x3e1e3c67	0.15452729
91	0xbe35ea66	-0.17765197
92	0x3e0e85b9	0.13918199
93	0xbeac6384	-0.33669674
94	0x3e982141	0.2971287
95	0x3e203e96	0.15648875
96	0xbd5d905f	-0.05409276
97	0xbdd4da2f	-0.10393178
98	0x3e984615	0.29740968
99	0x3e931a3c	0.28730953
100	0xbedcb8c6	-0.4310972
101	0xbe622743	-0.2208529
102	0x3d89809f	0.06713986
103	0xbc2ea2d4	-0.010658938
104	0x3eac4a59	0.33650473
105	0xbea8d782	-0.3297692
106	0xbe9f9eaf	-0.31175753
107	0xbe0a3f81	-0.13500787
108	0x3e78df42	0.24303916
109	0x3e60b1cf	0.21942829
110	0xbe6608e2	-0.22464326
111	0xbe12687a	-0.14297667
112	0x3eb363ab	0.35036978
113	0xbe626cfd	-0.22111888
114	0x3ed0f110	0.40808916
115	0xbe715c6f	-0.23570417
116	0xbd8fd8fc	-0.07023808
117	0xbeb8dbaa	-0.3610509
118	0xbeb687e7	-0.3565056
119	0x3e45555d	0.19270845
120	0x3e6d3437	0.2316445
121	0x3ec1440b	0.37747225
122	0x3ecdf5da	0.40226632
123	0x3eac6667	0.33671877
124	0xbe27cc54	-0.16386539
125	0xbde32a32	-0.110920325
126	0x3ce9cbd9	0.028539585
127	0xbeb61e53	-0.3557001
128	0xbed0631c	-0.40700614
129	0x3e8963a4	0.26833832
130	0x3eacc736	0.33745736
131	0xbe7fd05f	-0.24981831
132	0xbebd5510	-0.3697896
133	0x3eadcd5d	0.33945742
134	0xbd0bb7a9	-0.0341107
135	0xbeb71f6c	-0.3576616
136	0x3ddfea1a	0.10933323
137	0x3d89d71e	0.067304835
138	0x3d1c42ff	0.03814983
139	0x3e4b1b08	0.1983453
140	0x3e98f5fc	0.2987517
141	0xbed8a6cb	-0.42314753
142	0x3ed62d78	0.41831565
143	0xbe034861	-0.12820579
144	0xbe865e6b	-0.2624391
145	0x3dc2f338	0.095190465
146	0xbe8c2c5c	-0.27377594
147	0xbe0fba80	-0.14035988
148	0x3eade836	0.33966225
149	0x3c885693	0.016642844
150	0xbe2b30d4	-0.16717845
151	0xbe59bc1d	-0.21263166
152	0x3e48d640	0.1961298
153	0xbdd2db77	-0.10295766
154	0xbeae0d24	-0.339944
155	0x3ee27c49	0.44235447
156	0x3e8ef7df	0.27923486
157	0xbeb6ca64	-0.35701287
158	0x3d5973c3	0.053088915
159	0xbcf3f995	-0.029782096
160	0x3ecd8f3c	0.40148342
161	0xbc2cf0d0	-0.010555461
162	0xbbd6897c	-0.006547151
163	0x3dbc2ab7	0.09187835
164	0xbe7b67f0	-0.24551368
165	0x3ba7c1b1	0.0051195254
166	0xbea18d45	-0.31553093
167	0xbe97e5ce	-0.29667515
168	0xbed5f360	-0.41787243
169	0xbe8e355c	-0.27775085
170	0xbe57edb2	-0.21086767
171	0x3d6389f9	0.055551503
172	0x3e95fa39	0.29292467
173	0xbd9909b4	-0.07472554
174	0x3e9aaeb2	0.30211407
175	0x3ea9d7f2	0.33172566
176	0xbeb2195d	-0.34784976
177	0xbe650ecd	-0.22368927
178	0xbe019c30	-0.12657237
179	0x3ea06a46	0.3133108
180	0x3ebe4e4b	0.37169108
181	0xbebac8ab	-0.36481223
182	0xbd4a3789	-0.04936937
183	0x3eb0db25	0.34542194
184	0x3e5b3c8f	0.2140982
185	0xbdd045a9	-0.101695366
186	0x3e26124b	0.16217916
187	0x3e695fcb	0.22790448
188	0xbe91688a	-0.2840007
189	0xbec8c4da	-0.39212686
190	0xbdf10f9a	-0.11770554
191	0x3da021e8	0.07818967
192	0xbea9173b	-0.33025536
193	0x3e973e01	0.29539493
194	0x3e83aaa3	0.25716123
195	0xbdd80216	-0.10547273
196	0xbeb996db	-0.36247906
197	0xbec5f1ee	-0.3866114
198	0x3e9518a8	0.29120374
199	0x3dc63652	0.096783295
200	0xbec79d62	-0.3898726
201	0x3d3b7f3f	0.04577565
202	0x3d2c8bcb	0.042125504
203	0x3e382e37	0.1798638
204	0x3d58ed7c	0.052960858
205	0xbece7a61	-0.40327743
206	0x3ed5ae90	0.41734743
207	0x3cb8512f	0.022499649
208	0x3e93312b	0.2874845
209	0x3e334a94	0.17508918
210	0xbe1302dc	-0.1435656
211	0xbe1149f1	-0.14188363
212	0x3e342755	0.17593129
213	0xbe9b2278	-0.30299735
214	0xbd91c541	-0.07117701
215	0x3e763487	0.24043475
216	0x3d7b1f72	0.061309285
217	0xbec09bc4	-0.3761884
218	0x3e2ec463	0.17067103
219	0xbe3e3b0c	-0.18577212
220	0xbea6cb8a	-0.32577163
221	0x3e429fd0	0.19006276
222	0xbe54394f	-0.20724986
223	0xbebe1c03	-0.37130746
224	0x3e9d0c63	0.30673513
225	0xbea72cc9	-0.32651356
226	0x3eaa8c02	0.33309942
227	0xbed147d6	-0.4087512
228	0x3e2b0c8c	0.16704005
229	0xbe910574	-0.28324473
230	0x3eb9f14e	0.36316913
231	0xbdf66905	-0.1203175
232	0x3e6de89b	0.23233263
233	0xbeb384d5	-0.3506228
234	0x3ec90bdf	0.3926687
235	0x3e93d3df	0.28872582
236	0x3e7f3e11	0.2492602
237	0xbe56b694	-0.20968086
238	0x3dc7126c	0.097203106
239	0x3d35f611	0.04442412
240	0x3ecbfb58	0.39840198
241	0xbe836061	-0.2565947
242	0x3e9d7192	0.3075071
243	0xbd6992d5	-0.057024796
244	0x3e28acb2	0.16472128
245	0xbe9f7b21	-0.31148627
246	0xbeac3606	-0.33634967
247	0xbd395624	-0.045248166
248	0x3e17c484	0.14821059
249	0xbeb220f5	-0.3479077
250	0x3e04bbf1	0.12962319
251	0xbebf86d6	-0.3740756
252	0x3e76d33e	0.2410402
253	0xbe086d1d	-0.13322873
254	0xbebe404d	-0.37158433
255	0x3e929617	0.28630134

bias f4 [16]
0	0x00000000	0.0
1	0xbba70034	-0.0050964598
2	0xbba024a8	-0.0048871823
3	0xbb643b93	-0.0034825548
4	0xbb8c97aa	-0.0042905407
5	0xbc04384d	-0.008070064
6	0xbc06e735	-0.008233835
7	0xbbd1785d	-0.0063925222
8	0x3be18ae8	0.006883014
9	0x3c412025	0.011787449
10	0xbb697bb1	-0.0035626704
11	0xbc817f1f	-0.015807686
12	0x3bfefb5d	0.0077814297
13	0x3c400e04	0.011722092
14	0xbb7aa290	-0.0038243867
15	0x3be1aaee	0.0068868315

weight f4 [16, 16]
0	0x3e322daa	0.17400232
1	0x3d6901e1	0.056886557
2	0x3ed8bc35	0.4233109
3	0xbe995458	-0.29947162
4	0x3e896ab2	0.26839215
5	0xbe30f13b	-0.17279522
6	0xbdd660f9	-0.10467715
7	0x3e40a5ca	0.18813244
8	0xbd0a34d5	-0.03374179
9	0x3e8c336e	0.27382988
10	0xbd810ffa	-0.063018754
11	0xbe357466	-0.17720184
12	0xbe85c2f0	-0.26125288
13	0xbe7f4c37	-0.24931417
14	0x3dc356bc	0.09538028
15	0x3e6b0c47	0.22953902
16	0x3d29cd9a	0.041455843
17	0xbe987495	-0.29776445
18	0x3d15c47f	0.036564346
19	0x3e7dc123	0.24780707
20	0x3ea0f65d	0.3143796
21	0xbea23b85	-0.31686035
22	0x3e3dab93	0.18522482
23	0xbe851d8b	-0.25999102
24	0x3ecedd80	0.40403366
25	0x3ecf08a3	0.40436277
26	0x3e841bc0	0.25802422
27	0xbe84d1de	-0.25941366
28	0xbd4f1d00	-0.050564766
29	0x3ca99710	0.020701915
30	0x3d5e3a69	0.054254923
31	0x3d8ac1ca	0.067752436
32	0x3e8fe1a5	0.2810184
33	0x3dfe921f	0.12430214
34	0x3ecfc1fa	0.4057768
35	0xbe13dbd4	-0.14439327
36	0x3d705746	0.05867698
37	0xbe9634e5	-0.2933723
38	0x3e94a9fc	0.29035938
39	0xbed561d9	-0.41676214
40	0x3d9983a7	0.07495814
41	0x3ca0130c	0.019540332
42	0xbe80a03a	-0.25122243
43	0x3e142788	0.14468205
44	0xbe7095ed	-0.23494692
45	0xbe8b6a3b	-0.27229485
46	0x3ec50ee1	0.38487914
47	0x3e084f35	0.13311465
48	0xbd58560e	-0.052816443
49	0xbeb16dc4	-0.34654057
50	0x3eab309d	0.33435526
51	0x3d6ae36a	0.057345785
52	0xbe8e5857	-0.27801773
53	0xbedef8cd	-0.43549195
54	0x3ec87f2e	0.3915953
55	0xbd4b8d08	-0.049695045
56	0x3ebd32e0	0.36952877
57	0x3dd28fbe	0.10281323
58	0x3e376e5f	0.17913197
59	0x3ecd6512	0.40116173
60	0x3d7b11e6	0.061296366
61	0xbe6ffcb6	-0.23436245
62	0x3e185669	0.14876713
63	0x3eb80e45	0.35948387
64	0x3e8ea59b	0.27860722
65	0x3d139bbe	0.0360372
66	0xbd156c73	-0.03648038
67	0xbc770948	-0.015077896
68	0xbe9a3f4d	-0.3012642
69	0x3dd3fdee	0.103511676
70	0x3c4feb38	0.012690358
71	0xbe74cd2b	-0.2390639
72	0x3e7dce13	0.24785642
73	0xbed9ee8f	-0.42564818
74	0xbebb492d	-0.36579266
75	0x3ebbd734	0.36687624
76	0xbd8aecb8	-0.06783432
77	0xbed1a877	-0.4094884
78	0xbe06f0dd	-0.1317782
79	0xbe9c08ce	-0.30475467
80	0x3e915918	0.28388286
81	0x3e7e8551	0.24855544
82	0x3eaa489b	0.3325852
83	0x3ec8f5ee	0.3925013
84	0x3e13c6e4	0.1443134
85	0x3dbc7c23	0.09203365
86	0x3e4886ea	0.19582716
87	0xbe6ce85c	-0.23135513
88	0xbd927a41	-0.07152224
89	0x3c35b352	0.011090117
90	0xbe60f849	-0.21969713
91	0xbd56f8f2	-0.052483507
92	0xbc91bbb8	-0.017789707
93	0xbc26697e	-0.010156987
94	0x3d6bfc4e	0.057613663
95	0xbe54332e	-0.20722649
96	0x3ed60a28	0.41804624
97	0x3e1c2294	0.15247566
98	0xbdb5a82f	-0.08869969
99	0xbe8e7f7e	-0.27831644
100	0xbe873df1	-0.26414445
101	0x3e48c43d	0.19606109
102	0xbeab7283	-0.33485803
103	0xbe0dfca4	-0.13865906
104	0xbe4ea5f9	-0.20180501
105	0xbd8f2f87	-0.06991487
106	0xbeac5389	-0.33657482
107	0xbe0b940c	-0.13630694
108	0xbe3b5f7b	-0.18298142
109	0x3d1171e5	0.03550901
110	0x3ccdc88a	0.025120039
111	0xbe3f55e2	-0.18685105
112	0x3daa6343	0.08319714
113	0xbe7d6d03	-0.24748616
114	0xbda217a8	-0.07914668
115	0xbe328a94	-0.17435676
116	0xbeaf25fd	-0.3420867
117	0xbd0a8d69	-0.033826265
118	0x3c40134f	0.0117233535
119	0x3ea23658	0.31682086
120	0xbe2fb19e	-0.171576
121	0xbdc55d5b	-0.09636947
122	0x3ece7ccd	0.4032959
123	0xbdb41492	-0.08792986
124	0x3e93b0ec	0.28845918
125	0xbb03e72b	-0.00201268
126	0x3e6a5796	0.22884974
127	0xbec1d364	-0.3785659
128	0xbeccc62b	-0.3999494
129	0x3ecb7961	0.39741042
130	0x3e91f3d4	0.2850634
131	0x3e1f8dfb	0.15581505
132	0xbe25d920	-0.16196108
133	0x3ed787c3	0.42095765
134	0x3d71c9af	0.05903023
135	0xbce7c838	-0.028293714
136	0x3df36392	0.11884226
137	0x3e85ba27	0.26118585
138	0xbe410dcc	-0.1885292
139	0x3e815b7f	0.25265118
140	0xbec029c0	-0.37531853
141	0xbed07318	-0.4071281
142	0xbe53997d	-0.2066402
143	0xbecd50af	-0.4010062
144	0xbe5ab921	-0.21359684
145	0x3c25b25b	0.010113324
146	0x3ed1cf7e	0.40978616
147	0xbea4c0e0	-0.32178402
148	0x3ebd64cd	0.36990967
149	0x3db85968	0.09001428
150	0xbce74dc7	-0.02823533
151	0x3d206088	0.03915456
152	0xbe9ee56d	-0.31034413
153	0xbec02c7d	-0.37533942
154	0xbc36dcf7	-0.011161081
155	0x3d86f7da	0.06590243
156	0xbe7005a6	-0.23439655
157	0xbe1d1f83	-0.15344052
158	0x3ebd906c	0.37024248
159	0xbea3c09a	-0.3198288
160	0x3eb4ae65	0.35289302
161	0x3d33f2ad	0.043932606
162	0xbec2b9f9	-0.3803251
163	0xbd6407a6	-0.055671357
164	0xbe637285	-0.22211654
165	0x3e5a53bf	0.21321009
166	0x3ea9eb66	0.33187407
167	0xbe553769	-0.20821919
168	0xbe77299a	-0.24136963
169	0xbcdd0556	-0.026980083
170	0xbdc039ac	-0.09386
171	0x3e14a490	0.145159
172	0x3e926d2e	0.28598922
173	0x3e416de9	0.18889584
174	0x3e8621cd	0.26197663
175	0x3e4b52fb	0.19855873
176	0xbe764f7c	-0.24053758
177	0xbec957e0	-0.39324856
178	0xbec9e077	-0.39429066
179	0x3ec9e3e1	0.3943167
180	0xbc27c580	-0.010239959
181	0xbea422e8	-0.3205788
182	0x3eb07edb	0.34471783
183	0x3e30cf0b	0.1726648
184	0xbe4e07cc	-0.20120162
185	0xbdc7ae9d	-0.09750102
186	0x3b4b76fe	0.0031046267
187	0x3ec02fb0	0.37536383
188	0xbe8d1890	-0.27557802
189	0x3e5a383b	0.21310513
190	0xbe565eda	-0.2093462
191	0x3e6b8f6e	0.23003933
192	0x3ecca7fe	0.39971918
193	0x3db26e99	0.08712501
194	0xbdd56d50	-0.1042124
195	0xbed591cc	-0.41712797
196	0x3e77ec0b	0.24211137
197	0x3e89aa83	0.26887903
198	0xbcfd6edc	-0.030936651
199	0xbea744a4	-0.32669556
200	0xbd9023e9	-0.07038099
201	0x3e9616e5	0.29314342
202	0xbeb902a9	-0.36134842
203	0xbebaad54	-0.36460364
204	0xbe88d316	-0.26723546
205	0x3d63cb8d	0.055614043
206	0x3eb3437f	0.35012433
207	0x3ec8ad36	0.3919465
208	0x3eb0633c	0.3445071
209	0xbe0b65c5	-0.13613041
210	0x3dc87de5	0.097896375
211	0x3e82db24	0.25557816
212	0xbd686b4d	-0.056742955
213	0x3eafa3cb	0.34304652
214	0x3e10883b	0.14114468
215	0xbe9d5af6	-0.3073346
216	0xbea1cf92	-0.31603676
217	0x3d083b5a	0.033259727
218	0xbedc16f1	-0.42986253
219	0xbe65c840	-0.2243967
220	0x3db4d319	0.08829326
221	0x3e5e74a0	0.21724176
222	0xbe949445	-0.2901937
223	0xbe960e53	-0.29307804
224	0xbddd411e	-0.10803436
225	0x3ed75a4f	0.42061087
226	0xbe113b48	-0.1418277
227	0x3ec9e2a8	0.39430737
228	0xbe80d7ea	-0.2516473
229	0xbe5fc4f0	-0.2185247
230	0x3e5256db	0.20540945
231	0x3c01b88e	0.007917536
232	0xbe52c484	-0.20582777
233	0x3d9558a6	0.07292299
234	0xbe839994	-0.25703108
235	0xbc390994	-0.0112937875
236	0xbdc09a7b	-0.09404465
237	0x3d3846d7	0.044989433
238	0x3e731f68	0.2374245
239	0xbeb3c83e	-0.3511371
240	0x3d6cce28	0.057813793
241	0x3e0f12b0	0.13971972
242	0xbd409785	-0.0470195
243	0x3e9d4a21	0.30720618
244	0x3ed79f5a	0.42113763
245	0x3ea246b4	0.31694567
246	0x3e2bee9f	0.16790245
247	0x3db9695f	0.09053301
248	0xbc5d36e6	-0.013501858
249	0xbe353da4	-0.17699295
250	0x3ed69164	0.419078
251	0xbd9aca7c	-0.07558152
252	0x3cd662aa	0.026170094
253	0xbe9dc4db	-0.3081425
254	0xbe62eb05	-0.22159965
255	0x3deedb84	0.11662963

bias f4 [16]
0	0xbba1bd6f	-0.0049359123
1	0x3cb3184e	0.021862175
2	0x3c214efe	0.009845493
3	0xbb8c10f3	-0.0042744814
4	0xbb3c0877	-0.002869157
5	0xbb98d315	-0.004663835
6	0x00000000	0.0
7	0x3bffc918	0.0078059547
8	0xbc14bbf6	-0.0090780165
9	0xbb9d31dd	-0.004797204
10	0xbb3c02e3	-0.0028688244
11	0xbb845f47	-0.0040396783
12	0x3c77e2c7	0.0151297515
13	0x3c1ac8be	0.009447275
14	0xbbf5143f	-0.00747922
15	0xbba06841	-0.0048952405
