ad/ad_PROTEINS_full.pt (torch, 347213 bytes, 62 tensors)

weight f4 [16, 3]
-0.31708795 -0.012294846 -0.021598326 0.25997275 0.022345847 -0.010804631 -0.332743 0.104474485
0.3910357 -0.33253673 -0.48131004 -0.3776357 0.30476046 0.09466738 0.32174155 0.43993238
-0.3315111 0.026555076 0.39729673 0.28638163 0.1785103 0.36367124 0.2880472 -0.18189256
-0.080793165 0.27690724 0.5355317 -0.014215063 0.19964224 -0.17880683 0.2846912 0.15615799
-0.036819465 0.17154986 0.25737017 0.352695 0.56708056 -0.51492757 0.4177881 0.40788767
0.4469994 0.42555824 -0.129477 -0.108290575 0.34027836 -0.2585016 -0.28610033 -0.19887935
00000000: 5a59 a2be 5270 49bc f9ee b0bc 261b 853e
00000010: a30e b73c e805 31bc 4a5d aabe b8f6 d53d
00000020: d535 c83e 4142 aabe 456e f6be 7759 c1be
00000030: 9009 9c3e f9e0 c13d 4fbb a43e d13e e13e
00000040: d3bb a9be 088a d93c 7a6a cb3e 9da0 923e
00000050: 67cb 363e 1e33 ba3e ec7a 933e 0b42 3abe
00000060: e376 a5bd c9c6 8d3e 9b18 093f 4ce6 68bc
00000070: 046f 4c3e 2319 37be 0cc3 913e e1e7 1f3e
00000080: 02d0 16bd c4aa 2f3e 06c6 833e 7094 b43e
00000090: 312c 113f 4bd2 03bf 52e8 d53e a7d6 d03e
000000a0: 1bdd e43e c5e2 d93e 9e95 04be 73c7 ddbd
000000b0: f738 ae3e 525a 84be be7b 92be 07a7 4bbe

bias f4 [16]
0.0 -0.005608299 0.005293035 0.0 -0.0056948243 0.005456678 -0.0052790055 -0.00011501929
0.0059525985 -0.0083596315 -0.004692395 -0.0050906576 0.0060816836 -0.004757679 -0.009741851 0.0
00000000: 0000 0000 d2c5 b7bb 3271 ad3b 0000 0000
00000010: a69b babb efcd b23b 82fb acbb 8336 f1b8
00000020: 040e c33b d6f6 08bc aac2 99bb 88cf a6bb
00000030: dc48 c73b 4ee6 9bbb 499c 1fbc 0000 0000

weight f4 [16, 16]
-0.29429087 -0.3545119 0.13661925 -0.36157224 -0.42333293 0.06385701 -0.23636575 -0.16683544
0.40242466 -0.17667715 -0.078552656 -0.04271446 -0.095300846 -0.008649348 -0.06317245 -0.26349783
0.32229283 0.11829173 0.23817338 -0.3453128 0.18570893 -0.34970668 0.33876222 -0.16489789
-0.27075377 -0.36351913 -0.419134 -0.12030145 0.33167768 0.30725533 0.043987602 -0.18076804
-0.4254461 0.2560335 0.38589552 0.25579068 -0.2087309 0.19682503 0.2664351 0.07179781
-0.26735222 0.09229405 0.17381215 -0.35308766 0.16186278 -0.38846037 0.2649385 0.2909715
7.918375e-05 0.41086918 0.1800237 0.23764355 -0.29093185 0.060512133 -0.19518827 0.06834472
-0.21658574 0.04415635 0.11386345 -0.22422573 0.03394495 -0.27961287 0.07555673 -0.057785198
-0.35476315 0.14332597 -0.4163612 -0.4006907 0.2529697 -0.12622389 0.17651604 0.10896847
-0.35378408 -0.204154 0.38486007 0.34927776 -0.1067661 0.036658045 -0.40362617 -0.37467146
0.2860247 0.41397735 -0.30867943 0.12722202 0.15728807 0.049967118 0.16423024 -0.24897441
-0.33134857 -0.24810773 0.37065983 0.003503746 0.2701663 -0.26726767 -0.12915152 -0.3000822
0.09655664 0.04890046 -0.0072353226 0.021259703 -0.11502352 0.30628657 -0.15914449 0.14801419
0.25199822 -0.18726195 0.26633146 0.29367527 0.19706632 -0.12037457 -0.1894126 -0.38224548
-0.2079433 0.08337786 -0.19551538 0.17596865 -0.19841498 -0.20610292 -0.40496245 -0.27017018
-0.4031825 0.2816497 0.20927517 -0.1968251 -0.31681105 0.30682054 -0.18270381 0.34882492
-0.37665725 -0.07275137 0.23234975 0.32982078 -0.38883314 0.2135975 -0.0011665412 0.18563773
0.23349899 -0.39724445 0.42827448 0.05916537 0.12150225 -0.21401548 0.39610946 0.060504183
0.33660606 0.18320847 -0.34950718 0.4304159 0.2083807 0.24842288 -0.20186421 0.12528843
0.1665515 -0.32728988 0.061828956 -0.22262867 0.27160215 -0.113376275 0.15240741 -0.33193398
-0.3727817 -0.3962242 -0.05126131 0.13631256 0.10197335 0.007103344 -0.4242622 -0.3229847
0.2729172 -0.22698332 0.11009051 -0.025836144 -0.09269924 -0.15563908 0.18739888 -0.36065567
-0.31217602 0.24530166 -0.2909222 -0.04962612 -0.3276432 0.120760955 -0.021966316 0.18777901
-0.36108333 -0.22588755 -0.09490808 -0.15713365 -0.038360555 -0.04369116 -0.24814278 0.017294114
-0.38638115 -0.020945402 -0.39715278 0.21077394 0.38773873 0.40540457 0.24494435 -0.37518844
0.38817155 -0.35453162 -0.30073228 -0.095706545 0.1774435 0.4054993 0.27880034 0.3036103
-0.23658407 -0.30008572 -0.1715004 -0.14256142 0.3076674 -0.36771744 -0.13149703 0.033671
0.39770928 -0.119422674 0.38909984 -0.22350506 0.3419391 -0.38887012 0.05408643 0.37770945
0.012796332 0.38977203 0.044698402 -0.2459006 -0.19520785 -0.15753672 -0.37923643 -0.23122372
-0.1303235 -0.43277746 0.057008665 -0.10460246 0.1568418 0.4157758 0.1350638 -0.0069728163
-0.0071526053 -0.22076322 -0.042782508 -0.03926301 0.030929824 0.08581186 -0.30755708 -0.0588804
-0.33797857 -0.07297191 -0.31577945 -0.37566134 0.15336236 -0.20596841 0.24740613 -0.40298674
00000000: 4bad 96be 9582 b5be ebe5 0b3e ff1f b9be
00000010: 18bf d8be 77c7 823d dd09 72be e9d6 2abe
00000020: 9b0a ce3e dbea 34be 37e0 a0bd 5cf5 2ebd
00000030: 172d c3bd ffb5 0dbc 8f60 81bd 30e9 86be
00000040: 9103 a53e ef42 f23d b9e3 733e d7cc b0be
00000050: 7b2a 3e3e c10c b3be 3e72 ad3e feda 28be
00000060: 3da0 8abe 2e1f babe bb98 d6be 9b60 f6bd
00000070: a8d1 a93e 9250 9d3e 582c 343d 421b 39be
00000080: 12d4 d9be d316 833e 1994 c53e fff6 823e
00000090: 8ebd 55be 808c 493e 2e6a 883e bb0a 933d
000000a0: 64e2 88be aa04 bd3d d0fb 313e e8c7 b4be
000000b0: 5bbf 253e 47e4 c6be 05a6 873e 37fa 943e
000000c0: 740f a638 725d d23e 2258 383e d558 733e
000000d0: 05f5 94be 92db 773d 6fdf 47be 51f8 8b3d
000000e0: a7c8 5dbe 4add 343d 3e31 e93d 6e9b 65be
000000f0: dc09 0b3d 6b29 8fbe 7dbd 9a3d 2cb0 6cbd
00000100: 84a3 b5be 0bc4 123e 4c2d d5be 5527 cdbe
00000110: 3f85 813e d640 01be 9fc0 343e dc2a df3d
00000120: 3023 b5be bf0d 51be 610c c53e 89d4 b23e
00000130: 2fa8 dabd bf26 163d 17a8 cebe f0d4 bfbe
00000140: d471 923e d7f4 d33e 3b0b 9ebe 7d46 023e
00000150: 2010 213e 52aa 4c3d f92b 283e 26f3 7ebe
00000160: 85a6 a9be f40f 7ebe 20c7 bd3e 1a9f 653b
00000170: 3d53 8a3e 4fd7 88be 4c40 04be 60a4 99be
00000180: 7dbf c53d d94b 483d 4916 edbb d428 ae3c
00000190: 7491 ebbd 98d1 9c3e c6f6 22be 0891 173e
000001a0: e905 813e 99c1 3fbe 995c 883e 9b5c 963e
000001b0: c1cb 493e f186 f6bd 60f5 41be aeb5 c3be
000001c0: 17ef 54be 03c2 aa3d 2f35 48be 2031 343e
000001d0: 4c2d 4bbe a50c 53be 3d57 cfbe bf53 8abe
000001e0: f06d cebe 6434 903e 3b4c 563e 858c 49be
000001f0: 0f35 a2be 9517 9d3e b516 3bbe 2e99 b23e
00000200: 38d9 c0be acfe 94bd 18ed 6d3e 45de a83e
00000210: 2315 c7be 4eb9 5a3e a1e6 98ba d117 3e3e
00000220: 5c1a 6f3e a063 cbbe cb46 db3e 6357 723d
00000230: 2cd6 f83d e026 5bbe dcce ca3e 3cd3 773d
00000240: a157 ac3e 009b 3b3e 9bf2 b2be 795f dc3e
00000250: c061 553e 9162 7e3e 7eb5 4ebe 9c4b 003e
00000260: 7a8c 2a3e 8a92 a7be 5c40 7d3d c5f8 63be
00000270: 700f 8b3e d231 e8bd b010 1c3e 40f3 a9be
00000280: 3edd bebe e6dd cabe 61f7 51bd 8595 0b3e
00000290: 67d7 d03d 2bc3 e83b e538 d9be 405e a5be
000002a0: cebb 8b3e 516e 68be 2277 e13d 52a6 d3bc
000002b0: 19d9 bdbd da5f 1fbe 7ee5 3f3e dca7 b8be
000002c0: 89d5 9fbe 5c30 7b3e c1f3 94be c244 4bbd
000002d0: d9c0 a7be 8551 f73d b4f2 b3bc 2449 403e
000002e0: eadf b8be 114f 67be 2b5f c2bd a5e7 20be
000002f0: f51f 1dbd 80f5 32bd 2419 7ebe 63ac 8d3c
00000300: c0d3 c5be b195 abbc 9c57 cbbe 20d5 573e
00000310: b185 c63e 3091 cf3e b1d2 7a3e b318 c0be
00000320: 6cbe c63e 2b85 b5be 95f9 99be cb01 c4bd
00000330: c0b3 353e 9b9d cf3e ebbe 8e3e cf72 9b3e
00000340: 1843 72be d6a4 99be cd9d 2fbe 9ffb 11be
00000350: 9586 9d3e 7645 bcbe 28a7 06be 9aea 093d
00000360: 8da0 cb3e e093 f4bd 1838 c73e 83de 64be
00000370: a412 af3e fc19 c7be bc89 5d3d 2263 c13e
00000380: b5a7 513c 3390 c73e ac15 373d 5ecd 7bbe
00000390: 91e4 47be 4e51 21be 472b c2be e9c5 6cbe
000003a0: 8673 05be 0295 ddbe eb81 693d d139 d6bd
000003b0: 239b 203e 91e0 d43e 2a4e 0a3e 397c e4bb
000003c0: 6760 eabb c10f 62be b63c 2fbd 40d2 20bd
000003d0: 8b60 fd3c 21be af3d 1f78 9dbe 932c 71bd
000003e0: 870b adbe 4c72 95bd d8ad a1be af56 c0be
000003f0: 060b 1d3e 62e9 52be 0858 7d3e 4754 cebe

bias f4 [16]
-0.0071984734 -0.004451148 -0.0056084427 0.0 -0.0055684987 0.0011260675 0.005753317 0.0
0.007261771 0.0030128213 0.00034381938 0.0 0.007310022 0.0059747957 0.008983412 0.0
00000000: 2ce1 ebbb f0da 91bb 07c7 b7bb 0000 0000
00000010: f477 b6bb 8e98 933a 5286 bc3b 0000 0000
00000020: 26f4 ed3b c172 453b a842 b439 0000 0000
00000030: e988 ef3b 38c8 c33b 292f 133c 0000 0000

weight f4 [16, 16]
0.06592799 -0.20328131 0.408735 -0.09508957 0.40983304 -0.14384714 0.14308 0.047241267
-0.30292308 0.09489999 -0.26478216 0.28957298 0.13706034 0.013239693 0.10631962 0.22759202
0.42420602 0.39242393 0.19239393 0.15394685 -0.032300543 0.029450083 -0.31576997 -0.163811
0.3077119 -0.2833926 0.15321474 -0.1935986 0.1662605 0.043709006 -5.7375695e-05 0.21044518
0.21067742 -0.32653934 -0.253209 0.15698953 0.29814383 0.24809699 -0.24201933 -0.033766866
-0.42319185 0.0926161 -0.3656281 -0.40468603 -0.13134879 -0.16120172 -0.19121003 0.39808878
-0.055455733 0.307879 0.35497043 -0.033244893 0.31773084 0.082762435 -0.35023278 -0.21102728
-0.20486368 -0.23464343 -0.2671192 0.07638357 0.21715236 -0.31637305 -0.391455 0.222127
-0.2574794 0.12920398 0.3710701 0.40881664 -0.2809559 -0.1356957 0.17431848 -0.110218465
-0.38507894 0.3539078 -0.24104284 0.3267783 0.08587119 -0.29146594 0.08809245 0.23180687
0.13937347 -0.3388624 0.14402704 -0.41242874 -0.15491037 0.30102327 -0.19992195 0.07983684
0.38500628 0.053817235 -0.15123174 -0.3256518 -0.081489116 0.007992862 -0.24259213 -0.14168565
0.24999136 0.3767962 -0.21628657 -0.31325972 0.264823 -0.23195525 0.11551895 -0.422938
0.31929517 -0.37508512 0.41962808 -0.19896962 0.31759807 -0.09432706 0.30867383 -0.081496805
0.19591542 -0.31474084 0.02984741 0.31203923 0.40435508 0.14664628 -0.078501 -0.36970016
-0.030149871 -0.38844994 0.3814245 0.333325 -0.2913719 -0.40292865 0.23567884 0.13653168
-0.3554602 -0.023199936 -0.17179093 0.19230543 -0.3026034 0.27488443 0.20689017 0.23705304
-0.3265306 0.17334192 -0.41304085 -0.10233566 -0.07089468 0.02864603 -0.17609195 -0.25262028
-0.3055855 0.35701755 -0.33492225 0.32236165 0.35581157 -0.17458759 -0.0093198605 0.058328178
-0.32029295 -0.290889 -0.07185659 -0.10811571 0.20809628 -0.31756264 0.21803983 0.03133452
0.12320316 0.27394557 0.15322012 -0.40841493 0.17268251 -0.27763098 0.10335367 -0.2363411
-0.3023506 0.21135278 -0.11521675 0.31656033 0.09639678 -0.06527076 0.414961 0.099152975
-0.2201917 -0.04196156 -0.028351707 -0.32641304 0.07693032 -0.42846024 -0.07839507 0.3501164
0.074533746 0.20976974 -0.30191547 -0.15959279 -0.387762 0.04087322 -0.37376973 0.05567733
0.15713261 0.053850338 -0.39906746 -0.38927466 -0.31240773 0.37469313 0.398603 0.20312883
0.3495753 -0.22663881 0.2786496 0.11694553 0.05750191 0.14803633 0.3909438 -0.30283517
0.2586809 -0.29667258 0.4154577 0.06199293 -0.21005492 0.4127529 0.25981265 0.16980739
0.08955968 0.03784975 -0.25260407 -0.24816146 0.3162552 -0.24034077 -0.19603042 0.12013244
0.3139741 -0.31940797 0.20170595 -0.10652682 0.0674183 0.20957452 0.20765422 -0.12549268
0.39785206 -0.32755274 -0.022505946 -0.34010136 0.28104472 -0.34953433 -0.4252152 -0.43168247
0.39596647 0.21548662 0.19854088 -0.34096938 -0.43276203 -0.41730675 0.00021411617 -0.3564997
-0.04540192 0.2786073 0.3142178 -0.41016603 -0.18204753 0.17867732 -0.14976513 -0.006996922
00000000: 4105 873d fa28 50be b745 d13e 52be c2bd
00000010: a3d5 d13e aa4c 13be 9083 123e 0f80 413d
00000020: bc18 9bbe ed5a c23d 8791 87be e942 943e
00000030: 8c59 0c3e 4ceb 583c 1abe d93d e20d 693e
00000040: 8831 d93e caeb c83e ea02 453e 3ea4 1d3e
00000050: 934d 04bd 4d41 f13c 9aac a1be 12be 27be
00000060: 6a8c 9d3e d618 91be 53e4 1c3e b63e 46be
00000070: 3140 2a3e 3708 333d afa6 70b8 f17e 573e
00000080: d2bb 573e 2a30 a7be 9ca4 81be ddc1 203e
00000090: 4fa6 983e 230d 7e3e ead3 77be 204f 0abd
000000a0: 9aac d8be 83ad bd3d 9b33 bbbe 0233 cfbe
000000b0: 4c80 06be 1012 25be 90cc 43be 4bd2 cb3e
000000c0: 8d25 63bd 51a2 9d3e afbe b53e cc2b 08bd
000000d0: 9ead a23e 5a7f a93d b651 b3be 8917 58be
000000e0: c9c7 51be 5e46 70be d9c3 88be fd6e 9c3d
000000f0: 305d 5e3e a6fb a1be ca6c c8be 4375 633e
00000100: 57d4 83be 0c4e 043e e6fc bd3e 6a50 d13e
00000110: 74d9 8fbe d0f3 0abe 8b80 323e 38ba e1bd
00000120: 1129 c5be 6733 b53e efd3 76be 7c4f a73e
00000130: 3cdd af3d 063b 95be d069 b43d c85e 6d3e
00000140: ebb7 0e3e 5f7f adbe d37b 133e dc29 d3be
00000150: d3a0 1ebe b91f 9a3e 57b8 4cbe 7f81 a33d
00000160: 8b1f c53e 766f 5c3d 7edc 1abe d5bb a6be
00000170: c4e3 a6bd 7ef4 023c 126a 78be 0b16 11be
00000180: bcfd 7f3e 6eeb c03e 3a7a 5dbe 9463 a0be
00000190: e196 873e ad85 6dbe 3395 ec3d 548b d8be
000001a0: a87a a33e 280b c0be 7ed9 d63e b1be 4bbe
000001b0: 379c a23e 8c2e c1bd 7f0a 9e3e cce7 a6bd
000001c0: 0d9e 483e b625 a1be 8e82 f43c 9bc3 9f3e
000001d0: a107 cf3e 712a 163e 22c5 a0bd 5749 bdbe
000001e0: ddfc f6bc e9e2 c6be 124a c33e 93a9 aa3e
000001f0: b32e 95be aa4c cebe cb55 713e f6ce 0b3e
00000200: e1fe b5be cb0d bebc f6e9 2fbe b7eb 443e
00000210: d5ee 9abe a7bd 8c3e 04db 533e 08be 723e
00000220: 052f a7be 8b80 313e 177a d3be 5c95 d1bd
00000230: 3b31 91bd 14ab ea3c 7351 34be 7257 81be
00000240: b475 9cbe 01cb b63e ee7a abbe 960c a53e
00000250: ef2c b63e 17c7 32be 54b2 18bc 87e9 6e3d
00000260: 70fd a3be 67ef 94be 8c29 93bd c56b ddbd
00000270: 3117 553e 9297 a2be d545 5f3e a058 003d
00000280: f051 fc3d 9842 8c3e bce5 1c3e c31b d1be
00000290: afd3 303e a625 8ebe 17ab d33d 6703 72be
000002a0: b3cd 9abe dd6c 583e c2f6 ebbd 3214 a23e
000002b0: ad6b c53d adac 85bd c575 d43e b710 cb3d
000002c0: ef79 61be e2df 2bbd d741 e8bc 9c1f a7be
000002d0: a58d 9d3d 245f dbbe 988d a0bd 7542 b33e
000002e0: 26a5 983d e1cd 563e aa94 9abe 4b6c 23be
000002f0: be88 c6be ad6a 273d bf5e bfbe e90d 643d
00000300: 5fe7 203e 2c92 5c3d 9252 ccbe 024f c7be
00000310: e8f3 9fbe c7d7 bf3e b115 cc3e 0101 503e
00000320: 89fb b23e 0114 68be 29ab 8e3e 2381 ef3d
00000330: 1f87 6b3d d696 173e c929 c83e 360d 9bbe
00000340: d371 843e 78e5 97be dfb6 d43e 4cec 7d3d
00000350: a318 57be 5954 d33e 2a06 853e fde1 2d3e
00000360: 116b b73d 5708 1b3d 5255 81be 0a1e 7ebe
00000370: 34ec a13e e41b 76be 33bc 48be ff07 f63d
00000380: 37c1 a03e 7189 a3be 018c 4e3e bc2a dabd
00000390: 9b12 8a3d b49a 563e 4fa3 543e 2781 00be
000003a0: 44b3 cb3e feb4 a7be 645e b8bc c421 aebe
000003b0: 18e5 8f3e 2af6 b2be cfb5 d9be 7c05 ddbe
000003c0: 1ebc ca3e 86a8 5c3e 4d4e 4b3e 8a93 aebe
000003d0: fc92 ddbe 3ba9 d5be 5f84 6039 2187 b6be
000003e0: 5df7 39bd 9ea5 8e3e 28e1 a03e 4801 d2be
000003f0: ab6a 3abe 30f7 363e 085c 19be 7046 e5bb

bias f4 [16]
-0.0038321377 -0.0033346703 -0.005395369 -0.006008178 0.000289716 0.0 0.0041345586 -0.006074456
-0.0010112801 0.0045312927 -0.0056490353 0.0 -0.005559156 0.0059230365 0.003158106 0.0
00000000: 9a24 7bbb 7c8a 5abb a3cb b0bb 40e0 c4bb
00000010: 06e5 9739 0000 0000 317b 873b 3b0c c7bb
00000020: ee8c 84ba 3d7b 943b 8b1b b9bb 0000 0000
00000030: 9529 b6bb 0816 c23b 3af8 4e3b 0000 0000

weight f4 [16, 16]
0.3473248 0.28624368 0.3020958 0.26002103 0.11536746 -0.01043455 -0.092015274 0.24402311
0.38390335 0.27326348 -0.1254267 0.43125567 0.20424545 -0.050927974 0.29862714 -0.21235757
0.32980928 -0.2326662 -0.4210867 0.398283 0.2803632 0.32792562 -0.28144276 0.20280573
0.3741156 0.4046974 0.38554007 -0.08862102 -0.0029782879 0.053081833 -0.17642982 -0.2129264
-0.15103444 -0.15747629 -0.29890376 0.2147112 -0.21618064 -0.16605309 -0.39568374 0.3656274
-0.3370989 0.119825214 0.28794044 0.255827 0.13216278 0.21290457 0.23376872 -0.030791692
0.34952685 0.36243933 0.016311493 -0.09916831 0.2554963 -0.075729094 -0.37540838 -0.39366874
0.08254457 6.736297e-05 0.41850948 0.10449277 0.14548966 -0.2938549 -0.37066492 0.19190271
-0.41423675 0.35258764 -0.024241326 0.18727608 0.14357166 -0.04796068 -0.25014105 0.35857275
0.20469579 -0.024038257 -0.25218564 0.40133986 0.23077847 -0.30893233 -0.14518413 0.40399593
0.3438787 -0.18129039 -0.2593349 0.16083062 -0.13048992 0.37212038 0.010107429 0.08220819
-0.3403711 -0.37005082 0.03246837 -0.039844863 -0.31238922 0.0017376819 0.43694353 -0.29585925
-0.39843488 0.28079817 -0.25095674 -0.20363894 -0.09549452 -0.34072414 0.23777862 0.3880361
-0.38886133 0.027588114 0.11554031 0.08388393 -0.07969422 0.17145792 0.2869005 -0.16847613
-0.20154287 0.11173584 -0.40914226 -0.23128685 0.28912225 -0.31775114 -0.28426373 -0.022999473
0.28535047 0.09508513 0.3123148 -0.25562096 -0.021222685 -0.093141586 0.17554612 0.4198429
-0.08613832 -0.016977176 0.2992244 0.36249653 0.005651375 0.34344828 0.29870692 0.06416511
-0.1264766 -0.20672432 -0.24800448 -0.31727403 -0.2717619 -0.2621613 0.38889852 -0.33615315
-0.07596845 -0.06491906 0.23729853 0.3897883 0.3326679 -0.18136285 0.24942215 -0.26490462
-0.3421052 -0.11993575 0.4025978 -0.36028787 -0.39649898 -0.082230866 -0.28869414 0.19631708
0.049557157 0.09509329 0.22216344 -0.18389064 -0.15292184 0.13085075 -0.2378777 -0.42924407
-0.26927617 -0.16776307 0.09197157 -0.17610513 0.052680425 0.32800207 -0.3464317 0.3359349
0.14854676 -0.24851042 -0.23294462 -0.4321349 -0.15637496 -0.1804127 -0.12540013 -0.31920132
-0.35584936 -0.39972305 -0.27879277 -0.052995097 -0.21426938 -0.19778073 -0.36756504 -0.1129724
0.29316393 0.053367812 -0.019492654 0.19546823 -0.1094369 -0.12853862 -0.034291472 0.34625027
-0.4036888 -0.13224056 0.4249934 0.118045636 -0.09509538 -0.38919264 -0.26457655 0.21218242
0.01269805 0.3600336 -0.051195912 -0.05524729 0.42659867 0.16253674 -0.21693866 0.08123567
-0.31083354 -0.19563146 -0.12979063 0.36831522 0.05456339 -0.21187223 -0.010917086 0.32258955
-0.10746149 -0.30014783 -0.2500115 -0.37144837 -0.3024261 -0.42450458 -0.006481918 -0.3275165
-0.33933774 -0.14753492 -0.30564368 -0.24168709 0.20146814 -0.37256014 -0.091014445 0.28098777
0.24332964 -0.23759441 0.23865248 0.28307953 0.09841142 0.2121963 -0.11116023 -0.07990476
0.1486907 -0.06781856 0.14988759 0.2826168 0.12937652 0.071502715 -0.2108237 -0.13518025
00000000: 8ed4 b13e 888e 923e 4dac 9a3e 7a21 853e
00000010: c645 ec3d adf5 2abc 8172 bcbd 32e1 793e
00000020: fb8e c43e 31e9 8b3e db6f 00be 8bcd dc3e
00000030: b825 513e da99 50bd a8e5 983e 4374 59be
00000040: c3dc a83e 0c40 6ebe ad98 d7be c0eb cb3e
00000050: c48b 8f3e dee5 a73e 4419 90be 4eac 4f3e
00000060: 148c bf3e 7f34 cf3e 8265 c53e f07e b5bd
00000070: 612f 43bb 566c 593d 05aa 34be 6109 5abe
00000080: c6a8 1abe 7741 21be ea09 99be 41dd 5b3e
00000090: 755e 5dbe d209 2abe 0f97 cabe 8433 bb3e
000000a0: 3a98 acbe ec66 f53d ee6c 933e c2fb 823e
000000b0: ae55 073e a803 5a3e 1161 6f3e dc3e fcbc
000000c0: 2ff5 b23e a691 b93e ae9f 853c c118 cbbd
000000d0: 69d0 823e db17 9bbd 8735 c0be f38e c9be
000000e0: 210d a93d 3845 8d38 e046 d63e 4e00 d63d
000000f0: 3efb 143e 2674 96be cbc7 bdbe 2582 443e
00000100: d716 d4be 5e86 b43e bf95 c6bc 4dc5 3f3e
00000110: 7304 133e 6b72 44bd 7d12 80be d996 b73e
00000120: c69b 513e e1eb c4bc 7a1e 81be 6b7c cd3e
00000130: 3151 6c3e 612c 9ebe 26ab 14be 8ed8 ce3e
00000140: de10 b03e 30a4 39be 8bc7 84be c8b0 243e
00000150: 269f 05be 9086 be3e a199 253c c45c a83d
00000160: 1f45 aebe 4d77 bdbe 8efd 043d 5e34 23bd
00000170: 7bf1 9fbe eec2 e33a 10b7 df3e dd7a 97be
00000180: a8ff cbbe c7c4 8f3e 677d 80be ba86 50be
00000190: a292 c3bd 6573 aebe 3d7c 733e abac c63e
000001a0: d518 c7be 7800 e23c 66a0 ec3d 57cb ab3d
000001b0: b936 a3bd aa92 2f3e 9fe4 923e 0285 2cbe
000001c0: 4161 4ebe c3d5 e43d 187b d1be 76d6 6cbe
000001d0: d507 943e 47b0 a2be 048b 91be 6469 bcbc
000001e0: 7519 923e febb c23d bae7 9f3e c0e0 82be
000001f0: 32db adbc 04c1 bebd 5dc2 333e a6f5 d63e
00000200: 4a69 b0bd b813 8bbc f133 993e 2599 b93e
00000210: 2b2f b93b 74d8 af3e 1df0 983e ff68 833d
00000220: 1583 01be 8aaf 53be e3f4 7dbe be71 a2be
00000230: 6024 8bbe 023a 86be b51d c73e 441c acbe
00000240: 5995 9bbd 49f4 84bd 63fe 723e 5592 c73e
00000250: 7253 aa3e 2fb7 39be 8568 7f3e 94a1 87be
00000260: 6a28 afbe e0a0 f5bd 4d21 ce3e a777 b8be
00000270: ea01 cbbe a868 a8bd b8cf 93be 5807 493e
00000280: 72fc 4a3d 45c0 c23d d07e 633e d44d 3cbe
00000290: 8b97 1cbe bdfd 053e 3696 73be e1c5 dbbe
000002a0: 91de 89be 15ca 2bbe 975b bc3d e754 34be
000002b0: 6ec7 573d e3ef a73e 7f5f b1be a9ff ab3e
000002c0: a41c 183e 8479 7ebe 0989 6ebe c940 ddbe
000002d0: c220 20be 1bbe 38be e468 00be 5b6e a3be
000002e0: e331 b6be 80a8 ccbe edbd 8ebe 6311 59bd
000002f0: 6f69 5bbe 0887 4abe 7c31 bcbe 135e e7bd
00000300: 9519 963e 3598 5a3d 0faf 9fbc d328 483e
00000310: 7420 e0bd a19f 03be 3775 0cbd b747 b13e
00000320: 4cb0 cebe 126a 07be bc98 d93e e9c1 f13d
00000330: 5ec1 c2bd 4244 c7be 9476 87be 5946 593e
00000340: 7b0b 503c 5356 b83e ceb2 51bd fb4a 62bd
00000350: 246b da3e 0870 263e 2b25 5ebe e35e a63d
00000360: 9325 9fbe 9d53 48be d6e7 04be d093 bc3e
00000370: dc7d 5f3d 09f5 58be 94dd 32bc 752a a53e
00000380: c514 dcbd faac 99be 8201 80be 7b2e bebe
00000390: 98d7 9abe aa58 d9be 4566 d4bb 3eb0 a7be
000003a0: adbd adbe 6513 17be 547d 9cbe d27c 77be
000003b0: aa4d 4e3e 34c0 bebe c865 babd a1dd 8f3e
000003c0: 682b 793e f34b 73be 5161 743e cdef 903e
000003d0: ed8b c93d fd49 593e faa7 e3bd 1ba5 a3bd
000003e0: 6042 183e 75e4 8abd 227c 193e 26b3 903e
000003f0: 477b 043e 0470 923d 2be2 57be b16c 0abe

bias f4 [16]
-0.004849159 0.0048676054 -0.006537332 0.0 0.0 0.006494622 0.007926357 -0.0009211556
-0.0071604485 -0.004565274 0.0 0.0 -0.005625427 0.0 0.0 -0.0056979465
00000000: b2e5 9ebb 6f80 9f3b 1e37 d6bb 0000 0000
00000010: 0000 0000 d7d0 d43b 8ddd 013c b579 71ba
00000020: 32a2 eabb 4b98 95bb 0000 0000 0000 0000
00000030: 8055 b8bb 0000 0000 0000 0000 d7b5 babb

weight f4 [16, 16]
0.041532688 -0.059250988 0.26114818 0.2287883 0.41143838 0.14447737 -0.28545088 0.37859952
0.02793786 -0.39739913 0.29949474 -0.27579093 0.28432155 0.06483126 -0.2872401 0.2777719
-0.079245046 -0.3349444 0.25624785 -0.26226133 0.12365705 0.22426698 0.16389851 0.11913727
0.19433832 -0.35010657 -0.21104144 0.22045197 0.31815267 0.08070487 0.052762706 -0.35187334
-0.08164018 -0.21535969 0.42630306 0.42880946 0.07919289 0.34923905 0.034653824 -0.123745956
-0.3153276 0.36536586 0.12374072 -0.07047586 -0.2786547 0.31137273 0.1905127 -0.24376115
0.4010983 -0.32500976 -0.06405034 0.028223589 0.36561143 0.07432283 0.30439454 -0.28340182
0.21679989 0.3502567 -0.25247326 -0.11361155 0.13540116 0.08655719 0.08113398 -0.07021669
-0.10768108 0.2833947 -0.09698093 0.13044012 -0.25341716 -0.3137314 -0.34972596 0.3908281
-0.18820034 -0.2462301 0.07407052 0.37052542 0.061215267 0.16053309 0.12067144 0.3533491
0.16248316 -0.3488306 -0.00096674747 0.36817065 -0.40036097 -0.1358555 -0.4132408 -0.3844332
0.16080402 0.37205994 0.39433175 -0.15600799 0.32841814 -0.3210912 -0.37656474 0.3282696
0.19851749 0.06265555 -0.34009933 -0.01750694 0.35709193 -0.17805496 0.2946569 -0.20571116
-0.37249395 0.39445403 -0.39890978 -0.20028958 -0.052981958 0.33816102 0.0007188481 -0.08875469
0.25193456 -0.09047812 0.3014621 0.39075935 0.17997952 0.041616946 0.32704106 -0.41346452
-0.4329341 0.10828559 -0.28518328 -0.3721648 -0.12160889 -0.2780252 0.07606322 -0.24873152
0.0056123124 0.23292884 -0.22266698 0.35756126 -0.16713218 0.34375876 -0.24373248 -0.29201165
0.1947575 0.41568637 -0.22951174 -0.39146337 -0.2170667 0.25091872 -0.3456138 -0.12197512
-0.38320526 -0.034516223 0.29550928 0.009400464 -0.016068418 -0.07082115 0.39291057 0.08008496
0.022367971 0.072918884 0.041717503 0.32388654 0.32913953 0.11590504 0.22791748 -0.3577851
-0.3556309 0.0053163064 0.13599871 0.0840183 0.21866165 0.3925177 -0.40709412 -0.43097466
0.022281917 -0.27691662 0.1552719 0.10279548 0.023809481 0.04872191 0.030785806 -0.4009454
0.20115682 0.14431728 0.40545887 0.08336124 0.03391728 0.016733613 -0.07613933 0.14625977
0.057275888 0.41093662 -0.21440907 -0.2462415 0.36436635 0.22706494 0.055207595 0.3619182
-0.017100623 0.13601193 0.08596806 0.011083867 0.2672777 -0.243912 -0.1494377 0.32473165
0.24500617 0.15794225 0.19744278 0.27760842 -0.015424082 0.42923293 0.109914124 -0.09851483
0.21128872 0.15990286 -0.3187526 0.017737161 0.10047484 0.31996322 -0.34164995 -0.31544763
-0.3203569 0.25050244 -0.01863523 -0.404537 -0.27540985 0.36870655 0.21457098 0.3309598
-0.42887866 -0.1730495 0.116029546 0.19878632 0.36550587 -0.40467513 0.23475175 0.072322026
0.43086636 -0.3717943 0.023345787 -0.41550416 -0.12024993 0.22795232 0.28790903 -0.39822975
0.030766644 0.35188764 -0.092437975 -0.07361663 0.056236982 -0.035460558 -0.030218573 0.38860056
-0.16022713 -0.4002093 0.35680747 -0.16145289 -0.19822098 -0.14985484 0.26578796 0.017326005
00000000: 2e1e 2a3d 2ab1 72bd 37b5 853e 7b47 6a3e
00000010: 0da8 d23e e0f1 133e 9e26 92be ccd7 c13e
00000020: f0dd e43c e677 cbbe 6057 993e 7834 8dbe
00000030: 9892 913e 40c6 843d 2211 93be 1e38 8e3e
00000040: 3a4b a2bd d57d abbe eb32 833e 1e47 86be
00000050: e83f fd3d 3ea6 653e 03d5 273e 3efe f33d
00000060: a000 473e 2b41 b3be 3f1b 58be 29be 613e
00000070: e8e4 a23e 9848 a53d b51d 583d be28 b4be
00000080: f732 a7bd 4087 5cbe 6544 da3e ea8c db3e
00000090: e22f a23d 76cf b23e 2bf1 0d3d 856e fdbd
000000a0: 9f72 a1be 3c11 bb3e c66b fd3d a655 90bd
000000b0: d4ab 8ebe 3f6c 9f3e c315 433e 869c 79be
000000c0: c25c cd3e ae67 a6be d32c 83bd 2835 e73c
000000d0: 6c31 bb3e 9136 983d 9ad9 9b3e 0b1a 91be
000000e0: ca00 5e3e d954 b33e 2d44 81be 2cad e8bd
000000f0: 9aa6 0a3e e544 b13d 9229 a63d c5cd 8fbd
00000100: e687 dcbd 1c19 913e f09d c6bd 1892 053e
00000110: e5bf 81be 67a1 a0be 480f b3be 9f1a c83e
00000120: 97b7 40be be23 7cbe 49b2 973d 82b5 bd3e
00000130: dcbc 7a3d c962 243e 9722 f73d 2cea b43e
00000140: fc61 263e ed99 b2be 536d 7dba dd80 bc3e
00000150: 1dfc ccbe b41d 0bbe 4c94 d3be 6ed4 c4be
00000160: cfa9 243e a47e be3e dae5 c93e 8fc0 1fbe
00000170: 6c26 a83e 1166 a4be 18cd c0be f412 a83e
00000180: 2b48 4b3e 8e51 803d 8021 aebe b76a 8fbc
00000190: c1d4 b63e 0a54 36be 45dd 963e f2a5 52be
000001a0: 87b7 bebe e1f5 c93e e73d ccbe b618 4dbe
000001b0: 9c03 59bd 7123 ad3e 1471 3c3a 05c5 b5bd
000001c0: 91fd 803e 984c b9bd 3e59 9a3e 9c11 c83e
000001d0: 8d4c 383e 8876 2a3d ed71 a73e 9fb1 d3be
000001e0: 8aa9 ddbe d6c4 dd3d 8b03 92be 628c bebe
000001f0: 150e f9bd 5259 8ebe 09c7 9b3d 7ab3 7ebe
00000200: 7de7 b73b e684 6e3e d002 64be 4512 b73e
00000210: b324 2bbe 2601 b03e 0295 79be 8d82 95be
00000220: 836e 473e d8d4 d43e 2005 6bbe e36d c8be
00000230: bc46 5ebe 6b78 803e 4bf4 b0be 17ce f9bd
00000240: 7b33 c4be e260 0dbd fe4c 973e 6704 1a3c
00000250: eaa1 83bc ae0a 91bd 932b c93e 9503 a43d
00000260: 093d b73c 7f56 953d f9df 2a3d 75d4 a53e
00000270: fa84 a83e 9f5f ed3d 3363 693e 9c2f b7be
00000280: 4115 b6be 6934 ae3b 3f43 0b3e c911 ac3d
00000290: d7e8 5f3e 14f8 c83e a46e d0be b6a8 dcbe
000002a0: 9188 b63c 04c8 8dbe 99ff 1e3e 7086 d23d
000002b0: 1a0c c33c a090 473d 8432 fc3c b748 cdbe
000002c0: 0efc 4d3e e9c7 133e 4e98 cf3e 4cb9 aa3d
000002d0: d9ec 0a3d ee14 893c f0ee 9bbd 1fc5 153e
000002e0: 1f9a 6a3d 4966 d23e 0d8e 5bbe bb26 7cbe
000002f0: 3a8e ba3e b683 683e 5c21 623d 584d b93e
00000300: 9b16 8cbc b646 0b3e 0610 b03d 1c99 353c
00000310: 9fd8 883e 11c4 79be 3206 19be 3a43 a63e
00000320: e6e2 7a3e 9dbb 213e 712e 4a3e b122 8e3e
00000330: 4ab5 7cbc 6bc4 db3e a81a e13d 25c2 c9bd
00000340: 125c 583e 93bd 233e 8a33 a3be 864d 913c
00000350: c1c5 cd3d 38d2 a33e beec aebe 5a82 a1be
00000360: d205 a4be db41 803e e9a8 98bc 791f cfbe
00000370: 8502 8dbe 1bc7 bc3e 7fb8 5b3e 9073 a93e
00000380: fc95 dbbe e333 31be e6a0 ed3d a48e 4b3e
00000390: 9623 bb3e 9431 cfbe c362 703e 921d 943d
000003a0: 849a dc3e d35b bebe aa3f bf3c f6bc d4be
000003b0: 9845 f6bd 556c 693e d068 933e c5e4 cbbe
000003c0: 540a fc3c 9e2a b43e 1f50 bdbd 51c4 96bd
000003d0: c058 663d 173f 11bd f18c f7bc a7f6 c63e
000003e0: 9512 24be 3ce8 ccbe 78af b63e e853 25be
000003f0: 71fa 4abe 8c73 19be 5c15 883e 44ef 8d3c

bias f4 [16]
-0.0048855687 -0.011954868 0.0037177715 -0.005030821 0.0022404084 -0.00529865 0.008900672 -0.003420567
0.0053434568 -0.008556003 0.0 -0.008059425 -0.0056127287 0.010151003 0.0 -0.00840936
00000000: 1f17 a0bb 5ade 43bc dba5 733b 96d9 a4bb
00000010: d1d3 123b 4ca0 adbb 20d4 113c 972b 60bb
00000020: 2a18 af3b 7a2e 0cbc 0000 0000 ae0b 04bc
00000030: fbea b7bb 6450 263c 0000 0000 6ac7 09bc

weight f4 [16, 16]
0.2394669 -0.28219014 -0.1745651 -0.30189472 0.31912482 -0.39335632 -0.40728536 0.2506827
-0.24977429 0.36595783 -0.34612247 -0.01470236 0.19381677 0.2637719 -0.16855867 -0.11131368
0.16537029 -0.20980692 -0.24530368 0.24423023 0.10742593 -0.38378474 -0.008026274 0.17433073
-0.4068802 -0.19207363 -0.38699326 -0.41789225 -0.18142489 0.39360738 -0.0008198667 -0.011361121
0.07661656 0.077031165 -0.0160242 0.17306982 -0.13416454 0.42525813 0.0244584 -0.16497003
-0.04026329 0.25220782 -0.29082212 0.39052364 -0.05381858 -0.042301696 -0.18002808 0.24418132
0.14483921 0.15712601 -0.15396105 -0.26591176 -0.15866907 0.1218017 -0.3183697 0.11002732
-0.31743854 -0.09727554 0.017055428 -0.2118853 -0.3970095 0.23358919 -0.08822614 0.07486401
0.38956338 -0.06164646 -0.30139294 -0.16309173 0.3751067 0.27825436 -0.33772326 -0.22135727
-0.18571982 0.21774113 0.35894105 0.23616798 0.118349396 0.035535894 -0.21801223 0.25917935
-0.40898418 -0.32429054 0.35808712 -0.10378063 -0.2035613 0.19259629 0.15872581 -0.014667124
-0.048570942 0.35749292 0.26242483 0.3964092 0.13256963 0.16445395 0.24875143 -0.30619052
0.09716234 0.039346434 0.22696549 0.14322235 -0.0005127155 0.37599838 -0.049456295 0.40702793
-0.41951078 0.40639853 -0.29488263 0.09541862 0.35293204 0.24972324 -0.41353178 0.1625248
-0.2891359 0.3784863 0.40752125 0.28641453 0.33141536 -0.27344358 -0.009011843 -0.093262196
0.2495105 -0.0987629 0.32260767 -0.29314843 0.11930307 -0.1960728 0.2487521 0.17307271
-0.16077855 -0.15572233 0.3509208 0.13685468 -0.13693671 -0.32315636 0.244043 0.3059944
0.20407848 -0.33575064 0.361084 0.21581946 0.20481001 0.32411876 -0.24549064 -0.29579565
0.008080408 -0.25561666 -0.14571938 -0.11268065 -0.30143315 -0.08083309 -0.06175832 -0.16507511
0.16347528 0.05897868 0.410141 -0.3077487 -0.058533624 -0.14088576 -0.19922426 -0.40469372
0.123366944 -0.11736937 -0.4173595 -0.2682854 -0.37374428 -0.27076894 -0.06760553 -0.16651094
-0.04459346 0.076988444 -0.32700494 -0.3183677 -0.21400705 0.40516856 -0.2615987 0.22127673
0.414852 -0.108923085 0.023214582 -0.35969117 0.38076758 0.43033016 -0.2194722 -0.07788547
-0.08464878 0.086960845 0.36073455 0.2947624 0.19815278 0.34676903 0.3597843 0.37776792
-0.18754904 0.060359526 0.22348005 0.37901875 -0.2409596 0.28774583 -0.12698278 0.15730742
-0.34102136 -0.38696906 0.3258016 0.31849605 0.4220951 0.23084123 -0.2869035 -0.04273307
0.33456963 -0.32445523 -0.16813672 -0.0055725225 0.33675027 0.252164 -0.031058332 0.33438468
0.18179278 -0.13541304 -0.41777277 0.41757423 0.3902978 -0.26565892 -0.32833555 0.12739407
0.3008474 0.010012822 -0.40742457 -0.004743489 -0.15637067 0.11552027 -0.38186008 -0.01212327
0.41914588 -0.35390362 -0.34049484 -0.4313075 -0.18275502 -0.14100505 0.16471966 0.35949013
-0.3470088 -0.18496199 0.1430561 -0.23464233 0.120293 -0.4021059 -0.37792692 -0.29509026
0.055628356 0.088517115 0.38536483 0.37190008 0.27292848 0.02565937 0.09531262 0.28271148
00000000: d036 753e 3a7b 90be 32c1 32be f291 9abe
00000010: 5464 a33e 0066 c9be b587 d0be 7c59 803e
00000020: d5c4 7fbe d35e bb3e f736 b1be 2be2 70bc
00000030: e777 463e 1c0d 873e a59a 2cbe 6df8 e3bd
00000040: d456 293e a0d7 56be e330 7bbe 7d17 7a3e
00000050: 2002 dc3d 6f7f c4be a280 03bc c183 323e
00000060: 9a52 d0be f3ae 44be fb23 c6be f9f5 d5be
00000070: 72c7 39be e886 c93e 53ec 56ba ff23 3abc
00000080: 25e9 9c3d 84c2 9d3d 2f45 83bc 3739 313e
00000090: 6e62 09be 6fbb d93e fc5c c83c e7ed 28be
000000a0: 1feb 24bd 6221 813e a3e6 94be b7f2 c73e
000000b0: df70 5cbd 8b44 2dbd 4859 38be ab0a 7a3e
000000c0: bb50 143e a4e5 203e f7a7 1dbe 9625 88be
000000d0: 257a 22be 2b73 f93d 5a01 a3be 0156 e13d
000000e0: 4e87 a2be 6638 c7bd d3b7 8b3c 76f8 58be
000000f0: d444 cbbe 0132 6f3e e8af b4bd 4d52 993d
00000100: da74 c73e 0081 7cbd 2d50 9abe 8501 27be
00000110: fc0d c03e 5b77 8e3e 10ea acbe 7bab 62be
00000120: 562d 3ebe 88f7 5e3e 1fc7 b73e 05d6 713e
00000130: 2b61 f23d 168e 113d 993e 5fbe 28b3 843e
00000140: 6066 d1be 6909 a6be 3257 b73e f08a d4bd
00000150: 6072 50be f637 453e 0589 223e 604e 70bc
00000160: 53f2 46bd 5009 b73e 8c5c 863e 26f6 ca3e
00000170: 55c0 073e 9e66 283e b2b8 7e3e 01c5 9cbe
00000180: 0dfd c63d ba29 213d a469 683e e1a8 123e
00000190: c167 06ba dc82 c03e af92 4abd f765 d03e
000001a0: 1eca d6be 7813 d03e dbfa 96be d66a c33d
000001b0: 82b3 b43e 73b7 7f3e 70ba d3be e76c 263e
000001c0: 9f09 94be f5c8 c13e a0a6 d03e eda4 923e
000001d0: 46af a93e cc00 8cbe 69a6 13bc 4000 bfbd
000001e0: ae7f 7f3e 3444 cabd d52c a53e 8d17 96be
000001f0: 2b55 f43d 4fc7 48be dfb8 7e3e f939 313e
00000200: 22a3 24be ad75 1fbe e4ab b33e a223 0c3e
00000210: 2339 0cbe c074 a5be 68e6 793e 4cab 9c3e
00000220: f3f9 503e 82e7 abbe 01e0 b83e c7ff 5c3e
00000230: b7b9 513e e5f2 a53e e661 7bbe 8772 97be
00000240: b063 043c 30e0 82be 7637 15be 1dc5 e6bd
00000250: 7255 9abe d28b a5bd 4bf6 7cbd 7309 29be
00000260: 1066 273e a193 713d 00fe d13e 3d91 9dbe
00000270: f4c0 6fbd 5b44 10be 7201 4cbe 0434 cfbe
00000280: cfa7 fc3d 5a5f f0bd 25b0 d5be b45c 89be
00000290: 695b bfbe 3aa2 8abe c574 8abd d881 2abe
000002a0: a2a7 36bd 1eac 9d3d 316d a7be 1701 a3be
000002b0: aa24 5bbe 4172 cf3e 44f0 85be 5e96 623e
000002c0: 7b67 d43e 1113 dfbd 822c be3c 7129 b8be
000002d0: f8f3 c23e 3c54 dc3e 52bd 60be 6b82 9fbd
000002e0: 575c adbd 8718 b23d 33b2 b83e 19eb 963e
000002f0: 90e8 4a3e b68b b13e a635 b83e cc6a c13e
00000300: db0c 40be 8d3b 773d f4d7 643e bf0e c23e
00000310: 1dbe 76be 6c53 933e c607 02be 3215 213e
00000320: 5a9a aebe cf20 c6be 78cf a63e ea11 a33e
00000330: d91c d83e a561 6c3e 04e5 92be df08 2fbd
00000340: b64c ab3e ff1e a6be 082c 2cbe b599 b6bb
00000350: 886a ac3e a41b 813e 0b6e febc 7834 ab3e
00000360: e327 3a3e b7a9 0abe 50e6 d5be 4acc d53e
00000370: 1dd5 c73e 7204 88be 991b a8be 9773 023e
00000380: ac08 9a3e d20c 243c f499 d0be 456f 9bbb
00000390: a21f 20be e495 ec3d 2a83 c3be aea0 46bc
000003a0: 4a9a d63e db32 b5be 5755 aebe 56d4 dcbe
000003b0: 2224 3bbe a163 10be 45ac 283e 170f b83e
000003c0: 23ab b1be ad66 3dbe 4c7d 123e 1446 70be
000003d0: 2d5c f63d d3e0 cdbe a37f c1be 1216 97be
000003e0: 8fda 633d 7648 b53d 8a4e c53e b069 be3e
000003f0: 48bd 8b3e 9933 d23c 4333 c33d 8fbf 903e

bias f4 [16]
-0.0041648084 0.011536804 -0.0076347804 0.0 0.00066346297 0.0023802565 -0.0054467 -0.011256556
0.00813211 0.0 0.0 0.0070249164 -0.0055621024 -0.007322855 0.0 0.0013690407
00000000: f278 88bb dd04 3d3c 2e2d fabb 0000 0000
00000010: 3fec 2d3a 14fe 1b3b 3b7a b2bb 6b6d 38bc
00000020: 8b3c 053c 0000 0000 0000 0000 4531 e63b
00000030: 4c42 b6bb 8ff4 efbb 0000 0000 6271 b33a

weight f4 [16, 16]
-0.21270788 0.4212404 0.23889796 -0.38739032 -0.38526186 0.17876649 -0.029720012 -0.108969375
0.27399093 0.0143574495 -0.20933598 0.08599627 0.24967128 0.30914125 0.2948975 -0.281564
0.052709695 -0.22486323 -0.32038718 -0.38824573 -0.25842357 0.1877514 0.20896567 -0.03145061
-0.31798545 0.38479882 0.07463946 0.09375955 -0.31542104 -0.06451917 -0.30781326 0.2603662
-0.11535901 0.35266522 -0.3945973 -0.048883837 -0.16644862 0.09878672 0.3180547 0.001502117
0.19065005 0.1856826 0.090700604 0.29407758 0.3681204 -0.31644252 0.19291052 -0.37791872
-0.21281484 -0.17853929 0.20673022 0.033806454 -0.14209905 -0.13808562 0.33466646 0.22851174
-0.29126906 -0.40338996 -0.16059767 -0.41987583 0.42459416 0.2006379 0.21357293 0.011477537
-0.38703945 -0.2685009 -0.21441479 0.40189967 0.40301913 -0.2219029 -0.11865327 0.33412465
0.16284443 0.38201588 0.13900037 -0.31025657 0.122297995 0.0046179984 -0.028788352 -0.16374868
0.07624178 -0.39003485 -0.43211386 -0.14892554 -0.19589344 0.07502413 0.23941188 0.101866804
-0.39580283 0.082026936 0.4077813 0.1089904 -0.2415488 -0.021620158 -0.2115091 -0.093831666
0.17537652 -0.33865017 0.035925746 0.29473588 0.19943255 -0.3400001 0.246619 -0.09130062
-0.106365636 -0.3673106 0.42023262 0.19121127 0.19046585 0.188218 -0.3513542 -0.22141823
-0.3654491 0.24070773 -0.33760774 0.015084144 0.17291978 -0.2233267 0.3837389 0.18760295
0.35740972 -0.3486025 -0.3209422 0.31887245 -0.32438868 -0.024815595 -0.08799726 0.01314302
-0.13196804 0.25307778 0.0045408322 0.117018566 -0.39339593 -0.14730646 -0.22343513 0.037008338
-0.3725457 0.041259125 -0.41542256 -0.16980925 -0.072472595 -0.0029542148 0.09562667 -0.2473257
0.2763127 -0.42091542 -0.11257681 -0.22207259 -0.19506575 -0.3510643 0.37010288 -0.38322732
0.3384401 -0.227443 0.37640482 0.08922952 -0.2222105 -0.4245023 -0.08027803 0.35043582
0.17365478 -0.15559602 -0.25839937 0.028447976 -0.12956491 -0.265538 -0.32643202 -0.28442413
-0.29144573 0.4198638 0.05144048 0.058204085 0.290244 -0.36591196 0.07183675 -0.1193549
0.19329673 0.14677364 -0.28566334 -0.3873663 -0.09093377 -0.32491738 -0.11925742 0.21341814
-0.03595403 -0.039864272 0.1380416 -0.26142326 0.36938116 -0.31458566 0.15468346 0.2630682
-0.0017666855 -0.18405025 0.17963748 -0.117413916 -0.39572066 0.21066517 0.29232785 0.16057186
-0.33594915 -0.2806818 0.14386109 0.2153299 0.07942912 0.31864998 0.09215286 -0.3530056
0.20748174 0.37010762 -0.28812084 -0.40361318 0.02334833 0.3108364 0.20990041 -0.2784087
0.20506448 -0.12365576 -0.07027248 -0.019544069 -0.3364404 -0.17519808 0.016074354 0.27230325
-0.2497921 0.18286791 0.092174694 -0.037994213 -0.10318115 -0.35128856 0.15009056 -0.23214097
0.4193026 0.16295408 0.16009907 0.423456 -0.030932434 -0.1629435 0.01278704 -0.1266221
0.14758053 -0.4200748 0.075161 -0.066654705 -0.105835676 0.25227013 -0.3309516 -0.095117904
0.33502543 0.07070381 -0.28209707 0.26106974 -0.35663384 0.28589424 -0.17623955 0.15495645
00000000: 18d0 59be d2ac d73e aba1 743e 0658 c6be
00000010: 0b41 c5be 900e 373e 6277 f3bc 562b dfbd
00000020: 8a48 8c3e 823b 6b3c 2c5c 56be d01e b03d
00000030: d4a9 7f3e c347 9e3e cefc 963e 2829 90be
00000040: 1fe6 573d 8c42 66be ca09 a4be 25c8 c6be
00000050: 1850 84be e741 403e 19fb 553e 5bd2 00bd
00000060: fdce a2be 5a04 c53e 93dc 983d 0205 c03d
00000070: de7e a1be a022 84bd b399 9dbe b84e 853e
00000080: 5841 ecbd 8990 b43e a808 cabe 6b3a 48bd
00000090: 8271 2abe b150 ca3d 11d8 a23e afe2 c43a
000000a0: c439 433e 9423 3e3e 3dc1 b93d 5691 963e
000000b0: 477a bc3e c104 a2be 568a 453e 907e c1be
000000c0: 22ec 59be 01d3 36be 16b1 533e a378 0a3d
000000d0: 6a82 11be 5166 0dbe 6759 ab3e fbfe 693e
000000e0: 3821 95be 2189 cebe b773 24be f7f9 d6be
000000f0: 6864 d93e 0674 4d3e ddb2 5a3e 480c 3c3c
00000100: 092a c6be f378 89be 8d8f 5bbe cbc5 cd3e
00000110: 8658 ce3e 843a 63be 7c00 f3bd 6312 ab3e
00000120: b1c0 263e 9697 c33e 1d56 0e3e f3d9 9ebe
00000130: 5f77 fa3d 9452 973b 8dd5 ebbc bcad 27be
00000140: a624 9c3d a6b2 c7be 073e ddbe f07f 18be
00000150: 4a98 48be 40a6 993d 6328 753e 8b9f d03d
00000160: aba6 cabe bdfd a73d b6c8 d03e 5c36 df3d
00000170: 9258 77be c21c b1bc d795 58be d12a c0bd
00000180: e795 333e 8e63 adbe e026 133d 9fe7 963e
00000190: 0c38 4c3e 7e14 aebe b189 7c3e d2fb babd
000001a0: 3ad6 d9bd 2310 bcbe bb28 d73e e3cc 433e
000001b0: 7b09 433e 38bc 403e b3e4 b3be 76bb 62be
000001c0: 251c bbbe 167c 763e ecda acbe 7c23 773c
000001d0: e211 313e c1af 64be 6d79 c43e fd1a 403e
000001e0: 68fe b63e 077c b2be 8952 a4be 4043 a33e
000001f0: 4616 a6be 134a cbbc e837 b4bd d255 573c
00000200: a122 07be 6993 813e 43cb 943b 6ea7 ef3d
00000210: 316b c9be 81d7 16be 2ecc 64be 0e96 173d
00000220: 4fbe bebe 54ff 283d 44b2 d4be 7ae2 2dbe
00000230: 836c 94bd 809b 41bb ead7 c33d f342 7dbe
00000240: dc78 8d3e 3a82 d7be ac8e e6bd ff66 63be
00000250: 51bf 47be b3be b3be 207e bd3e 5f36 c4be
00000260: 0548 ad3e d1e6 68be 22b8 c03e f7bd b63d
00000270: 268b 63be 5e58 d9be cf68 a4bd 536c b33e
00000280: 8fd2 313e 9054 1fbe ec4c 84be bb0b e93c
00000290: aaac 04be 99f4 87be 1922 a7be 0aa0 91be
000002a0: 6038 95be 63f8 d63e 41b3 523d 6867 6e3d
000002b0: dd9a 943e d058 bbbe 251f 933d 5870 f4bd
000002c0: 94ef 453e d44b 163e 7742 92be e054 c6be
000002d0: 7c3b babd 925b a6be 3c3d f4bd 498a 5a3e
000002e0: 8844 13bd b848 23bd c75a 0d3e 45d9 85be
000002f0: 871f bd3e 5f11 a1be 5765 1e3e e0b0 863e
00000300: 2190 e7ba ab77 3cbe e3f2 373e b576 f0bd
00000310: e69b cabe 9cb8 573e ffab 953e f36c 243e
00000320: 8701 acbe 86b5 8fbe 5250 133e 717f 5c3e
00000330: bcab a23d 1726 a33e a3ba bc3d 26bd b4be
00000340: 1876 543e bf7e bd3e 9384 93be 63a6 cebe
00000350: ff44 bf3c f325 9f3e 22f0 563e 968b 8ebe
00000360: 6cfc 513e 3b3f fdbd 05eb 8fbd e21a a0bc
00000370: eb41 acbe 2067 33be 5dae 833c 556b 8b3e
00000380: 80c9 7fbe ba41 3b3e 16c6 bc3d d29f 1bbd
00000390: a450 d3bd 18dc b3be 57b1 193e 5db6 6dbe
000003a0: d5ae d63e 6fdd 263e 03f1 233e 3acf d83e
000003b0: 0466 fdbc a9da 26be bc80 513c 39a9 01be
000003c0: 5a1f 173e 0b14 d7be 03ee 993d 4382 88bd
000003d0: 60c0 d8bd 8d29 813e 7d72 a9be 2dcd c2bd
000003e0: 7488 ab3e 29cd 903d 076f 90be efaa 853e
000003f0: b698 b6be bb60 923e 2478 34be e7ac 1e3e

bias f4 [16]
-0.0047316207 0.0 0.011478475 -0.0063360394 -0.0052449317 0.0 -0.0059230323 0.011858959
0.0 -0.0060328287 0.0 -0.0007205668 -0.008075719 0.0055472683 0.008917651 0.005130391
00000000: b60b 9bbb 0000 0000 3710 3c3c 8d9e cfbb
00000010: addd abbb 0000 0000 ff15 c2bb 144c 423c
00000020: 0000 0000 09af c5bb 0000 0000 6be4 3cba
00000030: 0550 04bc dcc5 b53b 571b 123c d71c a83b

weight f4 [16, 16]
0.3160681 0.3848575 0.12678738 0.18374774 -0.10142255 -0.107283145 -0.40114066 0.20431432
0.08960302 0.12979038 -0.2761734 -0.4353934 0.21985789 -0.2140969 -0.15148485 0.11928573
0.1635095 -0.41534925 -0.1177687 0.36824825 0.07123603 -0.25258455 0.339191 -0.41369823
0.044196922 0.09827834 0.043351144 0.3846331 0.076224126 -0.2794854 -0.070147835 -0.18411647
0.3664968 0.056659434 -0.3815045 0.014259009 0.015326595 0.025752373 0.108295865 0.22838658
-0.3446443 0.1261655 -0.21729137 0.29449663 -0.23082004 -0.30307847 -0.24428067 0.25390148
-0.08197031 0.37774196 -0.3608059 0.13994092 -0.15415348 0.06308194 0.2751468 0.22132628
-0.40405476 -0.06267673 0.18075989 -0.42889982 -0.31805336 -0.42898422 0.059226092 0.0936385
-0.18864815 0.17471947 0.056541022 0.17623699 0.37168005 -0.28965676 -0.34441024 0.40254998
-0.22523984 0.30101356 -0.14634882 -0.10177419 -0.20131947 0.12789845 -0.036415197 0.34000885
-0.42404562 -0.010133508 0.063868254 0.1401124 0.33620235 0.14963417 -0.37476045 0.0594287
-0.18357313 0.265944 -0.18863872 -0.052212756 0.111057535 0.2840923 -0.20771763 0.3224953
-0.3049918 -0.1030574 -0.2715051 0.09177908 -0.35083333 -0.004369405 -0.2994599 0.2786945
-0.39244935 -0.18991083 -0.36753315 -0.27288878 0.031178422 0.20577039 0.21646062 -0.3418789
-0.064828604 -0.09059318 0.19464508 -0.031567067 -0.04587199 -0.27067706 -0.2904164 -0.01200814
0.20392495 -0.2079946 0.09224851 0.22094727 -0.14548546 0.39260447 0.4048892 0.27091467
0.19281998 -0.3435845 0.24139282 -0.042904183 0.34170803 -0.3557337 -0.0085152555 0.3992101
0.085429616 0.14736296 -0.0018564306 -0.19396928 0.22146198 0.34260738 0.24578863 -0.28306958
-0.2913227 0.4189136 -0.05429373 0.18044315 0.12295756 -0.2734947 0.37221155 0.076935485
-0.2077137 0.40884084 0.14292988 0.1051935 -0.29706183 0.37954122 -0.21935485 -0.15174854
-0.42022076 0.12002213 -0.24545683 -0.38412824 0.30436113 -0.3950199 -0.08970998 -0.1632163
0.031246612 0.063502274 0.38250223 0.13147058 -0.14009233 -0.25720727 -0.11495607 0.23921934
-0.41754058 0.16477159 -0.028339474 -0.20287617 0.28509358 0.21925583 0.015004651 -0.21377178
-0.26351526 -0.11654971 -0.2681995 -0.07544828 0.14563178 -0.047345586 0.056291595 -0.15799528
-0.12549278 0.2524925 -0.059512254 0.10167816 -0.30509365 -0.25144202 0.32410097 -0.0200996
0.4211911 -0.14618745 0.23039949 0.18077873 -0.37863216 -0.2449552 0.35832155 -0.14468735
-0.40979263 0.32089314 0.40091753 0.2714996 0.26726654 -0.13138835 0.35535413 -0.20362195
0.17348309 -0.4160012 0.38094756 -0.33161414 -0.41210133 0.17104639 0.36355242 -0.35266402
0.41585147 0.07407361 0.21718459 0.08435647 -0.43248892 0.3737737 0.34396458 0.22514895
0.0054098917 0.17108382 0.023431215 0.14364287 -0.055918425 0.41227105 -0.14720434 -0.07242636
0.12268917 0.3837902 -0.24781312 -0.19274995 -0.38057762 0.3273683 0.40030864 0.084854156
-0.35985103 -0.3373109 0.3413271 0.029316727 0.09066646 -0.25588334 -0.3633179 -0.22387987
00000000: aed3 a13e 0b0c c53e 8dd4 013e 5e28 3c3e
00000010: a0b6 cfbd 44b7 dbbd 4f62 cdbe c637 513e
00000020: ca81 b73d c5e7 043e 9a66 8dbe e2eb debe
00000030: 6d22 613e 383c 5bbe d81e 1bbe 144c f43d
00000040: 096f 273e a8a8 d4be b730 f1bd 098b bc3e
00000050: 32e4 913d c352 81be 71aa ad3e 41d0 d3be
00000060: d507 353d 2846 c93d f890 313d a1ee c43e
00000070: 651b 9c3d b618 8fbe aba9 8fbd 0789 3cbe
00000080: 78a5 bb3e b913 683d 8f54 c3be 9e9e 693c
00000090: 661c 7b3c a4f6 d23c 39ca dd3d 2cde 693e
000000a0: 3875 b0be 8731 013e a181 5ebe 43c8 963e
000000b0: 175c 6cbe 1a2d 9bbe b624 7abe 60ff 813e
000000c0: 0de0 a7bd 6567 c13e 8dbb b8be ac4c 0f3e
000000d0: 69da 1dbe 1b31 813d 0be0 8c3e 5ba3 623e
000000e0: 44e0 cebe a85c 80bd 1f19 393e c298 dbbe
000000f0: e4d7 a2be d2a3 dbbe 0f97 723d 8bc5 bf3d
00000100: fb2c 41be a9e9 323e 8f97 673d 7877 343e
00000110: d94c be3e e44d 94be 8a56 b0be 081b ce3e
00000120: 46a5 66be 731e 9a3e 77dc 15be fd6e d0bd
00000130: b126 4ebe d0f7 023e 1a28 15bd a415 ae3e
00000140: 821c d9be 0307 26bc 5ccd 823d a079 0f3e
00000150: b722 ac3e b339 193e 9ae0 bfbe 826b 733d
00000160: 98fa 3bbe d029 883e 822a 41be 0bdd 55bd
00000170: 2272 e33d 8c74 913e eeb3 54be 1b1e a53e
00000180: e327 9cbe c20f d3bd b702 8bbe acf6 bb3d
00000190: 6da0 b3be 3a2d 8fbb cf52 99be 0cb1 8e3e
000001a0: 1fef c8be fc77 42be 4e2d bcbe 14b8 8bbe
000001b0: e469 ff3c 79b5 523e daa7 5d3e c00a afbe
000001c0: dcc4 84bd eb88 b9bd 0a51 473e 784c 01bd
000001d0: 45e4 3bbd 2f96 8abe 75b1 94be cabd 44bc
000001e0: b4d1 503e 89fc 54be c9ec bc3d 0040 623e
000001f0: 24fa 14be 7403 c93e a34d cf3e 54b5 8a3e
00000200: 9a72 453e 4fea afbe ae2f 773e 4cbc 2fbd
00000210: 5bf4 ae3e ba22 b6be 9283 0bbc 4465 cc3e
00000220: b9f5 ae3d 51e6 163e 7953 f3ba e29f 46be
00000230: eec6 623e 3c6a af3e 04b0 7b3e 7fee 90be
00000240: 4028 95be d87b d63e 1a63 5ebd 17c6 383e
00000250: 2cd1 fb3d 7f07 8cbe 8392 be3e 5a90 9d3d
00000260: e6b2 54be 9653 d13e 365c 123e b16f d73d
00000270: 7d18 98be 3a53 c23e 8f9e 60be f863 1bbe
00000280: 2d27 d7be 2ace f53d 0959 7bbe 75ac c4be
00000290: 39d5 9b3e 0c40 cabe deb9 b7bd 2c22 27be
000002a0: e5f8 ff3c 7b0d 823d 55d7 c33e 39a0 063e
000002b0: 5d74 0fbe acb0 83be 176e ebbd eaf5 743e
000002c0: e1c7 d5be e2b9 283e 2f28 e8bc c5be 4fbe
000002d0: c9f7 913e 9a84 603e 11d6 753c fde6 5abe
000002e0: 79eb 86be 9db1 eebd 7251 89be a184 9abd
000002f0: 7f20 153e 72ed 41bd 0492 663d 84c9 21be
00000300: 2e81 00be b246 813e 1fc3 73bd a43c d03d
00000310: 3c35 9cbe 02bd 80be 90f0 a53e eba7 a4bc
00000320: 5ca6 d73e 2ab2 15be d8ed 6b3e 0f1e 393e
00000330: 13dc c1be 89d5 7abe ec75 b73e ec28 14be
00000340: 57d0 d1be 1b4c a43e 1045 cd3e ff01 8b3e
00000350: 29d7 883e ab8a 06be faf0 b53e 4682 50be
00000360: 8da5 313e 1cfe d4be 8f0b c33e 54c9 a9be
00000370: f2fe d2be c926 2f3e 8b23 ba3e 6190 b4be
00000380: 7cea d43e e8b3 973d a365 5e3e 16c3 ac3d
00000390: 306f ddbe 445f bf3e 201c b03e 728d 663e
000003a0: 7645 b13b 9930 2f3e d2f2 bf3c 1e17 133e
000003b0: b80a 65bd 3115 d33e bcbc 16be 4554 94bd
000003c0: 7644 fb3d 2680 c43e b9c2 7dbe 3e60 45be
000003d0: 12db c2be d19c a73e 41f5 cc3e 04c8 ad3d
000003e0: 653e b8be 04b4 acbe 6dc2 ae3e a229 f03c
000003f0: 56af b93d 2403 83be ce04 babe c440 65be

bias f4 [16]
-0.005492497 -0.005925292 0.007094419 0.0 -0.008786084 0.0 0.0 0.0127694765
0.009292328 0.0 0.0 0.0 -0.0067419694 -0.011228317 -0.004253117 -0.004359665
00000000: 67fa b3bb f428 c2bb 4d78 e83b 0000 0000
00000010: 82f3 0fbc 0000 0000 0000 0000 1137 513c
00000020: d93e 183c 0000 0000 0000 0000 0000 0000
00000030: bdeb dcbb faf6 37bc bb5d 8bbb 85db 8ebb
