ad/ad_REDDIT-BINARY.pt (torch, 347085 bytes, 62 tensors)

weight f4 [16, 1]
00000000: 41de b43b 0ae7 adbe 89d8 903c 11a8 373e
00000010: 44d0 23be da18 0bbe 9603 a93e 7dad 9c3d
00000020: 33ea 03bf 38a7 02bf da17 c4bd 7d1f 633e
00000030: 6dfc adbe d001 f33e 8bc3 be3c 93ba 2abe
0.005519659 -0.3396533 0.017681377 0.17935206 -0.15997416 -0.13583699 0.33010548 0.07650278
-0.51529235 -0.51036406 -0.09574862 0.2217998 -0.33981648 0.4746232 0.023286602 -0.16672735

bias f4 [16]
00000000: 19d0 60bb 0000 0000 d6d7 81bb 530b a53b
00000010: 0000 0000 0000 0000 d0e3 99bb 7181 d43b
00000020: 0000 0000 0000 0000 0000 0000 97b9 6c3b
00000030: 0000 0000 8dd4 b5bb 23ce c4bb 0000 0000
-0.0034303723 0.0 -0.003962497 0.0050367503 0.0 0.0 -0.004696347 0.006485157
0.0 0.0 0.0 0.0036121362 0.0 -0.0055490197 -0.0060060187 0.0

weight f4 [16, 16]
00000000: a00f 7d3d e3ee d43d 3125 9e3e 6484 853e
00000010: d1e6 273e dcec 993e cbed 87bd 2355 253e
00000020: 7a80 833e 4a4c 35be 5c51 91be e2ce 8a3e
00000030: 9a8b bf3e 1db5 80be 6f80 b4be 693f b83e
00000040: b4d9 1f3e dd03 90be 65a6 ab3e 2c64 4d3d
00000050: 57f1 0a3d 1ca8 a2be cf50 743e 7205 873d
00000060: 1e2e 84be a32f 843e d386 f53c df59 c2be
00000070: f154 363e eac3 183d 8583 bd3e f05d 94be
00000080: adbf 14bd bbf3 4fbe 030c 75bd 6f4a bfbd
00000090: e525 edbd cd66 823e f27e b6be ae8e abbe
000000a0: 1c15 64bd cc94 50bd 5a70 01bd ed75 dcbd
000000b0: a507 d43e 3abe ba3d 76b2 883c a391 e63d
000000c0: 5832 7abe 0f38 1bbc 1f56 88bc faed 513e
000000d0: d531 af3c cd39 72bc 7b53 85be ea73 9c3d
000000e0: f927 9a3e 7731 83be 3de3 bdbe 5cfc 94be
000000f0: a50a 753e 6668 9e3d 8144 803e 298c ab3e
00000100: f4d4 83be d717 a33c 1f54 a03e b7bd 693e
00000110: bfa3 113e 56c5 8d3e 58da 6a3e 9b2c 0fbe
00000120: 9d4c 89bd 34dd 553e fd1f d23e c8eb 80ba
00000130: 99dd 213e a2d8 0ebe 027a 603e cca5 fd3d
00000140: 0672 03bd 14da 0a3e 2b8f 4e3e 4b4e 8a3e
00000150: b390 dd3e e396 cdbe e9bd a03e 03a4 a23e
00000160: e677 b23e f910 a93e 8dfe c1bd 62e3 9cbd
00000170: dcdb 893e ab3a 4cbe 0d2f 62be bdec 1cbe
00000180: 4bad 96be 12fd b2be fbfd 123e ff1f b9be
00000190: da3e d5be 868b 913d 441d 6bbe 729c 24be
000001a0: 2694 d13e bbed 2fbe 3767 93bd 0eda 12bd
000001b0: 380d b5bd 9982 efba 5cc8 66bd 30e9 86be
000001c0: e6bc a23e 012c fb3d 8bd5 723e 118e b3be
000001d0: a8bb 423e d417 b1be 5310 ad3e 85b5 29be
000001e0: f772 88be 8871 b7be b843 d4be 96d7 f7bd
000001f0: d5be ab3e f3f6 9c3e 4dbd 2f3d 421b 39be
00000200: 12d4 d9be 6802 863e 1994 c53e fff6 823e
00000210: ffe5 4fbe 5b53 4f3e 6760 8b3e 520c 9f3d
00000220: c1bb 87be fcf4 c93d dcf2 373e 2bcf b1be
00000230: 1b78 2b3e 93ea c3be 41a3 863e 37fa 943e
00000240: 740f a638 725d d23e 2258 383e d558 733e
00000250: 05f5 94be 92db 773d 6fdf 47be 51f8 8b3d
00000260: a7c8 5dbe 4add 343d 3e31 e93d 6e9b 65be
00000270: dc09 0b3d 6b29 8fbe 7dbd 9a3d 2cb0 6cbd
00000280: e4ed b3be 0b69 183e e5b6 d0be c31f cbbe
00000290: 515b 843e c725 f8bd 9274 3e3e 92c2 f23d
000002a0: 3d4a b2be f079 4bbe 1fe5 c73e 23b2 b73e
000002b0: 6979 d0bd 0afc 3c3d ba0e cabe f0d4 bfbe
000002c0: d471 923e 8822 d33e dcb9 9cbe 7d46 023e
000002d0: 2222 1f3e 7774 4f3d 8105 253e 7a46 81be
000002e0: 88fb a9be 998c 81be 7652 bc3e 3060 1fba
000002f0: 3bdc 8a3e 58bc 8abe e6e1 febd 60a4 99be
00000300: 7dbf c53d 10ff 313d f943 55bc d428 ae3c
00000310: 5d2d f7bd b49d 9a3e 8bcb 28be 88c3 113e
00000320: 80df 7b3e 0098 45be b378 853e 2465 933e
00000330: c563 453e d928 01be 6285 48be aeb5 c3be
00000340: 17ef 54be 03c2 aa3d 2f35 48be 2031 343e
00000350: 4c2d 4bbe a50c 53be 3d57 cfbe bf53 8abe
00000360: f06d cebe 6434 903e 3b4c 563e 858c 49be
00000370: 0f35 a2be 9517 9d3e b516 3bbe 2e99 b23e
00000380: 38d9 c0be 3065 a3bd 77f8 6b3e 45de a83e
00000390: 4c88 cabe cdb4 533e 1a7a 0abc fe3e 363e
000003a0: f6a3 693e ccb6 cfbe d475 d73e 193d 553d
000003b0: 3980 eb3d d096 62be 1de7 ce3e 3cd3 773d
000003c0: a157 ac3e 8793 393e 5b20 b7be 795f dc3e
000003d0: 6a89 523e 858d 7c3e ec37 51be f9a8 fc3d
000003e0: 43d1 223e dd01 a9be 36d8 743d 794f 67be
000003f0: fcd3 893e 32f1 edbd d4f7 133e 40f3 a9be
0.06178248 0.103971265 0.3088775 0.2607757 0.16396643 0.30063522 -0.06637152 0.16145758
0.25683957 -0.17704883 -0.28382385 0.27110964 0.37411195 -0.25138178 -0.35254237 0.35985878
0.15610391 -0.28127947 0.33525386 0.05014436 0.033921566 -0.31768882 0.23858951 0.065928355
-0.25816435 0.25817594 0.029971516 -0.3795919 0.1780584 0.037296213 0.37014404 -0.2897792
-0.03631561 -0.2030782 -0.05982591 -0.09340369 -0.115794934 0.25469056 -0.35643727 -0.33507293
-0.055684194 -0.050923154 -0.031601287 -0.1076468 0.41412082 0.09118314 0.01668666 0.11258247
-0.24433267 -0.009473815 -0.016642628 0.20500937 0.021386066 -0.014784289 -0.26040253 0.07639296
0.30108622 -0.25623676 -0.37087432 -0.29098785 0.23929842 0.07734756 0.25052264 0.3350537
-0.25748408 0.019908829 0.3131418 0.22826277 0.1422262 0.27689618 0.22934854 -0.1398186
-0.06704066 0.20885164 0.4104003 -0.0009835893 0.15807189 -0.13949826 0.21921542 0.12385139
-0.032091163 0.13559753 0.20171802 0.27012858 0.4327446 -0.4015418 0.3139489 0.31765756
0.348571 0.33020762 -0.0947238 -0.07660557 0.26925552 -0.19944255 -0.22088261 -0.15324683
-0.29429087 -0.34958702 0.14354698 -0.36157224 -0.41649514 0.0710669 -0.22960383 -0.16075304
0.4093334 -0.1718053 -0.07197421 -0.035852484 -0.08840412 -0.0018273174 -0.05634342 -0.26349783
0.31784743 0.122642525 0.23714273 -0.35069326 0.19016898 -0.34588492 0.33801517 -0.1657315
-0.2665021 -0.35828805 -0.41457915 -0.12101667 0.3354403 0.30657157 0.04290514 -0.18076804
-0.4254461 0.2617371 0.38589552 0.25579068 -0.2030258 0.20246641 0.27221987 0.07766022
-0.26510432 0.0986118 0.17963737 -0.3472837 0.16745035 -0.38264903 0.26296428 0.2909715
7.918375e-05 0.41086918 0.1800237 0.23764355 -0.29093185 0.060512133 -0.19518827 0.06834472
-0.21658574 0.04415635 0.11386345 -0.22422573 0.03394495 -0.27961287 0.07555673 -0.057785198
-0.35142434 0.1488382 -0.40764537 -0.3967267 0.2585092 -0.121165805 0.18599156 0.118535176
-0.34822264 -0.19870734 0.39041993 0.35878095 -0.10179407 0.0461388 -0.3946436 -0.37467146
0.2860247 0.41237283 -0.3061055 0.12722202 0.15540364 0.05064818 0.16115381 -0.25249082
-0.33199716 -0.2530258 0.36781663 -0.00060797017 0.27121148 -0.2709682 -0.124454305 -0.3000822
0.09655664 0.043456137 -0.013016694 0.021259703 -0.12069199 0.30198443 -0.16483895 0.14234746
0.24596977 -0.19296265 0.2606865 0.28788102 0.1927634 -0.12613238 -0.19582132 -0.38224548
-0.2079433 0.08337786 -0.19551538 0.17596865 -0.19841498 -0.20610292 -0.40496245 -0.27017018
-0.4031825 0.2816497 0.20927517 -0.1968251 -0.31681105 0.30682054 -0.18270381 0.34882492
-0.37665725 -0.07978284 0.23044 0.32982078 -0.3955711 0.20674439 -0.008451963 0.17797467
0.22816452 -0.4056915 0.42082083 0.05206022 0.11499066 -0.22127843 0.404107 0.060504183
0.33660606 0.18122683 -0.35766873 0.4304159 0.20560232 0.2466336 -0.20431489 0.123369165
0.1590014 -0.33009234 0.059776507 -0.2258891 0.26919544 -0.1161827 0.14450008 -0.33193398

bias f4 [16]
00000000: 0000 0000 a88f afbb 0000 0000 0000 0000
00000010: 941b b93a 58c9 013b 0000 0000 a776 96bb
00000020: 0000 0000 0000 0000 ea7f 433b 0000 0000
00000030: 0000 0000 0000 0000 0000 0000 0000 0000
0.0 -0.0053577013 0.0 0.0 0.0014122599 0.0019803848 0.0 -0.004591781
0.0 0.0 0.0029830881 0.0 0.0 0.0 0.0 0.0

weight f4 [16, 16]
00000000: 3edd bebe e6dd cabe f6d6 51bd 8595 0b3e
00000010: d6da d03d cbb0 e23b 8850 d9be 405e a5be
00000020: 3cbb 8b3e 516e 68be cc26 df3d 2302 d4bc
00000030: 6a05 bdbd 2b79 1fbe 4ffc 3f3e dca7 b8be
00000040: 89d5 9fbe b477 753e c1f3 94be c244 4bbd
00000050: 26f1 aabe b995 ea3d b4f2 b3bc 8826 3a3e
00000060: eadf b8be 114f 67be bc80 cfbd a5e7 20be
00000070: f51f 1dbd 80f5 32bd 2419 7ebe 63ac 8d3c
00000080: c0d3 c5be 0a3b e9bc e2ec cabe 20d5 573e
00000090: 521c c33e 14b0 d13e a530 733e 3ae7 c3be
000000a0: 0fa2 c33e 8ae5 b8be 66e5 9dbe ed35 d2bd
000000b0: f4bb 3a3e bcf0 cb3e 2e82 913e cf72 9b3e
000000c0: 1843 72be 7aa3 9abe 3288 35be 9ffb 11be
000000d0: 19e3 9c3e 23a4 bcbe a1ce 0cbe 3d6e f83c
000000e0: c39e c83e e093 f4bd c022 c63e 98ee 6abe
000000f0: e931 ac3e c526 cabe 6d82 463d 2263 c13e
00000100: b5a7 513c 27fa c23e 89f0 133d 5ecd 7bbe
00000110: 4fcf 50be 45f3 28be acc7 c6be 7dd2 77be
00000120: e969 0ebe 0295 ddbe c102 413d b455 e8bd
00000130: ef36 183e 884f d03e 12d8 013e 397c e4bb
00000140: 6760 eabb c10f 62be b63c 2fbd 40d2 20bd
00000150: 8b60 fd3c 21be af3d 1f78 9dbe 932c 71bd
00000160: 870b adbe 4c72 95bd d8ad a1be af56 c0be
00000170: 060b 1d3e 62e9 52be 0858 7d3e 4754 cebe
00000180: f7bb 663d 40fd 4bbe 33c0 d53e 52be c2bd
00000190: 4619 d43e b538 0bbe acba 173e 0f80 413d
000001a0: 2a36 97be 0826 d33d df89 8bbe e942 943e
000001b0: 5f8b 103e 6fe2 833b a16c c43d e20d 693e
000001c0: 9bf2 d93e cc32 cd3e 9c35 443e 3ea4 1d3e
000001d0: c57f b7bc 5add 153d d782 a0be 0142 21be
000001e0: a75b 9d3e 2dfa 90be 8d62 263e b63e 46be
000001f0: 8a01 2d3e 0f2e 443d ced8 a63b f17e 573e
00000200: d2bb 573e e49c a4be e45f 7fbe ddc1 203e
00000210: 1b6e 9b3e 8567 813e 633e 72be 204f 0abd
00000220: 40b7 d5be cd35 c73d 9b33 bbbe 0233 cfbe
00000230: c5e1 00be 1012 25be 90cc 43be 4bd2 cb3e
00000240: 9685 4abd 8982 a03e 5d35 b83e cc2b 08bd
00000250: ada0 a53e 354f b43d f53f b0be 8917 58be
00000260: d520 4bbe c9dc 6abe 91c0 85be fd6e 9c3d
00000270: 008e 643e b901 9fbe 9d08 c5be 4375 633e
00000280: 2e67 82be 5090 063e 45a1 be3e 6a50 d13e
00000290: f0ff 8dbe 6d7f 09be f0f4 333e 38ba e1bd
000002a0: cb37 c4be b09d b53e dcfe 72be 7c4f a73e
000002b0: 56f3 b23d a079 93be dc98 b93d c85e 6d3e
000002c0: ebb7 0e3e 0b1b aebe d37b 133e dc29 d3be
000002d0: d2db 1fbe 4e81 993e 57b8 4cbe 2a0d a13d
000002e0: 8b1f c53e 766f 5c3d e117 1cbe d5bb a6be
000002f0: c4e3 a6bd 7ef4 023c 126a 78be 0b16 11be
00000300: 1b5c 833e 98b5 c13e b3ad 65be 9463 a0be
00000310: bb6c 863e 161d 75be ef47 e13d 548b d8be
00000320: a983 a13e 39eb c3be c428 da3e b1be 4bbe
00000330: 6645 a23e b286 b3bd eee4 a13e cce7 a6bd
00000340: 0d9e 483e d1e7 9ebe 338e 083d 9bc3 9f3e
00000350: eaa3 d13e 05e3 193e 1458 94bd d7af bdbe
00000360: 14e9 bfbc b1a2 c4be 9ae3 c23e 93a9 aa3e
00000370: d417 92be aa4c cebe cb55 713e f6ce 0b3e
00000380: e1fe b5be ae90 8dbc 164c 2dbe b7eb 443e
00000390: ade7 96be e9d3 903e 5ddf 543e 1032 793e
000003a0: 9060 a6be bc9d 323e 630d d0be 5c95 d1bd
000003b0: 822f 91bd d2f6 9c3c 7f67 3ebe 7257 81be
000003c0: 13d1 a0be e0cf b13e cfa5 a8be 960c a53e
000003d0: 46e9 b03e 8b78 36be c9ea 4fbc 3474 573d
000003e0: a9dc a3be 3614 93be 6161 afbd c56b ddbd
000003f0: 1e5e 503e 1ce2 a6be fadc 553e a058 003d
-0.3727817 -0.3962242 -0.051230393 0.13631256 0.1019799 0.006918048 -0.42444253 -0.3229847
0.27291286 -0.22698332 0.10896072 -0.025879925 -0.09229548 -0.15573566 0.18748592 -0.36065567
-0.31217602 0.23971444 -0.2909222 -0.04962612 -0.33387107 0.114543386 -0.021966316 0.18178761
-0.36108333 -0.22588755 -0.10131976 -0.15713365 -0.038360555 -0.04369116 -0.24814278 0.017294114
-0.38638115 -0.028470535 -0.39633852 0.21077394 0.38107544 0.4095465 0.23749025 -0.3826235
0.38209578 -0.36112624 -0.3083908 -0.10264192 0.18235761 0.39832103 0.28419632 0.3036103
-0.23658407 -0.30202848 -0.17727736 -0.14256142 0.30642012 -0.36843976 -0.13750698 0.030326003
0.39183626 -0.119422674 0.38698387 -0.22942579 0.33631828 -0.39482704 0.048464227 0.37770945
0.012796332 0.38081476 0.036118064 -0.2459006 -0.20391582 -0.1649905 -0.38824213 -0.24201389
-0.13907589 -0.43277746 0.047121767 -0.113444716 0.14864706 0.40685678 0.1268008 -0.0069728163
-0.0071526053 -0.22076322 -0.042782508 -0.03926301 0.030929824 0.08581186 -0.30755708 -0.0588804
-0.33797857 -0.07297191 -0.31577945 -0.37566134 0.15336236 -0.20596841 0.24740613 -0.40298674
0.0563316 -0.19920826 0.417482 -0.09508957 0.41425532 -0.13595851 0.14817303 0.047241267
-0.2953351 0.10309988 -0.27253625 0.28957298 0.14115666 0.0040247957 0.09591032 0.22759202
0.42567906 0.40077817 0.19161075 0.15394685 -0.022399792 0.03658805 -0.31349823 -0.15747835
0.30733988 -0.2831587 0.16248532 -0.1935986 0.16895118 0.047895487 0.005091763 0.21044518
0.21067742 -0.32150948 -0.24938923 0.15698953 0.3035744 0.25274292 -0.23656611 -0.033766866
-0.4174137 0.097270586 -0.3656281 -0.40468603 -0.12586124 -0.16120172 -0.19121003 0.39808878
-0.049443804 0.3134959 0.35978213 -0.033244893 0.32349148 0.0880417 -0.34423795 -0.21102728
-0.19836743 -0.22935785 -0.2612348 0.07638357 0.22319794 -0.31056002 -0.38483134 0.222127
-0.25469345 0.13140988 0.37232414 0.40881664 -0.27734327 -0.13427515 0.17573905 -0.110218465
-0.38323817 0.3547187 -0.23730034 0.3267783 0.08737819 -0.2880373 0.09062359 0.23180687
0.13937347 -0.34005007 0.14402704 -0.41242874 -0.15611199 0.29981464 -0.19992195 0.07863839
0.38500628 0.053817235 -0.15243484 -0.3256518 -0.081489116 0.007992862 -0.24259213 -0.14168565
0.25656208 0.37833858 -0.22429542 -0.31325972 0.2625483 -0.23936877 0.11000048 -0.422938
0.3154576 -0.38265398 0.42609227 -0.19896962 0.31693572 -0.087659255 0.31619972 -0.081496805
0.19591542 -0.31036237 0.033338737 0.31203923 0.4094537 0.15028007 -0.07243362 -0.37048218
-0.02342657 -0.38405374 0.3806427 0.333325 -0.28533804 -0.40292865 0.23567884 0.13653168
-0.3554602 -0.017280903 -0.16923556 0.19230543 -0.2947363 0.28286675 0.20788331 0.24335504
-0.32495546 0.17442983 -0.40635213 -0.10233566 -0.070891395 0.019160662 -0.18594168 -0.25262028
-0.3140951 0.3472891 -0.32939002 0.32236165 0.34552974 -0.17819421 -0.0126902545 0.052601054
-0.32004288 -0.28726357 -0.085634954 -0.10811571 0.20348403 -0.32594383 0.20885077 0.03133452

bias f4 [16]
00000000: 0000 0000 28d7 03bc 0000 0000 0969 b73b
00000010: 0000 0000 0000 0000 0000 0000 5f8d 083c
00000020: 0000 0000 0000 0000 0000 0000 2fb2 9dba
00000030: 0000 0000 3320 4dba 5dbc f03b d752 cfbb
0.0 -0.008046903 0.0 0.005597238 0.0 0.0 0.0 0.008334487
0.0 0.0 0.0 -0.0012031252 0.0 -0.00078249275 0.0073466734 -0.006327014

weight f4 [16, 16]
00000000: d4ef f53d 5ba3 8c3e dde3 213e 8500 d4be
00000010: 7dbf 363e 874f 8bbe 7874 df3d 04d3 76be
00000020: f71b 98be 3b03 5e3e 9e7f f6bd 3214 a23e
00000030: c695 d03d 4084 8dbd 7cb0 cf3e 8050 c23d
00000040: ef79 61be e2df 2bbd d741 e8bc 9c1f a7be
00000050: a58d 9d3d 245f dbbe 988d a0bd 7542 b33e
00000060: 26a5 983d e1cd 563e aa94 9abe 4b6c 23be
00000070: be88 c6be ad6a 273d bf5e bfbe e90d 643d
00000080: 40ff 193e 6d96 533d e709 c8be 024f c7be
00000090: 7d7f 9dbe 83d4 c33e 0b85 cf3e 0101 503e
000000a0: ce22 b43e 897d 5fbe 9d66 8b3e 2381 ef3d
000000b0: d15c 6c3d 371d 113e 748f c43e 360d 9bbe
000000c0: 71b2 803e 8a8d 9abe 98c8 d33e 4cec 7d3d
000000d0: 9cf3 5cbe 9da2 d13e bc41 823e fde1 2d3e
000000e0: a7a6 ad3d 0012 0f3d dfd9 84be 0a1e 7ebe
000000f0: d8f5 9e3e 7948 7dbe 18bc 50be ff07 f63d
00000100: 909f a43e 0d74 a0be fb43 4f3e bc2a dabd
00000110: 7673 703d e863 523e 2433 533e 2781 00be
00000120: f5d7 cf3e d4b8 a7be efe1 73bc c421 aebe
00000130: 2fe9 923e 88b0 aebe 9ac2 d4be 7c05 ddbe
00000140: 1ebc ca3e 1ec3 5d3e 4d4e 4b3e eb02 aebe
00000150: fc92 ddbe 3ba9 d5be 5f84 6039 22f9 b5be
00000160: 5df7 39bd 9ea5 8e3e 28e1 a03e 4801 d2be
00000170: ab6a 3abe 30f7 363e 2643 18be e8e4 c1bb
00000180: 6535 b43e 52c3 913e b511 9d3e 4037 833e
00000190: 79e4 f43d adf5 2abc 72cb b2bd facc 773e
000001a0: 7b95 c73e d357 8e3e 6b94 f7bd ccd4 dc3e
000001b0: b9f3 553e 468e 3dbd 179d 983e d82a 5fbe
000001c0: 5283 a63e d292 5ebe 3b4b dabe baa6 d33e
000001d0: 857b 8e3e dee5 a73e 9891 92be 7c46 5e3e
000001e0: 87f1 bc3e 27a0 cc3e 6919 c33e a148 b5bd
000001f0: 06c3 b6bb 7501 4f3d 8b0c 25be a073 46be
00000200: 3a6b 14be ed92 15be e9f5 95be 99eb 693e
00000210: a033 57be d209 2abe a853 c7be daf4 c13e
00000220: 15ea a8be 2527 013e af7e 963e 82ff 823e
00000230: c3b1 0e3e e768 603e 38cc 7b3e 92a5 ccbc
00000240: 2ff5 b23e 3efc b63e ae9f 853c c848 dabd
00000250: 69d0 823e db17 9bbd 8735 c0be 08ad ccbe
00000260: 210d a93d 3845 8d38 e046 d63e 4e00 d63d
00000270: 3efb 143e 2674 96be d839 c0be ba4c 3f3e
00000280: d716 d4be ede6 b23e bf95 c6bc 4435 3b3e
00000290: 7304 133e 6b72 44bd 7d12 80be 34ca b53e
000002a0: c69b 513e e1eb c4bc 7a1e 81be 6a76 cd3e
000002b0: 3151 6c3e 4521 9ebe d3b4 17be 483a cd3e
000002c0: e8f3 ac3e 11be 38be a2f4 87be 7cef 243e
000002d0: c8e0 08be 9086 be3e a1ab 753b adad a73d
000002e0: e5e5 b0be efc4 c0be 8282 d93c 8ae0 22bd
000002f0: 6267 a2be ff8f 48bb 24aa df3e 1492 94be
00000300: 763b d0be 09c6 8f3e 0655 85be e28c 52be
00000310: a3e0 ccbd 6573 aebe ea3f 6a3e f1d2 c43e
00000320: 1bff c2be e056 993c c27f db3d 008f ab3d
00000330: f57f a9bd cd14 283e abfe 903e f080 27be
00000340: 707b 4dbe 2a92 e73d 187b d1be 83a9 6abe
00000350: ee7e 943e 47b0 a2be a911 91be 70f1 b9bc
00000360: 7519 923e 828b c43d f65e a03e c7c2 82be
00000370: 8bd9 a5bc e80b bcbd a2e0 343e fb2e d73e
00000380: 3359 a3bd 1f81 dfbb 1d4d 9c3e a933 be3e
00000390: 4af4 483c 74d8 af3e 9caa 9c3e bb6d 943d
000003a0: e134 01be 2e89 4cbe aa31 77be c655 a2be
000003b0: 96ad 86be 9c6f 82be d7fa cb3e 9bd4 aabe
000003c0: 0113 92bd 1749 81bd b654 773e 19db c73e
000003d0: 6f23 ab3e 2fb7 39be c03a 823e b1cd 86be
000003e0: 9f10 b0be 29ed eabd 5c7c d03e d16c b8be
000003f0: 3f75 c9be 2fad a0bd 8288 92be c77c 463e
0.12008634 0.2746838 0.15809579 -0.41406646 0.17846484 -0.27209112 0.109108865 -0.24103934
-0.29708835 0.2168092 -0.1203606 0.31656033 0.10184817 -0.0690999 0.40564334 0.094880104
-0.2201917 -0.04196156 -0.028351707 -0.32641304 0.07693032 -0.42846024 -0.07839507 0.3501164
0.074533746 0.20976974 -0.30191547 -0.15959279 -0.387762 0.04087322 -0.37376973 0.05567733
0.15038776 0.05165713 -0.39070055 -0.38927466 -0.30761328 0.3824807 0.4053119 0.20312883
0.35182804 -0.21825232 0.27226725 0.11694553 0.057705704 0.14171301 0.38390696 -0.30283517
0.2513614 -0.3018611 0.41363978 0.06199293 -0.21577305 0.40944377 0.25440776 0.16980739
0.08479052 0.034929276 -0.25947472 -0.24816146 0.3104694 -0.24734677 -0.20384252 0.12013244
0.32152987 -0.3133854 0.20240776 -0.10652682 0.058703862 0.20545924 0.20624977 -0.12549268
0.4059445 -0.327582 -0.01488541 -0.34010136 0.2869353 -0.34119058 -0.4155472 -0.43168247
0.39596647 0.21656463 0.19854088 -0.339866 -0.43276203 -0.41730675 0.00021411617 -0.35541636
-0.04540192 0.2786073 0.3142178 -0.41016603 -0.18204753 0.17867732 -0.14869365 -0.0059171803
0.35196987 0.2846933 0.30677572 0.2562809 0.1195764 -0.01043455 -0.0873021 0.24199286
0.38981232 0.2780138 -0.12088855 0.431311 0.20893754 -0.04627826 0.2980735 -0.21793687
0.32522064 -0.21735695 -0.4263552 0.4133814 0.27828613 0.32792562 -0.28626704 0.21706575
0.3690302 0.39965937 0.38105324 -0.088517435 -0.005577448 0.0505385 -0.16118066 -0.19380045
-0.14494029 -0.14606829 -0.29289177 0.2284378 -0.21015787 -0.16605309 -0.38931012 0.3788212
-0.3299109 0.12612589 0.29393527 0.25585562 0.13934998 0.21915017 0.24589622 -0.024981294
0.34952685 0.3573932 0.016311493 -0.10658413 0.2554963 -0.075729094 -0.37540838 -0.39975762
0.08254457 6.736297e-05 0.41850948 0.10449277 0.14548966 -0.2938549 -0.3754413 0.18681613
-0.41423675 0.34941807 -0.024241326 0.18282038 0.14357166 -0.04796068 -0.25014105 0.3550583
0.20469579 -0.024038257 -0.25218564 0.40129405 0.23077847 -0.30884758 -0.14815073 0.40083528
0.33779836 -0.18041255 -0.26553828 0.16106981 -0.13366997 0.37212038 0.0037486332 0.08187423
-0.34550396 -0.37650248 0.026551489 -0.03976492 -0.317195 -0.0030603406 0.43684494 -0.290177
-0.40670365 0.28080776 -0.2604143 -0.20561555 -0.100037836 -0.34072414 0.22875944 0.38442186
-0.38085255 0.018718183 0.10717727 0.083768845 -0.08276359 0.16414185 0.28319296 -0.1635778
-0.20066619 0.113071755 -0.40914226 -0.22916226 0.2900309 -0.31775114 -0.28333786 -0.022698134
0.28535047 0.095969215 0.3132245 -0.25539228 -0.020245334 -0.091819584 0.17663816 0.4202803
-0.07975998 -0.0068208124 0.30527583 0.3714879 0.012265274 0.34344828 0.30598915 0.07247492
-0.12617828 -0.19974205 -0.24140039 -0.31706065 -0.2630431 -0.25475776 0.39839813 -0.3336533
-0.07132531 -0.06312769 0.24153408 0.39034346 0.3342547 -0.18136285 0.25435448 -0.26328805
-0.3438768 -0.11471016 0.4071988 -0.3602052 -0.39347264 -0.07845532 -0.28619772 0.19383536

bias f4 [16]
00000000: 169a b9bb 0000 0000 0000 0000 0000 0000
00000010: 0000 0000 4b48 b23a da71 15bc c578 9c3c
00000020: b1c7 0e3c ee15 f4bb 19d4 a5bb 4f97 cc3b
00000030: 3aa4 093c 6cd6 913a 74da 543a 97cb ae3a
-0.0056641204 0.0 0.0 0.0 0.0 0.0013601867 -0.009121383 0.019100556
0.008714602 -0.0074489033 -0.0050606844 0.0062436233 0.008400971 0.0011126525 0.000811971 0.0013335821

weight f4 [16, 16]
00000000: 0045 423d 45c0 c23d d07e 633e d44d 3cbe
00000010: 8b97 1cbe b129 053e 7dcd 77be 241d e3be
00000020: 3ca5 8cbe b9dd 2ebe 8390 b43d 90dc 3abe
00000030: 4626 4b3d fa4d a63e 5769 b3be 3f98 a93e
00000040: a41c 183e 8479 7ebe 0989 6ebe c940 ddbe
00000050: c220 20be 1bbe 38be e468 00be 5b6e a3be
00000060: e331 b6be 80a8 ccbe edbd 8ebe 6311 59bd
00000070: 6f69 5bbe 0887 4abe 7c31 bcbe 135e e7bd
00000080: e3aa 963e 0733 6c3d 17d1 64bc 6093 4d3e
00000090: 31eb d9bd af8a 04be 182f 0fbd dcdc ac3e
000000a0: a970 d3be a1f7 06be a44f d93e 7a2f e43d
000000b0: d2ec c4bd 5990 c7be 2191 8bbe a98d 513e
000000c0: 7b0b 503c 5356 b83e ceb2 51bd fb4a 62bd
000000d0: 246b da3e 0870 263e 8948 5fbe 4b0f a43d
000000e0: 3eb9 9fbe 9d53 48be 380c 06be 7800 bc3e
000000f0: d7e6 5a3d d310 5abe 8c4d 45bc e699 a43e
00000100: c514 dcbd faac 99be 8201 80be 7b2e bebe
00000110: 98d7 9abe aa58 d9be 4566 d4bb 3eb0 a7be
00000120: adbd adbe 6513 17be 547d 9cbe d27c 77be
00000130: aa4d 4e3e 34c0 bebe c865 babd a1dd 8f3e
00000140: 8c35 823e bb8f 6ebe 0ea0 793e 27a0 933e
00000150: 9237 d63d d804 5a3e 1705 c7bd e14d 67bd
00000160: ba3a 2a3e 36f5 63bd a30f 273e d356 9a3e
00000170: d7cf 123e d276 ad3d f22d 42be 6f3e 00be
00000180: e26a 3d3d 46ef 60bd 0d4f 883e 7b47 6a3e
00000190: 0da8 d23e 85af 193e fce9 8dbe 12a5 c63e
000001a0: 7221 0b3d 0d3f c9be dce3 993e a1b9 8fbe
000001b0: 2424 943e 545c 863d fedc 92be 4439 913e
000001c0: 4af9 8bbd eb9d a5be c748 893e 1e47 86be
000001d0: e83f fd3d 1d68 713e 1da7 303e 7da9 e83d
000001e0: 6a66 4f3e 1a25 b0be 93f1 5abe c9b5 5f3e
000001f0: 48fb a43e 6a3c a03d 8c89 503d 0410 b1be
00000200: 9590 b6bd 175f 5fbe 8849 d83e ea8c db3e
00000210: e22f a23d 9743 b03e 34cb db3c 53f4 10be
00000220: 6550 a5be d49f b83e b51f f03d bb27 a0bd
00000230: da7c 91be 4f6f 9c3e 43b5 343e 0499 82be
00000240: 21a3 cd3e 8f0e a4be 9ca7 77bd 2835 e73c
00000250: 6c31 bb3e c97e 9f3d 258f 9b3e 792d 99be
00000260: af79 573e e7c2 b23e 12ab 84be c390 f7bd
00000270: fb24 0a3e 40c3 a53d 92dc 883d 08af 9abd
00000280: d1ef d8bd b4c3 8f3e 195b cdbd 1892 053e
00000290: e5bf 81be 49e6 a1be 026f b2be a53c cc3e
000002a0: 8219 3dbe bb72 79be 48fc a23d 76cb c13e
000002b0: c67c 843d 52fe 293e 108a 013e f46b b63e
000002c0: 3b54 2b3e 5dfa afbe 7978 4f3b dd80 bc3e
000002d0: 1dfc ccbe 57ce 06be d633 d1be 9a95 bdbe
000002e0: dff0 293e f1d3 c03e adc3 c93e 8048 15be
000002f0: 09bf aa3e ca84 a4be b6f3 c0be 184b aa3e
00000300: 29dc 3f3e c113 613d 7e4d b2be b76a 8fbc
00000310: c1d4 b63e e7d9 3fbe 0412 903e 1544 53be
00000320: c4f8 c4be 43bf c43e 99f0 cdbe b618 4dbe
00000330: 3b71 80bd 9e8c ab3e 0578 a2bb ab14 cdbd
00000340: 7f93 823e 4ade b1bd f76b 9c3e 9c11 c83e
00000350: 8d4c 383e c5c0 3a3d 0477 a73e 6eb3 d3be
00000360: 9248 dcbe d2c9 e33d 8b03 92be 628c bebe
00000370: 2f02 f2bd 5259 8ebe 09c7 9b3d 4bcc 7abe
00000380: a3a2 353a fd8e 693e 51f4 67be 4512 b73e
00000390: b324 2bbe 62a5 ad3e 5bb3 7fbe 28bb 95be
000003a0: ae53 423e b477 d23e 2005 6bbe e36d c8be
000003b0: 725d 63be 6b78 803e 4bf4 b0be 9764 01be
000003c0: 9830 c2be 69ad d5bc 4558 9c3e 6704 1a3c
000003d0: eaa1 83bc 24d1 80bd 0a7b c93e 9e12 8a3d
000003e0: a314 963c a96e 973d 72b6 0c3d aac2 a23e
000003f0: 379c a73e deb8 e03d c35e 593e 2f04 b9be
0.047429085 0.09509329 0.22216344 -0.18389064 -0.15292184 0.13004185 -0.24199481 -0.4435817
-0.27469814 -0.17076768 0.08816626 -0.182482 0.049597047 0.32481366 -0.35041305 0.33123967
0.14854676 -0.24851042 -0.23294462 -0.4321349 -0.15637496 -0.1804127 -0.12540013 -0.31920132
-0.35584936 -0.39972305 -0.27879277 -0.052995097 -0.21426938 -0.19778073 -0.36756504 -0.1129724
0.2942725 0.05766585 -0.0139658665 0.2007575 -0.10640562 -0.12943529 -0.03495702 0.33762252
-0.4129689 -0.131804 0.42443573 0.11141868 -0.096154824 -0.38977316 -0.27259162 0.20464195
0.01269805 0.3600336 -0.051195912 -0.05524729 0.42659867 0.16253674 -0.21805014 0.080107294
-0.31196016 -0.19563146 -0.13090599 0.36719108 0.053442802 -0.2129548 -0.012042414 0.32148665
-0.10746149 -0.30014783 -0.2500115 -0.37144837 -0.3024261 -0.42450458 -0.006481918 -0.3275165
-0.33933774 -0.14753492 -0.30564368 -0.24168709 0.20146814 -0.37256014 -0.091014445 0.28098777
0.25431478 -0.23297016 0.24377462 0.28833124 0.10459818 0.2129091 -0.09717768 -0.056470755
0.16623965 -0.055653773 0.16314559 0.30144367 0.14337097 0.08469929 -0.18962839 -0.12523817
0.04624451 -0.05491569 0.2662281 0.2287883 0.41143838 0.15008362 -0.27717578 0.38797814
0.033967443 -0.39305916 0.30056655 -0.2807131 0.28933823 0.06560579 -0.2868423 0.28364003
-0.068346575 -0.32347044 0.26813337 -0.26226133 0.12365705 0.23574872 0.17251249 0.11360452
0.20253912 -0.34403306 -0.21381216 0.2184669 0.32222962 0.07824023 0.050912425 -0.3458253
-0.089142956 -0.21813618 0.422436 0.42880946 0.07919289 0.34426567 0.026830293 -0.14155702
-0.322879 0.3605944 0.11724798 -0.07820078 -0.28415567 0.30553672 0.17647271 -0.25507367
0.4016352 -0.32042357 -0.06046258 0.028223589 0.36561143 0.07787854 0.30382648 -0.29917505
0.21042512 0.34914324 -0.25911766 -0.12088158 0.1349067 0.080938816 0.066826954 -0.07552916
-0.10592616 0.28078997 -0.10027141 0.13044012 -0.25341716 -0.31621006 -0.34850317 0.39890018
-0.18466762 -0.24360172 0.07958275 0.3785054 0.06469111 0.16600922 0.12650323 0.35629237
0.1673135 -0.343707 0.00316575 0.36817065 -0.40036097 -0.1316465 -0.4085986 -0.370282
0.16595791 0.37661698 0.394071 -0.14578438 0.33348873 -0.3213256 -0.37685937 0.33260417
0.18736328 0.05495048 -0.34824747 -0.01750694 0.35709193 -0.18735467 0.28138745 -0.2063144
-0.38471043 0.3842717 -0.40222624 -0.20028958 -0.06271597 0.3350572 -0.004958155 -0.10013708
0.25503156 -0.086849764 0.3055112 0.39075935 0.17997952 0.045593996 0.3270799 -0.4134783
-0.43024117 0.111224785 -0.28518328 -0.3721648 -0.11816823 -0.2780252 0.07606322 -0.24491994
0.0006928837 0.22808452 -0.22651793 0.35756126 -0.16713218 0.3391524 -0.24970762 -0.2924435
0.18977234 0.4110695 -0.22951174 -0.39146337 -0.22203615 0.25091872 -0.3456138 -0.12636028
-0.379277 -0.026083665 0.30536094 0.009400464 -0.016068418 -0.062898904 0.39351684 0.06741832
0.018320387 0.073941536 0.03435368 0.31789142 0.3273637 0.109727606 0.21227555 -0.36136004

bias f4 [16]
00000000: affb 08bc 0000 0000 d286 14bc 5fab 94ba
00000010: 0000 0000 c9f4 2f3c fa87 4f3b 5b30 19bb
00000020: 069d 1ebc d1b0 12bc f2cb b93b 6fa0 98bb
00000030: 6055 7dbb 0000 0000 0000 0000 d5fe 2bbc
-0.008360787 0.0 -0.009065347 -0.0011342576 0.0 0.010739514 0.0031666742 -0.002337477
-0.009680992 -0.008953289 0.005670064 -0.004657797 -0.0038655624 0.0 0.0 -0.010497768

weight f4 [16, 16]
00000000: 4115 b6be 6934 ae3b 3f43 0b3e c911 ac3d
00000010: d7e8 5f3e 14f8 c83e a46e d0be b6a8 dcbe
00000020: 9188 b63c 04c8 8dbe 99ff 1e3e 7086 d23d
00000030: 1a0c c33c a090 473d 8432 fc3c b748 cdbe
00000040: 58ae 503e b92e 1b3e 9320 d03e 4cb9 aa3d
00000050: d9ec 0a3d 0e24 9b3c 61ce 96bd 5134 123e
00000060: e5dc 713d 622a d33e 3baa 68be 7033 81be
00000070: 0e97 bc3e b683 683e 5c21 623d 13e6 b83e
00000080: 5142 8fbc f1a0 103e 583c aa3d 1c99 353c
00000090: 9fd8 883e 5031 7bbe 13fb 1abe df81 a63e
000000a0: de8e 793e 54ad 203e f325 3d3e c445 8a3e
000000b0: 5e09 45bc 6bc4 db3e a81a e13d 3265 d2bd
000000c0: 1a37 4f3e d2b8 1a3e e29e a6be 864d 913c
000000d0: c1c5 cd3d 3e06 9d3e 6aaf b7be 640c a4be
000000e0: 41cc a9be 2037 753e f328 bfbc 1646 d1be
000000f0: 378d 91be 1bc7 bc3e 7fb8 5b3e ad28 a33e
00000100: fc95 dbbe e333 31be e6a0 ed3d a48e 4b3e
00000110: 9623 bb3e 9431 cfbe c362 703e 921d 943d
00000120: 849a dc3e d35b bebe aa3f bf3c f6bc d4be
00000130: 9845 f6bd 556c 693e d068 933e c5e4 cbbe
00000140: 31a8 1d3d d8ff b73e eaca b6bd 2d35 95bd
00000150: c058 663d ab0e 05bd 276f d3bc edeb c63e
00000160: ae2b 21be 7fea ccbe a125 b43e 5d2b 2dbe
00000170: 7593 43be 8c73 19be 5c15 883e 25f0 9f3c
00000180: e57d 783e 3a7b 90be 0693 2ebe 7105 99be
00000190: 5464 a33e 5226 cabe e5b1 cfbe 0f53 823e
000001a0: c931 7ebe d35e bb3e f736 b1be 1129 4cbc
000001b0: c5fd 443e 4134 883e a59a 2cbe 83b0 ddbd
000001c0: 1b79 203e 33a1 61be 26c4 7fbe 018e 6f3e
000001d0: 2002 dc3d 2bcd c4be e875 97bc a2c2 273e
000001e0: a8ae d5be fc54 4ebe fb23 c6be ae26 dbbe
000001f0: 228d 42be d2fd c43e 53ec 56ba df55 d7bc
00000200: f47a a53d a45a af3d 60ae 1cbc 207c 383e
00000210: b509 05be f5b7 db3e e9cc fe3c 089d 30be
00000220: 9e53 0fbd 72f8 833e 7658 9abe 2781 ca3e
00000230: 6844 49bd 5709 12bd 4859 38be 42e5 803e
00000240: bb50 143e a4e5 203e f7a7 1dbe 9625 88be
00000250: 257a 22be befd f13d 4747 a4be b8ab d83d
00000260: 4e87 a2be 6638 c7bd da20 523c 0923 5abe
00000270: d444 cbbe 0132 6f3e e8af b4bd f820 923d
00000280: 42c4 c93e 0081 7cbd 4d44 98be dadc 29be
00000290: 87ed c23e 58c3 8f3e dc1f b0be 23ec 4fbe
000002a0: e564 43be 0a48 5f3e 8eee b73e 83b7 6e3e
000002b0: 1cda ef3d de91 f53c 993e 5fbe c8c1 813e
000002c0: f8de cebe 076a abbe 0e6a bb3e 976f d8bd
000002d0: de12 55be cde4 4c3e 4cbb 2b3e 883b 4cba
000002e0: 23d6 1fbd 1ab1 b63e 51f0 8f3e 67d4 cf3e
000002f0: e12f 083e 1661 283e b2b8 7e3e 8587 94be
00000300: e78d ce3d 941e 473d 4054 6b3e 2dd1 183e
00000310: eeea 803b 20fa c13e 66bd 3bbd 0cb7 d63e
00000320: e400 d5be 1d82 d33e c9d6 90be 25af c93d
00000330: 87d3 b63e 1d67 823e 70ba d3be 00e5 283e
00000340: ff20 95be 7520 c43e 1429 d03e 045e 973e
00000350: 46af a93e 9aad 8dbe 9ab8 a9bb 46b3 c9bd
00000360: e4c6 813e f151 c9bd 8925 a13e d10a 93be
00000370: f4b2 013e c6df 40be dfb8 7e3e 2946 323e
00000380: 4b57 2fbe 5d6b 29be fe13 b03e 711c 043e
00000390: 0bf9 10be 2a45 abbe f37d 6a3e 003c 983e
000003a0: 983e 443e 64ad b2be 7ca0 b53e fe05 503e
000003b0: dea7 483e 6388 a23e e661 7bbe 1545 9ebe
000003c0: b063 043c 30e0 82be 7637 15be fd06 e5bd
000003d0: 7255 9abe e0f9 93bd e1ee 53bd 41ec 20be
000003e0: 1066 273e a193 713d c55b d63e 3d91 9dbe
000003f0: f4c0 6fbd 5b44 10be 7201 4cbe 992a cbbe
-0.3556309 0.0053163064 0.13599871 0.0840183 0.21866165 0.3925177 -0.40709412 -0.43097466
0.022281917 -0.27691662 0.1552719 0.10279548 0.023809481 0.04872191 0.030785806 -0.4009454
0.20379007 0.15154542 0.40649852 0.08336124 0.03391728 0.01893809 -0.073635824 0.1427777
0.059048552 0.41243273 -0.22721188 -0.25234556 0.36833996 0.22706494 0.055207595 0.36113033
-0.017487677 0.14123894 0.08312291 0.011083867 0.2672777 -0.2453053 -0.1513484 0.3252096
0.24370906 0.1569112 0.18471508 0.27006352 -0.012026159 0.42923293 0.109914124 -0.10273208
0.20235863 0.15109566 -0.32543093 0.017737161 0.10047484 0.30668825 -0.35876018 -0.32040703
-0.33163646 0.2394681 -0.023334956 -0.40873784 -0.2842805 0.36870655 0.21457098 0.3186697
-0.42887866 -0.1730495 0.116029546 0.19878632 0.36550587 -0.40467513 0.23475175 0.072322026
0.43086636 -0.3717943 0.023345787 -0.41550416 -0.12024993 0.22795232 0.28790903 -0.39822975
0.038490478 0.3593738 -0.089254215 -0.07285533 0.056236982 -0.03248469 -0.025809838 0.38851872
-0.15739319 -0.40022656 0.3518496 -0.16911073 -0.19099219 -0.14985484 0.26578796 0.01952369
0.24266775 -0.28219014 -0.17048272 -0.29886964 0.31912482 -0.3948236 -0.4056541 0.25453994
-0.24823679 0.36595783 -0.34612247 -0.012460963 0.1923743 0.26602367 -0.16855867 -0.108246826
0.15671198 -0.22034149 -0.24977168 0.23394014 0.10742593 -0.3843778 -0.01848884 0.1638284
-0.41734815 -0.20149606 -0.38699326 -0.42802948 -0.1899915 0.384749 -0.0008198667 -0.026286064
0.08080092 0.0856221 -0.009563059 0.180161 -0.12991984 0.42913786 0.031103568 -0.17247403
-0.034991853 0.25775486 -0.30145615 0.3955166 -0.049137503 -0.03565344 -0.18002808 0.2517491
0.14483921 0.15712601 -0.15396105 -0.26591176 -0.15866907 0.118159756 -0.3208563 0.10579628
-0.31743854 -0.09727554 0.012825215 -0.21302427 -0.3970095 0.23358919 -0.08822614 0.071351945
0.39407545 -0.06164646 -0.2973961 -0.16588154 0.38071844 0.28078723 -0.34399307 -0.20304923
-0.19081457 0.21804824 0.3592419 0.23312192 0.11711523 0.029976781 -0.21801223 0.25343156
-0.40404487 -0.3347933 0.3660435 -0.10568159 -0.20807979 0.20009156 0.16770667 -0.0007790853
-0.039022576 0.35681993 0.28113034 0.40591738 0.13299514 0.16443285 0.24875143 -0.29009643
0.100856595 0.048613146 0.22981358 0.14923544 0.003934256 0.37886143 -0.04583492 0.4193653
-0.41602242 0.41310206 -0.28288868 0.09847859 0.35708258 0.25469294 -0.41353178 0.16493607
-0.29126737 0.38306013 0.4065634 0.29563916 0.33141536 -0.2767151 -0.005179477 -0.09848647
0.25347054 -0.09830082 0.3147395 -0.2871919 0.12665921 -0.18835363 0.2487521 0.17409576
-0.17123143 -0.16544862 0.34390253 0.12901475 -0.14157502 -0.33451205 0.22899608 0.29733276
0.19164503 -0.34897912 0.35474002 0.20314786 0.19595286 0.3174468 -0.24549064 -0.3091208
0.008080408 -0.25561666 -0.14571938 -0.111829735 -0.30143315 -0.07225394 -0.051741485 -0.15715124
0.16347528 0.05897868 0.4186689 -0.3077487 -0.058533624 -0.14088576 -0.19922426 -0.39680937

bias f4 [16]
00000000: 0000 0000 3c7e 23bc 8c99 39bc 77e9 93bb
00000010: 0000 0000 7906 8dbb 0000 0000 0000 0000
00000020: d875 a1ba bad3 58bb b2a2 36bb d8d9 2f3c
00000030: 045f 8aba 6fa6 f3bb 116f 2cbc ccd5 043c
0.0 -0.009978827 -0.011328112 -0.004513915 0.0 -0.00430375 0.0 0.0
-0.0012318445 -0.0033085183 -0.002786797 0.01073309 -0.0010556881 -0.007435612 -0.010524527 0.008107614

weight f4 [16, 16]
00000000: cfa7 fc3d 5a5f f0bd 25b0 d5be b45c 89be
00000010: 695b bfbe 3aa2 8abe c574 8abd d881 2abe
00000020: a2a7 36bd 1eac 9d3d 316d a7be 1701 a3be
00000030: aa24 5bbe 4172 cf3e 44f0 85be 5e96 623e
00000040: c2b5 d13e 2265 dbbd 4728 e33c 0cc2 bbbe
00000050: 798c c03e 8894 da3e fe95 68be f47f a3bd
00000060: 63d3 b6bd 9d6c b03d 50a4 b93e 8cb8 943e
00000070: be0e 463e d883 af3e ff75 b93e 25ed c33e
00000080: 6ab1 3bbe eb6c 903d 63fe 693e 46ff c63e
00000090: 5d55 72be 5039 9f3e 582c f6bd cd85 283e
000000a0: 40cd abbe facd c1be 7661 a73e 2bdd a53e
000000b0: 25ed da3e 1698 6d3e 2885 94be bba1 ecbc
000000c0: 185d ae3e 71a5 9fbe 7d38 1fbe b81c ce3b
000000d0: 4b9c ae3e 103f 8f3e f172 c3bc 18eb ae3e
000000e0: 639a 473e aae5 03be 001f d3be 9633 dc3e
000000f0: 23bb cd3e 1eff 81be c9dc a4be 6612 143e
00000100: ac08 9a3e d20c 243c f499 d0be 456f 9bbb
00000110: a21f 20be e495 ec3d 2a83 c3be aea0 46bc
00000120: 4a9a d63e db32 b5be 5755 aebe 56d4 dcbe
00000130: 2224 3bbe a163 10be 45ac 283e 170f b83e
00000140: 49d2 b2be e326 43be 65a1 0e3e 2648 6ebe
00000150: 5e87 ee3d 9ca5 c7be 1427 c2be 6afe 95be
00000160: fc23 433d 7648 b53d bd66 c23e 1852 ba3e
00000170: e796 873e 3a54 a23c a946 b83d 9494 903e
00000180: fce4 52be 7689 d13e aa6d 733e af80 c8be
00000190: 0df5 c2be 95b9 2b3e e6f8 d1bc b4a7 e5bd
000001a0: 6c79 8b3e 823b 6b3c 6b2f 5cbe 5cbf ad3d
000001b0: 646c 7e3e 7c7f 9e3e 75a5 943e 0944 8dbe
000001c0: 1fe6 573d 8c42 66be ca09 a4be 25c8 c6be
000001d0: 1850 84be 0017 4f3e 19fb 553e 5bd2 00bd
000001e0: e052 9fbe af7a c53e c319 b63d eecf e03d
000001f0: 3e4b 9abe ded1 66bd b399 9dbe e760 8a3e
00000200: 386e 02be 357b bd3e f1a4 cabe bad9 5dbd
00000210: ec7c 32be f0ff 8a3d c15d 9e3e 999c 0e3c
00000220: 137c 413e da54 3c3e 3f1c ca3d 6a30 963e
00000230: a9e0 bb3e 3a7f a9be 2904 493e 2d6e cbbe
00000240: a8c1 50be 0e8b 2cbe b925 593e a378 0a3d
00000250: 48bd 0cbe 7a87 f7bd ec2c ae3e c849 723e
00000260: b054 91be a477 cdbe 3827 18be 1663 cdbe
00000270: 90e1 e13e b9c4 533e ddb2 5a3e 9f7b da3c
00000280: 092a c6be e788 89be 2533 58be 0aae cc3e
00000290: bd29 ce3e cf4a 64be 9d7d e9bd d273 ad3e
000002a0: 347f 233e 9697 c33e 2eac 053e ee66 a5be
000002b0: 3a0f f33d 691b 063c 8dd5 ebbc eac7 2dbe
000002c0: a624 9c3d d778 c9be 073e ddbe a54b 1bbe
000002d0: 4a98 48be 7125 933d 6328 753e 8b9f d03d
000002e0: 39aa cdbe 972b ab3d 7cf5 cf3e a9f1 d63d
000002f0: 21fe 78be a805 f4bc d795 58be 1987 cdbd
00000300: 1396 3c3e ea2c a7be 45e0 353d 62fe 963e
00000310: 1aff 503e 7be8 a8be b9e7 803e 0f3d acbd
00000320: 129a c7bd cfb1 bcbe 3aeb d83e 5d51 4c3e
00000330: 8ea3 4b3e 95bc 473e 5c36 b2be b432 63be
00000340: 3771 babe 52f1 683e 6701 b2be 7c23 773c
00000350: a0ec 323e a021 64be 51bb bf3e 5452 363e
00000360: 5309 b13e 077c b2be 0ec8 a5be 71d0 a23e
00000370: 0bec abbe 4f3d 0abd b342 bbbd 3822 8b3c
00000380: a122 07be 6993 813e 43cb 943b 6ea7 ef3d
00000390: 316b c9be 81d7 16be 2ecc 64be 0e96 173d
000003a0: 4fbe bebe 54ff 283d 44b2 d4be 7ae2 2dbe
000003b0: 836c 94bd 809b 41bb ead7 c33d f342 7dbe
000003c0: d32c 903e eec9 d2be a189 cfbd 6be5 5dbe
000003d0: a428 43be fa95 a5be 688c c03e 5f36 c4be
000003e0: 8bcb b33e 1bc5 66be 87c3 c33e 8833 cf3d
000003f0: 6598 57be ecf9 d3be 2183 9abd 7db4 ba3e
0.123366944 -0.11736937 -0.4173595 -0.2682854 -0.37374428 -0.27076894 -0.06760553 -0.16651094
-0.04459346 0.076988444 -0.32700494 -0.3183677 -0.21400705 0.40516856 -0.2615987 0.22127673
0.40958983 -0.10712649 0.027729167 -0.36671484 0.37607172 0.42691445 -0.22713467 -0.079833895
-0.089270376 0.08614466 0.36258173 0.29047048 0.19341561 0.34280276 0.36222836 0.38266864
-0.18329397 0.070520245 0.22850947 0.38866633 -0.23665376 0.31098413 -0.12020177 0.16457291
-0.3355503 -0.3785246 0.32691544 0.323953 0.42759052 0.23202547 -0.2900784 -0.028885713
0.340554 -0.3118091 -0.15548892 0.0062900446 0.34103617 0.279778 -0.02385852 0.34163737
0.19492488 -0.12880579 -0.4123459 0.43008107 0.40181836 -0.2538995 -0.32199696 0.14460143
0.3008474 0.010012822 -0.40742457 -0.004743489 -0.15637067 0.11552027 -0.38186008 -0.01212327
0.41914588 -0.35390362 -0.34049484 -0.4313075 -0.18275502 -0.14100505 0.16471966 0.35949013
-0.3492606 -0.19057803 0.13928755 -0.2326971 0.11646913 -0.38993537 -0.3792044 -0.29295665
0.04764174 0.088517115 0.37969008 0.36390758 0.26482317 0.019815553 0.08997852 0.28238356
-0.20595163 0.40925187 0.23772302 -0.39160678 -0.38077584 0.16770013 -0.02563138 -0.112136275
0.27241075 0.0143574495 -0.21502464 0.084837645 0.24846035 0.30956638 0.29032484 -0.2759097
0.052709695 -0.22486323 -0.32038718 -0.38824573 -0.25842357 0.20223618 0.20896567 -0.03145061
-0.31117916 0.38570163 0.088916324 0.109771594 -0.3013553 -0.05635249 -0.30781326 0.27027056
-0.12737358 0.37008062 -0.39578965 -0.05416272 -0.17430466 0.067870975 0.30930904 0.008704328
0.18894987 0.18391743 0.09868669 0.29333812 0.3669484 -0.3310488 0.19630493 -0.39732495
-0.20386374 -0.1684992 0.21205796 0.033806454 -0.1374408 -0.12086387 0.34018648 0.23660958
-0.28384924 -0.4013034 -0.14858711 -0.4011466 0.44117403 0.20680512 0.21357293 0.026670275
-0.38703945 -0.2686226 -0.2111326 0.3997653 0.4026622 -0.22294162 -0.11400912 0.33877426
0.15966493 0.38201588 0.13053963 -0.32305092 0.118681386 0.008185246 -0.028788352 -0.16970792
0.07624178 -0.39350006 -0.43211386 -0.15165575 -0.19589344 0.07184876 0.23941188 0.101866804
-0.40168932 0.083579235 0.40616977 0.10495312 -0.24315692 -0.029787853 -0.2115091 -0.100355335
0.18416624 -0.32651454 0.044403333 0.29490954 0.20409814 -0.3298987 0.2517679 -0.084100835
-0.097461835 -0.36854407 0.42366964 0.19952913 0.1988661 0.19505532 -0.34807098 -0.2218731
-0.364145 0.22748306 -0.34766695 0.015084144 0.17473078 -0.22278452 0.374476 0.17804843
0.34577426 -0.3486025 -0.32379192 0.31799653 -0.33578524 -0.033749875 -0.09143581 0.01698409
-0.13196804 0.25307778 0.0045408322 0.117018566 -0.39339593 -0.14730646 -0.22343513 0.037008338
-0.3725457 0.041259125 -0.41542256 -0.16980925 -0.072472595 -0.0029542148 0.09562667 -0.2473257
0.28159198 -0.41169685 -0.101336725 -0.21669547 -0.19058472 -0.32340986 0.3760712 -0.38322732
0.35116228 -0.22536127 0.38235113 0.10117251 -0.21054228 -0.41401613 -0.07544542 0.36465827

bias f4 [16]
00000000: 0000 0000 9614 143c d975 373c 9453 223c
00000010: 0000 0000 6531 23bc 74dd 46bc e29a 6a3c
00000020: f518 5d3c 2e04 343c 85b6 efbb 20e9 3dbb
00000030: 1afb d13b 16fd 90bb 0000 0000 91b8 703c
0.0 0.009038111 0.011197531 0.009907622 0.0 -0.009960507 -0.0121377595 0.0143191535
0.01349472 0.010987325 -0.007315459 -0.0028978065 0.0064081075 -0.0044247014 0.0 0.014692442

weight f4 [16, 16]
00000000: 8fd2 313e 9054 1fbe ec4c 84be bb0b e93c
00000010: aaac 04be 99f4 87be 1922 a7be 0aa0 91be
00000020: 6038 95be 63f8 d63e 41b3 523d 6867 6e3d
00000030: dd9a 943e d058 bbbe 251f 933d 5870 f4bd
00000040: 94ef 453e c875 113e a67c 94be aa2f c7be
00000050: 7c3b babd 6462 a8be 0520 fabd 3f26 583e
00000060: 1a47 24bd b848 23bd ec9e 0b3e 45d9 85be
00000070: 45e1 ba3e c75b a2be 5765 1e3e 3ec0 853e
00000080: 10c3 0abc d09e 3ebe 0251 3a3e dd66 febd
00000090: 64bb c7be 31db 593e 2c1e 963e fdb3 2c3e
000000a0: 6da1 aabe 86b5 8fbe 5250 133e bd14 633e
000000b0: 2171 a63d 717e a33e a3ba bc3d 7057 b5be
000000c0: 238c 4d3e 49e9 b83e 93d7 98be e11b d2be
000000d0: 5f94 8e3c 2f77 993e f8eb 4b3e 49fa 8fbe
000000e0: 6d95 463e 3b3f fdbd 6928 96bd adcf 02bd
000000f0: 25e8 b1be b0bc 3fbe 5dae 833c 79f7 823e
00000100: 79c4 83be 10d8 333e 2ad7 a53d cfde 2ebd
00000110: 3e8e e1bd c300 babe c217 0e3e 0be8 72be
00000120: af64 d03e 6177 303e 6a2e 1f3e a71e d53e
00000130: 13ae 2cbd e9c8 33be bc80 513c 4bdb 10be
00000140: d2d5 123e 0d5b ddbe bbfd 8e3d 512b 8abd
00000150: 3a5a e1bd 49d1 7c3e b742 acbe 755f d3bd
00000160: 6db2 a83e 29cd 903d 6e61 8cbe 9e8f 833e
00000170: c24b b9be c2b0 8f3e 2478 34be eccb 193e
00000180: 4e91 a63e 8a4a bf3e e777 fe3d 109e 3a3e
00000190: 472b dabd b103 f1bd ce82 cfbe a27a 523e
000001a0: 0686 a03d 0ca8 fc3d 36fb 91be 2eb2 e0be
000001b0: 6ec1 5c3e 4bdc 5bbe 93fc 10be b120 f03d
000001c0: 9eae 2c3e 88f9 d5be 8698 e4bd e5b4 bd3e
000001d0: 4ee5 a03d c0a7 82be 8db3 ae3e 2b79 cebe
000001e0: 7084 2a3d 2846 c93d f890 313d e776 ca3e
000001f0: b707 a03d fcdd 8fbe c7a1 83bd da25 3bbe
00000200: a240 b83e b913 683d a3c8 c8be 671a d53b
00000210: 7a91 9b3b a4f6 d23c bcd7 d23d 8575 6e3e
00000220: 3875 b0be 5268 083e a181 5ebe 19fc 903e
00000230: 50bd 72be 8943 9ebe 96fe 7ebe a67e 7f3e
00000240: 0de0 a7bd 3cd9 c03e 6b49 b9be 0630 0e3e
00000250: 69da 1dbe 436e 803d 0be0 8c3e df86 613e
00000260: 936d cfbe c76f 82bd 1f19 393e f2a2 dbbe
00000270: bb62 a3be d2a3 dbbe 0f97 723d c68c bd3d
00000280: 378d 38be b6b5 4a3e 5a42 b53d 2a2c 553e
00000290: cd40 c23e 0f48 8bbe df40 a3be aad3 da3e
000002a0: 7a87 4fbe 2163 a23e fcf2 0fbe 6650 9fbd
000002b0: 9e46 2fbe 0ff7 193e 275d e4bc 04e2 bb3e
000002c0: 821c d9be 32e3 9f3c 5c6e bf3d 5ebb 2d3e
000002d0: b722 ac3e 4c20 373e 812f b1be 7bec 9a3d
000002e0: 2ece 1dbe 0b3e 8e3e bf36 36be e7ea 16bd
000002f0: 53f2 0f3e f62e a03e eeb3 54be 944f b43e
00000300: e327 9cbe c20f d3bd b702 8bbe acf6 bb3d
00000310: 6da0 b3be 3a2d 8fbb cf52 99be 0cb1 8e3e
00000320: 1fef c8be fc77 42be 4e2d bcbe 14b8 8bbe
00000330: e469 ff3c 79b5 523e daa7 5d3e c00a afbe
00000340: 7272 9dbd 2237 b7bd a4fe 3b3e 4a40 2dbd
00000350: 5538 69bd c95d 89be 5a81 98be 1f96 07bd
00000360: dafd 523e 7857 62be eca0 b73d e7f2 4e3e
00000370: 982c 20be c237 ca3e 1783 c93e f47a 853e
00000380: 4634 3d3e 05b4 b0be 36e9 6a3e 5f56 55bd
00000390: ddad aa3e ba22 b6be b8ba 7dbc 0e5b c83e
000003a0: c5cd ab3d 5551 0f3e 7953 f3ba aef3 52be
000003b0: b299 593e 4a2c af3e b907 733e 650d 96be
000003c0: 4028 95be 889d d73e d83b 56bd 03b9 3b3e
000003d0: 2cd1 fb3d d2db 8abe c1c3 bf3e 1c8e 803d
000003e0: cc34 52be 9bc2 cc3e 8556 123e 09ec c43d
000003f0: 91e7 96be 79d5 c33e 8f9e 60be 60ac 17be
0.17365478 -0.15559602 -0.25839937 0.028447976 -0.12956491 -0.265538 -0.32643202 -0.28442413
-0.29144573 0.4198638 0.05144048 0.058204085 0.290244 -0.36591196 0.07183675 -0.1193549
0.19329673 0.14205086 -0.2900135 -0.38903552 -0.09093377 -0.32887566 -0.122131385 0.2110834
-0.04010687 -0.039864272 0.13634843 -0.26142326 0.36499992 -0.31710646 0.15468346 0.26123232
-0.008469358 -0.1861527 0.18194965 -0.12421963 -0.39010155 0.21275021 0.29319894 0.16865535
-0.33326283 -0.2806818 0.14386109 0.2217588 0.081270464 0.31932405 0.09215286 -0.35418272
0.20072989 0.36115482 -0.2985197 -0.41036895 0.017404733 0.29973742 0.19914234 -0.2812064
0.19392939 -0.12365576 -0.073319264 -0.031936336 -0.34747425 -0.18724322 0.016074354 0.25579432
-0.25735834 0.1756289 0.0809768 -0.042692956 -0.11013459 -0.36328706 0.1387625 -0.2372133
0.40701815 0.1723304 0.1554505 0.41624948 -0.042158198 -0.1755711 0.01278704 -0.14146154
0.14339378 -0.4323353 0.06981989 -0.06746543 -0.110035375 0.24689211 -0.3364465 -0.10320941
0.32948628 0.07070381 -0.27418083 0.2569551 -0.3619061 0.28064543 -0.17623955 0.15019196
0.32532734 0.37361556 0.12425213 0.18224359 -0.10652786 -0.11768282 -0.40529484 0.20554593
0.07838063 0.1233674 -0.2851197 -0.4388594 0.21558163 -0.21470754 -0.1415885 0.117249854
0.16863486 -0.4179194 -0.11161904 0.37052074 0.078562364 -0.25518608 0.3412136 -0.4032682
0.04163021 0.09827834 0.043351144 0.3954384 0.078139715 -0.28099048 -0.06427341 -0.18276158
0.3598681 0.056659434 -0.39215574 0.0065033915 0.0047475668 0.025752373 0.10295054 0.23287018
-0.3446443 0.13321045 -0.21729137 0.28317335 -0.2370503 -0.309109 -0.24901804 0.24950656
-0.08197031 0.37665737 -0.36188826 0.13885507 -0.15415348 0.06271031 0.2751468 0.22024105
-0.40513286 -0.06368976 0.18075989 -0.42897755 -0.31911263 -0.42898422 0.059226092 0.09255366
-0.18022619 0.1979588 0.08850546 0.20817629 0.37940064 -0.27203414 -0.3188543 0.42739612
-0.20266524 0.31716254 -0.14057535 -0.07779007 -0.17116782 0.15035652 -0.02787645 0.36695874
-0.42404562 0.019517515 0.09347221 0.16966006 0.33620235 0.17883414 -0.34606555 0.07564636
-0.15410683 0.2778171 -0.17794321 -0.036845114 0.14057283 0.31285828 -0.20771763 0.35216963
-0.3049918 -0.1030574 -0.2715051 0.09177908 -0.35083333 -0.004369405 -0.2994599 0.2786945
-0.39244935 -0.18991083 -0.36753315 -0.27288878 0.031178422 0.20577039 0.21646062 -0.3418789
-0.07687844 -0.089460626 0.18358856 -0.04229764 -0.056938488 -0.26829365 -0.29786187 -0.03310215
0.20604649 -0.22103679 0.0896624 0.20209847 -0.15642011 0.39495665 0.39357826 0.26070368
0.18476972 -0.34512344 0.22940525 -0.052084323 0.33335772 -0.3557337 -0.015486412 0.3913197
0.08388857 0.1399587 -0.0018564306 -0.20600769 0.21250036 0.34213477 0.23733415 -0.29307094
-0.2913227 0.42112374 -0.052303165 0.18332295 0.12295756 -0.27120835 0.37454036 0.06277105
-0.20527953 0.39992222 0.14290817 0.09615333 -0.29473546 0.38248804 -0.21935485 -0.1481185

bias f4 [16]
00000000: 0000 0000 43c3 edba bdde 3bbc 87e3 20bc
00000010: f9d8 2d3c 90bb 47bb 1547 3fbc b0a4 1cbc
00000020: 0000 0000 86ca 8fba 397c a83c eb1e e13c
00000030: 0000 0000 45fc b439 bb6a c2ba 0934 eaba
0.0 -0.0018139858 -0.011466679 -0.009819872 0.010610812 -0.0030476786 -0.011674662 -0.009560749
0.0 -0.0010970391 0.020567046 0.027480563 0.0 0.0003452023 -0.0014832834 -0.0017868291
