ad/ad_Tox21_MMP.pt (torch, 347085 bytes, 62 tensors)

weight f4 [16, 1]
0.026835166 -0.3396533 0.04018063 0.18499567 -0.15997416 -0.13583699 0.3522249 0.08982926
-0.51529235 -0.51036406 -0.09574862 0.20177826 -0.33981648 0.4895007 0.04312495 -0.16672735
00000000: 6cd5 db3c 0ae7 adbe 7294 243d 816f 3d3e
00000010: 44d0 23be da18 0bbe d256 b43e 67f8 b73d
00000020: 33ea 03bf 38a7 02bf da17 c4bd f69e 4e3e
00000030: 6dfc adbe d69f fa3e caa3 303d 93ba 2abe

bias f4 [16]
0.018733729 0.0 0.019909475 0.011126268 0.0 0.0 0.02001104 0.020046167
0.0 0.0 0.0 -0.01730635 0.0 0.010284473 0.015471285 0.0
00000000: 7a77 993c 0000 0000 3219 a33c f34a 363c
00000010: 0000 0000 0000 0000 31ee a33c dc37 a43c
00000020: 0000 0000 0000 0000 0000 0000 0cc6 8dbc
00000030: 0000 0000 3580 283c 467b 7d3c 0000 0000

weight f4 [16, 16]
0.06178248 0.103971265 0.3088775 0.2607757 0.16396643 0.30063522 -0.06637152 0.16145758
0.25683957 -0.17704883 -0.28382385 0.27110964 0.37411195 -0.25138178 -0.35254237 0.35985878
0.17973717 -0.28127947 0.3553503 0.06769785 0.033921566 -0.31768882 0.2562732 0.08411613
-0.25816435 0.25817594 0.029971516 -0.36251673 0.1780584 0.054858763 0.38942137 -0.2897792
-0.03631561 -0.2030782 -0.05982591 -0.09340369 -0.115794934 0.25469056 -0.35643727 -0.33507293
-0.055684194 -0.050923154 -0.031601287 -0.1076468 0.41412082 0.09118314 0.01668666 0.11258247
-0.24433267 -0.009473815 -0.016642628 0.20500937 0.021386066 -0.014784289 -0.26040253 0.07639296
0.30108622 -0.25623676 -0.37087432 -0.29098785 0.23929842 0.07734756 0.25052264 0.3350537
-0.2820465 0.019908829 0.29339695 0.21277699 0.1422262 0.27689618 0.2137313 -0.15642907
-0.06704066 0.20885164 0.4104003 -0.015608405 0.15807189 -0.15487166 0.20088917 0.12385139
0.0066849953 0.13559753 0.23096992 0.29171792 0.4327446 -0.4015418 0.33585417 0.341157
0.348571 0.33020762 -0.0947238 -0.056492265 0.26925552 -0.17795189 -0.19421509 -0.15324683
-0.29429087 -0.34958702 0.14354698 -0.36157224 -0.41649514 0.0710669 -0.22960383 -0.16075304
0.4093334 -0.1718053 -0.07197421 -0.035852484 -0.08840412 -0.0018273174 -0.05634342 -0.26349783
0.34521848 0.122642525 0.2603565 -0.33144215 0.19016898 -0.34588492 0.3573548 -0.14527903
-0.2665021 -0.35828805 -0.41457915 -0.102648586 0.3354403 0.32567674 0.064724565 -0.18076804
-0.4254461 0.2617371 0.38589552 0.25579068 -0.2030258 0.20246641 0.27221987 0.07766022
-0.26510432 0.0986118 0.17963737 -0.3472837 0.16745035 -0.38264903 0.26296428 0.2909715
7.918375e-05 0.41086918 0.1800237 0.23764355 -0.29093185 0.060512133 -0.19518827 0.06834472
-0.21658574 0.04415635 0.11386345 -0.22422573 0.03394495 -0.27961287 0.07555673 -0.057785198
-0.38565445 0.1488382 -0.4347349 -0.4186371 0.2585092 -0.121165805 0.16387501 0.0952371
-0.34822264 -0.19870734 0.39041993 0.33787826 -0.10179407 0.024307104 -0.41990286 -0.37467146
0.2860247 0.41237283 -0.3061055 0.12722202 0.15540364 0.05064818 0.16115381 -0.25249082
-0.33199716 -0.2530258 0.36781663 -0.00060797017 0.27121148 -0.2709682 -0.124454305 -0.3000822
0.09655664 0.043456137 -0.013016694 0.021259703 -0.12069199 0.30198443 -0.16483895 0.14234746
0.24596977 -0.19296265 0.2606865 0.28788102 0.1927634 -0.12613238 -0.19582132 -0.38224548
-0.2079433 0.08337786 -0.19551538 0.17596865 -0.19841498 -0.20610292 -0.40496245 -0.27017018
-0.4031825 0.2816497 0.20927517 -0.1968251 -0.31681105 0.30682054 -0.18270381 0.34882492
-0.37665725 -0.07978284 0.23044 0.32982078 -0.3955711 0.20674439 -0.008451963 0.17797467
0.22816452 -0.4056915 0.42082083 0.05206022 0.11499066 -0.22127843 0.404107 0.060504183
0.33660606 0.18122683 -0.35766873 0.4304159 0.20560232 0.2466336 -0.20431489 0.123369165
0.1590014 -0.33009234 0.059776507 -0.2258891 0.26919544 -0.1161827 0.14450008 -0.33193398
00000000: a00f 7d3d e3ee d43d 3125 9e3e 6484 853e
00000010: d1e6 273e dcec 993e cbed 87bd 2355 253e
00000020: 7a80 833e 4a4c 35be 5c51 91be e2ce 8a3e
00000030: 9a8b bf3e 1db5 80be 6f80 b4be 693f b83e
00000040: 050d 383e dd03 90be 79f0 b53e 2ca5 8a3d
00000050: 57f1 0a3d 1ca8 a2be 3e36 833e 1445 ac3d
00000060: 1e2e 84be a32f 843e d386 f53c cb9b b9be
00000070: f154 363e 95b3 603d 3d62 c73e f05d 94be
00000080: adbf 14bd bbf3 4fbe 030c 75bd 6f4a bfbd
00000090: e525 edbd cd66 823e f27e b6be ae8e abbe
000000a0: 1c15 64bd cc94 50bd 5a70 01bd ed75 dcbd
000000b0: a507 d43e 3abe ba3d 76b2 883c a391 e63d
000000c0: 5832 7abe 0f38 1bbc 1f56 88bc faed 513e
000000d0: d531 af3c cd39 72bc 7b53 85be ea73 9c3d
000000e0: f927 9a3e 7731 83be 3de3 bdbe 5cfc 94be
000000f0: a50a 753e 6668 9e3d 8144 803e 298c ab3e
00000100: 6668 90be d717 a33c 2038 963e 36e2 593e
00000110: bfa3 113e 56c5 8d3e 61dc 5a3e f12e 20be
00000120: 9d4c 89bd 34dd 553e fd1f d23e 65ba 7fbc
00000130: 99dd 213e ad96 1ebe e4b5 4d3e cca5 fd3d
00000140: ce0d db3b 14da 0a3e 6183 6c3e 0d5c 953e
00000150: b390 dd3e e396 cdbe 14f5 ab3e 21ac ae3e
00000160: e677 b23e f910 a93e 8dfe c1bd 6f64 67bd
00000170: dcdb 893e 0539 36be 52e0 46be bdec 1cbe
00000180: 4bad 96be 12fd b2be fbfd 123e ff1f b9be
00000190: da3e d5be 868b 913d 441d 6bbe 729c 24be
000001a0: 2694 d13e bbed 2fbe 3767 93bd 0eda 12bd
000001b0: 380d b5bd 9982 efba 5cc8 66bd 30e9 86be
000001c0: 7ac0 b03e 012c fb3d 724d 853e c9b2 a9be
000001d0: a8bb 423e d417 b1be 35f7 b63e 07c4 14be
000001e0: f772 88be 8871 b7be b843 d4be 6c39 d2bd
000001f0: d5be ab3e 1abf a63e 508e 843d 421b 39be
00000200: 12d4 d9be 6802 863e 1994 c53e fff6 823e
00000210: ffe5 4fbe 5b53 4f3e 6760 8b3e 520c 9f3d
00000220: c1bb 87be fcf4 c93d dcf2 373e 2bcf b1be
00000230: 1b78 2b3e 93ea c3be 41a3 863e 37fa 943e
00000240: 740f a638 725d d23e 2258 383e d558 733e
00000250: 05f5 94be 92db 773d 6fdf 47be 51f8 8b3d
00000260: a7c8 5dbe 4add 343d 3e31 e93d 6e9b 65be
00000270: dc09 0b3d 6b29 8fbe 7dbd 9a3d 2cb0 6cbd
00000280: 8074 c5be 0b69 183e 9395 debe 9a57 d6be
00000290: 515b 843e c725 f8bd dace 273e ab0b c33d
000002a0: 3d4a b2be f079 4bbe 1fe5 c73e 61fe ac3e
000002b0: 6979 d0bd b11f c73c 82fd d6be f0d4 bfbe
000002c0: d471 923e 8822 d33e dcb9 9cbe 7d46 023e
000002d0: 2222 1f3e 7774 4f3d 8105 253e 7a46 81be
000002e0: 88fb a9be 998c 81be 7652 bc3e 3060 1fba
000002f0: 3bdc 8a3e 58bc 8abe e6e1 febd 60a4 99be
00000300: 7dbf c53d 10ff 313d f943 55bc d428 ae3c
00000310: 5d2d f7bd b49d 9a3e 8bcb 28be 88c3 113e
00000320: 80df 7b3e 0098 45be b378 853e 2465 933e
00000330: c563 453e d928 01be 6285 48be aeb5 c3be
00000340: 17ef 54be 03c2 aa3d 2f35 48be 2031 343e
00000350: 4c2d 4bbe a50c 53be 3d57 cfbe bf53 8abe
00000360: f06d cebe 6434 903e 3b4c 563e 858c 49be
00000370: 0f35 a2be 9517 9d3e b516 3bbe 2e99 b23e
00000380: 38d9 c0be 3065 a3bd 77f8 6b3e 45de a83e
00000390: 4c88 cabe cdb4 533e 1a7a 0abc fe3e 363e
000003a0: f6a3 693e ccb6 cfbe d475 d73e 193d 553d
000003b0: 3980 eb3d d096 62be 1de7 ce3e 3cd3 773d
000003c0: a157 ac3e 8793 393e 5b20 b7be 795f dc3e
000003d0: 6a89 523e 858d 7c3e ec37 51be f9a8 fc3d
000003e0: 43d1 223e dd01 a9be 36d8 743d 794f 67be
000003f0: fcd3 893e 32f1 edbd d4f7 133e 40f3 a9be

bias f4 [16]
0.0 0.014461756 0.0 0.0 -0.014301631 0.023430152 0.0 0.015869876
0.0 0.0 -0.01851529 0.0 0.0 0.0 0.0 0.0
00000000: 0000 0000 00f1 6c3c 0000 0000 0000 0000
00000010: 6351 6abc 97f0 bf3c 0000 0000 8b01 823c
00000020: 0000 0000 0000 0000 61ad 97bc 0000 0000
00000030: 0000 0000 0000 0000 0000 0000 0000 0000

weight f4 [16, 16]
-0.3727817 -0.3962242 -0.051230393 0.13631256 0.1019799 0.006918048 -0.42444253 -0.3229847
0.27291286 -0.22698332 0.10896072 -0.025879925 -0.09229548 -0.15573566 0.18748592 -0.36065567
-0.31217602 0.25630975 -0.2909222 -0.04962612 -0.32241562 0.12998411 -0.021966316 0.19530873
-0.36108333 -0.22588755 -0.0926802 -0.15713365 -0.038360555 -0.04369116 -0.24814278 0.017294114
-0.38638115 -0.028470535 -0.39633852 0.21077394 0.38107544 0.4095465 0.23749025 -0.3826235
0.38209578 -0.36112624 -0.3083908 -0.10264192 0.18235761 0.39832103 0.28419632 0.3036103
-0.23658407 -0.30953455 -0.17727736 -0.14256142 0.29849368 -0.37631696 -0.13750698 0.02258299
0.39183626 -0.119422674 0.3789804 -0.22942579 0.33631828 -0.39482704 0.048464227 0.37770945
0.012796332 0.38081476 0.036118064 -0.2459006 -0.20391582 -0.1649905 -0.38824213 -0.24201389
-0.13907589 -0.43277746 0.047121767 -0.113444716 0.14864706 0.40685678 0.1268008 -0.0069728163
-0.0071526053 -0.22076322 -0.042782508 -0.03926301 0.030929824 0.08581186 -0.30755708 -0.0588804
-0.33797857 -0.07297191 -0.31577945 -0.37566134 0.15336236 -0.20596841 0.24740613 -0.40298674
0.0563316 -0.19920826 0.417482 -0.09508957 0.41425532 -0.13595851 0.14817303 0.047241267
-0.2953351 0.10309988 -0.27253625 0.28957298 0.14115666 0.0040247957 0.09591032 0.22759202
0.42567906 0.39632323 0.19161075 0.15394685 -0.026292557 0.031776406 -0.31349823 -0.16171266
0.30733988 -0.2831587 0.15880181 -0.1935986 0.16895118 0.047895487 0.005091763 0.21044518
0.21067742 -0.32150948 -0.24938923 0.15698953 0.3035744 0.25274292 -0.23656611 -0.033766866
-0.4174137 0.097270586 -0.3656281 -0.40468603 -0.12586124 -0.16120172 -0.19121003 0.39808878
-0.049443804 0.3745045 0.35978213 -0.033244893 0.37832868 0.15090142 -0.34423795 -0.15210333
-0.19836743 -0.22935785 -0.22374456 0.07638357 0.22319794 -0.31056002 -0.38483134 0.222127
-0.25469345 0.13140988 0.37232414 0.40881664 -0.27734327 -0.13427515 0.17573905 -0.110218465
-0.38323817 0.3547187 -0.23730034 0.3267783 0.08737819 -0.2880373 0.09062359 0.23180687
0.13937347 -0.28310624 0.14402704 -0.41242874 -0.10453872 0.3585176 -0.19992195 0.13379008
0.38500628 0.053817235 -0.11687765 -0.3256518 -0.081489116 0.007992862 -0.24259213 -0.14168565
0.25656208 0.37833858 -0.22429542 -0.31325972 0.2625483 -0.23936877 0.11000048 -0.422938
0.3154576 -0.38265398 0.42609227 -0.19896962 0.31693572 -0.087659255 0.31619972 -0.081496805
0.19591542 -0.3095822 0.033338737 0.31203923 0.4102348 0.15106153 -0.07243362 -0.36970016
-0.02342657 -0.38405374 0.3814245 0.333325 -0.28533804 -0.40292865 0.23567884 0.13653168
-0.3554602 -0.005302159 -0.16923556 0.19230543 -0.29018396 0.2922957 0.20788331 0.2513689
-0.32495546 0.17442983 -0.4050118 -0.10233566 -0.070891395 0.019160662 -0.18594168 -0.25262028
-0.3140951 0.36882034 -0.32939002 0.32236165 0.3644653 -0.15723646 -0.0126902545 0.07288968
-0.32004288 -0.28726357 -0.06814835 -0.10811571 0.20348403 -0.32594383 0.20885077 0.03133452
00000000: 3edd bebe e6dd cabe f6d6 51bd 8595 0b3e
00000010: d6da d03d cbb0 e23b 8850 d9be 405e a5be
00000020: 3cbb 8b3e 516e 68be cc26 df3d 2302 d4bc
00000030: 6a05 bdbd 2b79 1fbe 4ffc 3f3e dca7 b8be
00000040: 89d5 9fbe 083b 833e c1f3 94be c244 4bbd
00000050: a913 a5be 8e1a 053e b4f2 b3bc 03ff 473e
00000060: eadf b8be 114f 67be 1ecf bdbd a5e7 20be
00000070: f51f 1dbd 80f5 32bd 2419 7ebe 63ac 8d3c
00000080: c0d3 c5be 0a3b e9bc e2ec cabe 20d5 573e
00000090: 521c c33e 14b0 d13e a530 733e 3ae7 c3be
000000a0: 0fa2 c33e 8ae5 b8be 66e5 9dbe ed35 d2bd
000000b0: f4bb 3a3e bcf0 cb3e 2e82 913e cf72 9b3e
000000c0: 1843 72be 507b 9ebe 3288 35be 9ffb 11be
000000d0: 2ad4 983e 9eac c0be a1ce 0cbe f6ff b83c
000000e0: c39e c83e e093 f4bd b809 c23e 98ee 6abe
000000f0: e931 ac3e c526 cabe 6d82 463d 2263 c13e
00000100: b5a7 513c 27fa c23e 89f0 133d 5ecd 7bbe
00000110: 4fcf 50be 45f3 28be acc7 c6be 7dd2 77be
00000120: e969 0ebe 0295 ddbe c102 413d b455 e8bd
00000130: ef36 183e 884f d03e 12d8 013e 397c e4bb
00000140: 6760 eabb c10f 62be b63c 2fbd 40d2 20bd
00000150: 8b60 fd3c 21be af3d 1f78 9dbe 932c 71bd
00000160: 870b adbe 4c72 95bd d8ad a1be af56 c0be
00000170: 060b 1d3e 62e9 52be 0858 7d3e 4754 cebe
00000180: f7bb 663d 40fd 4bbe 33c0 d53e 52be c2bd
00000190: 4619 d43e b538 0bbe acba 173e 0f80 413d
000001a0: 2a36 97be 0826 d33d df89 8bbe e942 943e
000001b0: 5f8b 103e 6fe2 833b a16c c43d e20d 693e
000001c0: 9bf2 d93e e1ea ca3e 9c35 443e 3ea4 1d3e
000001d0: 7d63 d7bc fa27 023d d782 a0be 0198 25be
000001e0: a75b 9d3e 2dfa 90be f19c 223e b63e 46be
000001f0: 8a01 2d3e 0f2e 443d ced8 a63b f17e 573e
00000200: d2bb 573e e49c a4be e45f 7fbe ddc1 203e
00000210: 1b6e 9b3e 8567 813e 633e 72be 204f 0abd
00000220: 40b7 d5be cd35 c73d 9b33 bbbe 0233 cfbe
00000230: c5e1 00be 1012 25be 90cc 43be 4bd2 cb3e
00000240: 9685 4abd 0ebf bf3e 5d35 b83e cc2b 08bd
00000250: 4cb4 c13e e785 1a3e f53f b0be fac0 1bbe
00000260: d520 4bbe c9dc 6abe 4b1d 65be fd6e 9c3d
00000270: 008e 643e b901 9fbe 9d08 c5be 4375 633e
00000280: 2e67 82be 5090 063e 45a1 be3e 6a50 d13e
00000290: f0ff 8dbe 6d7f 09be f0f4 333e 38ba e1bd
000002a0: cb37 c4be b09d b53e dcfe 72be 7c4f a73e
000002b0: 56f3 b23d a079 93be dc98 b93d c85e 6d3e
000002c0: ebb7 0e3e 4df3 90be d37b 133e dc29 d3be
000002d0: 6518 d6bd 9e8f b73e 57b8 4cbe 4400 093e
000002e0: 8b1f c53e 766f 5c3d 8d5d efbd d5bb a6be
000002f0: c4e3 a6bd 7ef4 023c 126a 78be 0b16 11be
00000300: 1b5c 833e 98b5 c13e b3ad 65be 9463 a0be
00000310: bb6c 863e 161d 75be ef47 e13d 548b d8be
00000320: a983 a13e 39eb c3be c428 da3e b1be 4bbe
00000330: 6645 a23e b286 b3bd eee4 a13e cce7 a6bd
00000340: 0d9e 483e 8f81 9ebe 338e 083d 9bc3 9f3e
00000350: 4c0a d23e e0af 1a3e 1458 94bd 5749 bdbe
00000360: 14e9 bfbc b1a2 c4be 124a c33e 93a9 aa3e
00000370: d417 92be aa4c cebe cb55 713e f6ce 0b3e
00000380: e1fe b5be bcbd adbb 164c 2dbe b7eb 443e
00000390: fe92 94be c8a7 953e 5ddf 543e 6db3 803e
000003a0: 9060 a6be bc9d 323e b55d cfbe 5c95 d1bd
000003b0: 822f 91bd d2f6 9c3c 7f67 3ebe 7257 81be
000003c0: 13d1 a0be 05d6 bc3e cfa5 a8be 960c a53e
000003d0: 329b ba3e 9802 21be c9ea 4fbc 2f47 953d
000003e0: a9dc a3be 3614 93be 5d91 8bbd c56b ddbd
000003f0: 1e5e 503e 1ce2 a6be fadc 553e a058 003d

bias f4 [16]
0.0 0.010477646 0.0 -0.0033527373 0.0 0.0 0.0 0.00079859945
0.0 0.06742617 0.0 0.06275066 0.0 0.0 0.016010866 0.014686898
00000000: 0000 0000 6faa 2b3c 0000 0000 99b9 5bbb
00000010: 0000 0000 0000 0000 0000 0000 1a59 513a
00000020: 0000 0000 bb16 8a3d 0000 0000 6b83 803d
00000030: 0000 0000 0000 0000 3829 833c 51a1 703c

weight f4 [16, 16]
0.12008634 0.2845421 0.15809579 -0.41060704 0.17846484 -0.27209112 0.109108865 -0.23034814
-0.29708835 0.3062356 -0.1203606 0.4060369 0.10184817 -0.0690999 0.4204888 0.10291259
-0.2201917 -0.04196156 -0.028351707 -0.32641304 0.07693032 -0.42846024 -0.07839507 0.3501164
0.074533746 0.20976974 -0.30191547 -0.15959279 -0.387762 0.04087322 -0.37376973 0.05567733
0.15038776 0.055467762 -0.39070055 -0.38927466 -0.30761328 0.3824807 0.4053119 0.20622583
0.35182804 -0.2305496 0.27226725 0.10249817 0.057705704 0.14171301 0.38934988 -0.2999046
0.2513614 -0.3018611 0.41363978 0.06199293 -0.21577305 0.40944377 0.25440776 0.16980739
0.08479052 0.034929276 -0.25947472 -0.24816146 0.3104694 -0.24734677 -0.20384252 0.12013244
0.32152987 -0.3133854 0.20240776 -0.10652682 0.058703862 0.20545924 0.20624977 -0.12549268
0.4059445 -0.327582 -0.01488541 -0.34010136 0.2869353 -0.34119058 -0.4155472 -0.43168247
0.39596647 0.21893607 0.19854088 -0.3385756 -0.43276203 -0.41730675 0.00021411617 -0.3525492
-0.04540192 0.2543277 0.3142178 -0.43213645 -0.18204753 0.17867732 -0.1463535 -0.003338291
0.35196987 0.29140946 0.30677572 0.26224563 0.1195764 -0.01043455 -0.0873021 0.25053886
0.38981232 0.41155127 -0.12088855 0.56482726 0.20893754 -0.04640911 0.3083365 -0.21229511
0.32522064 -0.23656487 -0.4263552 0.39376563 0.27828613 0.32792562 -0.28626704 0.19731487
0.3690302 0.39965937 0.38105324 -0.08862102 -0.005577448 0.050280392 -0.18085466 -0.2129264
-0.14494029 -0.1438301 -0.29289177 0.22298256 -0.21015787 -0.16605309 -0.38931012 0.38112444
-0.3299109 0.19355077 0.29393527 0.32165468 0.13934998 0.21911265 0.25039306 -0.02309633
0.34952685 0.37830105 0.016311493 -0.100594044 0.2554963 -0.075729094 -0.37540838 -0.37825495
0.08254457 0.092533045 0.41850948 0.19706929 0.14548966 -0.2938549 -0.35076258 0.20575884
-0.41423675 0.34681904 -0.024241326 0.18517904 0.14357166 -0.04796068 -0.25014105 0.35263717
0.20469579 -0.09087169 -0.25218564 0.33144233 0.23077847 -0.30893233 -0.1524558 0.3986703
0.33779836 -0.18617257 -0.26553828 0.15495038 -0.13366997 0.37212038 0.0037486332 0.07567304
-0.34550396 -0.37650248 0.026551489 -0.039844863 -0.317195 -0.0033033665 0.43072632 -0.29585925
-0.40670365 0.28959626 -0.2604143 -0.21235977 -0.100037836 -0.34072414 0.22875944 0.3919915
-0.38085255 0.0914954 0.10717727 0.15561883 -0.08276359 0.16431078 0.29644182 -0.15675531
-0.20066619 0.123938106 -0.40914226 -0.2280936 0.2900309 -0.31775114 -0.28333786 -0.01104831
0.28535047 0.18236473 0.3132245 -0.16907628 -0.020245334 -0.09219508 0.19038858 0.4303858
-0.07975998 -0.027481718 0.30527583 0.36892956 0.012265274 0.34344828 0.30598915 0.05279375
-0.12617828 -0.20385703 -0.24140039 -0.31727403 -0.2630431 -0.25509992 0.37777174 -0.35385153
-0.07132531 -0.06259744 0.24153408 0.39264908 0.3342547 -0.18136285 0.25435448 -0.26264814
-0.3438768 -0.11471016 0.4071988 -0.36028787 -0.39347264 -0.078679025 -0.28614673 0.19435135
00000000: d4ef f53d 81af 913e dde3 213e 163b d2be
00000010: 7dbf 363e 874f 8bbe 7874 df3d 62e0 6bbe
00000020: f71b 98be eaca 9c3e 9e7f f6bd 12e4 cf3e
00000030: c695 d03d 4084 8dbd 4f4a d73e d6c3 d23d
00000040: ef79 61be e2df 2bbd d741 e8bc 9c1f a7be
00000050: a58d 9d3d 245f dbbe 988d a0bd 7542 b33e
00000060: 26a5 983d e1cd 563e aa94 9abe 4b6c 23be
00000070: be88 c6be ad6a 273d bf5e bfbe e90d 643d
00000080: 40ff 193e 2a32 633d e709 c8be 024f c7be
00000090: 7d7f 9dbe 83d4 c33e 0b85 cf3e dd2c 533e
000000a0: ce22 b43e 3215 6cbe 9d66 8b3e 90ea d13d
000000b0: d15c 6c3d 371d 113e de58 c73e 198d 99be
000000c0: 71b2 803e 8a8d 9abe 98c8 d33e 4cec 7d3d
000000d0: 9cf3 5cbe 9da2 d13e bc41 823e fde1 2d3e
000000e0: a7a6 ad3d 0012 0f3d dfd9 84be 0a1e 7ebe
000000f0: d8f5 9e3e 7948 7dbe 18bc 50be ff07 f63d
00000100: 909f a43e 0d74 a0be fb43 4f3e bc2a dabd
00000110: 7673 703d e863 523e 2433 533e 2781 00be
00000120: f5d7 cf3e d4b8 a7be efe1 73bc c421 aebe
00000130: 2fe9 923e 88b0 aebe 9ac2 d4be 7c05 ddbe
00000140: 1ebc ca3e c730 603e 4d4e 4b3e c859 adbe
00000150: fc92 ddbe 3ba9 d5be 5f84 6039 5481 b4be
00000160: 5df7 39bd 3e37 823e 28e1 a03e fd40 ddbe
00000170: ab6a 3abe 30f7 363e b1dd 15be 3bc7 5abb
00000180: 6535 b43e 9f33 953e b511 9d3e 0f45 863e
00000190: 79e4 f43d adf5 2abc 72cb b2bd a146 803e
000001a0: 7b95 c73e d9b6 d23e 6b94 f7bd 8598 103f
000001b0: b9f3 553e 7b17 3ebd 48de 9d3e e463 59be
000001c0: 5283 a63e 103e 72be 3b4b dabe a69b c93e
000001d0: 857b 8e3e dee5 a73e 9891 92be e90c 4a3e
000001e0: 87f1 bc3e 27a0 cc3e 6919 c33e f07e b5bd
000001f0: 06c3 b6bb d0f2 4d3d f731 39be 6109 5abe
00000200: 3a6b 14be 3348 13be e9f5 95be 8a55 643e
00000210: a033 57be d209 2abe a853 c7be be22 c33e
00000220: 15ea a8be 2c32 463e af7e 963e ecaf a43e
00000230: c3b1 0e3e 115f 603e 8533 803e 8434 bdbc
00000240: 2ff5 b23e adb0 c13e ae9f 853c 4004 cebd
00000250: 69d0 823e db17 9bbd 8735 c0be a2aa c1be
00000260: 210d a93d f781 bd3d e046 d63e 88cc 493e
00000270: 3efb 143e 2674 96be 2797 b3be 72b2 523e
00000280: d716 d4be 4492 b13e bf95 c6bc 939f 3d3e
00000290: 7304 133e 6b72 44bd 7d12 80be dc8c b43e
000002a0: c69b 513e f01a babd 7a1e 81be cfb2 a93e
000002b0: 3151 6c3e 612c 9ebe 601d 1cbe 831e cc3e
000002c0: e8f3 ac3e 06a4 3ebe a2f4 87be 50ab 1e3e
000002d0: c8e0 08be 9086 be3e a1ab 753b 77fa 9a3d
000002e0: e5e5 b0be efc4 c0be 8282 d93c 5e34 23bd
000002f0: 6267 a2be 4b7d 58bb 2988 dc3e dd7a 97be
00000300: 763b d0be f645 943e 0655 85be d774 59be
00000310: a3e0 ccbd 6573 aebe ea3f 6a3e 1cb3 c83e
00000320: 1bff c2be f161 bb3d c27f db3d 8b5a 1f3e
00000330: f57f a9bd 1641 283e 39c7 973e 7784 20be
00000340: 707b 4dbe 43d3 fd3d 187b d1be 5e91 69be
00000350: ee7e 943e 47b0 a2be a911 91be f903 35bc
00000360: 7519 923e d2bd 3a3e f65e a03e 5522 2dbe
00000370: 8bd9 a5bc c6d0 bcbd 39f5 423e 875b dc3e
00000380: 3359 a3bd 5721 e1bc 1d4d 9c3e 56e4 bc3e
00000390: 4af4 483c 74d8 af3e 9caa 9c3e 423e 583d
000003a0: e134 01be e6bf 50be aa31 77be be71 a2be
000003b0: 96ad 86be 759c 82be 4c6b c13e 072c b5be
000003c0: 0113 92bd 1633 80bd b654 773e 4d09 c93e
000003d0: 6f23 ab3e 2fb7 39be c03a 823e d179 86be
000003e0: 9f10 b0be 29ed eabd 5c7c d03e a777 b8be
000003f0: 3f75 c9be 7822 a1bd d381 92be 0a04 473e

bias f4 [16]
0.004255528 0.0 0.0036422696 0.0 0.0 0.0037023076 0.0013125904 0.0
0.0070719216 0.01370418 -0.0055167647 0.0 0.010932618 0.0098192 -0.016463937 -0.0019446649
00000000: f571 8b3b 0000 0000 25b3 6e3b 0000 0000
00000010: 0000 0000 6aa2 723b 3a0b ac3a 0000 0000
00000020: 94bb e73b 7f87 603c fac5 b4bb 0000 0000
00000030: b91e 333c b6e0 203c 61df 86bc 20e4 feba

weight f4 [16, 16]
0.06263821 0.09509329 0.2459919 -0.18389064 -0.15292184 0.13904914 -0.22288276 -0.42924407
-0.24825242 -0.15766932 0.102728985 -0.17610513 0.06638679 0.33934927 -0.32567376 0.33740175
0.14854676 -0.24851042 -0.23294462 -0.4321349 -0.15637496 -0.1804127 -0.12540013 -0.31920132
-0.35584936 -0.39972305 -0.27879277 -0.052995097 -0.21426938 -0.19778073 -0.36756504 -0.1129724
0.2912962 0.05766585 -0.028226422 0.2007575 -0.10640562 -0.13469891 -0.036073986 0.35205325
-0.41483024 -0.13247696 0.4238909 0.118045636 -0.09893019 -0.39142567 -0.2760765 0.21057153
0.01269805 0.3600336 -0.051195912 -0.05524729 0.42659867 0.16253674 -0.21693866 0.08123567
-0.31083354 -0.19563146 -0.12979063 0.36831522 0.05456339 -0.21187223 -0.010917086 0.32258955
-0.10746149 -0.30014783 -0.2500115 -0.37144837 -0.3024261 -0.42450458 -0.006481918 -0.3275165
-0.33933774 -0.14753492 -0.30564368 -0.24168709 0.20146814 -0.37256014 -0.091014445 0.28098777
0.2661485 -0.23297016 0.2767035 0.28833124 0.10459818 0.22139487 -0.085442044 -0.07452255
0.1846426 -0.050511878 0.16840154 0.2826168 0.1550769 0.09199296 -0.18301429 -0.13353314
0.032702986 -0.05491569 0.24042824 0.2287883 0.41143838 0.14141686 -0.2939191 0.37859952
0.008806385 -0.40349874 0.28895286 -0.27579093 0.27453306 0.053614046 -0.30818337 0.28069603
-0.07437258 -0.32347044 0.26067302 -0.26226133 0.12365705 0.22856826 0.1695765 0.11913727
0.2005378 -0.34662318 -0.21749483 0.22045197 0.3182636 0.074035585 0.045344457 -0.34309372
-0.094239056 -0.21813618 0.3927588 0.42880946 0.07919289 0.3387943 0.022899425 -0.12447268
-0.33217075 0.35942346 0.11589841 -0.07047586 -0.28934357 0.30279854 0.16940583 -0.24855474
0.4139646 -0.32042357 -0.023679864 0.028223589 0.36561143 0.077727295 0.3213397 -0.28291374
0.25218362 0.3566559 -0.24952014 -0.11361155 0.14988749 0.09084373 0.10271007 -0.06769929
-0.110276125 0.28078997 -0.10027141 0.13044012 -0.25341716 -0.31621006 -0.35405427 0.3908281
-0.19032563 -0.24863431 0.07407052 0.37052542 0.0591323 0.16053309 0.12067144 0.350711
0.18395588 -0.343707 0.034433432 0.36817065 -0.40036097 -0.12152278 -0.38965783 -0.3844332
0.19372854 0.3883128 0.4070529 -0.15600799 0.3512544 -0.30733007 -0.35489675 0.3347439
0.19318649 0.05495048 -0.31522217 -0.01750694 0.35709193 -0.18937738 0.2895254 -0.2063144
-0.36149096 0.3867568 -0.39904156 -0.20028958 -0.055748086 0.33868393 0.0225775 -0.09769624
0.3303658 -0.086849764 0.38589483 0.39075935 0.17997952 0.045593996 0.40338895 -0.4134783
-0.35449067 0.18773358 -0.21229655 -0.3721648 -0.04344596 -0.20419148 0.07606322 -0.24491994
0.0006928837 0.22808452 -0.22651793 0.35756126 -0.16713218 0.3391524 -0.24970762 -0.2924435
0.18977234 0.4110695 -0.22951174 -0.39146337 -0.22203615 0.25091872 -0.3456138 -0.12636028
-0.36374044 -0.026083665 0.33118135 0.009400464 -0.016068418 -0.0564854 0.4136448 0.0808893
0.05017544 0.08632619 0.04924752 0.32388654 0.34506825 0.12466139 0.2482777 -0.35252154
00000000: 7648 803d 45c0 c23d 4de5 7b3e d44d 3cbe
00000010: 8b97 1cbe e662 0e3e 613b 64be e1c5 dbbe
00000020: e235 7ebe 1174 21be 9363 d23d e754 34be
00000030: ccf5 873d 30bf ad3e b6be a6be ecbf ac3e
00000040: a41c 183e 8479 7ebe 0989 6ebe c940 ddbe
00000050: c220 20be 1bbe 38be e468 00be 5b6e a3be
00000060: e331 b6be 80a8 ccbe edbd 8ebe 6311 59bd
00000070: 6f69 5bbe 0887 4abe 7c31 bcbe 135e e7bd
00000080: c724 953e 0733 6c3d 193b e7bc 6093 4d3e
00000090: 31eb d9bd 83ee 09be 51c2 13bd 5340 b43e
000000a0: a164 d4be 0aa8 07be 3a08 d93e e9c1 f13d
000000b0: e99b cabd f268 c8be e659 8dbe 10a0 573e
000000c0: 7b0b 503c 5356 b83e ceb2 51bd fb4a 62bd
000000d0: 246b da3e 0870 263e 2b25 5ebe e35e a63d
000000e0: 9325 9fbe 9d53 48be d6e7 04be d093 bc3e
000000f0: dc7d 5f3d 09f5 58be 94dd 32bc 752a a53e
00000100: c514 dcbd faac 99be 8201 80be 7b2e bebe
00000110: 98d7 9abe aa58 d9be 4566 d4bb 3eb0 a7be
00000120: adbd adbe 6513 17be 547d 9cbe d27c 77be
00000130: aa4d 4e3e 34c0 bebe c865 babd a1dd 8f3e
00000140: 9e44 883e bb8f 6ebe 15ac 8d3e 27a0 933e
00000150: 9237 d63d 56b5 623e 3dfc aebd 479f 98bd
00000160: f312 3d3e 8be5 4ebd 7471 2c3e 26b3 903e
00000170: 7bcc 1e3e ce66 bc3d 1968 3bbe e9bc 08be
00000180: 91f3 053d 46ef 60bd d232 763e 7b47 6a3e
00000190: 0da8 d23e 95cf 103e 907c 96be ccd7 c13e
000001a0: a848 103c 6397 cebe a1f1 933e 7834 8dbe
000001b0: 998f 8c3e 679a 5b3d 36ca 9dbe 64b7 8f3e
000001c0: a750 98bd eb9d a5be ef76 853e 1e47 86be
000001d0: e83f fd3d cc0d 6a3e 76a5 2d3e 3efe f33d
000001e0: c859 4d3e 9878 b1be f7b6 5ebe 29be 613e
000001f0: 72f3 a23e f89f 973d 1cbb 393d fba9 afbe
00000200: 6800 c1bd 175f 5fbe ae17 c93e ea8c db3e
00000210: e22f a23d 7276 ad3e 9397 bb3c 88eb febd
00000220: 4912 aabe 5a06 b83e 255c ed3d a655 90bd
00000230: d724 94be 6908 9b3e b978 2d3e 2285 7ebe
00000240: 2bf3 d33e 8f0e a4be 46fc c1bc 2835 e73c
00000250: 6c31 bb3e 7d2f 9f3d a386 a43e 12da 90be
00000260: 361e 813e 9a9b b63e 3582 7fbe 2cad e8bd
00000270: 1b7c 193e 470c ba3d a859 d23d eda5 8abd
00000280: 73d8 e1bd b4c3 8f3e 195b cdbd 1892 053e
00000290: e5bf 81be 49e6 a1be 9a46 b5be 9f1a c83e
000002a0: b9e4 42be fe99 7ebe 49b2 973d 82b5 bd3e
000002b0: b634 723d c962 243e 9722 f73d 6490 b33e
000002c0: ee5e 3c3e 5dfa afbe 120a 0d3d dd80 bc3e
000002d0: 1dfc ccbe efe0 f8bd 3b81 c7be 6ed4 c4be
000002e0: c660 463e efd0 c63e 3d69 d03e 8fc0 1fbe
000002f0: 9ed7 b33e 5e5a 9dbe 07b5 b5be 8d63 ab3e
00000300: aed2 453e c113 613d cd64 a1be b76a 8fbc
00000310: c1d4 b63e 25ec 41be ac3c 943e 1544 53be
00000320: 5815 b9be fd04 c63e 2d4f ccbe b618 4dbe
00000330: 1b58 64bd fb67 ad3e 73f4 b83c f714 c8bd
00000340: b525 a93e 4ade b1bd 0294 c53e 9c11 c83e
00000350: 8d4c 383e c5c0 3a3d ff88 ce3e 6eb3 d3be
00000360: cd7f b5be 3b3d 403e 4464 59be 628c bebe
00000370: 64f4 31bd 9217 51be 09c7 9b3d 4bcc 7abe
00000380: a3a2 353a fd8e 693e 51f4 67be 4512 b73e
00000390: b324 2bbe 62a5 ad3e 5bb3 7fbe 28bb 95be
000003a0: ae53 423e b477 d23e 2005 6bbe e36d c8be
000003b0: 725d 63be 6b78 803e 4bf4 b0be 9764 01be
000003c0: 303c babe 69ad d5bc 9a90 a93e 6704 1a3c
000003d0: eaa1 83bc 3c5d 67bd 40c9 d33e 4aa9 a53d
000003e0: c384 4d3d c9cb b03d c4b7 493d 75d4 a53e
000003f0: c9ac b03e 794e ff3d 823c 7e3e b47d b4be

bias f4 [16]
0.010701047 0.0 -0.0061288835 0.0 0.0 0.013154259 -0.010639719 -0.005383855
-0.0075658355 0.00426485 0.0 0.012403659 0.0008632545 0.07495216 0.0 0.0076314467
00000000: 7253 2f3c 0000 0000 cdd4 c8bb 0000 0000
00000010: 0000 0000 f684 573c 3752 2ebc 0d6b b0bb
00000020: d4ea f7bb 28c0 8b3b 0000 0000 b738 4b3c
00000030: 074c 623a 8580 993d 0000 0000 3711 fa3b

weight f4 [16, 16]
-0.3556309 0.0053163064 0.13599871 0.0840183 0.21866165 0.3925177 -0.40709412 -0.43097466
0.022281917 -0.27691662 0.1552719 0.10279548 0.023809481 0.04872191 0.030785806 -0.4009454
0.2033083 0.15154542 0.40811536 0.08336124 0.03391728 0.018575056 -0.07277508 0.097330526
0.059992474 0.41168243 -0.21440907 -0.25139514 0.36547765 0.1281847 0.055207595 0.36250502
-0.010746149 0.14123894 0.089181446 0.011083867 0.2672777 -0.23737226 -0.14214961 0.35517973
0.24982165 0.16402394 0.19744278 0.27783054 -0.01068286 0.31423658 0.109914124 -0.091914035
0.1725051 0.15109566 -0.36528322 0.017737161 0.10047484 0.29693234 -0.38478655 -0.3280327
-0.36364612 0.23384914 -0.01863523 -0.4199753 -0.287459 0.47369263 0.21457098 0.31093666
-0.42887866 -0.1730495 0.116029546 0.19878632 0.36550587 -0.40467513 0.23475175 0.072322026
0.43086636 -0.3717943 0.023345787 -0.41550416 -0.12024993 0.22795232 0.28790903 -0.39822975
0.038490478 0.3593738 -0.0853716 -0.07361663 0.056236982 -0.027701203 -0.019098254 0.3893494
-0.15263721 -0.3935476 0.35680747 -0.16145289 -0.19099219 -0.14985484 0.26578796 0.024322111
0.3278006 -0.28219014 -0.10552119 -0.29886964 0.31912482 -0.2875381 -0.32158905 0.36846524
-0.2070312 0.47803745 -0.34612247 0.09187338 0.30885395 0.36973056 -0.16855867 0.0016182489
0.15671198 -0.22034149 -0.24977168 0.23394014 0.10742593 -0.3843778 -0.01848884 0.1638284
-0.41734815 -0.20149606 -0.38699326 -0.42802948 -0.1899915 0.384749 -0.0008198667 -0.026286064
0.08476592 0.0856221 -0.008738235 0.180161 -0.12991984 0.43400088 0.034873392 -0.118904166
-0.033219147 0.2631548 -0.29082212 0.39875552 -0.04639988 0.045429427 -0.18002808 0.25795376
0.14483921 0.15712601 -0.15396105 -0.26591176 -0.15866907 0.1218017 -0.3183697 0.11002732
-0.31743854 -0.09727554 0.017055428 -0.2118853 -0.3970095 0.23358919 -0.08822614 0.07486401
0.4034267 -0.06164646 -0.29081994 -0.16651239 0.38071844 0.2921884 -0.33393908 -0.17569788
-0.18322912 0.23036279 0.35894105 0.24275707 0.12680775 0.124699175 -0.21801223 0.26722616
-0.41628247 -0.3347933 0.351536 -0.106296964 -0.20807979 0.18839031 0.15242052 0.03825435
-0.053495184 0.34776145 0.26242483 0.39239383 0.12947042 0.26779342 0.24875143 -0.3025073
0.10613342 0.048613146 0.23177181 0.14842112 0.003934256 0.39126644 -0.038272906 0.46472612
-0.41424718 0.42892525 -0.29488263 0.10663228 0.3656844 0.34576687 -0.41353178 0.1830386
-0.28749803 0.38306013 0.41061923 0.29563916 0.33141536 -0.27026567 0.0010567986 -0.08437194
0.2575002 -0.094260514 0.32260767 -0.28309512 0.12665921 -0.18835363 0.2487521 0.18058914
-0.16648193 -0.16544862 0.3496126 0.12901475 -0.14157502 -0.3292858 0.2351071 0.29733276
0.19706436 -0.34403375 0.361084 0.20905967 0.19817252 0.3174468 -0.24549064 -0.30206552
0.008080408 -0.25561666 -0.14571938 -0.11268065 -0.30143315 -0.08083309 -0.06175832 -0.16507511
0.16347528 0.05897868 0.410141 -0.3077487 -0.058533624 -0.14088576 -0.19922426 -0.40469372
00000000: 4115 b6be 6934 ae3b 3f43 0b3e c911 ac3d
00000010: d7e8 5f3e 14f8 c83e a46e d0be b6a8 dcbe
00000020: 9188 b63c 04c8 8dbe 99ff 1e3e 7086 d23d
00000030: 1a0c c33c a090 473d 8432 fc3c b748 cdbe
00000040: 0d30 503e b92e 1b3e 7ff4 d03e 4cb9 aa3d
00000050: d9ec 0a3d b72a 983c 1a0b 95bd 3a55 c73d
00000060: abba 753d 0ac8 d23e 0d8e 5bbe ddb6 80be
00000070: e31f bb3e da42 033e 5c21 623d 429a b93e
00000080: 9e10 30bc f1a0 103e c3a4 b63d 1c99 353c
00000090: 9fd8 883e b711 73be ab8f 11be 1eda b53e
000000a0: 3fd1 7f3e e4f5 273e 712e 4a3e ce3f 8e3e
000000b0: 2a07 2fbc 9ee3 a03e a81a e13d 6d3d bcbd
000000c0: 2da5 303e d2b8 1a3e 6706 bbbe 864d 913c
000000d0: c1c5 cd3d 8407 983e be02 c5be e7f3 a7be
000000e0: d32f babe 2676 6f3e e9a8 98bc 0107 d7be
000000f0: d32d 93be d787 f23e 7fb8 5b3e 1733 9f3e
00000100: fc95 dbbe e333 31be e6a0 ed3d a48e 4b3e
00000110: 9623 bb3e 9431 cfbe c362 703e 921d 943d
00000120: 849a dc3e d35b bebe aa3f bf3c f6bc d4be
00000130: 9845 f6bd 556c 693e d068 933e c5e4 cbbe
00000140: 31a8 1d3d d8ff b73e 4ed7 aebd 51c4 96bd
00000150: c058 663d a2ed e2bc f173 9cbc ce58 c73e
00000160: ee4c 1cbe 127f c9be 78af b63e e853 25be
00000170: 7593 43be 8c73 19be 5c15 883e 2a3f c73c
00000180: 7bd5 a73e 3a7b 90be 7e1b d8bd 7105 99be
00000190: 5464 a33e 3238 93be 52a7 a4be 7aa7 bc3e
000001a0: fdff 53be 53c1 f43e f736 b1be 1c28 bc3d
000001b0: 1b22 9e3e 534d bd3e a59a 2cbe 6c1b d43a
000001c0: 1b79 203e 33a1 61be 26c4 7fbe 018e 6f3e
000001d0: 2002 dc3d 2bcd c4be e875 97bc a2c2 273e
000001e0: a8ae d5be fc54 4ebe fb23 c6be ae26 dbbe
000001f0: 228d 42be d2fd c43e 53ec 56ba df55 d7bc
00000200: c199 ad3d a45a af3d d02a 0fbc 207c 383e
00000210: b509 05be 5d35 de3e 67d7 0e3d 0784 f3bd
00000220: cd10 08bd 3abc 863e a3e6 94be af29 cc3e
00000230: cd0d 3ebd 3514 3a3d 4859 38be 8412 843e
00000240: bb50 143e a4e5 203e f7a7 1dbe 9625 88be
00000250: 257a 22be 2b73 f93d 5a01 a3be 0156 e13d
00000260: 4e87 a2be 6638 c7bd d3b7 8b3c 76f8 58be
00000270: d444 cbbe 0132 6f3e e8af b4bd 4d52 993d
00000280: f28d ce3e 0081 7cbd 5ae6 94be 3982 2abe
00000290: 87ed c23e b899 953e 10fa aabe 25ea 33be
000002a0: 6aa0 3bbe 39e4 6b3e 1fc7 b73e 4f95 783e
000002b0: e4d9 013e 4862 ff3d 993e 5fbe ded1 883e
000002c0: fa22 d5be 076a abbe 87fc b33e 39b2 d9bd
000002d0: de12 55be 64e9 403e 2014 1c3e 98b0 1c3d
000002e0: c41d 5bbd ca0d b23e 8c5c 863e d8e7 c83e
000002f0: e593 043e 381c 893e b2b8 7e3e 3de2 9abe
00000300: 7a5c d93d 941e 473d 9755 6d3e b5fb 173e
00000310: eeea 803b 1354 c83e 0dc4 1cbd 95f0 ed3e
00000320: 3518 d4be 179c db3e dbfa 96be 0662 da3d
00000330: fc3a bb3e 5b08 b13e 70ba d3be 796e 3b3e
00000340: f132 93be 7520 c43e af3c d23e 045e 973e
00000350: 46af a93e 4360 8abe 4784 8a3a 32cb acbd
00000360: 11d7 833e a80b c1bd d52c a53e d8f1 90be
00000370: f4b2 013e c6df 40be dfb8 7e3e 5cec 383e
00000380: 3d7a 2abe 5d6b 29be 6c00 b33e 711c 043e
00000390: 0bf9 10be 2698 a8be eabf 703e 003c 983e
000003a0: 3dcb 493e 3125 b0be 01e0 b83e bd13 563e
000003b0: bded 4a3e 6388 a23e e661 7bbe 55a8 9abe
000003c0: b063 043c 30e0 82be 7637 15be 1dc5 e6bd
000003d0: 7255 9abe d28b a5bd 4bf6 7cbd 7309 29be
000003e0: 1066 273e a193 713d 00fe d13e 3d91 9dbe
000003f0: f4c0 6fbd 5b44 10be 7201 4cbe 0434 cfbe

bias f4 [16]
0.0 -0.004754042 3.789806e-05 0.002404512 0.0 0.0 0.11750468 0.0
0.00095346116 0.0 0.0090991175 -0.0020727236 0.0062214583 0.0 0.0 0.0
00000000: 0000 0000 cbc7 9bbb bbf4 1e38 0495 1d3b
00000010: 0000 0000 0000 0000 4ba6 f03d 0000 0000
00000020: b2f1 793a 0000 0000 7714 153c 88d6 07bb
00000030: 60dd cb3b 0000 0000 0000 0000 0000 0000

weight f4 [16, 16]
0.123366944 -0.11736937 -0.4173595 -0.2682854 -0.37374428 -0.27076894 -0.06760553 -0.16651094
-0.04459346 0.076988444 -0.32700494 -0.3183677 -0.21400705 0.40516856 -0.2615987 0.22127673
0.40958983 -0.0995404 0.032655835 -0.1924715 0.37607172 0.42415553 -0.10768377 -0.079833895
-0.08265178 0.086960845 0.37172246 0.29613078 0.20453574 0.34055936 0.3597843 0.37392923
-0.18329397 0.060137805 0.22073865 0.3549599 -0.23665376 0.2920476 -0.15460336 0.16457291
-0.34647357 -0.37885183 0.31505623 0.31439704 0.4161066 0.2351531 -0.2869035 -0.038566772
0.340554 -0.32608745 -0.16818145 -0.08467775 0.34103617 0.25773394 -0.10213042 0.34163737
0.1796498 -0.13001823 -0.42755827 0.41618964 0.38627562 -0.25897846 -0.32833555 0.1349636
0.3008474 0.010012822 -0.40742457 -0.004743489 -0.15637067 0.11552027 -0.38186008 -0.01212327
0.41914588 -0.35390362 -0.34049484 -0.4313075 -0.18275502 -0.14100505 0.16471966 0.35949013
-0.3492606 -0.1753425 0.1528412 -0.1941203 0.11646913 -0.40485808 -0.33397567 -0.29295665
0.063967064 0.088517115 0.39600748 0.3788564 0.28108165 0.02436898 0.09531262 0.28354555
-0.20595163 0.4096726 0.23905012 -0.5700107 -0.38077584 0.18356791 -0.1856549 -0.112136275
0.27356142 0.0143574495 -0.21529083 0.0859701 0.24819562 0.3137921 0.2948975 -0.2759097
0.052709695 -0.22486323 -0.32038718 -0.38824573 -0.25842357 0.1877514 0.20896567 -0.03145061
-0.31798545 0.38479882 0.07463946 0.09375955 -0.31542104 -0.06451917 -0.30781326 0.2603662
-0.12737358 0.3718887 -0.39587456 0.136042 -0.17430466 0.089588985 0.4523314 0.008704328
0.19016731 0.1856826 0.101863146 0.2938262 0.3703529 -0.32559127 0.19291052 -0.3878462
-0.20386374 -0.20038572 0.17687897 -0.0062034247 -0.1374408 -0.13268085 0.30595288 0.23660958
-0.31604588 -0.40338996 -0.19210811 -0.44717222 0.39811748 0.20596722 0.21357293 0.016936703
-0.38703945 -0.27214727 -0.22032891 0.38226825 0.4026622 -0.21892543 -0.11400912 0.33877426
0.15741111 0.38201588 0.12914066 -0.3245772 0.11644108 0.008185246 -0.028788352 -0.16970792
0.07624178 -0.39003485 -0.43211386 -0.14892554 -0.19589344 0.07502413 0.23941188 0.101866804
-0.39580283 0.082026936 0.4077813 0.1089904 -0.2415488 -0.021620158 -0.2115091 -0.093831666
0.18416624 -0.34391332 0.030153286 0.16061565 0.20409814 -0.33517668 0.16354294 -0.084100835
-0.11534332 -0.3673106 0.40469185 0.18341263 0.17973495 0.19312592 -0.3513542 -0.21663147
-0.364145 0.22207303 -0.35111552 -0.057522953 0.17473078 -0.22866414 0.30455175 0.17804843
0.34031072 -0.3486025 -0.3300151 0.3132938 -0.34210896 -0.032058943 -0.08799726 0.01698409
-0.13196804 0.25307778 0.0045408322 0.117018566 -0.39339593 -0.14730646 -0.22343513 0.037008338
-0.3725457 0.041259125 -0.41542256 -0.16980925 -0.072472595 -0.0029542148 0.09562667 -0.2473257
0.28159198 -0.4082831 -0.10005173 -0.03271908 -0.19058472 -0.34547326 0.50894594 -0.38322732
0.35381296 -0.227443 0.3870934 0.10317833 -0.2057507 -0.41906852 -0.08027803 0.35510513
00000000: cfa7 fc3d 5a5f f0bd 25b0 d5be b45c 89be
00000010: 695b bfbe 3aa2 8abe c574 8abd d881 2abe
00000020: a2a7 36bd 1eac 9d3d 316d a7be 1701 a3be
00000030: aa24 5bbe 4172 cf3e 44f0 85be 5e96 623e
00000040: c2b5 d13e d6db cbbd 20c2 053d 4017 45be
00000050: 798c c03e ea2a d93e 4f89 dcbd f47f a3bd
00000060: 5645 a9bd 8718 b23d 6852 be3e 749e 973e
00000070: d171 513e cc5d ae3e a635 b83e a773 bf3e
00000080: 6ab1 3bbe 0f53 763d 5009 623e 4ebd b53e
00000090: 5d55 72be 4387 953e 5850 1ebe cd85 283e
000000a0: fc64 b1be def8 c1be 0d4f a13e a6f8 a03e
000000b0: ed0b d53e f9cb 703e 04e5 92be 31f8 1dbd
000000c0: 185d ae3e eff4 a6be c237 2cbe 876b adbd
000000d0: 4b9c ae3e b4f5 833e c129 d1bd 18eb ae3e
000000e0: 1ef6 373e 8023 05be ebe8 dabe cf16 d53e
000000f0: ebc5 c53e d398 84be 991b a8be e633 0a3e
00000100: ac08 9a3e d20c 243c f499 d0be 456f 9bbb
00000110: a21f 20be e495 ec3d 2a83 c3be aea0 46bc
00000120: 4a9a d63e db32 b5be 5755 aebe 56d4 dcbe
00000130: 2224 3bbe a163 10be 45ac 283e 170f b83e
00000140: 49d2 b2be fc8c 33be 6782 1c3e 79c7 46be
00000150: 5e87 ee3d 8f49 cfbe dcfe aabe 6afe 95be
00000160: 2a01 833d 7648 b53d 7ec1 ca3e 77f9 c13e
00000170: efe9 8f3e 75a1 c73c 4333 c33d e22c 913e
00000180: fce4 52be 9bc0 d13e 8ec9 743e 39ec 11bf
00000190: 0df5 c2be 3af9 3b3e 511c 3ebe b4a7 e5bd
000001a0: 3e10 8c3e 823b 6b3c 3375 5cbe 1711 b03d
000001b0: fe26 7e3e 5ca9 a03e cefc 963e 0944 8dbe
000001c0: 1fe6 573d 8c42 66be ca09 a4be 25c8 c6be
000001d0: 1850 84be e741 403e 19fb 553e 5bd2 00bd
000001e0: fdce a2be 5a04 c53e 93dc 983d 0205 c03d
000001f0: de7e a1be a022 84bd b399 9dbe b84e 853e
00000200: 386e 02be 3268 be3e 12b0 cabe 984e 0b3e
00000210: ec7c 32be 6e7a b73d fb97 e73e 999c 0e3c
00000220: 38bb 423e 9423 3e3e a09d d03d 6370 963e
00000230: e59e bd3e e6b3 a6be 568a 453e c793 c6be
00000240: a8c1 50be ea31 4dbe c31f 353e 1946 cbbb
00000250: 48bd 0cbe 7ddd 07be dba5 9c3e c849 723e
00000260: c4d0 a1be 2189 cebe fdb7 44be c2f3 e4be
00000270: 0ed6 cb3e 12e9 523e ddb2 5a3e d7be 8a3c
00000280: 092a c6be e356 8bbe e79d 61be aab8 c33e
00000290: bd29 ce3e fd2d 60be 9d7d e9bd d273 ad3e
000002a0: 6130 213e 9697 c33e 733d 043e fc2e a6be
000002b0: a978 ee3d 691b 063c 8dd5 ebbc eac7 2dbe
000002c0: a624 9c3d a6b2 c7be 073e ddbe f07f 18be
000002d0: 4a98 48be 40a6 993d 6328 753e 8b9f d03d
000002e0: aba6 cabe bdfd a73d b6c8 d03e 5c36 df3d
000002f0: 9258 77be c21c b1bc d795 58be d12a c0bd
00000300: 1396 3c3e 6815 b0be 0604 f73c 6e78 243e
00000310: 1aff 503e 479c abbe cd77 273e 0f3d acbd
00000320: 1e39 ecbd 2310 bcbe c533 cf3e 85d0 3b3e
00000330: 700c 383e cdc2 453e b3e4 b3be a4d4 5dbe
00000340: 3771 babe 1d67 633e 6ac5 b3be 309d 6bbd
00000350: a0ec 323e ef26 6abe 35ee 9b3e 5452 363e
00000360: 353d ae3e 077c b2be bdf7 a8be 0c68 a03e
00000370: e828 afbe 3d50 03bd e837 b4bd 3822 8b3c
00000380: a122 07be 6993 813e 43cb 943b 6ea7 ef3d
00000390: 316b c9be 81d7 16be 2ecc 64be 0e96 173d
000003a0: 4fbe bebe 54ff 283d 44b2 d4be 7ae2 2dbe
000003b0: 836c 94bd 809b 41bb ead7 c33d f342 7dbe
000003c0: d32c 903e 7c0a d1be ece7 ccbd 7104 06bd
000003d0: a428 43be dfe1 b0be 484a 023f 5f36 c4be
000003e0: f926 b53e d1e6 68be 1b31 c63e 294f d33d
000003f0: 50b0 52be 2690 d6be cf68 a4bd 57d0 b53e

bias f4 [16]
0.0 0.0051662186 -0.0080470415 -0.008275922 0.0 0.008170219 -0.0047072535 0.0
0.008495091 -0.0300022 -0.009630758 0.0 -0.011922013 -0.007076494 0.0 0.007868577
00000000: 0000 0000 6249 a93b bdd7 03bc bc97 07bc
00000010: 0000 0000 62dc 053c 4e3f 9abb 0000 0000
00000020: ff2e 0b3c 2cc7 f5bc 54ca 1dbc 0000 0000
00000030: 8c54 43bc efe1 e7bb 0000 0000 34eb 003c

weight f4 [16, 16]
0.17365478 -0.15559602 -0.25839937 0.028447976 -0.12956491 -0.265538 -0.32643202 -0.28442413
-0.29144573 0.4198638 0.05144048 0.058204085 0.290244 -0.36591196 0.07183675 -0.1193549
0.19329673 0.14397831 -0.28799483 -0.3873663 -0.09093377 -0.32776794 -0.12189079 0.2110834
-0.038566567 -0.039864272 0.1380416 -0.26142326 0.36697537 -0.31710646 0.15468346 0.2630682
-0.008469358 -0.18672282 0.18117346 -0.12316381 -0.39010155 0.2122451 0.29315966 0.16865535
-0.33371136 -0.2806818 0.13915892 0.2217588 0.08024544 0.3211928 0.09215286 -0.35321477
0.20072989 0.38126874 -0.27904204 -0.39198658 0.017404733 0.31937382 0.21788345 -0.2812064
0.21431062 -0.11427854 -0.06194186 -0.030165603 -0.32605514 -0.173772 0.016074354 0.27988464
-0.25735834 0.17337371 0.07846894 -0.043688804 -0.11013459 -0.36557013 0.13693072 -0.23632912
0.40489233 0.1730278 0.16029859 0.4160077 -0.045205787 -0.175573 0.01278704 -0.14196473
0.14339378 -0.42646283 0.075315654 -0.062958255 -0.110035375 0.25271833 -0.33120537 -0.10320941
0.33521855 0.065466784 -0.2772111 0.2569551 -0.3556144 0.28443936 -0.17623955 0.15863091
0.32532734 0.3902628 0.14237219 0.19485074 -0.10652786 -0.103043124 -0.39147153 0.20327781
0.09583652 0.14136432 -0.27890807 -0.42883763 0.23585457 -0.20838062 -0.1415885 0.13508192
0.16863486 -0.4165644 -0.11036274 0.3720702 0.078562364 -0.25380212 0.34257352 -0.4032682
0.042981237 0.09827834 0.043351144 0.3954384 0.07971208 -0.27943906 -0.06427341 -0.18037531
0.3598681 0.056659434 -0.39215574 0.0065033915 0.0047475668 0.025752373 0.10295054 0.23287018
-0.3446443 0.13321045 -0.21729137 0.28317335 -0.2370503 -0.309109 -0.24901804 0.24950656
-0.08197031 0.37774196 -0.3608059 0.13994092 -0.15415348 0.06308194 0.2751468 0.22132628
-0.40405476 -0.06267673 0.18075989 -0.42889982 -0.31805336 -0.42898422 0.059226092 0.0936385
-0.18022619 0.17471947 0.06503944 0.18425822 0.37940064 -0.28965676 -0.33620173 0.41121987
-0.22523984 0.3050191 -0.14634882 -0.0933307 -0.19310945 0.13240829 -0.02787645 0.3458398
-0.42404562 -0.010133508 0.063868254 0.1401124 0.33620235 0.14963417 -0.37476045 0.0594287
-0.18357313 0.265944 -0.18863872 -0.052212756 0.111057535 0.2840923 -0.20771763 0.3224953
-0.3049918 -0.1030574 -0.2715051 0.09177908 -0.35083333 -0.004369405 -0.2994599 0.2786945
-0.39244935 -0.18991083 -0.36753315 -0.27288878 0.031178422 0.20577039 0.21646062 -0.3418789
-0.07687844 0.0002604932 0.28046682 0.04127943 -0.056938488 -0.18235429 -0.21653064 -0.020464612
0.29928255 -0.20376037 0.09224851 0.21196453 -0.05924431 0.4823067 0.39357826 0.35657135
0.18476972 -0.349018 0.22539243 -0.0559413 0.33335772 -0.36107922 -0.020705078 0.39306077
0.07993368 0.14150028 -0.0018564306 -0.2049959 0.20847791 0.3364614 0.23733415 -0.2969599
-0.2913227 0.41340125 -0.059680577 0.1751419 0.12295756 -0.27902392 0.3668565 0.076935485
-0.21323961 0.40884084 0.14069897 0.1051935 -0.30281916 0.3744586 -0.21935485 -0.15799995
00000000: 8fd2 313e 9054 1fbe ec4c 84be bb0b e93c
00000010: aaac 04be 99f4 87be 1922 a7be 0aa0 91be
00000020: 6038 95be 63f8 d63e 41b3 523d 6867 6e3d
00000030: dd9a 943e d058 bbbe 251f 933d 5870 f4bd
00000040: 94ef 453e 0d6f 133e 0f74 93be e054 c6be
00000050: 7c3b babd 33d1 a7be e1a1 f9bd 3f26 583e
00000060: faf7 1dbd b848 23bd c75a 0d3e 45d9 85be
00000070: 32e4 bb3e c75b a2be 5765 1e3e e0b0 863e
00000080: 10c3 0abc 4434 3fbe 8985 393e 4f3d fcbd
00000090: 64bb c7be c856 593e 0619 963e fdb3 2c3e
000000a0: 37dc aabe 86b5 8fbe ad7f 0e3e bd14 633e
000000b0: b957 a43d 6273 a43e a3ba bc3d 91d8 b4be
000000c0: 238c 4d3e a835 c33e 99de 8ebe 77b2 c8be
000000d0: 5f94 8e3c f784 a33e d71c 5f3e 49fa 8fbe
000000e0: 3e74 5b3e de0a eabd bfb6 7dbd db1d f7bc
000000f0: b3f0 a6be 4af1 31be 5dae 833c 0a4d 8f3e
00000100: 79c4 83be e188 313e 53b4 a03d 08f3 32bd
00000110: 3e8e e1bd 022c bbbe 9137 0c3e 4300 72be
00000120: 0c4e cf3e 332e 313e 5025 243e f6fe d43e
00000130: b429 39bd 69c9 33be bc80 513c 345f 11be
00000140: d2d5 123e 5659 dabe 183f 9a3d 42f0 80bd
00000150: 3a5a e1bd 4c64 813e c093 a9be 755f d3bd
00000160: c4a1 ab3e 7313 863d 9dee 8dbe 9e8f 833e
00000170: 1713 b6be 09a2 913e 2478 34be 2470 223e
00000180: 4e91 a63e 87d0 c73e 04ca 113e f486 473e
00000190: 472b dabd 4608 d3bd f56e c8be 0f28 503e
000001a0: f045 c43d cfc1 103e 0acd 8ebe 9b90 dbbe
000001b0: dc83 713e bb61 55be 93fc 10be ea52 0a3e
000001c0: 9eae 2c3e ee47 d5be dc05 e2bd fc7f be3e
000001d0: 4ee5 a03d 5af2 81be cc65 af3e 2b79 cebe
000001e0: 180d 303d 2846 c93d f890 313d e776 ca3e
000001f0: 1640 a33d a312 8fbe c7a1 83bd 4eb4 38be
00000200: a240 b83e b913 683d a3c8 c8be 671a d53b
00000210: 7a91 9b3b a4f6 d23c bcd7 d23d 8575 6e3e
00000220: 3875 b0be 5268 083e a181 5ebe 19fc 903e
00000230: 50bd 72be 8943 9ebe 96fe 7ebe a67e 7f3e
00000240: 0de0 a7bd 6567 c13e 8dbb b8be ac4c 0f3e
00000250: 69da 1dbe 1b31 813d 0be0 8c3e 5ba3 623e
00000260: 44e0 cebe a85c 80bd 1f19 393e c298 dbbe
00000270: e4d7 a2be d2a3 dbbe 0f97 723d 8bc5 bf3d
00000280: 378d 38be a9e9 323e 6633 853d 30ae 3c3e
00000290: cd40 c23e e44d 94be a222 acbe 698b d23e
000002a0: 46a5 66be 772b 9c3e 77dc 15be 2b24 bfbd
000002b0: 7cbe 45be 0a96 073e 275d e4bc ea11 b13e
000002c0: 821c d9be 0307 26bc 5ccd 823d a079 0f3e
000002d0: b722 ac3e b339 193e 9ae0 bfbe 826b 733d
000002e0: 98fa 3bbe d029 883e 822a 41be 0bdd 55bd
000002f0: 2272 e33d 8c74 913e eeb3 54be 1b1e a53e
00000300: e327 9cbe c20f d3bd b702 8bbe acf6 bb3d
00000310: 6da0 b3be 3a2d 8fbb cf52 99be 0cb1 8e3e
00000320: 1fef c8be fc77 42be 4e2d bcbe 14b8 8bbe
00000330: e469 ff3c 79b5 523e daa7 5d3e c00a afbe
00000340: 7272 9dbd ce92 8839 5999 8f3e 9f14 293d
00000350: 5538 69bd 15bb 3abe 35ba 5dbe 67a5 a7bc
00000360: 903b 993e 8fa6 50be c9ec bc3d 3b0d 593e
00000370: 29aa 72bd e7f0 f63e 1783 c93e 8590 b63e
00000380: 4634 3d3e 7db2 b2be 46cd 663e b422 65bd
00000390: ddad aa3e 60df b8be b29d a9bc 433f c93e
000003a0: 45b4 a33d 73e5 103e 7953 f3ba 72ea 51be
000003b0: 3c7b 553e ab44 ac3e b907 733e 210b 98be
000003c0: 4028 95be 54a9 d33e 9f73 74bd 6658 333e
000003d0: 2cd1 fb3d 39dc 8ebe 9dd4 bb3e 5a90 9d3d
000003e0: 7c5b 5abe 9653 d13e 6413 103e b16f d73d
000003f0: 1d0b 9bbe 0ab9 bf3e 8f9e 60be bdca 21be

bias f4 [16]
0.0 0.0 -0.0054130983 0.010461024 -0.0048575574 0.005175026 0.0016237256 -0.0011996455
0.0 0.0 0.0 0.0 0.0 0.090815395 -0.0053716395 -0.0052478826
00000000: 0000 0000 0000 0000 5c60 b1bb b764 2b3c
00000010: 252c 9fbb 4493 a93b 31d3 d43a 6c3d 9dba
00000020: 0000 0000 0000 0000 0000 0000 0000 0000
00000030: 0000 0000 6cfd b93d 9404 b0bb 6ef6 abbb
