ad/ad_Tox21_p53.pt (torch, 347085 bytes, 62 tensors)

weight f4 [16, 1]
00000000: 8efc dc3c 0ae7 adbe ab5b 233d 473f 3d3e
00000010: 44d0 23be da18 0bbe 706a b43e de1b b63d
00000020: 33ea 03bf 38a7 02bf da17 c4bd 16b6 4e3e
00000030: 6dfc adbe 6b8b fa3e e1b0 303d 93ba 2abe
0.026975896 -0.3396533 0.039882343 0.1848117 -0.15997416 -0.13583699 0.35237455 0.08892034
-0.51529235 -0.51036406 -0.09574862 0.20186648 -0.33981648 0.48934492 0.043137435 -0.16672735

bias f4 [16]
00000000: 32a9 9c3c 0000 0000 4dd8 a23c 0c27 373c
00000010: 0000 0000 0000 0000 5522 a63c 4ba3 9d3c
00000020: 0000 0000 0000 0000 0000 0000 6f34 8dbc
00000030: 0000 0000 70f6 263c 68ad 813c 0000 0000
0.019123647 0.0 0.01987853 0.011178743 0.0 0.0 0.020280043 0.019242903
0.0 0.0 0.0 -0.017236916 0.0 0.010190591 0.015829757 0.0

weight f4 [16, 16]
00000000: a00f 7d3d e3ee d43d 3125 9e3e 6484 853e
00000010: d1e6 273e dcec 993e cbed 87bd 2355 253e
00000020: 7a80 833e 4a4c 35be 5c51 91be e2ce 8a3e
00000030: 9a8b bf3e 1db5 80be 6f80 b4be 693f b83e
00000040: f210 383e dd03 90be e0e9 b53e 5a46 8a3d
00000050: 57f1 0a3d 1ca8 a2be af1f 833e 1ee6 ab3d
00000060: 1e2e 84be a32f 843e d386 f53c d2b3 b9be
00000070: f154 363e 85f9 5f3d c052 c73e f05d 94be
00000080: adbf 14bd bbf3 4fbe 030c 75bd 6f4a bfbd
00000090: e525 edbd cd66 823e f27e b6be ae8e abbe
000000a0: 1c15 64bd cc94 50bd 5a70 01bd ed75 dcbd
000000b0: a507 d43e 3abe ba3d 76b2 883c a391 e63d
000000c0: 5832 7abe 0f38 1bbc 1f56 88bc faed 513e
000000d0: d531 af3c cd39 72bc 7b53 85be ea73 9c3d
000000e0: f927 9a3e 7731 83be 3de3 bdbe 5cfc 94be
000000f0: a50a 753e 6668 9e3d 8144 803e 298c ab3e
00000100: 9896 90be d717 a33c 4b27 963e 300a 5a3e
00000110: bfa3 113e 56c5 8d3e b4ff 5a3e 7606 20be
00000120: 9d4c 89bd 34dd 553e fd1f d23e 0b3d 7dbc
00000130: 99dd 213e c86f 1ebe 5daf 4d3e cca5 fd3d
00000140: 4c6f d83b 14da 0a3e 2fe4 6b3e 74d6 943e
00000150: b390 dd3e e396 cdbe e774 ab3e c123 ae3e
00000160: e677 b23e f910 a93e 8dfe c1bd 2471 6bbd
00000170: dcdb 893e 3c3e 37be 0ac0 47be bdec 1cbe
00000180: 4bad 96be 12fd b2be fbfd 123e ff1f b9be
00000190: da3e d5be 868b 913d 441d 6bbe 729c 24be
000001a0: 2694 d13e bbed 2fbe 3767 93bd 0eda 12bd
000001b0: 380d b5bd 9982 efba 5cc8 66bd 30e9 86be
000001c0: 4020 b13e 012c fb3d 4d87 853e 7ab0 a9be
000001d0: a8bb 423e d417 b1be 49fc b63e 6db4 14be
000001e0: f772 88be 8871 b7be b843 d4be ed43 d2bd
000001f0: d5be ab3e c1c0 a63e 392c 853d 421b 39be
00000200: 12d4 d9be 6802 863e 1994 c53e fff6 823e
00000210: ffe5 4fbe 5b53 4f3e 6760 8b3e 520c 9f3d
00000220: c1bb 87be fcf4 c93d dcf2 373e 2bcf b1be
00000230: 1b78 2b3e 93ea c3be 41a3 863e 37fa 943e
00000240: 740f a638 725d d23e 2258 383e d558 733e
00000250: 05f5 94be 92db 773d 6fdf 47be 51f8 8b3d
00000260: a7c8 5dbe 4add 343d 3e31 e93d 6e9b 65be
00000270: dc09 0b3d 6b29 8fbe 7dbd 9a3d 2cb0 6cbd
00000280: d9eb c5be 0b69 183e 52bc debe 1c36 d6be
00000290: 515b 843e c725 f8bd 180a 283e 476c c33d
000002a0: 3d4a b2be f079 4bbe 1fe5 c73e 7425 ad3e
000002b0: 6979 d0bd c739 c93c 29fd d6be f0d4 bfbe
000002c0: d471 923e 8822 d33e dcb9 9cbe 7d46 023e
000002d0: 2222 1f3e 7774 4f3d 8105 253e 7a46 81be
000002e0: 88fb a9be 998c 81be 7652 bc3e 3060 1fba
000002f0: 3bdc 8a3e 58bc 8abe e6e1 febd 60a4 99be
00000300: 7dbf c53d 10ff 313d f943 55bc d428 ae3c
00000310: 5d2d f7bd b49d 9a3e 8bcb 28be 88c3 113e
00000320: 80df 7b3e 0098 45be b378 853e 2465 933e
00000330: c563 453e d928 01be 6285 48be aeb5 c3be
00000340: 17ef 54be 03c2 aa3d 2f35 48be 2031 343e
00000350: 4c2d 4bbe a50c 53be 3d57 cfbe bf53 8abe
00000360: f06d cebe 6434 903e 3b4c 563e 858c 49be
00000370: 0f35 a2be 9517 9d3e b516 3bbe 2e99 b23e
00000380: 38d9 c0be 3065 a3bd 77f8 6b3e 45de a83e
00000390: 4c88 cabe cdb4 533e 1a7a 0abc fe3e 363e
000003a0: f6a3 693e ccb6 cfbe d475 d73e 193d 553d
000003b0: 3980 eb3d d096 62be 1de7 ce3e 3cd3 773d
000003c0: a157 ac3e 8793 393e 5b20 b7be 795f dc3e
000003d0: 6a89 523e 858d 7c3e ec37 51be f9a8 fc3d
000003e0: 43d1 223e dd01 a9be 36d8 743d 794f 67be
000003f0: fcd3 893e 32f1 edbd d4f7 133e 40f3 a9be
0.06178248 0.103971265 0.3088775 0.2607757 0.16396643 0.30063522 -0.06637152 0.16145758
0.25683957 -0.17704883 -0.28382385 0.27110964 0.37411195 -0.25138178 -0.35254237 0.35985878
0.17975214 -0.28127947 0.35529995 0.067517 0.033921566 -0.31768882 0.2561011 0.08393501
-0.25816435 0.25817594 0.029971516 -0.36270005 0.1780584 0.05468132 0.3893032 -0.2897792
-0.03631561 -0.2030782 -0.05982591 -0.09340369 -0.115794934 0.25469056 -0.35643727 -0.33507293
-0.055684194 -0.050923154 -0.031601287 -0.1076468 0.41412082 0.09118314 0.01668666 0.11258247
-0.24433267 -0.009473815 -0.016642628 0.20500937 0.021386066 -0.014784289 -0.26040253 0.07639296
0.30108622 -0.25623676 -0.37087432 -0.29098785 0.23929842 0.07734756 0.25052264 0.3350537
-0.28239894 0.019908829 0.29326853 0.21292949 0.1422262 0.27689618 0.21386606 -0.15627465
-0.06704066 0.20885164 0.4104003 -0.015456448 0.15807189 -0.15472329 0.20086427 0.12385139
0.0066050645 0.13559753 0.23036264 0.29069865 0.4327446 -0.4015418 0.33487627 0.34011653
0.348571 0.33020762 -0.0947238 -0.057480946 0.26925552 -0.17894834 -0.19506851 -0.15324683
-0.29429087 -0.34958702 0.14354698 -0.36157224 -0.41649514 0.0710669 -0.22960383 -0.16075304
0.4093334 -0.1718053 -0.07197421 -0.035852484 -0.08840412 -0.0018273174 -0.05634342 -0.26349783
0.34594917 0.122642525 0.2607979 -0.33142453 0.19016898 -0.34588492 0.35739353 -0.14521952
-0.2665021 -0.35828805 -0.41457915 -0.10266862 0.3354403 0.32568935 0.065025754 -0.18076804
-0.4254461 0.2617371 0.38589552 0.25579068 -0.2030258 0.20246641 0.27221987 0.07766022
-0.26510432 0.0986118 0.17963737 -0.3472837 0.16745035 -0.38264903 0.26296428 0.2909715
7.918375e-05 0.41086918 0.1800237 0.23764355 -0.29093185 0.060512133 -0.19518827 0.06834472
-0.21658574 0.04415635 0.11386345 -0.22422573 0.03394495 -0.27961287 0.07555673 -0.057785198
-0.386565 0.1488382 -0.43503052 -0.41838157 0.2585092 -0.121165805 0.164101 0.09542137
-0.34822264 -0.19870734 0.39041993 0.33817637 -0.10179407 0.024563683 -0.4199002 -0.37467146
0.2860247 0.41237283 -0.3061055 0.12722202 0.15540364 0.05064818 0.16115381 -0.25249082
-0.33199716 -0.2530258 0.36781663 -0.00060797017 0.27121148 -0.2709682 -0.124454305 -0.3000822
0.09655664 0.043456137 -0.013016694 0.021259703 -0.12069199 0.30198443 -0.16483895 0.14234746
0.24596977 -0.19296265 0.2606865 0.28788102 0.1927634 -0.12613238 -0.19582132 -0.38224548
-0.2079433 0.08337786 -0.19551538 0.17596865 -0.19841498 -0.20610292 -0.40496245 -0.27017018
-0.4031825 0.2816497 0.20927517 -0.1968251 -0.31681105 0.30682054 -0.18270381 0.34882492
-0.37665725 -0.07978284 0.23044 0.32982078 -0.3955711 0.20674439 -0.008451963 0.17797467
0.22816452 -0.4056915 0.42082083 0.05206022 0.11499066 -0.22127843 0.404107 0.060504183
0.33660606 0.18122683 -0.35766873 0.4304159 0.20560232 0.2466336 -0.20431489 0.123369165
0.1590014 -0.33009234 0.059776507 -0.2258891 0.26919544 -0.1161827 0.14450008 -0.33193398

bias f4 [16]
00000000: 0000 0000 08d1 693c 0000 0000 0000 0000
00000010: 8442 69bc 33d9 ba3c 0000 0000 41e4 833c
00000020: 0000 0000 0000 0000 bf8d 9bbc 0000 0000
00000030: 0000 0000 0000 0000 0000 0000 0000 0000
0.0 0.014271028 0.0 0.0 -0.01423705 0.022808647 0.0 0.01610005
0.0 0.0 -0.018988488 0.0 0.0 0.0 0.0 0.0

weight f4 [16, 16]
00000000: 3edd bebe e6dd cabe f6d6 51bd 8595 0b3e
00000010: d6da d03d cbb0 e23b 8850 d9be 405e a5be
00000020: 3cbb 8b3e 516e 68be cc26 df3d 2302 d4bc
00000030: 6a05 bdbd 2b79 1fbe 4ffc 3f3e dca7 b8be
00000040: 89d5 9fbe ee11 833e c1f3 94be c244 4bbd
00000050: e93c a5be 6eaa 043e b4f2 b3bc fb95 473e
00000060: eadf b8be 114f 67be a629 bebd a5e7 20be
00000070: f51f 1dbd 80f5 32bd 2419 7ebe 63ac 8d3c
00000080: c0d3 c5be 0a3b e9bc e2ec cabe 20d5 573e
00000090: 521c c33e 14b0 d13e a530 733e 3ae7 c3be
000000a0: 0fa2 c33e 8ae5 b8be 66e5 9dbe ed35 d2bd
000000b0: f4bb 3a3e bcf0 cb3e 2e82 913e cf72 9b3e
000000c0: 1843 72be d472 9ebe 3288 35be 9ffb 11be
000000d0: 66dd 983e b5a3 c0be a1ce 0cbe 629b b93c
000000e0: c39e c83e e093 f4bd 6614 c23e 98ee 6abe
000000f0: e931 ac3e c526 cabe 6d82 463d 2263 c13e
00000100: b5a7 513c 27fa c23e 89f0 133d 5ecd 7bbe
00000110: 4fcf 50be 45f3 28be acc7 c6be 7dd2 77be
00000120: e969 0ebe 0295 ddbe c102 413d b455 e8bd
00000130: ef36 183e 884f d03e 12d8 013e 397c e4bb
00000140: 6760 eabb c10f 62be b63c 2fbd 40d2 20bd
00000150: 8b60 fd3c 21be af3d 1f78 9dbe 932c 71bd
00000160: 870b adbe 4c72 95bd d8ad a1be af56 c0be
00000170: 060b 1d3e 62e9 52be 0858 7d3e 4754 cebe
00000180: f7bb 663d 40fd 4bbe 33c0 d53e 52be c2bd
00000190: 4619 d43e b538 0bbe acba 173e 0f80 413d
000001a0: 2a36 97be 0826 d33d df89 8bbe e942 943e
000001b0: 5f8b 103e 6fe2 833b a16c c43d e20d 693e
000001c0: 9bf2 d93e 1bf2 ca3e 9c35 443e 3ea4 1d3e
000001d0: 45f9 d6bc 666d 023d d782 a0be 6789 25be
000001e0: a75b 9d3e 2dfa 90be 1ba6 223e b63e 46be
000001f0: 8a01 2d3e 0f2e 443d ced8 a63b f17e 573e
00000200: d2bb 573e e49c a4be e45f 7fbe ddc1 203e
00000210: 1b6e 9b3e 8567 813e 633e 72be 204f 0abd
00000220: 40b7 d5be cd35 c73d 9b33 bbbe 0233 cfbe
00000230: c5e1 00be 1012 25be 90cc 43be 4bd2 cb3e
00000240: 9685 4abd 8d9c c33e 5d35 b83e cc2b 08bd
00000250: 3696 c53e 3949 223e f53f b0be e008 14be
00000260: d520 4bbe c9dc 6abe 1602 5fbe fd6e 9c3d
00000270: 008e 643e b901 9fbe 9d08 c5be 4375 633e
00000280: 2e67 82be 5090 063e 45a1 be3e 6a50 d13e
00000290: f0ff 8dbe 6d7f 09be f0f4 333e 38ba e1bd
000002a0: cb37 c4be b09d b53e dcfe 72be 7c4f a73e
000002b0: 56f3 b23d a079 93be dc98 b93d c85e 6d3e
000002c0: ebb7 0e3e 1c96 8dbe d37b 133e dc29 d3be
000002d0: 360e c9bd dcf4 ba3e 57b8 4cbe bd9b 0f3e
000002e0: 8b1f c53e 766f 5c3d 3d59 e5bd d5bb a6be
000002f0: c4e3 a6bd 7ef4 023c 126a 78be 0b16 11be
00000300: 1b5c 833e 98b5 c13e b3ad 65be 9463 a0be
00000310: bb6c 863e 161d 75be ef47 e13d 548b d8be
00000320: a983 a13e 39eb c3be c428 da3e b1be 4bbe
00000330: 6645 a23e b286 b3bd eee4 a13e cce7 a6bd
00000340: 0d9e 483e 8f81 9ebe 338e 083d 9bc3 9f3e
00000350: 4c0a d23e e0af 1a3e 1458 94bd 5749 bdbe
00000360: 14e9 bfbc b1a2 c4be 124a c33e 93a9 aa3e
00000370: d417 92be aa4c cebe cb55 713e f6ce 0b3e
00000380: e1fe b5be 2b18 a8bb 164c 2dbe b7eb 443e
00000390: 8181 94be f6ad 953e 5ddf 543e 59c1 803e
000003a0: 9060 a6be bc9d 323e 9d3e cfbe 5c95 d1bd
000003b0: 822f 91bd d2f6 9c3c 7f67 3ebe 7257 81be
000003c0: 13d1 a0be 31d1 bc3e cfa5 a8be 960c a53e
000003d0: 7194 ba3e 7220 21be c9ea 4fbc 8717 953d
000003e0: a9dc a3be 3614 93be 15a3 8bbd c56b ddbd
000003f0: 1e5e 503e 1ce2 a6be fadc 553e a058 003d
-0.3727817 -0.3962242 -0.051230393 0.13631256 0.1019799 0.006918048 -0.42444253 -0.3229847
0.27291286 -0.22698332 0.10896072 -0.025879925 -0.09229548 -0.15573566 0.18748592 -0.36065567
-0.31217602 0.25599617 -0.2909222 -0.04962612 -0.32273033 0.12955639 -0.021966316 0.19490807
-0.36108333 -0.22588755 -0.092852876 -0.15713365 -0.038360555 -0.04369116 -0.24814278 0.017294114
-0.38638115 -0.028470535 -0.39633852 0.21077394 0.38107544 0.4095465 0.23749025 -0.3826235
0.38209578 -0.36112624 -0.3083908 -0.10264192 0.18235761 0.39832103 0.28419632 0.3036103
-0.23658407 -0.30946982 -0.17727736 -0.14256142 0.29856414 -0.376249 -0.13750698 0.0226571
0.39183626 -0.119422674 0.37906188 -0.22942579 0.33631828 -0.39482704 0.048464227 0.37770945
0.012796332 0.38081476 0.036118064 -0.2459006 -0.20391582 -0.1649905 -0.38824213 -0.24201389
-0.13907589 -0.43277746 0.047121767 -0.113444716 0.14864706 0.40685678 0.1268008 -0.0069728163
-0.0071526053 -0.22076322 -0.042782508 -0.03926301 0.030929824 0.08581186 -0.30755708 -0.0588804
-0.33797857 -0.07297191 -0.31577945 -0.37566134 0.15336236 -0.20596841 0.24740613 -0.40298674
0.0563316 -0.19920826 0.417482 -0.09508957 0.41425532 -0.13595851 0.14817303 0.047241267
-0.2953351 0.10309988 -0.27253625 0.28957298 0.14115666 0.0040247957 0.09591032 0.22759202
0.42567906 0.39637837 0.19161075 0.15394685 -0.026241908 0.03184261 -0.31349823 -0.16165696
0.30733988 -0.2831587 0.15883677 -0.1935986 0.16895118 0.047895487 0.005091763 0.21044518
0.21067742 -0.32150948 -0.24938923 0.15698953 0.3035744 0.25274292 -0.23656611 -0.033766866
-0.4174137 0.097270586 -0.3656281 -0.40468603 -0.12586124 -0.16120172 -0.19121003 0.39808878
-0.049443804 0.38205376 0.35978213 -0.033244893 0.38591164 0.15848245 -0.34423795 -0.1445651
-0.19836743 -0.22935785 -0.2177814 0.07638357 0.22319794 -0.31056002 -0.38483134 0.222127
-0.25469345 0.13140988 0.37232414 0.40881664 -0.27734327 -0.13427515 0.17573905 -0.110218465
-0.38323817 0.3547187 -0.23730034 0.3267783 0.08737819 -0.2880373 0.09062359 0.23180687
0.13937347 -0.27653587 0.14402704 -0.41242874 -0.09817164 0.36514938 -0.19992195 0.14024253
0.38500628 0.053817235 -0.111986615 -0.3256518 -0.081489116 0.007992862 -0.24259213 -0.14168565
0.25656208 0.37833858 -0.22429542 -0.31325972 0.2625483 -0.23936877 0.11000048 -0.422938
0.3154576 -0.38265398 0.42609227 -0.19896962 0.31693572 -0.087659255 0.31619972 -0.081496805
0.19591542 -0.3095822 0.033338737 0.31203923 0.4102348 0.15106153 -0.07243362 -0.36970016
-0.02342657 -0.38405374 0.3814245 0.333325 -0.28533804 -0.40292865 0.23567884 0.13653168
-0.3554602 -0.005129834 -0.16923556 0.19230543 -0.29005054 0.29234284 0.20788331 0.25147513
-0.32495546 0.17442983 -0.40477458 -0.10233566 -0.070891395 0.019160662 -0.18594168 -0.25262028
-0.3140951 0.3687835 -0.32939002 0.32236165 0.36441377 -0.15735033 -0.0126902545 0.07279878
-0.32004288 -0.28726357 -0.06818215 -0.10811571 0.20348403 -0.32594383 0.20885077 0.03133452

bias f4 [16]
00000000: 0000 0000 0ef1 263c 0000 0000 b035 6ebb
00000010: 0000 0000 0000 0000 0000 0000 3978 533a
00000020: 0000 0000 774f 9d3d 0000 0000 9d2b 913d
00000030: 0000 0000 0000 0000 1e8d 853c bda1 733c
0.0 0.010189308 0.0 -0.0036347918 0.0 0.0 0.0 0.0008066926
0.0 0.07681172 0.0 0.07088397 0.0 0.0 0.016302641 0.014870104

weight f4 [16, 16]
00000000: d4ef f53d 4ea2 913e dde3 213e 9f45 d2be
00000010: 7dbf 363e 874f 8bbe 7874 df3d cec5 6bbe
00000020: f71b 98be feab a23e 9e7f f6bd a5b3 d43e
00000030: c695 d03d 4084 8dbd ae5e d73e c5c6 d23d
00000040: ef79 61be e2df 2bbd d741 e8bc 9c1f a7be
00000050: a58d 9d3d 245f dbbe 988d a0bd 7542 b33e
00000060: 26a5 983d e1cd 563e aa94 9abe 4b6c 23be
00000070: be88 c6be ad6a 273d bf5e bfbe e90d 643d
00000080: 40ff 193e 300c 683d e709 c8be 024f c7be
00000090: 7d7f 9dbe 83d4 c33e 0b85 cf3e 522b 543e
000000a0: ce22 b43e 2704 5ebe 9d66 8b3e 3f50 f63d
000000b0: d15c 6c3d 371d 113e 8a37 c83e f810 99be
000000c0: 71b2 803e 8a8d 9abe 98c8 d33e 4cec 7d3d
000000d0: 9cf3 5cbe 9da2 d13e bc41 823e fde1 2d3e
000000e0: a7a6 ad3d 0012 0f3d dfd9 84be 0a1e 7ebe
000000f0: d8f5 9e3e 7948 7dbe 18bc 50be ff07 f63d
00000100: 909f a43e 0d74 a0be fb43 4f3e bc2a dabd
00000110: 7673 703d e863 523e 2433 533e 2781 00be
00000120: f5d7 cf3e d4b8 a7be efe1 73bc c421 aebe
00000130: 2fe9 923e 88b0 aebe 9ac2 d4be 7c05 ddbe
00000140: 1ebc ca3e 0058 603e 4d4e 4b3e 1e47 adbe
00000150: fc92 ddbe 3ba9 d5be 5f84 6039 bf67 b4be
00000160: 5df7 39bd 76ba 833e 28e1 a03e d8ec dcbe
00000170: ab6a 3abe 30f7 363e 4bad 15be 94f3 50bb
00000180: 6535 b43e 4a42 953e b511 9d3e 7a39 863e
00000190: 79e4 f43d adf5 2abc 72cb b2bd 1b68 803e
000001a0: 7b95 c73e 7640 d73e 6b94 f7bd d795 123f
000001b0: b9f3 553e 7b17 3ebd a403 9e3e de39 59be
000001c0: 5283 a63e 103e 72be 3b4b dabe a69b c93e
000001d0: 857b 8e3e dee5 a73e 9891 92be e90c 4a3e
000001e0: 87f1 bc3e 27a0 cc3e 6919 c33e f07e b5bd
000001f0: 06c3 b6bb d0f2 4d3d f731 39be 6109 5abe
00000200: 3a6b 14be bf61 13be e9f5 95be 5575 643e
00000210: a033 57be d209 2abe a853 c7be 9423 c33e
00000220: 15ea a8be f06d 473e af7e 963e 4fc2 a43e
00000230: c3b1 0e3e 115f 603e e729 803e 568c bdbc
00000240: 2ff5 b23e 80bd c13e ae9f 853c d41c cebd
00000250: 69d0 823e db17 9bbd 8735 c0be fe81 c1be
00000260: 210d a93d 5f42 d53d e046 d63e ea44 533e
00000270: 3efb 143e 2674 96be b857 b3be b7d9 523e
00000280: d716 d4be ca6a b13e bf95 c6bc bb87 3d3e
00000290: 7304 133e 6b72 44bd 7d12 80be 0c5b b43e
000002a0: c69b 513e 738a e8bd 7a1e 81be d5be 9e3e
000002b0: 3151 6c3e 612c 9ebe f59e 1cbe acf8 cb3e
000002c0: e8f3 ac3e 06a4 3ebe a2f4 87be 50ab 1e3e
000002d0: c8e0 08be 9086 be3e a1ab 753b 77fa 9a3d
000002e0: e5e5 b0be efc4 c0be 8282 d93c 5e34 23bd
000002f0: 6267 a2be 4b7d 58bb 2988 dc3e dd7a 97be
00000300: 763b d0be fd39 943e 0655 85be 4168 59be
00000310: a3e0 ccbd 6573 aebe ea3f 6a3e 4aae c83e
00000320: 1bff c2be 4e8c c73d c27f db3d fc18 243e
00000330: f57f a9bd 1641 283e c9cb 973e 3887 20be
00000340: 707b 4dbe cdbe fd3d 187b d1be 5e6b 69be
00000350: ee7e 943e 47b0 a2be a911 91be 709f 33bc
00000360: 7519 923e 15c2 433e f65e a03e 2f73 26be
00000370: 8bd9 a5bc c6d0 bcbd 8afc 423e 9d5e dc3e
00000380: 3359 a3bd 6fd7 f2bc 1d4d 9c3e 56e4 bc3e
00000390: 4af4 483c 74d8 af3e 9caa 9c3e cfcf 4f3d
000003a0: e134 01be 7435 51be aa31 77be be71 a2be
000003b0: 96ad 86be 759c 82be 4f39 c03e 1528 b6be
000003c0: 0113 92bd f788 80bd b654 773e f4f3 c83e
000003d0: 6f23 ab3e 2fb7 39be c03a 823e a592 86be
000003e0: 9f10 b0be 29ed eabd 5c7c d03e a777 b8be
000003f0: 3f75 c9be 7822 a1bd 5c98 92be 20d7 463e
0.12008634 0.2844414 0.15809579 -0.41068742 0.17846484 -0.27209112 0.109108865 -0.23024675
-0.29708835 0.31771845 -0.1203606 0.41543308 0.10184817 -0.0690999 0.42064422 0.102918185
-0.2201917 -0.04196156 -0.028351707 -0.32641304 0.07693032 -0.42846024 -0.07839507 0.3501164
0.074533746 0.20976974 -0.30191547 -0.15959279 -0.387762 0.04087322 -0.37376973 0.05567733
0.15038776 0.056652248 -0.39070055 -0.38927466 -0.30761328 0.3824807 0.4053119 0.2071965
0.35182804 -0.21681271 0.27226725 0.120270245 0.057705704 0.14171301 0.39104873 -0.2989576
0.2513614 -0.3018611 0.41363978 0.06199293 -0.21577305 0.40944377 0.25440776 0.16980739
0.08479052 0.034929276 -0.25947472 -0.24816146 0.3104694 -0.24734677 -0.20384252 0.12013244
0.32152987 -0.3133854 0.20240776 -0.10652682 0.058703862 0.20545924 0.20624977 -0.12549268
0.4059445 -0.327582 -0.01488541 -0.34010136 0.2869353 -0.34119058 -0.4155472 -0.43168247
0.39596647 0.2190857 0.19854088 -0.3384332 -0.43276203 -0.41730675 0.00021411617 -0.35235402
-0.04540192 0.25728196 0.3142178 -0.43149447 -0.18204753 0.17867732 -0.14616887 -0.0031883465
0.35196987 0.29152137 0.30677572 0.26215726 0.1195764 -0.01043455 -0.0873021 0.25079426
0.38981232 0.42041367 -0.12088855 0.5725989 0.20893754 -0.04640911 0.30862153 -0.21213481
0.32522064 -0.23656487 -0.4263552 0.39376563 0.27828613 0.32792562 -0.28626704 0.19731487
0.3690302 0.39965937 0.38105324 -0.08862102 -0.005577448 0.050280392 -0.18085466 -0.2129264
-0.14494029 -0.14392756 -0.29289177 0.22310384 -0.21015787 -0.16605309 -0.38931012 0.3811308
-0.3299109 0.19475532 0.29393527 0.32179496 0.13934998 0.21911265 0.2503197 -0.023138206
0.34952685 0.3783989 0.016311493 -0.10064092 0.2554963 -0.075729094 -0.37540838 -0.3779449
0.08254457 0.1041305 0.41850948 0.20631757 0.14548966 -0.2938549 -0.35027862 0.20590864
-0.41423675 0.34651786 -0.024241326 0.18508808 0.14357166 -0.04796068 -0.25014105 0.35225713
0.20469579 -0.11354532 -0.25218564 0.31004968 0.23077847 -0.30893233 -0.15295012 0.3983816
0.33779836 -0.18617257 -0.26553828 0.15495038 -0.13366997 0.37212038 0.0037486332 0.07567304
-0.34550396 -0.37650248 0.026551489 -0.039844863 -0.317195 -0.0033033665 0.43072632 -0.29585925
-0.40670365 0.28950492 -0.2604143 -0.21231176 -0.100037836 -0.34072414 0.22875944 0.39195472
-0.38085255 0.09743558 0.10717727 0.16025156 -0.08276359 0.16431078 0.29647663 -0.15676582
-0.20066619 0.12389908 -0.40914226 -0.22794864 0.2900309 -0.31775114 -0.28333786 -0.010963306
0.28535047 0.19117005 0.3132245 -0.16254877 -0.020245334 -0.09219508 0.19041649 0.43040934
-0.07975998 -0.029643742 0.30527583 0.36892956 0.012265274 0.34344828 0.30598915 0.05073529
-0.12617828 -0.20430547 -0.24140039 -0.31727403 -0.2630431 -0.25509992 0.37543723 -0.35577455
-0.07132531 -0.06276124 0.24153408 0.3924862 0.3342547 -0.18136285 0.25435448 -0.26283756
-0.3438768 -0.11471016 0.4071988 -0.36028787 -0.39347264 -0.078679025 -0.28631866 0.19418001

bias f4 [16]
00000000: 79d7 8b3b 0000 0000 791b a33b 0000 0000
00000010: 0000 0000 c356 7b3b 0ab8 be3a 0000 0000
00000020: 3a07 e63b df39 633c c084 bebb 0000 0000
00000030: 503e 333c 2f73 213c 8753 89bc 98bf 0abb
0.0042676297 0.0 0.00497764 0.0 0.0 0.0038351275 0.0014550698 0.0
0.0070199044 0.013868778 -0.005814165 0.0 0.010940149 0.009854122 -0.016763462 -0.0021171328

weight f4 [16, 16]
00000000: f988 803d 45c0 c23d 6ea7 7c3e d44d 3cbe
00000010: 8b97 1cbe 5b83 0e3e 8027 64be e1c5 dbbe
00000020: 9dce 7dbe 3f54 21be 346d d23d e754 34be
00000030: 5b37 883d b6cb ad3e 1801 a5be f0d2 ac3e
00000040: a41c 183e 8479 7ebe 0989 6ebe c940 ddbe
00000050: c220 20be 1bbe 38be e468 00be 5b6e a3be
00000060: e331 b6be 80a8 ccbe edbd 8ebe 6311 59bd
00000070: 6f69 5bbe 0887 4abe 7c31 bcbe 135e e7bd
00000080: 6e2b 953e 0733 6c3d 17ff e6bc 6093 4d3e
00000090: 31eb d9bd 5d1b 0abe 1df3 12bd 5340 b43e
000000a0: f53d d4be 1d97 07be 2612 d93e e9c1 f13d
000000b0: 8881 cabd d664 c8be 38b7 90be 427a 573e
000000c0: 7b0b 503c 5356 b83e ceb2 51bd fb4a 62bd
000000d0: 246b da3e 0870 263e 2b25 5ebe e35e a63d
000000e0: 9325 9fbe 9d53 48be d6e7 04be d093 bc3e
000000f0: dc7d 5f3d 09f5 58be 94dd 32bc 752a a53e
00000100: c514 dcbd faac 99be 8201 80be 7b2e bebe
00000110: 98d7 9abe aa58 d9be 4566 d4bb 3eb0 a7be
00000120: adbd adbe 6513 17be 547d 9cbe d27c 77be
00000130: aa4d 4e3e 34c0 bebe c865 babd a1dd 8f3e
00000140: e86f 883e bb8f 6ebe 05c0 8e3e 27a0 933e
00000150: 9237 d63d fb09 633e daab aebd 479f 98bd
00000160: 380f 3e3e e640 4ebd ae77 2c3e 26b3 903e
00000170: 5938 1f3e f7e0 bc3d c393 37be 828f 08be
00000180: 29bc 043d 46ef 60bd f9d6 743e 7b47 6a3e
00000190: 0da8 d23e eb9f 103e 73a1 96be ccd7 c13e
000001a0: 24f6 013c c8b0 cebe dce8 933e 7834 8dbe
000001b0: 5467 8c3e 6ed0 5a3d 1fae 9fbe f3a5 8f3e
000001c0: 3e07 99bd eb9d a5be e05a 853e 1e47 86be
000001d0: e83f fd3d b9c7 693e 9641 2d3e 3efe f33d
000001e0: b5ee 4c3e 7da1 b1be ce10 5fbe 29be 613e
000001f0: 4ac8 a23e 89f7 963d 09a7 613d fba9 afbe
00000200: 2039 c1bd 175f 5fbe 8651 c83e ea8c db3e
00000210: e22f a23d 9452 ad3e efec bc3c 88eb febd
00000220: 3ef4 a9be 1d04 b83e cc5b ed3d a655 90bd
00000230: a33a 94be 78f8 9a3e cdc9 273e a6ab 7ebe
00000240: 5ef4 d33e 8f0e a4be 6237 abbc 2835 e73c
00000250: 6c31 bb3e fca9 9f3d c54f a43e 12da 90be
00000260: 4521 813e 0398 b63e d9c5 7fbe 2cad e8bd
00000270: ec8a 193e adeb b93d 7d22 d93d ecef 8abd
00000280: 73d8 e1bd b4c3 8f3e 195b cdbd 1892 053e
00000290: e5bf 81be 49e6 a1be 9a46 b5be 9f1a c83e
000002a0: b9e4 42be fe99 7ebe 49b2 973d 82b5 bd3e
000002b0: b634 723d c962 243e 9722 f73d 6490 b33e
000002c0: e933 3c3e 5dfa afbe ab96 113d dd80 bc3e
000002d0: 1dfc ccbe 7977 f8bd 40c4 c7be 6ed4 c4be
000002e0: e720 463e bfbe c63e 9c49 d03e 8fc0 1fbe
000002f0: 1cca b33e 4a67 9dbe 450d b4be 2679 ab3e
00000300: 4a91 453e c113 613d 4364 a0be b76a 8fbc
00000310: c1d4 b63e afe7 41be 04f0 933e 1544 53be
00000320: 3bc6 b9be 13f9 c53e d86e ccbe b618 4dbe
00000330: 2c57 65bd bd53 ad3e b62c d03c fd61 c8bd
00000340: 0cc3 a83e 4ade b1bd e1c5 c53e 9c11 c83e
00000350: 8d4c 383e c5c0 3a3d e452 ce3e 6eb3 d3be
00000360: c9c8 b5be af0b 403e 4288 5bbe 628c bebe
00000370: b991 36bd 2f8a 52be 09c7 9b3d 4bcc 7abe
00000380: a3a2 353a fd8e 693e 51f4 67be 4512 b73e
00000390: b324 2bbe 62a5 ad3e 5bb3 7fbe 28bb 95be
000003a0: ae53 423e b477 d23e 2005 6bbe e36d c8be
000003b0: 725d 63be 6b78 803e 4bf4 b0be 9764 01be
000003c0: d03f babe 69ad d5bc 6239 aa3e 6704 1a3c
000003d0: eaa1 83bc 2557 66bd d3a5 d33e 4aa9 a53d
000003e0: 586c 4f3d 8d4c b03d f654 483d 75d4 a53e
000003f0: 31b3 b03e 5909 ff3d 7fda 803e 798f b4be
0.062761255 0.09509329 0.24673244 -0.18389064 -0.15292184 0.13917296 -0.22280693 -0.42924407
-0.24785848 -0.15754794 0.10274735 -0.17610513 0.06651183 0.33944482 -0.32227397 0.33754683
0.14854676 -0.24851042 -0.23294462 -0.4321349 -0.15637496 -0.1804127 -0.12540013 -0.31920132
-0.35584936 -0.39972305 -0.27879277 -0.052995097 -0.21426938 -0.19778073 -0.36756504 -0.1129724
0.29134697 0.05766585 -0.028197808 0.2007575 -0.10640562 -0.13487001 -0.035876382 0.35205325
-0.4145352 -0.13241239 0.4239666 0.118045636 -0.098879874 -0.39139432 -0.28264785 0.21042731
0.01269805 0.3600336 -0.051195912 -0.05524729 0.42659867 0.16253674 -0.21693866 0.08123567
-0.31083354 -0.19563146 -0.12979063 0.36831522 0.05456339 -0.21187223 -0.010917086 0.32258955
-0.10746149 -0.30014783 -0.2500115 -0.37144837 -0.3024261 -0.42450458 -0.006481918 -0.3275165
-0.33933774 -0.14753492 -0.30564368 -0.24168709 0.20146814 -0.37256014 -0.091014445 0.28098777
0.26647878 -0.23297016 0.27880874 0.28833124 0.10459818 0.22171776 -0.08528872 -0.07452255
0.18560493 -0.05035486 0.16842529 0.2826168 0.15548839 0.09222596 -0.1792746 -0.13335994
0.032406006 -0.05491569 0.2391013 0.2287883 0.41143838 0.14123504 -0.2942005 0.37859952
0.00793222 -0.40369248 0.28888595 -0.27579093 0.27422583 0.05342143 -0.3118753 0.28056297
-0.074720845 -0.32347044 0.26045895 -0.26226133 0.12365705 0.22830094 0.1691955 0.11913727
0.20012935 -0.34693518 -0.21783754 0.22045197 0.31793433 0.07371432 0.055090938 -0.34309372
-0.09434724 -0.21813618 0.39124697 0.42880946 0.07919289 0.33852065 0.023062197 -0.12447268
-0.33194155 0.35940638 0.115897745 -0.07047586 -0.28950986 0.30267692 0.16385575 -0.24870166
0.41397375 -0.32042357 -0.020900432 0.028223589 0.36561143 0.07796094 0.3209211 -0.28291374
0.25220695 0.3566285 -0.24977817 -0.11361155 0.149944 0.09078155 0.10602281 -0.06784043
-0.110276125 0.28078997 -0.10027141 0.13044012 -0.25341716 -0.31621006 -0.35405427 0.3908281
-0.19032563 -0.24863431 0.07407052 0.37052542 0.0591323 0.16053309 0.12067144 0.350711
0.18379177 -0.343707 0.03554408 0.36817065 -0.40036097 -0.121321626 -0.39016914 -0.3844332
0.19348489 0.38817403 0.4068116 -0.15600799 0.35115135 -0.30742866 -0.35166374 0.33490866
0.19293705 0.05495048 -0.31326494 -0.01750694 0.35709193 -0.18936037 0.28894055 -0.2063144
-0.3628405 0.3866659 -0.39928317 -0.20028958 -0.055991337 0.3385295 0.025411945 -0.09784315
0.3296131 -0.086849764 0.38627532 0.39075935 0.17997952 0.045593996 0.40297616 -0.4134783
-0.3550475 0.18754457 -0.21438697 -0.3721648 -0.044572566 -0.20560525 0.07606322 -0.24491994
0.0006928837 0.22808452 -0.22651793 0.35756126 -0.16713218 0.3391524 -0.24970762 -0.2924435
0.18977234 0.4110695 -0.22951174 -0.39146337 -0.22203615 0.25091872 -0.3456138 -0.12636028
-0.3637681 -0.026083665 0.33246905 0.009400464 -0.016068418 -0.05623545 0.4133745 0.0808893
0.050640434 0.08608351 0.04890915 0.32388654 0.34511712 0.12452955 0.251667 -0.3526571

bias f4 [16]
00000000: 904f 323c 0000 0000 6646 c7bb 0000 0000
00000010: 0000 0000 1f47 5c3c 0fb9 32bc 4aa5 b9bb
00000020: d1f1 fabb 943d 893b 0000 0000 113a 4a3c
00000030: 4338 383a 7323 993d 0000 0000 abdb f43b
0.010883227 0.0 -0.00608139 0.0 0.0 0.013444691 -0.010908379 -0.005665456
-0.0076582213 0.004188249 0.0 0.012342946 0.00070274266 0.074774645 0.0 0.0074724755

weight f4 [16, 16]
00000000: 4115 b6be 6934 ae3b 3f43 0b3e c911 ac3d
00000010: d7e8 5f3e 14f8 c83e a46e d0be b6a8 dcbe
00000020: 9188 b63c 04c8 8dbe 99ff 1e3e 7086 d23d
00000030: 1a0c c33c a090 473d 8432 fc3c b748 cdbe
00000040: ac2f 503e b92e 1b3e 6afd d03e 4cb9 aa3d
00000050: d9ec 0a3d 4e07 983c 4efd 94bd 7830 ba3d
00000060: e9b6 753d 7fc8 d23e 0d8e 5bbe 1ab0 80be
00000070: d51c bb3e 7801 033e 5c21 623d f6a2 b93e
00000080: e85d 35bc f1a0 103e 5f38 b63d 1c99 353c
00000090: 9fd8 883e be93 73be fbee 11be ac74 b53e
000000a0: 259f 7f3e 775c 273e 712e 4a3e 800d 8e3e
000000b0: c4eb 34bc e592 a43e a81a e13d 61a1 bdbd
000000c0: 2da0 323e d2b8 1a3e 2425 bcbe 864d 913c
000000d0: c1c5 cd3d 907c 9e3e 0068 c4be e3f7 a0be
000000e0: eeed babe bb70 7d3e e9a8 98bc 9d43 d1be
000000f0: 5faf 8bbe 4899 f53e 7fb8 5b3e 0608 a63e
00000100: fc95 dbbe e333 31be e6a0 ed3d a48e 4b3e
00000110: 9623 bb3e 9431 cfbe c362 703e 921d 943d
00000120: 849a dc3e d35b bebe aa3f bf3c f6bc d4be
00000130: 9845 f6bd 556c 693e d068 933e c5e4 cbbe
00000140: 31a8 1d3d d8ff b73e 4ed7 aebd 51c4 96bd
00000150: c058 663d a2ed e2bc f173 9cbc ce58 c73e
00000160: ee4c 1cbe 127f c9be 78af b63e e853 25be
00000170: 7593 43be 8c73 19be 5c15 883e 2a3f c73c
00000180: 2a80 a53e 3a7b 90be af95 e7bd 7105 99be
00000190: 5464 a33e 86f7 92be 3f00 a8be f933 bd3e
000001a0: bc81 57be c246 f53e f736 b1be 15af bb3d
000001b0: c5d5 9e3e ad0a c13e a59a 2cbe bd3b 213b
000001c0: 1b79 203e 33a1 61be 26c4 7fbe 018e 6f3e
000001d0: 2002 dc3d 2bcd c4be e875 97bc a2c2 273e
000001e0: a8ae d5be fc54 4ebe fb23 c6be ae26 dbbe
000001f0: 228d 42be d2fd c43e 53ec 56ba df55 d7bc
00000200: 1dee ac3d a45a af3d 9812 13bc 207c 383e
00000210: b509 05be 14fd dd3e f528 0d3d 0ce9 edbd
00000220: 5ffd 08bd 517b 863e a3e6 94be 8ced cb3e
00000230: 4c3c 3fbd 013b 093d 4859 38be 1fb8 833e
00000240: bb50 143e a4e5 203e f7a7 1dbe 9625 88be
00000250: 257a 22be 2b73 f93d 5a01 a3be 0156 e13d
00000260: 4e87 a2be 6638 c7bd d3b7 8b3c 76f8 58be
00000270: d444 cbbe 0132 6f3e e8af b4bd 4d52 993d
00000280: 3296 ce3e 0081 7cbd 47fc 94be 3982 2abe
00000290: 87ed c23e a69c 953e 7cfc aabe 1670 2fbe
000002a0: 9596 3bbe a1e7 6b3e 1fc7 b73e 637e 783e
000002b0: a1ef 013e dd20 043e 993e 5fbe 38c4 883e
000002c0: 3cfb d4be 076a abbe 580f b43e 39b2 d9bd
000002d0: de12 55be a15c 413e 2e53 1c3e 0489 343d
000002e0: 97fe 59bd 4e5d b23e 8c5c 863e 6d14 c93e
000002f0: 8427 053e 7955 8c3e b2b8 7e3e c990 9abe
00000300: cc28 da3d 941e 473d affc 6c3e b5fb 173e
00000310: eeea 803b 436e c83e 945b 1cbd c75a f03e
00000320: 0df6 d3be 38b1 db3e dbfa 96be cc0c da3d
00000330: 0565 bb3e 638c b23e 70ba d3be b25a 3b3e
00000340: f132 93be 7520 c43e af3c d23e 045e 973e
00000350: 46af a93e 4360 8abe 4784 8a3a 32cb acbd
00000360: 11d7 833e a80b c1bd d52c a53e d8f1 90be
00000370: f4b2 013e c6df 40be dfb8 7e3e 5cec 383e
00000380: 3d7a 2abe 5d6b 29be 6c00 b33e 711c 043e
00000390: 0bf9 10be 2698 a8be eabf 703e 003c 983e
000003a0: 3dcb 493e 3125 b0be 01e0 b83e bd13 563e
000003b0: bded 4a3e 6388 a23e e661 7bbe 55a8 9abe
000003c0: b063 043c 30e0 82be 7637 15be 1dc5 e6bd
000003d0: 7255 9abe d28b a5bd 4bf6 7cbd 7309 29be
000003e0: 1066 273e a193 713d 00fe d13e 3d91 9dbe
000003f0: f4c0 6fbd 5b44 10be 7201 4cbe 0434 cfbe
-0.3556309 0.0053163064 0.13599871 0.0840183 0.21866165 0.3925177 -0.40709412 -0.43097466
0.022281917 -0.27691662 0.1552719 0.10279548 0.023809481 0.04872191 0.030785806 -0.4009454
0.20330685 0.15154542 0.4081834 0.08336124 0.03391728 0.01855817 -0.072748765 0.09091276
0.05998889 0.4116859 -0.21440907 -0.25134355 0.36545435 0.12793529 0.055207595 0.36257142
-0.011069752 0.14123894 0.08897471 0.011083867 0.2672777 -0.23786828 -0.1425132 0.35440576
0.24963053 0.16343866 0.19744278 0.27744675 -0.011042539 0.32143322 0.109914124 -0.09259296
0.17443915 0.15109566 -0.36747086 0.017737161 0.10047484 0.3095441 -0.38360596 -0.31439123
-0.3650965 0.24750035 -0.01863523 -0.40871897 -0.27282235 0.47968507 0.21457098 0.32427996
-0.42887866 -0.1730495 0.116029546 0.19878632 0.36550587 -0.40467513 0.23475175 0.072322026
0.43086636 -0.3717943 0.023345787 -0.41550416 -0.12024993 0.22795232 0.28790903 -0.39822975
0.038490478 0.3593738 -0.0853716 -0.07361663 0.056236982 -0.027701203 -0.019098254 0.3893494
-0.15263721 -0.3935476 0.35680747 -0.16145289 -0.19099219 -0.14985484 0.26578796 0.024322111
0.32324344 -0.28219014 -0.11307847 -0.29886964 0.31912482 -0.2870447 -0.32812688 0.36953714
-0.21045583 0.47905546 -0.34612247 0.091642536 0.31022468 0.37703457 -0.16855867 0.0024602257
0.15671198 -0.22034149 -0.24977168 0.23394014 0.10742593 -0.3843778 -0.01848884 0.1638284
-0.41734815 -0.20149606 -0.38699326 -0.42802948 -0.1899915 0.384749 -0.0008198667 -0.026286064
0.08443854 0.0856221 -0.008976601 0.180161 -0.12991984 0.43357146 0.034462888 -0.11616716
-0.03344476 0.26265958 -0.29082212 0.3982967 -0.046688363 0.033503536 -0.18002808 0.2572641
0.14483921 0.15712601 -0.15396105 -0.26591176 -0.15866907 0.1218017 -0.3183697 0.11002732
-0.31743854 -0.09727554 0.017055428 -0.2118853 -0.3970095 0.23358919 -0.08822614 0.07486401
0.40348965 -0.06164646 -0.29098722 -0.16651239 0.38071844 0.29221076 -0.33395755 -0.17132601
-0.18319161 0.23037578 0.35894105 0.24266963 0.12689067 0.12903161 -0.21801223 0.26712203
-0.41597927 -0.3347933 0.35167956 -0.106296964 -0.20807979 0.18882991 0.15266106 0.04407598
-0.05322131 0.3483681 0.26242483 0.39273396 0.13003355 0.2740896 0.24875143 -0.30188587
0.10652313 0.048613146 0.23143266 0.14842112 0.003934256 0.39146623 -0.038173273 0.46944258
-0.4139866 0.42908645 -0.29488263 0.10646972 0.3660051 0.34872732 -0.41353178 0.18296316
-0.28749803 0.38306013 0.41061923 0.29563916 0.33141536 -0.27026567 0.0010567986 -0.08437194
0.2575002 -0.094260514 0.32260767 -0.28309512 0.12665921 -0.18835363 0.2487521 0.18058914
-0.16648193 -0.16544862 0.3496126 0.12901475 -0.14157502 -0.3292858 0.2351071 0.29733276
0.19706436 -0.34403375 0.361084 0.20905967 0.19817252 0.3174468 -0.24549064 -0.30206552
0.008080408 -0.25561666 -0.14571938 -0.11268065 -0.30143315 -0.08083309 -0.06175832 -0.16507511
0.16347528 0.05897868 0.410141 -0.3077487 -0.058533624 -0.14088576 -0.19922426 -0.40469372

bias f4 [16]
00000000: 0000 0000 ed04 9cbb b0fe afb9 d82d 8a3c
00000010: 0000 0000 0000 0000 3c75 ee3d 0000 0000
00000020: e31e 263a 0000 0000 b1a1 153c c927 d7ba
00000030: 4314 cf3b 0000 0000 0000 0000 0000 0000
0.0 -0.0047613294 -0.00033568358 0.016867563 0.0 0.0 0.116434544 0.0
0.0006337 0.0 0.0091327885 -0.0016415055 0.006319554 0.0 0.0 0.0

weight f4 [16, 16]
00000000: cfa7 fc3d 5a5f f0bd 25b0 d5be b45c 89be
00000010: 695b bfbe 3aa2 8abe c574 8abd d881 2abe
00000020: a2a7 36bd 1eac 9d3d 316d a7be 1701 a3be
00000030: aa24 5bbe 4172 cf3e 44f0 85be 5e96 623e
00000040: c2b5 d13e 0752 cdbd ef02 023d 482a 3cbe
00000050: 798c c03e ea2a d93e 89ea cdbd f47f a3bd
00000060: fdb1 aabd 8718 b23d 1217 be3e 3f35 973e
00000070: 28c6 503e cc5d ae3e a635 b83e a773 bf3e
00000080: 6ab1 3bbe b089 773d c05f 623e 460e b93e
00000090: 5d55 72be 4387 953e 89fd 16be cd85 283e
000000a0: 3044 b1be def8 c1be e672 a13e 931b a13e
000000b0: d93d d53e f9cb 703e 04e5 92be 31f8 1dbd
000000c0: 185d ae3e ccc6 a6be 1eb3 2bbe 3ff3 a4bd
000000d0: 4b9c ae3e b4f5 833e 2397 cdbd 18eb ae3e
000000e0: 0e4f 383e 8023 05be 7bc1 dabe 8d49 d53e
000000f0: 7df8 c53e d398 84be 991b a8be e633 0a3e
00000100: ac08 9a3e d20c 243c f499 d0be 456f 9bbb
00000110: a21f 20be e495 ec3d 2a83 c3be aea0 46bc
00000120: 4a9a d63e db32 b5be 5755 aebe 56d4 dcbe
00000130: 2224 3bbe a163 10be 45ac 283e 170f b83e
00000140: 49d2 b2be 5aa5 33be 3751 1c3e f367 4abe
00000150: 5e87 ee3d 8f49 cfbe 8bb7 adbe 6afe 95be
00000160: 16e5 823d 7648 b53d c7bc ca3e ecec c13e
00000170: 32da 8f3e 75a1 c73c 4333 c33d e22c 913e
00000180: fce4 52be 18bb d13e e8c2 743e 4749 13bf
00000190: 0df5 c2be 3af9 3b3e b060 41be b4a7 e5bd
000001a0: 1a10 8c3e 823b 6b3c 4d8c 5cbe ea08 b03d
000001b0: 6410 7e3e 5ca9 a03e cefc 963e 0944 8dbe
000001c0: 1fe6 573d 8c42 66be ca09 a4be 25c8 c6be
000001d0: 1850 84be e741 403e 19fb 553e 5bd2 00bd
000001e0: fdce a2be 5a04 c53e 93dc 983d 0205 c03d
000001f0: de7e a1be a022 84bd b399 9dbe b84e 853e
00000200: 386e 02be 5c47 be3e d3d1 cabe db04 163e
00000210: ec7c 32be 6e7a b73d 82d2 ea3e 999c 0e3c
00000220: 096f 423e 9423 3e3e 343d d03d c64d 963e
00000230: 0880 bd3e e6b3 a6be 568a 453e c793 c6be
00000240: a8c1 50be 5af6 4ebe 0f3a 343e e2cb ddbb
00000250: 48bd 0cbe 7ddd 07be a0bd 9b3e c849 723e
00000260: 69a7 a2be 2189 cebe 5769 46be 4dcc e5be
00000270: 10ec ca3e 12e9 523e ddb2 5a3e d7be 8a3c
00000280: 092a c6be 6599 8bbe b215 62be 3a15 c43e
00000290: bd29 ce3e fd2d 60be 9d7d e9bd d273 ad3e
000002a0: c0ad 203e 9697 c33e d3ad 033e a76a a6be
000002b0: f354 ed3d 691b 063c 8dd5 ebbc eac7 2dbe
000002c0: a624 9c3d a6b2 c7be 073e ddbe f07f 18be
000002d0: 4a98 48be 40a6 993d 6328 753e 8b9f d03d
000002e0: aba6 cabe bdfd a73d b6c8 d03e 5c36 df3d
000002f0: 9258 77be c21c b1bc d795 58be d12a c0bd
00000300: 1396 3c3e 2ad9 afbe ef40 fd3c e116 183e
00000310: 1aff 503e 479c abbe a4f3 263e 0f3d acbd
00000320: 4270 ebbd 2310 bcbe ce50 cf3e d363 3c3e
00000330: 9173 383e cdc2 453e b3e4 b3be a4d4 5dbe
00000340: 3771 babe 1286 633e 0eae b3be 99cc 63bd
00000350: a0ec 323e ef26 6abe a1c7 9c3e 5452 363e
00000360: 7848 ae3e 077c b2be 9ced a8be c477 a03e
00000370: 4d15 afbe 3d50 03bd e837 b4bd 3822 8b3c
00000380: a122 07be 6993 813e 43cb 943b 6ea7 ef3d
00000390: 316b c9be 81d7 16be 2ecc 64be 0e96 173d
000003a0: 4fbe bebe 54ff 283d 44b2 d4be 7ae2 2dbe
000003b0: 836c 94bd 809b 41bb ead7 c33d f342 7dbe
000003c0: d32c 903e 6d1a d1be 4b2e cdbd ca67 b0bc
000003d0: a428 43be dfe1 b0be 526d 043f 5f36 c4be
000003e0: 7113 b53e d1e6 68be 0a28 c63e dc0b d33d
000003f0: a3d1 52be 2690 d6be cf68 a4bd 57d0 b53e
0.123366944 -0.11736937 -0.4173595 -0.2682854 -0.37374428 -0.27076894 -0.06760553 -0.16651094
-0.04459346 0.076988444 -0.32700494 -0.3183677 -0.21400705 0.40516856 -0.2615987 0.22127673
0.40958983 -0.10025411 0.03174108 -0.18375504 0.37607172 0.42415553 -0.100545 -0.079833895
-0.0833473 0.086960845 0.37126976 0.2953281 0.2038809 0.34055936 0.3597843 0.37392923
-0.18329397 0.060434043 0.22106838 0.36143702 -0.23665376 0.2920476 -0.14745153 0.16457291
-0.34622335 -0.37885183 0.31532973 0.3146635 0.4164875 0.2351531 -0.2869035 -0.038566772
0.340554 -0.32573545 -0.16767547 -0.08054208 0.34103617 0.25773394 -0.10038593 0.34163737
0.17998907 -0.13001823 -0.4272574 0.41657677 0.38666144 -0.25897846 -0.32833555 0.1349636
0.3008474 0.010012822 -0.40742457 -0.004743489 -0.15637067 0.11552027 -0.38186008 -0.01212327
0.41914588 -0.35390362 -0.34049484 -0.4313075 -0.18275502 -0.14100505 0.16471966 0.35949013
-0.3492606 -0.17543545 0.15265356 -0.19766216 0.11646913 -0.40485808 -0.33929095 -0.29295665
0.06391351 0.088517115 0.3959715 0.3787607 0.28096157 0.02436898 0.09531262 0.28354555
-0.20595163 0.40963054 0.23902476 -0.5753369 -0.38077584 0.18356791 -0.1888454 -0.112136275
0.27356035 0.0143574495 -0.21537896 0.0859545 0.2481094 0.3137921 0.2948975 -0.2759097
0.052709695 -0.22486323 -0.32038718 -0.38824573 -0.25842357 0.1877514 0.20896567 -0.03145061
-0.31798545 0.38479882 0.07463946 0.09375955 -0.31542104 -0.06451917 -0.30781326 0.2603662
-0.12737358 0.37163818 -0.39613208 0.1465029 -0.17430466 0.089588985 0.4586373 0.008704328
0.18987669 0.1856826 0.101679236 0.2935621 0.37011743 -0.32559127 0.19291052 -0.3878462
-0.20386374 -0.20211163 0.17600273 -0.0067686895 -0.1374408 -0.13268085 0.3041811 0.23660958
-0.3176835 -0.40338996 -0.19376121 -0.44882432 0.39633226 0.20596722 0.21357293 0.016936703
-0.38703945 -0.27265468 -0.22078589 0.38297445 0.4026622 -0.21892543 -0.11400912 0.33877426
0.1569128 0.38201588 0.12859277 -0.32503244 0.115884684 0.008185246 -0.028788352 -0.16970792
0.07624178 -0.39003485 -0.43211386 -0.14892554 -0.19589344 0.07502413 0.23941188 0.101866804
-0.39580283 0.082026936 0.4077813 0.1089904 -0.2415488 -0.021620158 -0.2115091 -0.093831666
0.18416624 -0.3434537 0.030914752 0.14852478 0.20409814 -0.33517668 0.16303879 -0.084100835
-0.11496021 -0.3673106 0.40491337 0.18397455 0.18012835 0.19312592 -0.3513542 -0.21663147
-0.364145 0.22219113 -0.3509373 -0.05561504 0.17473078 -0.22866414 0.30621055 0.17804843
0.34039664 -0.3486025 -0.32993782 0.31341374 -0.3419594 -0.032058943 -0.08799726 0.01698409
-0.13196804 0.25307778 0.0045408322 0.117018566 -0.39339593 -0.14730646 -0.22343513 0.037008338
-0.3725457 0.041259125 -0.41542256 -0.16980925 -0.072472595 -0.0029542148 0.09562667 -0.2473257
0.28159198 -0.40840474 -0.10018595 -0.021533865 -0.19058472 -0.34547326 0.5172931 -0.38322732
0.35366395 -0.227443 0.38702422 0.10304996 -0.20587783 -0.41906852 -0.08027803 0.35510513

bias f4 [16]
00000000: 0000 0000 d511 9b3b acd4 01bc 449a 02bc
00000010: 0000 0000 d872 053c 9164 9bbb 0000 0000
00000020: fef3 083c 7af7 00bd ae29 28bc 0000 0000
00000030: 5280 3cbc ba09 e8bb 0000 0000 ee69 003c
0.0 0.0047323504 -0.00792424 -0.00797135 0.0 0.008145057 -0.004742213 0.0
0.0083589535 -0.031486012 -0.010263843 0.0 -0.011505203 -0.0070812376 0.0 0.007837756

weight f4 [16, 16]
00000000: 8fd2 313e 9054 1fbe ec4c 84be bb0b e93c
00000010: aaac 04be 99f4 87be 1922 a7be 0aa0 91be
00000020: 6038 95be 63f8 d63e 41b3 523d 6867 6e3d
00000030: dd9a 943e d058 bbbe 251f 933d 5870 f4bd
00000040: 94ef 453e 0d6f 133e 0f74 93be e054 c6be
00000050: 7c3b babd 33d1 a7be e1a1 f9bd 3f26 583e
00000060: faf7 1dbd b848 23bd c75a 0d3e 45d9 85be
00000070: 32e4 bb3e c75b a2be 5765 1e3e e0b0 863e
00000080: 10c3 0abc f6f0 3ebe e4c6 393e 52d2 fbbd
00000090: 64bb c7be 6299 593e 9737 963e fdb3 2c3e
000000a0: bfbb aabe 86b5 8fbe dfa7 0e3e bd14 633e
000000b0: bfd7 a43d 7f7b a43e a3ba bc3d fcbb b4be
000000c0: 238c 4d3e cb0c c33e 8702 8fbe a2f8 c8be
000000d0: 5f94 8e3c 5a5d a33e b9b5 5e3e 49fa 8fbe
000000e0: 7723 5b3e 23aa eabd 42f0 7dbd db1d f7bc
000000f0: 5b04 a7be c664 32be 5dae 833c d52a 8f3e
00000100: 79c4 83be 90b1 313e d30d a13d 987f 32bd
00000110: 3e8e e1bd 271a bbbe 9a57 0c3e 4300 72be
00000120: 2963 cf3e 9254 353e 8542 243e f6fe d43e
00000130: 6e62 38bd adcb 33be bc80 513c bf31 11be
00000140: d2d5 123e 555c dabe 4b59 9a3d 62d8 80bd
00000150: 3a5a e1bd cd5b 813e fb96 a9be 755f d3bd
00000160: b4a1 ab3e 1078 863d a8d3 8dbe 9e8f 833e
00000170: 5014 b6be 37a8 913e 2478 34be 3b05 223e
00000180: 4e91 a63e 861a c83e c7bc 123e 76af 473e
00000190: 472b dabd 60ff d1bd e23f c8be 0f28 503e
000001a0: b0ae c53d 3727 113e a7be 8ebe 9b90 dbbe
000001b0: 4289 723e dfa8 55be 93fc 10be 3cdc 0a3e
000001c0: 9eae 2c3e 0f44 d5be 49f6 e1bd 2483 be3e
000001d0: 4ee5 a03d a7ee 81be 7469 af3e 2b79 cebe
000001e0: 112d 303d 2846 c93d f890 313d e776 ca3e
000001f0: 434f a33d 730f 8fbe c7a1 83bd e7ae 38be
00000200: a240 b83e b913 683d a3c8 c8be 671a d53b
00000210: 7a91 9b3b a4f6 d23c bcd7 d23d 8575 6e3e
00000220: 3875 b0be 5268 083e a181 5ebe 19fc 903e
00000230: 50bd 72be 8943 9ebe 96fe 7ebe a67e 7f3e
00000240: 0de0 a7bd 6567 c13e 8dbb b8be ac4c 0f3e
00000250: 69da 1dbe 1b31 813d 0be0 8c3e 5ba3 623e
00000260: 44e0 cebe a85c 80bd 1f19 393e c298 dbbe
00000270: e4d7 a2be d2a3 dbbe 0f97 723d 8bc5 bf3d
00000280: 378d 38be a9e9 323e 6633 853d 30ae 3c3e
00000290: cd40 c23e e44d 94be a222 acbe 698b d23e
000002a0: 46a5 66be 772b 9c3e 77dc 15be 2b24 bfbd
000002b0: 7cbe 45be 0a96 073e 275d e4bc ea11 b13e
000002c0: 821c d9be 0307 26bc 5ccd 823d a079 0f3e
000002d0: b722 ac3e b339 193e 9ae0 bfbe 826b 733d
000002e0: 98fa 3bbe d029 883e 822a 41be 0bdd 55bd
000002f0: 2272 e33d 8c74 913e eeb3 54be 1b1e a53e
00000300: e327 9cbe c20f d3bd b702 8bbe acf6 bb3d
00000310: 6da0 b3be 3a2d 8fbb cf52 99be 0cb1 8e3e
00000320: 1fef c8be fc77 42be 4e2d bcbe 14b8 8bbe
00000330: e469 ff3c 79b5 523e daa7 5d3e c00a afbe
00000340: 7272 9dbd cd74 2aba 427b 8f3e 0723 203d
00000350: 5538 69bd 61df 3cbe 10cc 60be 67a5 a7bc
00000360: 8ff4 983e 3459 4dbe c9ec bc3d 3b0d 593e
00000370: d945 75bd 2db8 f73e 1783 c93e 71d2 b63e
00000380: 4634 3d3e 8ad7 b4be 9952 623e 1b12 77bd
00000390: ddad aa3e c9e6 babe eda9 c7bc 433f c93e
000003a0: b4e4 9a3d 4ae4 103e 7953 f3ba 72ea 51be
000003b0: 3e15 513e 6d9e a93e b907 733e 6350 9abe
000003c0: 4028 95be a1ab d33e dd52 74bd 9761 333e
000003d0: 2cd1 fb3d 10da 8ebe e5d8 bb3e 5a90 9d3d
000003e0: dc56 5abe 9653 d13e e3de 0f3e b16f d73d
000003f0: 700b 9bbe 81be bf3e 8f9e 60be dddd 21be
0.17365478 -0.15559602 -0.25839937 0.028447976 -0.12956491 -0.265538 -0.32643202 -0.28442413
-0.29144573 0.4198638 0.05144048 0.058204085 0.290244 -0.36591196 0.07183675 -0.1193549
0.19329673 0.14397831 -0.28799483 -0.3873663 -0.09093377 -0.32776794 -0.12189079 0.2110834
-0.038566567 -0.039864272 0.1380416 -0.26142326 0.36697537 -0.31710646 0.15468346 0.2630682
-0.008469358 -0.18646607 0.18142277 -0.12295975 -0.39010155 0.21249917 0.29339287 0.16865535
-0.33346364 -0.2806818 0.13931225 0.2217588 0.08048963 0.3212547 0.09215286 -0.3529967
0.20072989 0.38095698 -0.27931616 -0.39252192 0.017404733 0.3190716 0.21749009 -0.2812064
0.21400248 -0.11458232 -0.061996706 -0.030165603 -0.3262051 -0.17421255 0.016074354 0.27962366
-0.25735834 0.17352891 0.07863965 -0.043578714 -0.11013459 -0.3654339 0.13705292 -0.23632912
0.4050534 0.17708042 0.16041 0.4160077 -0.045015745 -0.17558165 0.01278704 -0.14179133
0.14339378 -0.4264857 0.075365625 -0.06291272 -0.110035375 0.2526535 -0.33123 -0.10320941
0.33521807 0.06565869 -0.27700543 0.2569551 -0.35562372 0.2844865 -0.17623955 0.15822308
0.32532734 0.39082736 0.14329825 0.19500527 -0.10652786 -0.10253787 -0.3911124 0.20327781
0.096524596 0.14175116 -0.2787983 -0.42883763 0.23685172 -0.208652 -0.1415885 0.13560575
0.16863486 -0.41653487 -0.11033303 0.37209427 0.078562364 -0.2537739 0.34260142 -0.4032682
0.04301173 0.09827834 0.043351144 0.3954384 0.07974102 -0.27941474 -0.06427341 -0.1803547
0.3598681 0.056659434 -0.39215574 0.0065033915 0.0047475668 0.025752373 0.10295054 0.23287018
-0.3446443 0.13321045 -0.21729137 0.28317335 -0.2370503 -0.309109 -0.24901804 0.24950656
-0.08197031 0.37774196 -0.3608059 0.13994092 -0.15415348 0.06308194 0.2751468 0.22132628
-0.40405476 -0.06267673 0.18075989 -0.42889982 -0.31805336 -0.42898422 0.059226092 0.0936385
-0.18022619 0.17471947 0.06503944 0.18425822 0.37940064 -0.28965676 -0.33620173 0.41121987
-0.22523984 0.3050191 -0.14634882 -0.0933307 -0.19310945 0.13240829 -0.02787645 0.3458398
-0.42404562 -0.010133508 0.063868254 0.1401124 0.33620235 0.14963417 -0.37476045 0.0594287
-0.18357313 0.265944 -0.18863872 -0.052212756 0.111057535 0.2840923 -0.20771763 0.3224953
-0.3049918 -0.1030574 -0.2715051 0.09177908 -0.35083333 -0.004369405 -0.2994599 0.2786945
-0.39244935 -0.18991083 -0.36753315 -0.27288878 0.031178422 0.20577039 0.21646062 -0.3418789
-0.07687844 -0.000650239 0.28023726 0.039095905 -0.056938488 -0.18444587 -0.21952844 -0.020464612
0.29874083 -0.2005356 0.09224851 0.21196453 -0.059881065 0.48382702 0.39357826 0.3570743
0.18476972 -0.35320693 0.22101821 -0.06032 0.33335772 -0.365042 -0.02437302 0.39306077
0.07563153 0.14149585 -0.0018564306 -0.2049959 0.2041826 0.33128682 0.23733415 -0.30139455
-0.2913227 0.4134188 -0.059649337 0.17517696 0.12295756 -0.27900743 0.36688915 0.076935485
-0.21322197 0.40884084 0.14049868 0.1051935 -0.30282164 0.3745003 -0.21935485 -0.1580729

bias f4 [16]
00000000: 0000 0000 0000 0000 a243 adbb d169 293c
00000010: c779 9dbb dfe3 a23b 2292 053b 3ff3 9aba
00000020: 0000 0000 0000 0000 0000 0000 0000 0000
00000030: 0000 0000 5211 ba3d 79f2 19bc 7d2e acbb
0.0 0.0 -0.0052876035 0.01034017 -0.0048057768 0.004971012 0.0020381291 -0.001182176
0.0 0.0 0.0 0.0 0.0 0.09085335 -0.009396189 -0.0052545653
