ad/ad_Tox21_PPAR-gamma.pt (torch, 347085 bytes, 62 tensors)

weight f4 [16, 1]
0	0x3c66a224	0.014076743
1	0xbeade70a	-0.3396533
2	0x3ce70e3f	0.028205035
3	0x3e37926b	0.17926948
4	0xbe23d044	-0.15997416
5	0xbe0b18da	-0.13583699
6	0x3eadeebf	0.3397121
7	0x3d9af5cc	0.07566413
8	0xbf03ea33	-0.51529235
9	0xbf02a738	-0.51036406
10	0xbdc417da	-0.09574862
11	0x3e59255d	0.21205659
12	0xbeadfc6d	-0.33981648
13	0x3ef656ad	0.48113003
14	0x3d0fff64	0.03515567
15	0xbe2aba93	-0.16672735

bias f4 [16]
0	0x3b9c2509	0.004765157
1	0x00000000	0.0
2	0x3bda0ebc	0.0066545885
3	0x3b889619	0.0041682837
4	0x00000000	0.0
5	0x00000000	0.0
6	0x3bc0738c	0.0058731493
7	0x3b744906	0.003727497
8	0x00000000	0.0
9	0x00000000	0.0
10	0x00000000	0.0
11	0xbbc4b09b	-0.0060024983
12	0x00000000	0.0
13	0x3a74ae33	0.0009333819
14	0x3be93185	0.007116499
15	0x00000000	0.0

weight f4 [16, 16]
0	0x3d7d0fa0	0.06178248
1	0x3dd4eee3	0.103971265
2	0x3e9e2531	0.3088775
3	0x3e858464	0.2607757
4	0x3e27e6d1	0.16396643
5	0x3e99ecdc	0.30063522
6	0xbd87edcb	-0.06637152
7	0x3e255523	0.16145758
8	0x3e83807a	0.25683957
9	0xbe354c4a	-0.17704883
10	0xbe91515c	-0.28382385
11	0x3e8acee2	0.27110964
12	0x3ebf8b9a	0.37411195
13	0xbe80b51d	-0.25138178
14	0xbeb4806f	-0.35254237
15	0x3eb83f69	0.35985878
16	0x3e2aaa00	0.16666412
17	0xbe9003dd	-0.28127947
18	0x3eb0ebbf	0.3455486
19	0x3d763372	0.060107656
20	0x3d0af157	0.033921566
21	0xbea2a81c	-0.31768882
22	0x3e7e831e	0.24854705
23	0x3d9b9608	0.075969756
24	0xbe842e1e	-0.25816435
25	0x3e842fa3	0.25817594
26	0x3cf586d3	0.029971516
27	0xbebd4995	-0.369702
28	0x3e3654f1	0.1780584
29	0x3d416f6a	0.047225393
30	0x3ec2bc48	0.38034272
31	0xbe945df0	-0.2897792
32	0xbd14bfad	-0.03631561
33	0xbe4ff3bb	-0.2030782
34	0xbd750c03	-0.05982591
35	0xbdbf4a6f	-0.09340369
36	0xbded25e5	-0.115794934
37	0x3e8266cd	0.25469056
38	0xbeb67ef2	-0.35643727
39	0xbeab8eae	-0.33507293
40	0xbd64151c	-0.055684194
41	0xbd5094cc	-0.050923154
42	0xbd01705a	-0.031601287
43	0xbddc75ed	-0.1076468
44	0x3ed407a5	0.41412082
45	0x3dbabe3a	0.09118314
46	0x3c88b276	0.01668666
47	0x3de691a3	0.11258247
48	0xbe7a3258	-0.24433267
49	0xbc1b380f	-0.009473815
50	0xbc88561f	-0.016642628
51	0x3e51edfa	0.20500937
52	0x3caf31d5	0.021386066
53	0xbc7239cd	-0.014784289
54	0xbe85537b	-0.26040253
55	0x3d9c73ea	0.07639296
56	0x3e9a27f9	0.30108622
57	0xbe833177	-0.25623676
58	0xbebde33d	-0.37087432
59	0xbe94fc5c	-0.29098785
60	0x3e750aa5	0.23929842
61	0x3d9e6866	0.07734756
62	0x3e804481	0.25052264
63	0x3eab8c29	0.3350537
64	0xbe867914	-0.2626425
65	0x3ca317d7	0.019908829
66	0x3e9da3f2	0.30789143
67	0x3e648df4	0.22319776
68	0x3e11a3bf	0.1422262
69	0x3e8dc556	0.27689618
70	0x3e65b7d5	0.22433408
71	0xbe147347	-0.144971
72	0xbd894c9d	-0.06704066
73	0x3e55dd34	0.20885164
74	0x3ed21ffd	0.4104003
75	0xbbc37331	-0.0059646596
76	0x3e21dd99	0.15807189
77	0xbe13f4c6	-0.14448842
78	0x3e5b2c47	0.21403609
79	0x3dfda5cc	0.12385139
80	0xbcdd910f	-0.027046708
81	0x3e0ada14	0.13559753
82	0x3e5357f3	0.20639019
83	0x3e8c6901	0.27423862
84	0x3edd90b3	0.4327446
85	0xbecd96e3	-0.4015418
86	0x3ea2d9e6	0.31806868
87	0x3ea4bf3e	0.32177156
88	0x3eb277e6	0.348571
89	0x3ea910f9	0.33020762
90	0xbdc1fe8d	-0.0947238
91	0xbd94a2cc	-0.072576135
92	0x3e89dbdc	0.26925552
93	0xbe4809b5	-0.19534953
94	0xbe5d7735	-0.21627505
95	0xbe1cecbd	-0.15324683
96	0xbe96ad4b	-0.29429087
97	0xbeb2fd12	-0.34958702
98	0x3e12fdfb	0.14354698
99	0xbeb91fff	-0.36157224
100	0xbed53eda	-0.41649514
101	0x3d918b86	0.0710669
102	0xbe6b1d44	-0.22960383
103	0xbe249c72	-0.16075304
104	0x3ed19426	0.4093334
105	0xbe2fedbb	-0.1718053
106	0xbd936737	-0.07197421
107	0xbd12da0e	-0.035852484
108	0xbdb50d38	-0.08840412
109	0xbaef8299	-0.0018273174
110	0xbd66c85c	-0.05634342
111	0xbe86e930	-0.26349783
112	0x3ea666f3	0.3250042
113	0x3dfb2c01	0.122642525
114	0x3e7a55d1	0.24446799
115	0xbeaff14c	-0.34363782
116	0x3e42bba8	0.19016898
117	0xbeb117d4	-0.34588492
118	0x3eb0a279	0.34498957
119	0xbe225319	-0.15852012
120	0xbe8872f7	-0.2665021
121	0xbeb77188	-0.35828805
122	0xbed443b8	-0.41457915
123	0xbde9ab48	-0.114096224
124	0x3eabbed5	0.3354403
125	0x3ea0842f	0.31350848
126	0x3d4d3bdc	0.050105914
127	0xbe391b42	-0.18076804
128	0xbed9d412	-0.4254461
129	0x3e860268	0.2617371
130	0x3ec59419	0.38589552
131	0x3e82f6ff	0.25579068
132	0xbe4fe5ff	-0.2030258
133	0x3e4f535b	0.20246641
134	0x3e8b6067	0.27221987
135	0x3d9f0c52	0.07766022
136	0xbe87bbc1	-0.26510432
137	0x3dc9f4fc	0.0986118
138	0x3e37f2dc	0.17963737
139	0xbeb1cf2b	-0.3472837
140	0x3e2b781b	0.16745035
141	0xbec3ea93	-0.38264903
142	0x3e86a341	0.26296428
143	0x3e94fa37	0.2909715
144	0x38a60f74	7.918375e-05
145	0x3ed25d72	0.41086918
146	0x3e385822	0.1800237
147	0x3e7358d5	0.23764355
148	0xbe94f505	-0.29093185
149	0x3d77db92	0.060512133
150	0xbe47df6f	-0.19518827
151	0x3d8bf851	0.06834472
152	0xbe5dc8a7	-0.21658574
153	0x3d34dd4a	0.04415635
154	0x3de9313e	0.11386345
155	0xbe659b6e	-0.22422573
156	0x3d0b09dc	0.03394495
157	0xbe8f296b	-0.27961287
158	0x3d9abd7d	0.07555673
159	0xbd6cb02c	-0.057785198
160	0xbeb88d40	-0.36045265
161	0x3e18690b	0.1488382
162	0xbed55d30	-0.4167266
163	0xbecfb973	-0.40571174
164	0x3e845b51	0.2585092
165	0xbdf825c7	-0.121165805
166	0x3e354c9b	0.17705004
167	0x3de02bac	0.1094583
168	0xbeb24a3d	-0.34822264
169	0xbe4b79f0	-0.19870734
170	0x3ec7e51f	0.39041993
171	0x3eb32161	0.34986404
172	0xbdd07969	-0.10179407
173	0x3d187249	0.037218366
174	0xbeceabe1	-0.40365508
175	0xbebfd4f0	-0.37467146
176	0x3e9271d4	0.2860247
177	0x3ed32288	0.41237283
178	0xbe9cb9dc	-0.3061055
179	0x3e02467d	0.12722202
180	0x3e1f2222	0.15540364
181	0x3d4f7477	0.05064818
182	0x3e250581	0.16115381
183	0xbe81467a	-0.25249082
184	0xbea9fb88	-0.33199716
185	0xbe818c99	-0.2530258
186	0x3ebc5276	0.36781663
187	0xba1f6030	-0.00060797017
188	0x3e8adc3b	0.27121148
189	0xbe8abc58	-0.2709682
190	0xbdfee1e6	-0.124454305
191	0xbe99a460	-0.3000822
192	0x3dc5bf7d	0.09655664
193	0x3d31ff10	0.043456137
194	0xbc5543f9	-0.013016694
195	0x3cae28d4	0.021259703
196	0xbdf72d5d	-0.12069199
197	0x3e9a9db4	0.30198443
198	0xbe28cb8b	-0.16483895
199	0x3e11c388	0.14234746
200	0x3e7bdf80	0.24596977
201	0xbe459800	-0.19296265
202	0x3e8578b3	0.2606865
203	0x3e936524	0.28788102
204	0x3e4563c5	0.1927634
205	0xbe0128d9	-0.12613238
206	0xbe488562	-0.19582132
207	0xbec3b5ae	-0.38224548
208	0xbe54ef17	-0.2079433
209	0x3daac203	0.08337786
210	0xbe48352f	-0.19551538
211	0x3e343120	0.17596865
212	0xbe4b2d4c	-0.19841498
213	0xbe530ca5	-0.20610292
214	0xbecf573d	-0.40496245
215	0xbe8a53bf	-0.27017018
216	0xbece6df0	-0.4031825
217	0x3e903464	0.2816497
218	0x3e564c3b	0.20927517
219	0xbe498c85	-0.1968251
220	0xbea2350f	-0.31681105
221	0x3e9d1795	0.30682054
222	0xbe3b16b5	-0.18270381
223	0x3eb2992e	0.34882492
224	0xbec0d938	-0.37665725
225	0xbda36530	-0.07978284
226	0x3e6bf877	0.23044
227	0x3ea8de45	0.32982078
228	0xbeca884c	-0.3955711
229	0x3e53b4cd	0.20674439
230	0xbc0a7a1a	-0.008451963
231	0x3e363efe	0.17797467
232	0x3e69a3f6	0.22816452
233	0xbecfb6cc	-0.4056915
234	0x3ed775d4	0.42082083
235	0x3d553d19	0.05206022
236	0x3deb8039	0.11499066
237	0xbe6296d0	-0.22127843
238	0x3ecee71d	0.404107
239	0x3d77d33c	0.060504183
240	0x3eac57a1	0.33660606
241	0x3e399387	0.18122683
242	0xbeb7205b	-0.35766873
243	0x3edc5f79	0.4304159
244	0x3e52896a	0.20560232
245	0x3e7c8d85	0.2466336
246	0xbe5137ec	-0.20431489
247	0x3dfca8f9	0.123369165
248	0x3e22d143	0.1590014
249	0xbea901dd	-0.33009234
250	0x3d74d836	0.059776507
251	0xbe674f79	-0.2258891
252	0x3e89d3fc	0.26919544
253	0xbdedf132	-0.1161827
254	0x3e13f7d4	0.14450008
255	0xbea9f340	-0.33193398

bias f4 [16]
0	0x00000000	0.0
1	0x3bcd3895	0.0062628486
2	0x00000000	0.0
3	0x00000000	0.0
4	0xbb16af76	-0.0022992766
5	0x3b89dee5	0.0042074793
6	0x00000000	0.0
7	0x3b102277	0.00219932
8	0x00000000	0.0
9	0x00000000	0.0
10	0xbbac0c4f	-0.0052504907
11	0x00000000	0.0
12	0x00000000	0.0
13	0x00000000	0.0
14	0x00000000	0.0
15	0x00000000	0.0

weight f4 [16, 16]
0	0xbebedd3e	-0.3727817
1	0xbecadde6	-0.3962242
2	0xbd51d6f6	-0.051230393
3	0x3e0b9585	0.13631256
4	0x3dd0dad6	0.1019799
5	0x3be2b0cb	0.006918048
6	0xbed95088	-0.42444253
7	0xbea55e40	-0.3229847
8	0x3e8bbb3c	0.27291286
9	0xbe686e51	-0.22698332
10	0x3ddf26cc	0.10896072
11	0xbcd40223	-0.025879925
12	0xbdbd056a	-0.09229548
13	0xbe1f792b	-0.15573566
14	0x3e3ffc4f	0.18748592
15	0xbeb8a7dc	-0.36065567
16	0xbe9fd589	-0.31217602
17	0x3e7a74dd	0.24458642
18	0xbe94f3c1	-0.2909222
19	0xbd4b44c2	-0.04962612
20	0xbea85765	-0.32879177
21	0x3df555b4	0.11979237
22	0xbcb3f2b4	-0.021966316
23	0x3e3f2793	0.1866744
24	0xbeb8dfea	-0.36108333
25	0xbe674f11	-0.22588755
26	0xbdc555b5	-0.09635488
27	0xbe20e7a5	-0.15713365
28	0xbd1d1ff5	-0.038360555
29	0xbd32f580	-0.04369116
30	0xbe7e1924	-0.24814278
31	0x3c8dac63	0.017294114
32	0xbec5d3c0	-0.38638115
33	0xbce93b0a	-0.028470535
34	0xbecaece2	-0.39633852
35	0x3e57d520	0.21077394
36	0x3ec31c52	0.38107544
37	0x3ed1b014	0.4095465
38	0x3e7330a5	0.23749025
39	0xbec3e73a	-0.3826235
40	0x3ec3a20f	0.38209578
41	0xbeb8e58a	-0.36112624
42	0xbe9de566	-0.3083908
43	0xbdd235ed	-0.10264192
44	0x3e3abbf4	0.18235761
45	0x3ecbf0bc	0.39832103
46	0x3e91822e	0.28419632
47	0x3e9b72cf	0.3036103
48	0xbe724318	-0.23658407
49	0xbe9e5c6d	-0.3092989
50	0xbe358832	-0.17727736
51	0xbe11fb9f	-0.14256142
52	0x3e98f397	0.29873344
53	0xbec08cab	-0.3760732
54	0xbe0ccea1	-0.13750698
55	0x3cbb379c	0.022853665
56	0x3ec89ec3	0.39183626
57	0xbdf493e0	-0.119422674
58	0x3ec23068	0.37927556
59	0xbe6aee98	-0.22942579
60	0x3eac31e9	0.33631828
61	0xbeca26c5	-0.39482704
62	0x3d46826d	0.048464227
63	0x3ec16322	0.37770945
64	0x3c51a7b5	0.012796332
65	0x3ec2fa27	0.38081476
66	0x3d13f089	0.036118064
67	0xbe7bcd5e	-0.2459006
68	0xbe50cf4f	-0.20391582
69	0xbe28f345	-0.1649905
70	0xbec6c7ac	-0.38824213
71	0xbe77d27d	-0.24201389
72	0xbe0e69e9	-0.13907589
73	0xbedd9502	-0.43277746
74	0x3d4102c1	0.047121767
75	0xbde855b4	-0.113444716
76	0x3e1836ef	0.14864706
77	0x3ed04f88	0.40685678
78	0x3e01d812	0.1268008
79	0xbbe47c39	-0.0069728163
80	0xbbea6067	-0.0071526053
81	0xbe620fc1	-0.22076322
82	0xbd2f3cb6	-0.042782508
83	0xbd20d240	-0.03926301
84	0x3cfd608b	0.030929824
85	0x3dafbe21	0.08581186
86	0xbe9d781f	-0.30755708
87	0xbd712c93	-0.0588804
88	0xbead0b87	-0.33797857
89	0xbd95724c	-0.07297191
90	0xbea1add8	-0.31577945
91	0xbec056af	-0.37566134
92	0x3e1d0b06	0.15336236
93	0xbe52e962	-0.20596841
94	0x3e7d5808	0.24740613
95	0xbece5447	-0.40298674
96	0x3d66bbf7	0.0563316
97	0xbe4bfd40	-0.19920826
98	0x3ed5c033	0.417482
99	0xbdc2be52	-0.09508957
100	0x3ed41946	0.41425532
101	0xbe0b38b5	-0.13595851
102	0x3e17baac	0.14817303
103	0x3d41800f	0.047241267
104	0xbe97362a	-0.2953351
105	0x3dd32608	0.10309988
106	0xbe8b89df	-0.27253625
107	0x3e9442e9	0.28957298
108	0x3e108b5f	0.14115666
109	0x3b83e26f	0.0040247957
110	0x3dc46ca1	0.09591032
111	0x3e690de2	0.22759202
112	0x3ed9f29b	0.42567906
113	0x3ecbf88d	0.39838067
114	0x3e44359c	0.19161075
115	0x3e1da43e	0.15394685
116	0xbcd06753	-0.025439894
117	0x3d09461c	0.033514127
118	0xbea082d7	-0.31349823
119	0xbe2438c0	-0.16037273
120	0x3e9d5ba7	0.30733988
121	0xbe90fa2d	-0.2831587
122	0x3e22efb3	0.1591175
123	0xbe463eb6	-0.1935986
124	0x3e2d018a	0.16895118
125	0x3d442e0f	0.047895487
126	0x3ba6d8ce	0.005091763
127	0x3e577ef1	0.21044518
128	0x3e57bbd2	0.21067742
129	0xbea49ce4	-0.32150948
130	0xbe7f5fe4	-0.24938923
131	0x3e20c1dd	0.15698953
132	0x3e9b6e1b	0.3035744
133	0x3e816785	0.25274292
134	0xbe723e63	-0.23656611
135	0xbd0a4f20	-0.033766866
136	0xbed5b740	-0.4174137
137	0x3dc735cd	0.097270586
138	0xbebb339b	-0.3656281
139	0xbecf3302	-0.40468603
140	0xbe00e1c5	-0.12586124
141	0xbe251210	-0.16120172
142	0xbe43cc90	-0.19121003
143	0x3ecbd24b	0.39808878
144	0xbd4a8596	-0.049443804
145	0x3ea08289	0.3134959
146	0x3eb8355d	0.35978213
147	0xbd082bcc	-0.033244893
148	0x3ea5a0ad	0.32349148
149	0x3db44f35	0.0880417
150	0xbeb03ff5	-0.34423795
151	0xbe581789	-0.21102728
152	0xbe4b20d5	-0.19836743
153	0xbe6adcc9	-0.22935785
154	0xbe85c091	-0.2612348
155	0x3d9c6efd	0.07638357
156	0x3e648e00	0.22319794
157	0xbe9f01b9	-0.31056002
158	0xbec5089d	-0.38483134
159	0x3e637543	0.222127
160	0xbe82672e	-0.25469345
161	0x3e069050	0.13140988
162	0x3ebea145	0.37232414
163	0x3ed1506a	0.40881664
164	0xbe8dfff0	-0.27734327
165	0xbe097f6d	-0.13427515
166	0x3e33f4f0	0.17573905
167	0xbde1ba38	-0.110218465
168	0xbec437cb	-0.38323817
169	0x3eb59db0	0.3547187
170	0xbe72fedc	-0.23730034
171	0x3ea74f7c	0.3267783
172	0x3db2f356	0.08737819
173	0xbe9379a0	-0.2880373
174	0x3db998dc	0.09062359
175	0x3e6d5ec8	0.23180687
176	0x3e0eb7eb	0.13937347
177	0xbead7f5f	-0.3388624
178	0x3e137bd3	0.14402704
179	0xbed329dc	-0.41242874
180	0xbe1ea0d3	-0.15491037
181	0x3e9a1fb9	0.30102327
182	0xbe4cb857	-0.19992195
183	0x3da3817f	0.07983684
184	0x3ec51f8b	0.38500628
185	0x3d5c6f76	0.053817235
186	0xbe1adc7e	-0.15123174
187	0xbea6bbd5	-0.3256518
188	0xbda6e3c4	-0.081489116
189	0x3c02f47e	0.007992862
190	0xbe786a12	-0.24259213
191	0xbe11160b	-0.14168565
192	0x3e835c1b	0.25656208
193	0x3ec1b598	0.37833858
194	0xbe65adb3	-0.22429542
195	0xbea06394	-0.31325972
196	0x3e866cbb	0.2625483
197	0xbe751d16	-0.23936877
198	0x3de147ef	0.11000048
199	0xbed88b54	-0.422938
200	0x3ea183a9	0.3154576
201	0xbec3eb39	-0.38265398
202	0x3eda28c4	0.42609227
203	0xbe4bbeb1	-0.19896962
204	0x3ea24566	0.31693572
205	0xbdb386b2	-0.087659255
206	0x3ea1e4ee	0.31619972
207	0xbda6e7cc	-0.081496805
208	0x3e489e0d	0.19591542
209	0xbe9e818f	-0.3095822
210	0x3d088e33	0.033338737
211	0x3e9fc39b	0.31203923
212	0x3ed20a4c	0.4102348
213	0x3e1aafe0	0.15106153
214	0xbd945814	-0.07243362
215	0xbebd4957	-0.36970016
216	0xbcbfe914	-0.02342657
217	0xbec4a2b1	-0.38405374
218	0x3ec34a12	0.3814245
219	0x3eaaa993	0.333325
220	0xbe9217d4	-0.28533804
221	0xbece4caa	-0.40292865
222	0x3e7155cb	0.23567884
223	0x3e0bcef6	0.13653168
224	0xbeb5fee1	-0.3554602
225	0xbc940e5c	-0.018073253
226	0xbe2d4c16	-0.16923556
227	0x3e44ebb7	0.19230543
228	0xbe97c8bd	-0.2964534
229	0x3e8ffe2a	0.281236
230	0x3e54df5d	0.20788331
231	0x3e779c2c	0.24180669
232	0xbea66090	-0.32495546
233	0x3e329dbc	0.17442983
234	0xbed135ed	-0.40861455
235	0xbdd1955c	-0.10233566
236	0xbd912f82	-0.070891395
237	0x3c9cf6d2	0.019160662
238	0xbe3e677f	-0.18594168
239	0xbe815772	-0.25262028
240	0xbea0d113	-0.3140951
241	0x3eb855ba	0.36002904
242	0xbea8a5cf	-0.32939002
243	0x3ea50c96	0.32236165
244	0x3eb75513	0.35807094
245	0xbe295401	-0.16535951
246	0xbc4feac9	-0.0126902545
247	0x3d85302d	0.065033294
248	0xbea3dca9	-0.32004288
249	0xbe931436	-0.28726357
250	0xbd96b880	-0.07359409
251	0xbddd6bc5	-0.10811571
252	0x3e505e1e	0.20348403
253	0xbea6e21c	-0.32594383
254	0x3e55dcfa	0.20885077
255	0x3d0058a0	0.03133452

bias f4 [16]
0	0x00000000	0.0
1	0xba15efcb	-0.0005719631
2	0x00000000	0.0
3	0xbb80429e	-0.0039141914
4	0x00000000	0.0
5	0x00000000	0.0
6	0x00000000	0.0
7	0x3b514496	0.003193175
8	0x00000000	0.0
9	0x00000000	0.0
10	0x00000000	0.0
11	0x00000000	0.0
12	0x00000000	0.0
13	0x00000000	0.0
14	0x3ba5cb25	0.005059617
15	0x3bf706a3	0.007538633

weight f4 [16, 16]
0	0x3df5efd4	0.12008634
1	0x3e8cfa2e	0.27534622
2	0x3e21e3dd	0.15809579
3	0xbed26f40	-0.41100502
4	0x3e36bf7d	0.17846484
5	0xbe8b4f87	-0.27209112
6	0x3ddf7478	0.109108865
7	0xbe7654ff	-0.24055861
8	0xbe981bf7	-0.29708835
9	0x3e5e033b	0.2168092
10	0xbdf67f9e	-0.1203606
11	0x3ea21432	0.31656033
12	0x3dd095c6	0.10184817
13	0xbd8d8440	-0.0690999
14	0x3ecfd8d3	0.4059511
15	0x3dc3632a	0.095403984
16	0xbe6179ef	-0.2201917
17	0xbd2bdfe2	-0.04196156
18	0xbce841d7	-0.028351707
19	0xbea71f9c	-0.32641304
20	0x3d9d8da5	0.07693032
21	0xbedb5f24	-0.42846024
22	0xbda08d98	-0.07839507
23	0x3eb34275	0.3501164
24	0x3d98a526	0.074533746
25	0x3e56cde1	0.20976974
26	0xbe9a94aa	-0.30191547
27	0xbe236c4b	-0.15959279
28	0xbec688be	-0.387762
29	0x3d276aad	0.04087322
30	0xbebf5ebf	-0.37376973
31	0x3d640de9	0.05567733
32	0x3e19ff40	0.15038776
33	0x3d5e5d5a	0.054288246
34	0xbec809e7	-0.39070055
35	0xbec74f02	-0.38927466
36	0xbe9d7f7d	-0.30761328
37	0x3ec3d483	0.3824807
38	0x3ecf850b	0.4053119
39	0x3e52ba44	0.20578867
40	0x3eb422ce	0.35182804
41	0xbe5f7d89	-0.21825232
42	0x3e8b669d	0.27226725
43	0x3def8123	0.11694553
44	0x3d6c5cd1	0.057705704
45	0x3e111d37	0.14171301
46	0x3ec5f2b9	0.38661745
47	0xbe99b634	-0.30021822
48	0x3e80b271	0.2513614
49	0xbe9a8d8a	-0.3018611
50	0x3ed3c898	0.41363978
51	0x3d7dec4c	0.06199293
52	0xbe5cf39c	-0.21577305
53	0x3ed1a29d	0.40944377
54	0x3e8241bc	0.25440776
55	0x3e2de1fd	0.16980739
56	0x3dada6a7	0.08479052
57	0x3d0f1200	0.034929276
58	0xbe84d9df	-0.25947472
59	0xbe7e1e0a	-0.24816146
60	0x3e9ef5d8	0.3104694
61	0xbe7d4879	-0.24734677
62	0xbe50bc18	-0.20384252
63	0x3df607ff	0.12013244
64	0x3ea49f90	0.32152987
65	0xbea0740d	-0.3133854
66	0x3e4f43fb	0.20240776
67	0xbdda2abc	-0.10652682
68	0x3d707376	0.058703862
69	0x3e5263e8	0.20545924
70	0x3e533324	0.20624977
71	0xbe008127	-0.12549268
72	0x3ecfd7f5	0.4059445
73	0xbea7b8d4	-0.327582
74	0xbc73e1ef	-0.01488541
75	0xbeae21c4	-0.34010136
76	0x3e92e92f	0.2869353
77	0xbeaeb088	-0.34119058
78	0xbed4c29a	-0.4155472
79	0xbedd057c	-0.43168247
80	0x3ecabc1e	0.39596647
81	0x3e613b7f	0.21995352
82	0x3e4b4e4d	0.19854088
83	0xbead0f72	-0.33800846
84	0xbedd92fc	-0.43276203
85	0xbed5a93b	-0.41730675
86	0x3960845f	0.00021411617
87	0xbeb3d293	-0.35121593
88	0xbd39f75d	-0.04540192
89	0x3e8ea59e	0.2786073
90	0x3ea0e128	0.3142178
91	0xbed20148	-0.41016603
92	0xbe3a6aab	-0.18204753
93	0x3e36f730	0.17867732
94	0xbe1461f7	-0.14490496
95	0xbb1bc377	-0.002376763
96	0x3eb43565	0.35196987
97	0x3e92fbc9	0.28707722
98	0x3e9d11b5	0.30677572
99	0x3e8609a2	0.26179224
100	0x3df4e479	0.1195764
101	0xbc2af5ad	-0.01043455
102	0xbdb2cb72	-0.0873021
103	0x3e7b3e62	0.24535516
104	0x3ec7957b	0.38981232
105	0x3e8e57d3	0.2780138
106	0xbdf7946b	-0.12088855
107	0x3edccd8b	0.43125567
108	0x3e55f3b9	0.20893754
109	0xbd3e177b	-0.04640911
110	0x3e99af3f	0.30016515
111	0xbe5cca25	-0.21561487
112	0x3ea68352	0.32522064
113	0xbe723e10	-0.23656487
114	0xbeda4b3b	-0.4263552
115	0x3ec99ba6	0.39376563
116	0x3e8e7b85	0.27828613
117	0x3ea7e5de	0.32792562
118	0xbe929198	-0.28626704
119	0x3e4a0ce9	0.19731487
120	0x3ebcf187	0.3690302
121	0x3ecca027	0.39965937
122	0x3ec31969	0.38105324
123	0xbdb57ef0	-0.08862102
124	0xbbb6c306	-0.005577448
125	0x3d4df2d0	0.050280392
126	0xbe3931f7	-0.18085466
127	0xbe5a0961	-0.2129264
128	0xbe146b3a	-0.14494029
129	0xbe163e3f	-0.14672183
130	0xbe95f5e9	-0.29289177
131	0x3e64dd94	0.2235015
132	0xbe5733a0	-0.21015787
133	0xbe2a09d2	-0.16605309
134	0xbec753a8	-0.38931012
135	0x3ec19e10	0.37815905
136	0xbea8ea15	-0.3299109
137	0x3e012725	0.12612589
138	0x3e967eaf	0.29393527
139	0x3e82fbc2	0.255827
140	0x3e0eb1c3	0.13934998
141	0x3e605f11	0.21911265
142	0x3e7be02b	0.24597232
143	0xbcd08d97	-0.02545814
144	0x3eb2f52f	0.34952685
145	0x3ebb748f	0.36612365
146	0x3c859fae	0.016311493
147	0xbdce6fdf	-0.100799315
148	0x3e82d069	0.2554963
149	0xbd9b17db	-0.075729094
150	0xbec03587	-0.37540838
151	0xbec6f8a7	-0.38861582
152	0x3da90d21	0.08254457
153	0x388d4538	6.736297e-05
154	0x3ed646e0	0.41850948
155	0x3dd6004e	0.10449277
156	0x3e14fb3e	0.14548966
157	0xbe967426	-0.2938549
158	0xbebb5d83	-0.3659478
159	0x3e487e84	0.19579512
160	0xbed416d7	-0.41423675
161	0x3eb2277d	0.34795752
162	0xbcc695bf	-0.024241326
163	0x3e3d3d0b	0.18480317
164	0x3e130473	0.14357166
165	0xbd44726b	-0.04796068
166	0xbe80127d	-0.25014105
167	0x3eb4d942	0.35322005
168	0x3e519bc6	0.20469579
169	0xbcc4ebe1	-0.024038257
170	0xbe811e7a	-0.25218564
171	0x3ecd7c6b	0.40133986
172	0x3e6c5131	0.23077847
173	0xbe9e2c61	-0.30893233
174	0xbe19c6fb	-0.15017311
175	0x3ecc65eb	0.39921507
176	0x3eacf3e8	0.33779836
177	0xbe3ea406	-0.18617257
178	0xbe87f4a2	-0.26553828
179	0x3e1eab50	0.15495038
180	0xbe08e0c8	-0.13366997
181	0x3ebe8690	0.37212038
182	0x3b75aba1	0.0037486332
183	0x3d9afa77	0.07567304
184	0xbeb0e5e5	-0.34550396
185	0xbec0c4ef	-0.37650248
186	0x3cd98282	0.026551489
187	0xbd23345e	-0.039844863
188	0xbea26762	-0.317195
189	0xbb587d4b	-0.0033033665
190	0x3edc8829	0.43072632
191	0xbe977add	-0.29585925
192	0xbed03b76	-0.40670365
193	0x3e8f3f8c	0.2797817
194	0xbe855506	-0.2604143
195	0xbe59303f	-0.2120981
196	0xbdcce0a3	-0.100037836
197	0xbeae7365	-0.34072414
198	0x3e6a3fea	0.22875944
199	0x3ec40129	0.38282135
200	0xbec2ff1b	-0.38085255
201	0x3c9956e0	0.018718183
202	0x3ddb7fc2	0.10717727
203	0x3dabcb57	0.08388393
204	0xbda97ff5	-0.08276359
205	0x3e284116	0.16431078
206	0x3e90c8fa	0.28278333
207	0xbe288a16	-0.16458926
208	0xbe4d7b70	-0.20066619
209	0x3df47914	0.11937156
210	0xbed17b18	-0.40914226
211	0xbe68f504	-0.22749716
212	0x3e947eee	0.2900309
213	0xbea2b047	-0.31775114
214	0xbe9111a9	-0.28333786
215	0xbc79e453	-0.015252191
216	0x3e921975	0.28535047
217	0x3dc48b82	0.095969215
218	0x3ea05ef6	0.3132245
219	0xbe82e0c0	-0.25562096
220	0xbca5d98b	-0.020245334
221	0xbdbcd0c6	-0.09219508
222	0x3e3c483b	0.18386929
223	0x3eda7e03	0.42674264
224	0xbda35933	-0.07975998
225	0xbc19398a	-0.009352097
226	0x3e9c4d1d	0.30527583
227	0x3ebce456	0.36892956
228	0x3c48f44a	0.012265274
229	0x3eafd874	0.34344828
230	0x3e9caa9c	0.30598915
231	0x3d908bf7	0.07057946
232	0xbe0134e1	-0.12617828
233	0xbe4c892e	-0.19974205
234	0xbe7731aa	-0.24140039
235	0xbea271be	-0.31727403
236	0xbe86ad96	-0.2630431
237	0xbe829c75	-0.25509992
238	0x3ecad602	0.396164
239	0xbeac1c44	-0.33615315
240	0xbd921301	-0.07132531
241	0xbd8136a1	-0.06309248
242	0x3e7754b6	0.24153408
243	0x3ec8c7a6	0.3921482
244	0x3eab236f	0.3342547
245	0xbe39b72f	-0.18136285
246	0x3e823ac0	0.25435448
247	0xbe86c812	-0.26324517
248	0xbeb0109f	-0.3438768
249	0xbdeaed29	-0.11471016
250	0x3ed07c5c	0.4071988
251	0xbeb877a7	-0.36028787
252	0xbec9753f	-0.39347264
253	0xbda12278	-0.078679025
254	0xbe92c509	-0.2866595
255	0x3e467e72	0.19384173

bias f4 [16]
0	0xbb61daa8	-0.0034462605
1	0x00000000	0.0
2	0x3b0b3859	0.0021243303
3	0x00000000	0.0
4	0x00000000	0.0
5	0x3b91a172	0.0044442946
6	0xbb3d5eed	-0.0028895692
7	0x00000000	0.0
8	0x3ba4f19e	0.005033686
9	0x3b761a11	0.0037552158
10	0xbb97540d	-0.004618174
11	0x00000000	0.0
12	0x3b5e9738	0.0033964645
13	0x3bd55791	0.006510683
14	0x00000000	0.0
15	0xbb23b77a	-0.0024981187

weight f4 [16, 16]
0	0x3d698e00	0.057020187
1	0x3dc2c045	0.09509329
2	0x3e6b084f	0.22952388
3	0xbe3c4dd4	-0.18389064
4	0xbe1c978b	-0.15292184
5	0x3e0d0b39	0.13773812
6	0xbe6c1d91	-0.23058154
7	0xbedbc5e1	-0.42924407
8	0xbe856815	-0.2605597
9	0xbe24d108	-0.16095364
10	0x3dcafa92	0.09911074
11	0xbe3454e7	-0.17610513
12	0x3d775b9f	0.06039011
13	0x3eabbcf0	0.33542585
14	0xbeb15f7f	-0.3464317
15	0x3eacf25f	0.33778664
16	0x3e181ca4	0.14854676
17	0xbe7e7984	-0.24851042
18	0xbe6e8909	-0.23294462
19	0xbedd40c9	-0.4321349
20	0xbe2020c2	-0.15637496
21	0xbe38be1b	-0.1804127
22	0xbe0068e4	-0.12540013
23	0xbea36e5b	-0.31920132
24	0xbeb631e3	-0.35584936
25	0xbecca880	-0.39972305
26	0xbe8ebded	-0.27879277
27	0xbd591163	-0.052995097
28	0xbe5b696f	-0.21426938
29	0xbe4a8708	-0.19778073
30	0xbebc317c	-0.36756504
31	0xbde75e13	-0.1129724
32	0x3e95f1f4	0.29286158
33	0x3d6c3307	0.05766585
34	0xbca6b9bd	-0.020352239
35	0x3e4d9360	0.2007575
36	0xbdd9eb31	-0.10640562
37	0xbe09d0f8	-0.13458622
38	0xbd0b0b48	-0.033946306
39	0x3eb44053	0.35205325
40	0xbed23b4b	-0.41060862
41	0xbe06b3db	-0.13154547
42	0x3ed9985b	0.4249905
43	0x3df1c1e9	0.118045636
44	0xbdc70475	-0.09717647
45	0xbec7d06a	-0.39026195
46	0xbe849fb1	-0.25903085
47	0x3e570ce3	0.2100101
48	0x3c500b7b	0.01269805
49	0x3eb85653	0.3600336
50	0xbd51b2ce	-0.051195912
51	0xbd624afb	-0.05524729
52	0x3eda6b24	0.42659867
53	0x3e267008	0.16253674
54	0xbe5e252b	-0.21693866
55	0x3da65ee3	0.08123567
56	0xbe9f2593	-0.31083354
57	0xbe48539d	-0.19563146
58	0xbe04e7d6	-0.12979063
59	0x3ebc93d0	0.36831522
60	0x3d5f7ddc	0.05456339
61	0xbe58f509	-0.21187223
62	0xbc32dd94	-0.010917086
63	0x3ea52a75	0.32258955
64	0xbddc14c5	-0.10746149
65	0xbe99acfa	-0.30014783
66	0xbe800182	-0.2500115
67	0xbebe2e7b	-0.37144837
68	0xbe9ad798	-0.3024261
69	0xbed958aa	-0.42450458
70	0xbbd46645	-0.006481918
71	0xbea7b03e	-0.3275165
72	0xbeadbdad	-0.33933774
73	0xbe171365	-0.14753492
74	0xbe9c7d54	-0.30564368
75	0xbe777cd2	-0.24168709
76	0x3e4e4daa	0.20146814
77	0xbebec034	-0.37256014
78	0xbdba65c8	-0.091014445
79	0x3e8fdda1	0.28098777
80	0x3e82eff2	0.2557369
81	0xbe6e8fbb	-0.23297016
82	0x3e810d10	0.25205278
83	0x3e93a027	0.28833124
84	0x3dd63792	0.10459818
85	0x3e6065de	0.21913859
86	0xbdcb38a9	-0.099229164
87	0xbd989f47	-0.07452255
88	0x3e2644ac	0.16237134
89	0xbd67609e	-0.056488626
90	0x3e257ad2	0.16160133
91	0x3e90b326	0.2826168
92	0x3e1356c8	0.14388573
93	0x3dad3168	0.08456689
94	0xbe51d6dd	-0.2049212
95	0xbe083905	-0.13303001
96	0x3d1ef89a	0.038811304
97	0xbd60ef46	-0.05491569
98	0x3e8483b0	0.2588172
99	0x3e6a477b	0.2287883
100	0x3ed2a80d	0.41143838
101	0x3e11ef27	0.14251386
102	0xbe9214b6	-0.28531426
103	0x3ec1d7cc	0.37859952
104	0x3cc05e0a	0.023482341
105	0xbecccf6a	-0.40001994
106	0x3e95e207	0.29274008
107	0xbe8d3478	-0.27579093
108	0x3e8fe57c	0.2810477
109	0x3d6c65a7	0.05771413
110	0xbe931122	-0.2872401
111	0x3e8f804a	0.28027564
112	0xbd998ad4	-0.074971825
113	0xbea59deb	-0.32347044
114	0x3e859502	0.26090246
115	0xbe86471e	-0.26226133
116	0x3dfd3fe8	0.12365705
117	0x3e6af22f	0.22943948
118	0x3e2c4241	0.16822149
119	0x3df3fe3e	0.11913727
120	0x3e4ac86d	0.19803019
121	0xbeb18855	-0.34674326
122	0xbe5ecd12	-0.21757916
123	0x3e61be29	0.22045197
124	0x3ea2ba44	0.31782734
125	0x3d97c951	0.07411445
126	0x3d581db5	0.052762706
127	0xbeafa9fb	-0.34309372
128	0xbdb774b1	-0.08957804
129	0xbe5f5f17	-0.21813618
130	0x3ed525b7	0.41630337
131	0x3edb8cea	0.42880946
132	0x3da22fe2	0.07919289
133	0x3eade516	0.3396384
134	0x3cecea22	0.028920237
135	0xbdfeeb88	-0.12447268
136	0xbea387f5	-0.31939664
137	0x3eb93ad7	0.36177704
138	0x3df35f30	0.1188339
139	0xbd9055a6	-0.07047586
140	0xbe916fe0	-0.28405666
141	0x3e9cb7da	0.30609018
142	0x3e4315c3	0.1905127
143	0xbe7f1ab5	-0.24912532
144	0x3ece33a9	0.4027379
145	0xbea40e8f	-0.32042357
146	0xbd6801a0	-0.056642175
147	0x3ce73528	0.028223589
148	0x3ebb316c	0.36561143
149	0x3d99eedf	0.07516264
150	0x3e9db466	0.30801696
151	0xbe90da12	-0.28291374
152	0x3e5fc816	0.2185367
153	0x3eb416bf	0.35173604
154	0xbe82d7d6	-0.25555295
155	0xbde8ad2c	-0.11361155
156	0x3e0c540d	0.13703938
157	0x3daad178	0.08340734
158	0x3da62992	0.08113398
159	0xbd8bd904	-0.06828502
160	0xbde1d873	-0.110276125
161	0x3e8fc3b4	0.28078997
162	0xbdcd5b19	-0.10027141
163	0x3e059218	0.13044012
164	0xbe81bfe5	-0.25341716
165	0xbea1e649	-0.31621006
166	0xbeb5469a	-0.35405427
167	0x3ec81a9f	0.3908281
168	0xbe42e4b9	-0.19032563
169	0xbe7e99fe	-0.24863431
170	0x3d97b249	0.07407052
171	0x3ebdb582	0.37052542
172	0x3d7234b6	0.0591323
173	0x3e2462c9	0.16053309
174	0x3df72297	0.12067144
175	0x3eb39064	0.350711
176	0x3e32fa43	0.1747828
177	0xbeaffa5d	-0.343707
178	0x3c3fc934	0.011705685
179	0x3ebc80dd	0.36817065
180	0xbeccfc1d	-0.40036097
181	0xbdfd5730	-0.12370145
182	0xbecd8dd8	-0.4014728
183	0xbec4d46e	-0.3844332
184	0x3e32c7cd	0.1745903
185	0x3ec43ad8	0.38326144
186	0x3ecd54ed	0.40103856
187	0xbe1fc08f	-0.15600799
188	0x3eaeb9fa	0.34126264
189	0xbea0bfc8	-0.31396317
190	0xbec0cd18	-0.37656474
191	0x3eabb787	0.33538458
192	0x3e3ea415	0.1861728
193	0x3d6113c1	0.05495048
194	0xbeb37ec3	-0.3505765
195	0xbc8f6ab7	-0.01750694
196	0x3eb6d4c1	0.35709193
197	0xbe43acc1	-0.19108869
198	0x3e8feaa7	0.28108713
199	0xbe534415	-0.2063144
200	0xbec4f735	-0.38469854
201	0x3ec48428	0.38382077
202	0xbece30dc	-0.40271652
203	0xbe4d18b6	-0.20028958
204	0xbd82e5ba	-0.06391473
205	0x3eab1433	0.33413848
206	0x3a3c7114	0.0007188481
207	0xbdc93963	-0.09825399
208	0x3e82937f	0.25503156
209	0xbdb1de4a	-0.086849764
210	0x3e9c6bf7	0.3055112
211	0x3ec8119c	0.39075935
212	0x3e384c8d	0.17997952
213	0x3d3ac0c5	0.045593996
214	0x3ea77704	0.3270799
215	0xbed3b36e	-0.4134783
216	0xbedc4892	-0.43024117
217	0x3de3c9d2	0.111224785
218	0xbe92038b	-0.28518328
219	0xbebe8c62	-0.3721648
220	0xbdf2022f	-0.11816823
221	0xbe8e5952	-0.2780252
222	0x3d9bc709	0.07606322
223	0xbe7acc4b	-0.24491994
224	0x3a35a2a3	0.0006928837
225	0x3e698efd	0.22808452
226	0xbe67f451	-0.22651793
227	0x3eb71245	0.35756126
228	0xbe2b24b3	-0.16713218
229	0x3eada562	0.3391524
230	0xbe7fb35b	-0.24970762
231	0xbe95bb28	-0.2924435
232	0x3e4253ae	0.18977234
233	0x3ed277b4	0.4110695
234	0xbe6b0520	-0.22951174
235	0xbec86de3	-0.39146337
236	0xbe635d72	-0.22203615
237	0x3e80786b	0.25091872
238	0xbeb0f44b	-0.3456138
239	0xbe016497	-0.12636028
240	0xbebf11ba	-0.37318212
241	0xbcd5ad69	-0.026083665
242	0x3ea0afa2	0.31383997
243	0x3c1a0467	0.009400464
244	0xbc83a1ea	-0.016068418
245	0xbd72915f	-0.059220668
246	0x3ecdf708	0.40227532
247	0x3da5a94a	0.0808893
248	0x3d086867	0.03330269
249	0x3da4b7d3	0.08042874
250	0x3d2e4af0	0.042551935
251	0x3ea5d475	0.32388654
252	0x3eab96dc	0.33513534
253	0x3df04b5f	0.11733126
254	0x3e696333	0.22791748
255	0xbeb4c8af	-0.3530936

bias f4 [16]
0	0x3be8974f	0.0070981155
1	0x00000000	0.0
2	0xbba9cb6b	-0.00518172
3	0x00000000	0.0
4	0x00000000	0.0
5	0x3bce7e0c	0.006301647
6	0xbbdb7031	-0.006696724
7	0xbbc87102	-0.006116987
8	0xbb9ed7c3	-0.004847498
9	0xbb38ebe2	-0.002821677
10	0x00000000	0.0
11	0x3bd87804	0.006606104
12	0xbb67bc4c	-0.0035360036
13	0x00000000	0.0
14	0x00000000	0.0
15	0x3a6c226a	0.00090078136

weight f4 [16, 16]
0	0xbeb61541	-0.3556309
1	0x3bae3469	0.0053163064
2	0x3e0b433f	0.13599871
3	0x3dac11c9	0.0840183
4	0x3e5fe8d7	0.21866165
5	0x3ec8f814	0.3925177
6	0xbed06ea4	-0.40709412
7	0xbedca8b6	-0.43097466
8	0x3cb68891	0.022281917
9	0xbe8dc804	-0.27691662
10	0x3e1eff99	0.1552719
11	0x3dd28670	0.10279548
12	0x3cc30c1a	0.023809481
13	0x3d4790a0	0.04872191
14	0x3cfc3284	0.030785806
15	0xbecd48b7	-0.4009454
16	0x3e50a381	0.20374872
17	0x3e1b2eb9	0.15154542
18	0x3ed11fe8	0.40844655
19	0x3daab94c	0.08336124
20	0x3d0aecd9	0.03391728
21	0x3c9f32dd	0.019433433
22	0xbd93e3ab	-0.072211586
23	0x3e150a05	0.14554603
24	0x3d7692b5	0.060198504
25	0x3ed36415	0.41287294
26	0xbe5b8e0d	-0.21440907
27	0xbe805fd8	-0.25073123
28	0x3ebb7e1e	0.36619657
29	0x3e6883b6	0.22706494
30	0x3d62215c	0.055207595
31	0x3eba4dcd	0.36387482
32	0xbc63dcf6	-0.013907662
33	0x3e10a0f1	0.14123894
34	0x3db42113	0.08795371
35	0x3c35991c	0.011083867
36	0x3e88d89f	0.2672777
37	0xbe769a15	-0.24082215
38	0xbe14fcf0	-0.14549613
39	0x3eab26e1	0.334281
40	0x3e7e0648	0.24807084
41	0x3e24b4e6	0.16084632
42	0x3e4a2e71	0.19744278
43	0x3e8d00d2	0.27539688
44	0xbc4d5031	-0.012531326
45	0x3edbc46b	0.42923293
46	0x3de11aa8	0.109914124
47	0xbdc44963	-0.0958431
48	0x3e4b41ef	0.1984937
49	0x3e1ab8d2	0.15109566
50	0xbea890b4	-0.329229
51	0x3c914d86	0.017737161
52	0x3dcdc5c1	0.10047484
53	0x3e9d5a2d	0.3073286
54	0xbeb75345	-0.35805717
55	0xbea41a3e	-0.3205127
56	0xbeaab6ea	-0.33342677
57	0x3e73f8ae	0.23825333
58	0xbc98a8e9	-0.01863523
59	0xbed1196b	-0.40839705
60	0xbe938b13	-0.28817043
61	0x3ebcc71b	0.36870655
62	0x3e5bb87f	0.21457098
63	0x3ea3789c	0.31927955
64	0xbedb95fc	-0.42887866
65	0xbe3133e3	-0.1730495
66	0x3deda0e6	0.116029546
67	0x3e4b8ea4	0.19878632
68	0x3ebb2396	0.36550587
69	0xbecf3194	-0.40467513
70	0x3e7062c3	0.23475175
71	0x3d941d92	0.072322026
72	0x3edc9a84	0.43086636
73	0xbebe5bd3	-0.3717943
74	0x3cbf3faa	0.023345787
75	0xbed4bcf6	-0.41550416
76	0xbdf64598	-0.12024993
77	0x3e696c55	0.22795232
78	0x3e9368d0	0.28790903
79	0xbecbe4c5	-0.39822975
80	0x3d1da831	0.038490478
81	0x3eb7ffd8	0.3593738
82	0xbdaed74e	-0.0853716
83	0xbd96c451	-0.07361663
84	0x3d6658c0	0.056236982
85	0xbce2eda2	-0.027701203
86	0xbc9c73f1	-0.019098254
87	0x3ec758ce	0.3893494
88	0xbe1c4cee	-0.15263721
89	0xbec97f12	-0.3935476
90	0x3eb6af78	0.35680747
91	0xbe2553e8	-0.16145289
92	0xbe439375	-0.19099219
93	0xbe19738c	-0.14985484
94	0x3e88155c	0.26578796
95	0x3cc73f2a	0.024322111
96	0x3e787de5	0.24266775
97	0xbe907b3a	-0.28219014
98	0xbe2e9306	-0.17048272
99	0xbe990571	-0.29886964
100	0x3ea36454	0.31912482
101	0xbeca2652	-0.3948236
102	0xbecfb1e5	-0.4056541
103	0x3e82530f	0.25453994
104	0xbe7e31c9	-0.24823679
105	0x3ebb5ed3	0.36595783
106	0xbeb136f7	-0.34612247
107	0xbc4c2911	-0.012460963
108	0x3e44fdc5	0.1923743
109	0x3e883441	0.26602367
110	0xbe2c9aa5	-0.16855867
111	0xbdddb083	-0.108246826
112	0x3e20791b	0.15671198
113	0xbe61a133	-0.22034149
114	0xbe7fc426	-0.24977168
115	0x3e6f8e01	0.23394014
116	0x3ddc0220	0.10742593
117	0xbec4cd2b	-0.3843778
118	0xbc9775e8	-0.01848884
119	0x3e27c2a2	0.1638284
120	0xbed5aea8	-0.41734815
121	0xbe4e54fc	-0.20149606
122	0xbec623fb	-0.38699326
123	0xbedb26ae	-0.42802948
124	0xbe428d22	-0.1899915
125	0x3ec4fdd2	0.384749
126	0xba56ec53	-0.0008198667
127	0xbcd755df	-0.026286064
128	0x3da45d3a	0.08025594
129	0x3daf5aa4	0.0856221
130	0xbc2ba527	-0.010476387
131	0x3e387c20	0.180161
132	0xbe0509b5	-0.12991984
133	0x3edb48c9	0.42828968
134	0x3cf6bc31	0.030119034
135	0xbe1554d1	-0.14583136
136	0xbd130e26	-0.035902165
137	0x3e839b6f	0.25704524
138	0xbe94e6a3	-0.29082212
139	0x3eca1048	0.39465547
140	0xbd4df9d0	-0.050287068
141	0xbd120957	-0.03565344
142	0xbe385948	-0.18002808
143	0x3e806361	0.2507582
144	0x3e1450bb	0.14483921
145	0x3e20e5a4	0.15712601
146	0xbe1da7f7	-0.15396105
147	0xbe882596	-0.26591176
148	0xbe227a25	-0.15866907
149	0x3df9732b	0.1218017
150	0xbea3015a	-0.3183697
151	0x3de15601	0.11002732
152	0xbea2874e	-0.31743854
153	0xbdc73866	-0.09727554
154	0x3c8bb7d3	0.017055428
155	0xbe58f876	-0.2118853
156	0xbecb44d4	-0.3970095
157	0x3e6f3201	0.23358919
158	0xbdb4afe8	-0.08822614
159	0x3d99524d	0.07486401
160	0x3ecced94	0.40025008
161	0xbd7c8100	-0.06164646
162	0xbe95ca2a	-0.292558
163	0xbe2a8239	-0.16651239
164	0x3ec2ed87	0.38071844
165	0x3e931671	0.2872806
166	0xbeacc646	-0.3374502
167	0xbe5df632	-0.21675947
168	0xbe3d9071	-0.18512131
169	0x3e65a58f	0.22426437
170	0x3eb7c71f	0.35894105
171	0x3e74b9f7	0.23899065
172	0x3dfb8c04	0.12282565
173	0x3cf591de	0.029976781
174	0xbe5f3e99	-0.21801223
175	0x3e852793	0.26006755
176	0xbed586e5	-0.4170448
177	0xbeab6a07	-0.3347933
178	0x3eb4005a	0.35156518
179	0xbdd9b239	-0.106296964
180	0xbe5512de	-0.20807979
181	0x3e3db9b7	0.18527876
182	0x3e1b07c1	0.15139677
183	0xbcd8ea57	-0.02647893
184	0xbd5a9e1c	-0.05337344
185	0x3eaf8aa5	0.34285465
186	0x3e865c8c	0.26242483
187	0x3ec7ece8	0.39047933
188	0x3e015403	0.12629704
189	0x3e286116	0.16443285
190	0x3e7eb8b2	0.24875143
191	0xbe9d8fe9	-0.30773857
192	0x3dc9b16e	0.09848295
193	0x3d471e94	0.048613146
194	0x3e69fb02	0.22849658
195	0x3e17fbb5	0.14842112
196	0x3b80eaee	0.003934256
197	0x3ec11f2a	0.3771909
198	0xbd409231	-0.04701442
199	0x3ed437f6	0.41448945
200	0xbed5cee0	-0.41759396
201	0x3ed2950a	0.41129333
202	0xbe96fadb	-0.29488263
203	0x3dc6eade	0.09712766
204	0x3eb58bad	0.35458127
205	0x3e82671d	0.25469294
206	0xbed3ba70	-0.41353178
207	0x3e285f2d	0.16442557
208	0xbe9332f1	-0.28749803
209	0x3ec42075	0.38306013
210	0x3ed23caf	0.41061923
211	0x3e975e04	0.29563916
212	0x3ea9af46	0.33141536
213	0xbe8a6043	-0.27026567
214	0x3a8a8447	0.0010567986
215	0xbdaccb32	-0.08437194
216	0x3e83d711	0.2575002
217	0xbdc10ba8	-0.094260514
218	0x3ea52cd5	0.32260767
219	0xbe90f1d8	-0.28309512
220	0x3e01b2f4	0.12665921
221	0xbe40dfc6	-0.18835363
222	0x3e7eb8df	0.2487521
223	0x3e38ec5c	0.18058914
224	0xbe2ad288	-0.16681874
225	0xbe296b5d	-0.16544862
226	0x3eb2d44b	0.34927592
227	0x3e041c71	0.12901475
228	0xbe10f90b	-0.14157502
229	0xbea8c44c	-0.32962263
230	0x3e70679b	0.23477022
231	0x3e983c00	0.29733276
232	0x3e4972f8	0.19672763
233	0xbeb05153	-0.34437045
234	0x3eb8e001	0.361084
235	0x3e55bb74	0.20872289
236	0x3e4a957e	0.19783589
237	0x3ea28863	0.3174468
238	0xbe7b61e6	-0.24549064
239	0xbe9ad47d	-0.3024024
240	0x3c0463b0	0.008080408
241	0xbe82e030	-0.25561666
242	0xbe153776	-0.14571938
243	0xbde6c51d	-0.11268065
244	0xbe9a5572	-0.30143315
245	0xbda58bd2	-0.08083309
246	0xbd7cf64b	-0.06175832
247	0xbe290973	-0.16507511
248	0x3e276610	0.16347528
249	0x3d7193a1	0.05897868
250	0x3ed1fe00	0.410141
251	0xbe9d913d	-0.3077487
252	0xbd6fc0f4	-0.058533624
253	0xbe10445b	-0.14088576
254	0xbe4c0172	-0.19922426
255	0xbecf3404	-0.40469372

bias f4 [16]
0	0x00000000	0.0
1	0xbb8e40b5	-0.00434121
2	0xbb09a2fc	-0.0021001687
3	0xbb78b71c	-0.0037950939
4	0x00000000	0.0
5	0x00000000	0.0
6	0x00000000	0.0
7	0x00000000	0.0
8	0xbb1e47cf	-0.0024151688
9	0x00000000	0.0
10	0x3bc4f875	0.0060110637
11	0xbb7d969a	-0.0038694502
12	0xbb34a0dc	-0.00275617
13	0x00000000	0.0
14	0xb9a9930d	-0.00032343753
15	0x00000000	0.0

weight f4 [16, 16]
0	0x3dfca7cf	0.123366944
1	0xbdf05f5a	-0.11736937
2	0xbed5b025	-0.4173595
3	0xbe895cb4	-0.2682854
4	0xbebf5b69	-0.37374428
5	0xbe8aa23a	-0.27076894
6	0xbd8a74c5	-0.06760553
7	0xbe2a81d8	-0.16651094
8	0xbd36a7a2	-0.04459346
9	0x3d9dac1e	0.076988444
10	0xbea76d31	-0.32700494
11	0xbea30117	-0.3183677
12	0xbe5b24aa	-0.21400705
13	0x3ecf7241	0.40516856
14	0xbe85f044	-0.2615987
15	0x3e62965e	0.22127673
16	0x3ed1b5c2	0.40958983
17	0xbde5ed08	-0.11226851
18	0x3cb8db88	0.022565618
19	0xbebab51a	-0.36466295
20	0x3ec08c79	0.37607172
21	0x3ed92aea	0.42415553
22	0xbe6895fe	-0.22713467
23	0xbda37ff4	-0.079833895
24	0xbdc1f598	-0.094706714
25	0x3db21887	0.086960845
26	0x3eb6e692	0.35722786
27	0x3e91fbfc	0.2851256
28	0x3e40b490	0.18818879
29	0x3eae5dcc	0.34055936
30	0x3eb811c0	0.35951042
31	0x3ebf73a7	0.37392923
32	0xbe3bb16a	-0.18329397
33	0x3d8051a9	0.062655754
34	0x3e6352c6	0.22199544
35	0x3ec42d3e	0.38315767
36	0xbe72555d	-0.23665376
37	0x3e958743	0.2920476
38	0xbdf62c58	-0.12020177
39	0x3e2885cd	0.16457291
40	0xbeb00db7	-0.34385464
41	0xbec1f8de	-0.37885183
42	0x3ea2d2b4	0.3180138
43	0x3ea1f0e4	0.31629097
44	0x3ed6a016	0.4191901
45	0x3e70cbf9	0.2351531
46	0xbe9308db	-0.28717694
47	0xbd1df831	-0.038566772
48	0x3eae5d18	0.340554
49	0xbea3fc37	-0.32028362
50	0xbe274ffc	-0.16339105
51	0xb9f0ae19	-0.0004590608
52	0x3eae9c4b	0.34103617
53	0x3e83f5b4	0.25773394
54	0xbcc372f1	-0.02385852
55	0x3eaeeb18	0.34163737
56	0x3e3db7d4	0.18527156
57	0xbe052380	-0.13001823
58	0xbed7bbcb	-0.42135462
59	0x3ed7a466	0.42117614
60	0x3ec9389c	0.39301002
61	0xbe8498d3	-0.25897846
62	0xbea7f57b	-0.32804474
63	0x3e0a33e6	0.1349636
64	0x3e9a08ac	0.3008474
65	0x3c240cd2	0.010012822
66	0xbed099f4	-0.40742457
67	0xbb9b6f45	-0.004743489
68	0xbe201fa2	-0.15637067
69	0x3dec95e4	0.11552027
70	0xbec3832a	-0.38186008
71	0xbc46a0ae	-0.01212327
72	0x3ed69a4a	0.41914588
73	0xbeb532db	-0.35390362
74	0xbeae5557	-0.34049484
75	0xbedcd456	-0.4313075
76	0xbe3b2422	-0.18275502
77	0xbe1063a1	-0.14100505
78	0x3e28ac45	0.16471966
79	0x3eb80f17	0.35949013
80	0xbeb2d249	-0.3492606
81	0xbe368370	-0.17823577
82	0x3e1ac1ec	0.15113038
83	0xbe706115	-0.23474534
84	0x3dee875e	0.11646913
85	0xbecf498f	-0.40485808
86	0xbec22714	-0.3792044
87	0xbe95fe6a	-0.29295665
88	0x3d7a1814	0.06105812
89	0x3db54876	0.088517115
90	0x3ec90b94	0.39266646
91	0x3ec0d358	0.37661242
92	0x3e8e1571	0.27750733
93	0x3cc7a175	0.02436898
94	0x3dc3c08b	0.09558209
95	0x3e912ce2	0.28354555
96	0xbe52e4fc	-0.20595163
97	0x3ed26559	0.41092947
98	0x3e75e075	0.24011405
99	0xbec5a475	-0.38602033
100	0xbec2f50d	-0.38077584
101	0x3e3bf93a	0.18356791
102	0xbcd1f8e6	-0.02563138
103	0xbde5a7b4	-0.112136275
104	0x3e8ca968	0.27472997
105	0x3c6b3b82	0.0143574495
106	0xbe5ad704	-0.21371084
107	0x3db255bf	0.08707761
108	0x3e800413	0.25003108
109	0x3ea0a95c	0.3137921
110	0x3e96d8d9	0.29462317
111	0xbe8d4409	-0.2759097
112	0x3d57e61f	0.052709695
113	0xbe66428c	-0.22486323
114	0xbea409ca	-0.32038718
115	0xbec6c825	-0.38824573
116	0xbe845018	-0.25842357
117	0x3e4041e7	0.1877514
118	0x3e55fb19	0.20896567
119	0xbd00d25b	-0.03145061
120	0xbea2cefd	-0.31798545
121	0x3ec5045a	0.38479882
122	0x3d98dc93	0.07463946
123	0x3dc00502	0.09375955
124	0xbea17ede	-0.31542104
125	0xbd8422a0	-0.06451917
126	0xbe9d99b3	-0.30781326
127	0x3e854eb8	0.2603662
128	0xbe026e38	-0.12737358
129	0x3ebc186f	0.3673739
130	0xbecc8251	-0.39943174
131	0xbd416e26	-0.047224186
132	0xbe327cec	-0.17430466
133	0x3db77a6e	0.089588985
134	0x3e9e5dc1	0.30930904
135	0x3c0e9c99	0.008704328
136	0x3e3e4d8d	0.18584271
137	0x3e3e2394	0.1856826
138	0x3dc5c352	0.09656395
139	0x3e9480ad	0.29004422
140	0x3eba9a2e	0.36445755
141	0xbea6b3e6	-0.32559127
142	0x3e45d1e8	0.19318354
143	0xbec693c7	-0.3878462
144	0xbe50c1a8	-0.20386374
145	0xbe2c8b0e	-0.1684992
146	0x3e5925b9	0.21205796
147	0x3d0a78a3	0.033806454
148	0xbe0cbd48	-0.1374408
149	0xbe07dd7d	-0.13268085
150	0x3eae2cec	0.34018648
151	0x3e7249c8	0.23660958
152	0xbe9202ff	-0.2851791
153	0xbece8921	-0.40338996
154	0xbe2473b7	-0.16059767
155	0xbed46b07	-0.41487905
156	0x3edc3950	0.43012476
157	0x3e52e912	0.20596722
158	0x3e5ab2dd	0.21357293
159	0x3c8abed7	0.016936703
160	0xbec62a09	-0.38703945
161	0xbe896d3a	-0.26841146
162	0xbe5dc6a7	-0.21657811
163	0x3ecd2ef0	0.40074873
164	0x3ece29bd	0.4026622
165	0xbe602dfd	-0.21892543
166	0xbde97d9d	-0.11400912
167	0x3ead73d2	0.33877426
168	0x3e24c796	0.16091761
169	0x3ec39796	0.38201588
170	0x3e07ff07	0.13280879
171	0xbea4927e	-0.32143015
172	0x3df67bc9	0.12035329
173	0x3c061b69	0.008185246
174	0xbcebd58d	-0.028788352
175	0xbe2dc7ea	-0.16970792
176	0x3d9c24a6	0.07624178
177	0xbec7b2a6	-0.39003485
178	0xbedd3e07	-0.43211386
179	0xbe187ff0	-0.14892554
180	0xbe48984a	-0.19589344
181	0x3d99a640	0.07502413
182	0x3e752863	0.23941188
183	0x3dd09f8b	0.101866804
184	0xbecaa6ab	-0.39580283
185	0x3da7fdbd	0.082026936
186	0x3ed0c8b6	0.4077813
187	0x3ddf365c	0.1089904
188	0xbe775892	-0.2415488
189	0xbcb11cc2	-0.021620158
190	0xbe5895d7	-0.2115091
191	0xbdc02ad1	-0.093831666
192	0x3e3c9613	0.18416624
193	0xbeabf68d	-0.3358654
194	0x3d14d4c7	0.036335733
195	0x3e96123f	0.29310796
196	0x3e50ff1a	0.20409814
197	0xbeab9c47	-0.33517668
198	0x3e80e7b9	0.2517679
199	0xbdac3d0f	-0.084100835
200	0xbddc1691	-0.10746492
201	0xbebc1023	-0.3673106
202	0x3ed3857b	0.41312775
203	0x3e430264	0.1904388
204	0x3e4181ad	0.18897124
205	0x3e45c2cd	0.19312592
206	0xbeb4072f	-0.3516173
207	0xbe5dd4a4	-0.21663147
208	0xbeba7137	-0.364145
209	0x3e65982b	0.22421329
210	0xbeb307a6	-0.34966773
211	0x3c5e5f08	0.013572462
212	0x3e32eca0	0.17473078
213	0xbe6a26ef	-0.22866414
214	0x3ebfbb51	0.374476
215	0x3e365254	0.17804843
216	0x3eaf49e6	0.34236068
217	0xbeb27c07	-0.3486025
218	0xbea7bfba	-0.32763463
219	0x3ea145af	0.31498477
220	0xbeadc2dc	-0.33937728
221	0xbd03503d	-0.032058943
222	0xbdb4c77d	-0.08827112
223	0x3c8b2238	0.01698409
224	0xbe0722a1	-0.13196804
225	0x3e819369	0.25307778
226	0x3b94cb43	0.0045408322
227	0x3defa76e	0.117018566
228	0xbec96b31	-0.39339593
229	0xbe16d781	-0.14730646
230	0xbe64cc2e	-0.22343513
231	0x3d17960e	0.037008338
232	0xbebebe4f	-0.3725457
233	0x3d28ff54	0.041259125
234	0xbed4b244	-0.41542256
235	0xbe2de27a	-0.16980925
236	0xbd946c83	-0.072472595
237	0xbb419b80	-0.0029542148
238	0x3dc3d7ea	0.09562667
239	0xbe7d42f3	-0.2473257
240	0x3e902cd3	0.28159198
241	0xbed2d44c	-0.41177595
242	0xbdd22d9a	-0.10262604
243	0xbe61bda6	-0.22045001
244	0xbe4328a4	-0.19058472
245	0xbeb0e1df	-0.34547326
246	0x3ec08c68	0.3760712
247	0xbec4365f	-0.38322732
248	0x3eb36b17	0.3504264
249	0xbe68e6d1	-0.227443
250	0x3ec41175	0.3829457
251	0x3dcd6af6	0.10030167
252	0xbe576c1e	-0.21037337
253	0xbed69026	-0.41906852
254	0xbda3d931	-0.0800041
255	0x3eb5d057	0.35510513

bias f4 [16]
0	0x00000000	0.0
1	0xbb63d4cb	-0.0034764286
2	0xbbdd7fee	-0.006759635
3	0xbb902789	-0.004399244
4	0x00000000	0.0
5	0x3bd3866a	0.0064552324
6	0xbb74c730	-0.003735017
7	0x00000000	0.0
8	0x3ba65b35	0.0050767907
9	0x00000000	0.0
10	0xbbca4c28	-0.0061736293
11	0x00000000	0.0
12	0xbbc92593	-0.0061385124
13	0xbbc0560b	-0.005869632
14	0x00000000	0.0
15	0x3bb494dc	0.0055109095

weight f4 [16, 16]
0	0x3e31d28f	0.17365478
1	0xbe1f5490	-0.15559602
2	0xbe844cec	-0.25839937
3	0x3ce90bbb	0.028447976
4	0xbe04acaa	-0.12956491
5	0xbe87f499	-0.265538
6	0xbea72219	-0.32643202
7	0xbe91a00a	-0.28442413
8	0xbe953860	-0.29144573
9	0x3ed6f863	0.4198638
10	0x3d52b341	0.05144048
11	0x3d6e6768	0.058204085
12	0x3e949add	0.290244
13	0xbebb58d0	-0.36591196
14	0x3d931f25	0.07183675
15	0xbdf47058	-0.1193549
16	0x3e45ef94	0.19329673
17	0x3e136f0d	0.14397831
18	0xbe93740f	-0.28799483
19	0xbec654e0	-0.3873663
20	0xbdba3b7c	-0.09093377
21	0xbea7d133	-0.32776794
22	0xbdf9a1e1	-0.12189079
23	0x3e58263f	0.2110834
24	0xbd1df7fa	-0.038566567
25	0xbd2348b8	-0.039864272
26	0x3e0d5ac7	0.1380416
27	0xbe85d945	-0.26142326
28	0x3ebbe432	0.36697537
29	0xbea25bc7	-0.31710646
30	0x3e1e6557	0.15468346
31	0x3e86b0e0	0.2630682
32	0xbc0ac310	-0.008469358
33	0xbe3e2a8d	-0.1857092
34	0x3e3a81c7	0.18213569
35	0xbdfabf89	-0.12243564
36	0xbec7bb64	-0.39010155
37	0x3e5a5e58	0.21325052
38	0x3e9691a2	0.29407984
39	0x3e2cb3fd	0.16865535
40	0xbeaa57d1	-0.33270124
41	0xbe8fb586	-0.2806818
42	0x3e0e925b	0.13923018
43	0x3e6314bd	0.2217588
44	0x3da669b6	0.081256315
45	0x3ea4a183	0.32154474
46	0x3dbcbaa3	0.09215286
47	0xbeb45009	-0.35217312
48	0x3e4d8c23	0.20072989
49	0x3ebe2cf8	0.37143683
50	0xbe93f5d9	-0.28898504
51	0xbeccc3c2	-0.399931
52	0x3c8e945f	0.017404733
53	0x3e9ec6a2	0.3101092
54	0x3e563288	0.20917714
55	0xbe8ffa49	-0.2812064
56	0x3e513eff	0.20434187
57	0xbdfd3f3b	-0.12365576
58	0xbd82288b	-0.06355389
59	0xbcf71ddb	-0.030165603
60	0xbeac5ff1	-0.33666947
61	0xbe3564a4	-0.17714173
62	0x3c83ae5d	0.016074354
63	0x3e8a3ebe	0.27000993
64	0xbe83c479	-0.25735834
65	0x3e326883	0.1742268
66	0x3da21787	0.07914644
67	0xbd307892	-0.043083735
68	0xbde18e3e	-0.11013459
69	0xbebab9ed	-0.36469975
70	0x3e0cfc74	0.13768178
71	0xbe720043	-0.23632912
72	0x3ecfafe7	0.4056389
73	0x3e26dd6f	0.16295408
74	0x3e210cdc	0.15727562
75	0x3ed4fef6	0.4160077
76	0xbd36754a	-0.04454545
77	0xbe33b2c7	-0.17548667
78	0x3c5180bc	0.01278704
79	0xbe109297	-0.1411842
80	0x3e12d5d2	0.14339378
81	0xbedb5efa	-0.428459
82	0x3d96ad69	0.07357294
83	0xbd82cf59	-0.06387205
84	0xbde15a3a	-0.110035375
85	0x3e806038	0.2507341
86	0xbeaa51c4	-0.33265507
87	0xbdd35f75	-0.10320941
88	0x3eaa985a	0.3331936
89	0x3d90cd29	0.07070381
90	0xbe903b25	-0.28170124
91	0x3e838f9e	0.2569551
92	0xbeb76df7	-0.35826084
93	0x3e918bab	0.2842687
94	0xbe347824	-0.17623955
95	0x3e1de24d	0.15418358
96	0x3ea6914e	0.32532734
97	0x3ec2e498	0.38065028
98	0x3e06c04d	0.13159294
99	0x3e3ff059	0.18744029
100	0xbdda2b47	-0.10652786
101	0xbde461c6	-0.11151461
102	0xbecc7ca6	-0.3993885
103	0x3e50280f	0.20327781
104	0x3daecfbf	0.08535718
105	0x3e05eac4	0.13077837
106	0xbe8fea47	-0.28108427
107	0xbedb909b	-0.42883763
108	0x3e64e5ef	0.22353338
109	0xbe579b4c	-0.21055335
110	0xbe10fc93	-0.1415885
111	0x3dff56ba	0.12467714
112	0x3e2cae9e	0.16863486
113	0xbed5587b	-0.41669068
114	0xbde24581	-0.11048413
115	0x3ebe6d71	0.37192872
116	0x3da0e54e	0.078562364
117	0xbe820395	-0.25393358
118	0x3eaf5526	0.3424465
119	0xbece792b	-0.4032682
120	0x3d2f8b46	0.04285743
121	0x3dc94628	0.09827834
122	0x3d3190f8	0.043351144
123	0x3eca76e7	0.3954384
124	0x3da2f7a6	0.079573914
125	0xbe8f24a3	-0.2795764
126	0xbd83a1c7	-0.06427341
127	0xbe38eb18	-0.18058431
128	0x3eb840a2	0.3598681
129	0x3d6813b9	0.056659434
130	0xbec8c8a3	-0.39215574
131	0x3bd51a67	0.0065033915
132	0x3b9b917a	0.0047475668
133	0x3cd2f6a4	0.025752373
134	0x3dd2d7bc	0.10295054
135	0x3e6e7585	0.23287018
136	0xbeb07538	-0.3446443
137	0x3e086852	0.13321045
138	0xbe5e81a1	-0.21729137
139	0x3e90fc19	0.28317335
140	0xbe72bd50	-0.2370503
141	0xbe9e4389	-0.309109
142	0xbe7efe96	-0.24901804
143	0x3e7f7ea6	0.24950656
144	0xbda7e00d	-0.08197031
145	0x3ec16765	0.37774196
146	0xbeb8bb8d	-0.3608059
147	0x3e0f4cac	0.13994092
148	0xbe1dda69	-0.15415348
149	0x3d81311b	0.06308194
150	0x3e8ce00b	0.2751468
151	0x3e62a35b	0.22132628
152	0xbecee044	-0.40405476
153	0xbd805ca8	-0.06267673
154	0x3e39191f	0.18075989
155	0xbedb98c2	-0.42889982
156	0xbea2d7e4	-0.31805336
157	0xbedba3d2	-0.42898422
158	0x3d72970f	0.059226092
159	0x3dbfc58b	0.0936385
160	0xbe388d37	-0.18022619
161	0x3e32e9a9	0.17471947
162	0x3d853366	0.06503944
163	0x3e3cae30	0.18425822
164	0x3ec240cd	0.37940064
165	0xbe944de4	-0.28965676
166	0xbeac22a2	-0.33620173
167	0x3ed28b69	0.41121987
168	0xbe66a546	-0.22523984
169	0x3e9c2b77	0.3050191
170	0xbe15dc77	-0.14634882
171	0xbdbf242b	-0.0933307
172	0xbe45be7c	-0.19310945
173	0x3e07960a	0.13240829
174	0xbce45d27	-0.02787645
175	0x3eb111ea	0.3458398
176	0xbed91c82	-0.42404562
177	0xbc260703	-0.010133508
178	0x3d82cd5c	0.063868254
179	0x3e0f79a0	0.1401124
180	0x3eac22b7	0.33620235
181	0x3e1939b3	0.14963417
182	0xbebfe09a	-0.37476045
183	0x3d736b82	0.0594287
184	0xbe3bfa98	-0.18357313
185	0x3e8829d0	0.265944
186	0xbe412a82	-0.18863872
187	0xbd55dd0b	-0.052212756
188	0x3de37222	0.111057535
189	0x3e91748c	0.2840923
190	0xbe54b3ee	-0.20771763
191	0x3ea51e1b	0.3224953
192	0xbe9c27e3	-0.3049918
193	0xbdd30fc2	-0.1030574
194	0xbe8b02b7	-0.2715051
195	0x3dbbf6ac	0.09177908
196	0xbeb3a06d	-0.35083333
197	0xbb8f2d3a	-0.004369405
198	0xbe9952cf	-0.2994599
199	0x3e8eb10c	0.2786945
200	0xbec8ef1f	-0.39244935
201	0xbe4277fc	-0.18991083
202	0xbebc2d4e	-0.36753315
203	0xbe8bb814	-0.27288878
204	0x3cff69e4	0.031178422
205	0x3e52b579	0.20577039
206	0x3e5da7da	0.21646062
207	0xbeaf0ac0	-0.3418789
208	0xbd9d7272	-0.07687844
209	0xbdb988eb	-0.09059318
210	0x3e3ae2fa	0.18250647
211	0xbd34a901	-0.044106487
212	0xbd693855	-0.056938488
213	0xbe8a962f	-0.27067706
214	0xbe9a3d40	-0.30124855
215	0xbca7a567	-0.020464612
216	0x3e50d1b4	0.20392495
217	0xbe5c0c8b	-0.2148916
218	0x3dbcecc9	0.09224851
219	0x3e590d3b	0.21196453
220	0xbe20fdc8	-0.1572181
221	0x3ec89392	0.39175087
222	0x3ec98317	0.39357826
223	0x3e84bdf0	0.2592616
224	0x3e3d3446	0.18476972
225	0xbeafea4f	-0.3435845
226	0x3e6c75ba	0.23091784
227	0xbd4eb582	-0.050466068
228	0x3eaaaddd	0.33335772
229	0xbeb622ba	-0.3557337
230	0xbc7dbab8	-0.015486412
231	0x3ec93f43	0.39306077
232	0x3daef5b9	0.085429616
233	0x3e10e573	0.14150028
234	0xbaf35379	-0.0018564306
235	0xbe51ea72	-0.2049959
236	0x3e5b1bae	0.21397278
237	0x3eaf2c4a	0.34213477
238	0x3e7307b9	0.23733415
239	0xbe9534ac	-0.29141748
240	0xbe952840	-0.2913227
241	0x3ed3aa5e	0.41340917
242	0xbd7433c4	-0.05961968
243	0x3e3368bb	0.1752042
244	0x3dfbd12c	0.12295756
245	0xbe8edc1e	-0.2790231
246	0x3ebbdde4	0.36692727
247	0x3d9d905a	0.076935485
248	0xbe5a577d	-0.21322437
249	0x3ed15396	0.40884084
250	0x3e105a88	0.14097035
251	0x3dd76fb1	0.1051935
252	0xbe9b14f4	-0.30289423
253	0x3ebfc5c3	0.37455568
254	0xbe609e8f	-0.21935485
255	0xbe220f94	-0.15826255

bias f4 [16]
0	0x00000000	0.0
1	0x00000000	0.0
2	0xbba1b2d4	-0.004934648
3	0x3b8a071a	0.0042122724
4	0xbba15c65	-0.0049243444
5	0x3b50a78c	0.0031838147
6	0xbb817f69	-0.003951956
7	0xbab3fba1	-0.0013731607
8	0x00000000	0.0
9	0x00000000	0.0
10	0x00000000	0.0
11	0x00000000	0.0
12	0x00000000	0.0
13	0x00000000	0.0
14	0x00000000	0.0
15	0xbbaaa5ad	-0.0052077384
