ood/AIDS.pt (torch, 347085 bytes, 62 tensors)

weight f4 [16, 1]
000000 15 dc 44 3e 37 d9 e9 3e 76 c8 0b 3f f9 44 10 bf
       0.1922458 0.45673534 0.54602754 -0.56355244
000010 46 f2 14 be 36 37 88 3e 1a 87 6c be ff 6a 32 be
       -0.14545545 0.26604623 -0.23098412 -0.17423628
000020 80 bb c5 be 23 22 e7 3d 4c 50 32 be 70 0d b4 bd
       -0.38619614 0.11285808 -0.17413443 -0.087916255
000030 16 49 a0 3e f1 30 d9 3e 68 cc cc be d6 fd fc be
       0.3130576 0.42420152 -0.399997 -0.4941241

bias f4 [16]
000000 c5 cd 66 bb 78 4a 2a ba 4a 39 ac 3a 00 00 00 00
       -0.0035217863 -0.0006496082 0.0013139632 0.0
000010 00 00 00 00 b2 24 4c 39 00 00 00 00 00 00 00 00
       0.0 0.00019468626 0.0 0.0
000020 00 00 00 00 3e 6a d1 3a 00 00 00 00 00 00 00 00
       0.0 0.0015977097 0.0 0.0
000030 5a 1d e5 3a b7 f0 3f 3b 00 00 00 00 00 00 00 00
       0.0017480061 0.0029287764 0.0 0.0

weight f4 [16, 16]
000000 1f 80 36 3e 5e e2 98 be 09 d2 3a bd 43 5c 8f 3d
       0.17822312 -0.29860204 -0.04561046 0.070000194
000010 21 dd db be 4c 36 af 3e b4 bf 04 3e 5d 5d 2a 3d
       -0.42942145 0.34221113 0.12963754 0.041592944
000020 24 ca 12 3d 82 2d b8 be d4 bf 6a 3e bf ae 20 be
       0.035837308 -0.3597222 0.22924739 -0.1569166
000030 22 80 98 be ea ac 92 bc c1 e7 ad 3e 8f e7 a0 be
       -0.29785258 -0.017904717 0.33965877 -0.31426665
000040 80 8d 9e bd 86 3f 2c 3e c4 46 b3 be af 7a b8 3e
       -0.07741833 0.16821107 -0.35014927 0.360311
000050 46 e7 8d 3c 45 9c 88 bb 22 73 0a 3e 79 ec f5 bc
       0.017322194 -0.0041690194 0.13520482 -0.030019986
000060 8c cc 5f 3e 12 5a 97 3e c3 db da be c6 b9 be 3e
       0.21855372 0.29560906 -0.4274579 0.3725111
000070 b6 d3 d5 3e 19 ae b3 bd d7 80 d8 3d fe 36 89 3e
       0.41763085 -0.08773441 0.10571449 0.26799768
000080 6e 57 d4 3e 61 7a 0a 3e cb 60 6b 3e 6b 47 9b be
       0.41472954 0.13523246 0.22986142 -0.30327925
000090 f6 57 d7 be 73 88 07 3e 6f c1 d9 3d 22 55 ff bd
       -0.42059296 0.13235645 0.10632598 -0.1246741
0000a0 10 b6 94 be a3 0a bf bd 2d e0 82 be 7b 9a 5d be
       -0.29045153 -0.09328201 -0.25561658 -0.21640961
0000b0 c4 bb f8 3d 95 f1 e7 bc a2 36 b1 bc 1f 40 af bd
       0.121451885 -0.028313437 -0.021632496 -0.08557152
0000c0 75 47 85 be 27 4b d5 3e a3 37 84 3e 7a b8 09 be
       -0.2603108 0.416589 0.25823697 -0.13449278
0000d0 9b 88 ef 3d 38 b5 b4 3e b8 f4 88 be 1b e3 55 be
       0.11695977 0.3529451 -0.26749206 -0.20887415
0000e0 ed a2 a9 be be ad 66 be 83 fc d9 bb 30 96 61 3e
       -0.33132115 -0.22527215 -0.006652416 0.22029948
0000f0 7a 02 c8 3e af ef b9 3e 7c 49 7f 3e 49 5a 90 3e
       0.3906439 0.36315677 0.24930376 0.28193882
000100 65 ae e1 bd d8 65 a9 3e c9 d8 98 bd bf 6d 85 bd
       -0.11019591 0.33085513 -0.074632235 -0.06515073
000110 3f 13 a9 3d fc 30 c0 3d b2 4e a5 be 02 92 71 bc
       0.08255624 0.09384343 -0.32286602 -0.014744284
000120 be fb d2 be 44 1b a6 be 3a 44 fb 3d 7f 7f b7 3e
       -0.4120769 -0.32442677 0.122688726 0.3583946
000130 c2 28 99 3d a8 c2 9b be d1 0b 85 3e 93 27 aa be
       0.07478477 -0.30421948 0.25985578 -0.33233318
000140 3d 8a cf 3d 33 93 9c 3d 78 1b d0 3e a9 33 d1 3c
       0.10133789 0.076452635 0.40645957 0.025537329
000150 ec d0 8d be 63 50 b0 3e a9 09 ad 3d 35 27 22 be
       -0.27698457 0.3443633 0.08449108 -0.15835269
000160 bd 5e d9 be 28 d7 40 be 15 a8 a2 3e 21 37 90 3e
       -0.42455092 -0.18832076 0.3176886 0.2816706
000170 28 68 a2 bc 7d 22 44 be 4b 93 79 bd 8c cb b1 3e
       -0.019825056 -0.19153781 -0.060931485 0.34725606
000180 98 97 91 3e 01 d4 1e bd 74 5b 24 3e f8 c8 5e bb
       0.2843597 -0.0387764 0.16050512 -0.0033994298
000190 cb 17 2c 3e e0 b2 13 3e 39 27 98 3e cb 5d b5 be
       0.16805951 0.14423704 0.29717425 -0.3542312
0001a0 6d fe a9 3c 0b 8b 1f bd 30 58 ae bd a2 95 8d be
       0.020751202 -0.03895096 -0.08512914 -0.27653223
0001b0 45 1a 14 3e 0c 2e 81 3e 9b c1 c1 bc ab 0b 48 be
       0.14463146 0.25230443 -0.023651889 -0.19535701
0001c0 fd 65 f3 bd bb f4 6f bd 60 67 7a 3d 32 82 c1 3e
       -0.11884687 -0.058583003 0.061133742 0.37794644
0001d0 36 cf f9 bb f2 81 20 bc c5 5d 87 be 09 7a 92 3e
       -0.0076235784 -0.009796606 -0.26438728 0.2860873
0001e0 9c 6c ac 3d 2f f9 c9 3e 66 ff 2e be 2b 64 60 3d
       0.08419153 0.39447924 -0.17089614 0.054783028
0001f0 01 ec 0b 3e df 66 b0 3e c0 62 2a 3e a6 c6 72 3e
       0.13664247 0.34453484 0.16639233 0.23708591
000200 59 25 bc bb 9a 70 52 be be ec d4 3d a9 a0 66 3e
       -0.005741757 -0.20550767 0.103967175 0.22522224
000210 9d d2 95 be 2c 84 a0 bd c3 47 9f be f9 ca 42 be
       -0.29262248 -0.0783771 -0.31109437 -0.1902274
000220 c0 7b 40 be 92 6d 0c 3d 1e 25 61 3e b6 88 40 3e
       -0.18797207 0.034284182 0.21986815 0.18802151
000230 69 fa 9f 3e 72 7f 84 3e 96 0b d0 bc 45 ce a8 be
       0.31245735 0.25878483 -0.02539615 -0.3296987
000240 6d 20 1c 3d c8 17 8e be 1d 96 a3 3e f5 7d d9 be
       0.03811686 -0.2775252 0.31950465 -0.4247891
000250 37 bd 0f be 87 13 bb 3c a5 30 85 be 03 e5 9d be
       -0.14037023 0.02283646 -0.26013675 -0.30838785
000260 e6 4c 01 be 25 64 bf be ad 81 c8 3d d8 f6 9e be
       -0.1262699 -0.37381092 0.09790359 -0.31047702
000270 1e 85 6d 3e 14 56 97 be a9 39 b2 be 15 c4 03 3e
       0.23195311 -0.2955786 -0.34809616 0.12867768
000280 45 4c c8 be 96 cd da 3e b4 48 8b 3e 5c 7a 77 be
       -0.3912069 0.42734975 0.27203906 -0.2416777
000290 02 88 5a 3e 96 86 d8 3e f8 ff 93 be 2a d3 8e 3e
       0.21340945 0.4229018 -0.28906226 0.2789548
0002a0 52 f0 ee 3d cb 3c bf be d4 eb c7 bd 19 5c 5a bd
       0.11666931 -0.3735107 -0.097617775 -0.053310487
0002b0 d7 ab 97 be 2d c4 d1 bd 3a 49 80 3e b6 7d a6 3e
       -0.2962329 -0.10242496 0.25055867 0.32517785
0002c0 a6 fc 52 3d bb 61 17 be 6f 75 d3 be 1c bc 95 be
       0.051510476 -0.14783375 -0.41300532 -0.2924508
0002d0 fc 80 b0 bc 34 ca 9b 3b cf ee 17 3e fe db 1d bd
       -0.02154588 0.004754329 0.14837192 -0.03853988
0002e0 90 28 c9 be 5f d7 88 be 65 85 d4 bd 13 e0 97 3e
       -0.3928876 -0.26726815 -0.103770055 0.29663143
0002f0 4a 5a d3 3d 1e 0c a7 bc bc ac c8 be a8 3a b5 be
       0.10319956 -0.02039152 -0.39194286 -0.35396314
000300 d3 4d d8 3c a2 37 99 be 95 0d c4 3e 62 e7 dc be
       0.026404297 -0.29925257 0.38291612 -0.4314528
000310 da 0c 66 be ef 09 d2 be 42 ff b1 3e c3 ac bf 3e
       -0.2246584 -0.41023204 0.3476506 0.37436494
000320 50 ff 5e 3e 3f d5 83 be ea bb bc be 67 e7 d0 be
       0.21777081 -0.2574863 -0.36862117 -0.40801546
000330 36 20 60 3e 4d a6 8a 3d 7d cd 70 3e 54 b6 1c 3e
       0.21887287 0.067700006 0.23515888 0.15303928
000340 e1 ab ba 3e 80 68 db 3e 2d 03 82 3e 35 7d c2 3d
       0.36459258 0.42853165 0.25393048 0.094965376
000350 50 54 92 be 84 8b d8 be 9e 93 c5 3e ca 8e f7 3d
       -0.2857995 -0.42293942 0.38589185 0.12087782
000360 5b 5a cf 3e 3b 2c 5a be fb 08 75 bd 69 8b af be
       0.40498623 -0.21305935 -0.059823018 -0.3428605
000370 05 eb 26 3e b3 90 ad 3e 2a f9 d0 3e 5a 05 27 3d
       0.1630059 0.3389946 0.40815097 0.040776588
000380 7b cf 13 be f2 cb 95 3e 87 35 50 3e ce 12 81 3e
       -0.14434616 0.2925716 0.20332919 0.2520966
000390 30 74 4b be c1 55 4e 3d 10 e0 e0 bd 74 b7 b1 bd
       -0.19868541 0.05037475 -0.109802365 -0.08677569
0003a0 2d 23 1d be 26 87 cf 3d 84 52 19 3e 3c 0a 92 3d
       -0.1534545 0.101331994 0.14972883 0.07130858
0003b0 1f 39 33 bd d3 b5 b1 be 86 33 15 be a1 fa b7 3e
       -0.043755647 -0.34709033 -0.14570436 0.35933402
0003c0 d8 85 97 be cc d5 d1 be 03 b0 d8 bd d2 7d 14 3e
       -0.29594302 -0.40983427 -0.105804466 0.14501122
0003d0 21 71 a4 be 99 56 0b 3e 5a 47 71 be fa 3e 38 be
       -0.3211756 0.13607253 -0.23562375 -0.17992774
0003e0 c0 ed 84 be d9 28 01 bb 9e 40 b1 be fd cf b9 bd
       -0.2596264 -0.0019708185 -0.34619612 -0.09072874
0003f0 38 65 4d be ea 76 b9 3e 27 87 5c be 27 73 c7 3d
       -0.20058143 0.36223537 -0.21535932 0.097387604

bias f4 [16]
000000 00 00 00 00 00 00 00 00 46 74 06 39 03 04 27 3a
       0.0 0.0 0.00012822551 0.0006371142
000010 00 00 00 00 84 a3 e3 b9 18 dd b6 3a 80 4b f7 3a
       0.0 -0.00043418643 0.0013951389 0.0018867105
000020 62 58 00 3b 00 00 00 00 09 76 40 3a 00 00 00 00
       0.001958393 0.0 0.00073418074 0.0
000030 41 6c ae 39 90 51 c9 ba a8 2c 8d 3a 00 00 00 00
       0.00033268522 -0.001535939 0.0010770755 0.0

weight f4 [16, 16]
000000 45 db 83 be 82 47 5b 3e 6c ba c3 be 0c 39 42 be
       -0.25753227 0.21413997 -0.38228166 -0.18967074
000010 84 fb 55 3e 9e 81 b0 3e d4 75 26 3e 68 9e 88 be
       0.20896727 0.3447389 0.16255885 -0.26683354
000020 aa d0 50 3d 4b 36 36 bc 1c 1b a6 3e 0e 7d f5 bd
       0.050980248 -0.011121343 0.32442558 -0.11986743
000030 af 2d 95 be 28 f4 89 3e b0 3b 22 3e cf cb 4e be
       -0.29136416 0.2694409 0.15843081 -0.20194934
000040 d4 af b4 3e 44 96 78 3e 36 7a ca be 3a 9e 95 3e
       0.35290396 0.24276072 -0.39546365 0.2922228
000050 9c e3 4e be 9c 9e cf bd a7 61 8c 3e 18 65 18 3d
       -0.20204014 -0.10137674 0.27418253 0.037205786
000060 99 27 d4 3e e7 bf c0 be 12 d7 45 3e 74 20 74 3d
       0.4143646 -0.3764641 0.19320324 0.059601262
000070 c8 74 e4 bd 2c b4 09 be cc ab 2c 3e 67 4c a0 3e
       -0.11155087 -0.13447636 0.1686241 0.3130829
000080 8d 08 d7 be fe 9c 35 3e 35 7b 9c be af 90 9f 3b
       -0.4199871 0.17735669 -0.3056275 0.0048695426
000090 fb c8 7a be 60 55 2e 3d 19 2f ca be d1 e4 49 3e
       -0.2449073 0.04256189 -0.39489058 0.19716193
0000a0 6d 9a 9b be 8e 1b 8d 3e 51 8e a8 be 4d c4 a5 3e
       -0.30391255 0.27560085 -0.3292108 0.32376328
0000b0 9f d7 87 3e 16 e3 dc be d3 c4 bd be 61 01 4a be
       0.26531693 -0.43142003 -0.37064227 -0.19727089
0000c0 7f 75 98 be c7 19 dc be 7c 6d 69 bb 5e 54 8e be
       -0.29777142 -0.42988417 -0.0035618236 -0.27798742
0000d0 20 f6 20 3e 8a b7 c4 be 8c 70 81 be 41 7a 3a 3e
       0.15718889 -0.3842128 -0.2528118 0.18210699
0000e0 05 2e 20 3e fb bc a9 3e 7d 51 b9 be 09 f1 aa be
       0.15642555 0.33151993 -0.36194983 -0.3338702
0000f0 d7 c4 37 be 5c 72 6f 3d e8 10 1a be 0b 10 f5 3d
       -0.17946182 0.05845867 -0.15045512 0.119659506
000100 a7 2a a7 3e 4f 7e ea 3d f2 5f a6 3e c2 53 db 3d
       0.3264973 0.11449873 0.32495075 0.10709335
000110 f0 9a 38 3e 36 a7 b3 be 16 2d 9c bd c7 8f b5 3e
       0.18027854 -0.3508851 -0.07625787 0.35461256
000120 d4 7e 2b be 92 ec 1d be c4 df 3f be 15 43 1f 3e
       -0.167476 -0.15422276 -0.18737704 0.15552934
000130 c3 90 c6 3e 65 76 36 3e 0d 97 c6 3e 74 53 9c 3e
       0.3878232 0.17818601 0.38787118 0.3053242
000140 d2 d6 72 bd 39 49 17 be 71 27 13 be 40 a3 3b 3e
       -0.0592869 -0.14774026 -0.14370514 0.18323994
000150 1a d5 93 3e 9f 37 d4 be 47 e3 52 be 98 81 d5 be
       0.2887352 -0.41448686 -0.20594512 -0.41700435
000160 48 18 85 be ca cb af 3e f2 21 c8 3e c6 51 8f be
       -0.25995088 0.34335166 0.39088398 -0.27992076
000170 1b b9 5d be 28 f2 10 3e f8 43 26 3e 8b 63 36 3d
       -0.21652643 0.14154875 0.16236866 0.044528525
000180 b2 5f a3 bd d3 cd 63 be 7f da c8 be 3e 8d f9 bd
       -0.07977237 -0.22246484 -0.392292 -0.12185143
000190 d1 b9 b3 be c0 83 c2 3e 37 94 bf 3e 53 37 9f be
       -0.35102704 0.37991142 0.37417766 -0.31096897
0001a0 e9 04 3f 3e 59 58 a2 3e 30 3f b8 3e ad 0f b4 3e
       0.18654217 0.3170803 0.35985708 0.3516821
0001b0 5e 59 9d be 86 7f ad 3e 35 c0 d1 3e c5 5a e4 3c
       -0.30732244 0.33886355 0.40966955 0.027875314
0001c0 b3 98 56 3e 9b fa 30 be 54 f6 dc 3e 02 23 c8 be
       0.20956688 -0.17283098 0.43156683 -0.3908921
0001d0 5c 1f 88 be 9f db 99 3d 27 c6 41 be 19 57 22 be
       -0.26586425 0.075125925 -0.18923245 -0.15853538
0001e0 47 b3 20 3e 19 0b 7e 3e ea 1b 92 3e 09 0c be 3e
       0.15693389 0.24808921 0.28536922 0.37118557
0001f0 16 16 5f 3e 52 e0 41 be b2 07 1d 3e 94 91 85 be
       0.21785769 -0.18933228 0.15334967 -0.2608763
000200 a9 48 82 3e 22 c1 3c 3e 5c 5b bd 3e 6b 41 7e 3e
       0.2544606 0.1843305 0.36983764 0.24829642
000210 ce fb c9 3e 62 b9 bd bd 52 05 bf be cf 47 b0 3e
       0.39449924 -0.092638746 -0.37308747 0.34429786
000220 39 58 c8 be 0a 30 71 3d 52 d4 89 3d 94 8c 8e 3d
       -0.3912981 0.058883704 0.0672995 0.06960407
000230 c2 7c 9a 3e 3d 2a b7 3d cb 17 1d be 12 75 de bc
       0.30173308 0.08943603 -0.15341108 -0.027155433
000240 37 b9 da be c0 c0 95 be c7 99 ed bc ac 14 ca 3e
       -0.42719433 -0.2924862 -0.02900399 0.39468896
000250 17 65 d6 bd af f4 6a 3e 3d 50 90 be 95 1d b0 be
       -0.104685 0.22944902 -0.28186217 -0.3439757
000260 8e 36 4d 3e f4 cb 7f 3e 8b 6f ce bc 68 f0 a6 3e
       0.20040342 0.24980146 -0.025199672 0.3260529
000270 de e2 29 3e 59 de 5c 3e b2 6f a9 3d a2 54 dd 3e
       0.16590449 0.21569194 0.08273257 0.43228632
000280 2c f4 ab be d5 26 ad bd 79 c8 90 be b7 1a 87 be
       -0.33584726 -0.08454672 -0.28277948 -0.2638757
000290 ef 7d b2 3d ec 8c 43 bd f8 12 23 bd 09 bd 2d 3e
       0.08715426 -0.047741815 -0.039813012 0.16966642
0002a0 1a b6 c9 3e 08 e0 c9 be b4 5b 09 be 1c 3c 29 bd
       0.39396745 -0.39428735 -0.13413888 -0.04131709
0002b0 d1 ad 7c 3e b6 4f 3a be a5 4d ce be 9e 91 2e be
       0.2467568 -0.1819447 -0.40293613 -0.17047736
0002c0 5a 4f 71 be 26 21 d2 be cd 01 9d be d9 0c 2f be
       -0.23565426 -0.41040915 -0.30665436 -0.17094745
0002d0 f4 62 1b 3e a4 d4 74 be 0e 48 09 be 94 be b6 be
       0.15174466 -0.23909241 -0.13406393 -0.35692275
0002e0 39 f8 81 be f2 c9 99 bd 48 9c 48 be bd e8 10 bd
       -0.2538469 -0.07509221 -0.19590867 -0.035378207
0002f0 ed e9 00 3e d8 85 6c 3d ba 97 7d be 82 6b 91 bc
       0.12589236 0.05774483 -0.2476491 -0.017751459
000300 20 60 13 3d ff 03 0d 3d 15 e9 33 3e 2e 47 f7 bd
       0.035980344 0.03442764 0.17569382 -0.12074123
000310 bf f7 c1 be 66 ce 11 be 9c f4 e6 bd bf 91 d1 be
       -0.37884328 -0.14238891 -0.11277124 -0.40931508
000320 db 52 9e 3c e9 6b 15 be 40 1a 9f 3e 87 5b 9a 3e
       0.019326618 -0.14591946 0.31074715 0.30147955
000330 71 32 97 3e 08 6b 49 be e7 2d 33 3c 52 c4 cb 3e
       0.2953067 -0.19669735 0.010936237 0.39798218
000340 c0 15 c6 be c8 63 2b 3e 0c 68 33 be ec 83 29 be
       -0.3868847 0.16737282 -0.1752016 -0.1655423
000350 4c 80 74 3e d0 66 bd bc 7b 5a bc bd 3a b1 83 3e
       0.23877066 -0.023120314 -0.09196945 0.2572115
000360 4a 36 09 be 1f 69 b3 3e 83 0d e0 3c 54 43 34 3e
       -0.13399616 0.3504114 0.027350193 0.17603809
000370 36 cb c2 3e 3d 2f 28 be f0 0f 66 3e f8 2b a4 3d
       0.38045663 -0.1642427 0.22467017 0.08016199
000380 b9 e7 bd be fa 5d dd 3e 9a 03 93 3e 34 ab 3b 3c
       -0.37090853 0.4323576 0.28713685 0.011454392
000390 4e 42 26 3e 22 35 07 be b5 03 53 bd 0b f1 45 bc
       0.1623623 -0.13203862 -0.051517207 -0.012081395
0003a0 b1 db f9 3d 69 0c ae 3d 12 c5 d1 3e 75 f4 b3 3e
       0.12200106 0.08498461 0.40970665 0.35147443
0003b0 98 cc 79 3e a2 34 36 be 2a b8 5e be 80 dd b4 be
       0.24394453 -0.17793515 -0.2174994 -0.3532524
0003c0 12 6a 49 3e 05 f5 ad 3e de 67 ef 3d c5 24 af 3e
       0.19669369 0.33975998 0.11689733 0.3420774
0003d0 c5 6e a3 be a2 f7 d7 be b5 42 23 3e 34 d1 58 be
       -0.31920448 -0.42181116 0.15943415 -0.21173555
0003e0 f6 34 b1 3e 04 f0 62 bc 46 c7 6b 3d 44 73 0f 3e
       0.34610718 -0.0138511695 0.05756309 0.14008814
0003f0 a5 f7 af be a2 41 b2 bd 69 fc 92 3e 71 0e 12 be
       -0.34368625 -0.08703925 0.287082 -0.14263321

bias f4 [16]
000000 aa 12 85 3a d3 f8 72 3b 00 00 00 00 00 00 00 00
       0.0010152657 0.003707458 0.0 0.0
000010 da 1a 51 3a 00 00 00 00 e0 9d a1 b9 00 00 00 00
       0.00079767185 0.0 -0.0003082594 0.0
000020 b3 d1 6b b8 ac fb a1 ba 00 00 00 00 00 00 00 00
       -5.6223664e-05 -0.0012358329 0.0 0.0
000030 00 00 00 00 00 00 00 00 d4 54 18 3a 66 7a cb b9
       0.0 0.0 0.000581098 -0.0003881037

weight f4 [16, 16]
000000 39 6e cd 3d b8 b3 6a be e7 51 95 3d 50 cc 5c be
       0.10030789 -0.2292012 0.07291012 -0.21562314
000010 40 40 cd bd 52 cb 70 3e 42 bd 49 bc 4d 07 87 3e
       -0.1002202 0.2351506 -0.012313189 0.26372758
000020 94 a4 7f 3e 45 85 b2 3e 8a d7 f0 bd 77 53 b6 3d
       0.24965125 0.34867302 -0.11759861 0.089026384
000030 d3 12 d2 3d 12 88 81 be 02 3b 64 3e 45 38 89 be
       0.10257497 -0.25299126 0.22288135 -0.26800743
000040 d0 96 b4 be cd 5f d1 3e e2 91 76 3d 94 aa 93 3e
       -0.3527131 0.40893403 0.06019772 0.28841078
000050 d2 e0 c0 3e 5f 11 ba be 2d 15 b1 be 67 87 a9 3d
       0.37671524 -0.36341378 -0.34586468 0.08277779
000060 af fd 87 3d 74 4e bc bc 3d 5d 85 be d3 d7 d1 3d
       0.06640183 -0.022986628 -0.26047698 0.10246243
000070 1d 92 66 3e 10 10 99 be 67 b0 95 3e c4 ca b1 bc
       0.22516675 -0.29895067 0.29236147 -0.021703131
000080 67 b0 ba 3e ef 16 9b bb 99 88 d6 3d 86 87 67 be
       0.3646271 -0.0047329585 0.10475273 -0.22610292
000090 99 2a fe bd 18 34 96 3d e3 a9 81 3d 94 78 9a 3e
       -0.124104686 0.07334155 0.063312314 0.3017012
0000a0 d9 8a 84 be d1 3b c9 3d 2f 4f 66 be 1b 35 ac bd
       -0.25887182 0.09825862 -0.22491144 -0.084085666
0000b0 4d e4 8f be 01 a6 a8 3e ed e7 91 3e c3 f4 bd be
       -0.28103867 0.3293915 0.28497258 -0.371008
0000c0 3e 17 a9 be e4 2d 0f 3e c6 ac a5 be 4d b7 3d be
       -0.33025545 0.1398235 -0.32358378 -0.18526955
0000d0 fb 1a da be bc 56 9c be 64 aa a3 3e 07 a9 81 be
       -0.4259871 -0.30534923 0.31965935 -0.2532427
0000e0 51 e4 8e 3e 6f 9d f3 3d 40 bf 96 be 38 1c ce bd
       0.27908567 0.118952624 -0.29442787 -0.10063976
0000f0 ea 73 da bc 6f 0a 95 3e 3f e9 cf be 75 85 ad 3e
       -0.0266666 0.29109523 -0.4060764 0.33890882
000100 b7 ef d2 be 22 ad a2 be f9 be 91 be bc 2f 18 3e
       -0.41198513 -0.31772715 -0.28466013 0.14861959
000110 59 83 9b be 1f 7d ae be 50 cf 21 3e 80 ee a3 be
       -0.30373648 -0.34079835 0.1580174 -0.320179
000120 af ad 9c be 85 bc c3 3e 40 7b 7c 3e 0f cf 9f be
       -0.3060126 0.38229766 0.24656391 -0.3121266
000130 4d 2b c7 3d 54 83 97 3d 85 e2 6c 3e 0e 48 6b 3e
       0.09725056 0.07398096 0.23133285 0.22976705
000140 c5 13 dc 3e 94 8d eb 3d 39 70 97 3d ca 0e 42 bd
       0.42983833 0.11501613 0.07394452 -0.047377385
000150 e1 c5 d2 3d 6d c2 ea bd 06 0b ba 3e 37 ab d0 3e
       0.10291649 -0.11462865 0.36336535 0.40755627
000160 93 6e 4e bd de f7 d1 3d d6 63 a7 be 85 68 aa be
       -0.05039842 0.10252355 -0.32693356 -0.33282867
000170 db 08 9a be 26 e6 a9 bd c1 28 80 3e c3 d0 c4 bc
       -0.3008488 -0.082958505 0.25031093 -0.024025327
000180 ba 37 b5 be 31 83 ec 3d 30 cf 81 3e 85 a1 ba be
       -0.35394078 0.1154846 0.25353384 -0.36451355
000190 24 8c ce be 4e 21 50 be ef af db 3d e4 fc 04 3e
       -0.40341294 -0.20325205 0.10726916 0.12987095
0001a0 6e b4 73 be 34 dc a1 3d 2e d4 8f bd 80 dc 07 bd
       -0.23799297 0.079033285 -0.07022892 -0.03316927
0001b0 52 b1 c9 3e ad 5c 25 3e 85 0d a1 bc e3 d9 89 3d
       0.39393097 0.16148634 -0.019659767 0.06731012
0001c0 72 1d 64 be cb 7b 9f 3e 21 4b ca bc 2a 41 49 3e
       -0.22276857 0.31149134 -0.024694027 0.19653764
0001d0 01 77 19 be 95 7c 06 3e e3 44 26 3e ef 9b 5e 3e
       -0.14986803 0.13133462 0.16237216 0.21739171
0001e0 64 29 88 bd 9a 08 58 be 7f 62 04 3e 71 0a aa 3e
       -0.0664852 -0.21097031 0.12928198 0.3321109
0001f0 d0 eb 0b be 94 4b 48 bd b3 a7 26 3d a3 ef 6c 3e
       -0.13664174 -0.048900202 0.040687274 0.23138289
000200 02 ae fc 3d 24 7c e7 bd 47 20 05 3e 43 40 1e be
       0.12337877 -0.11302975 0.13000594 -0.15454201
000210 4c 13 14 be a0 f1 b5 3e 84 e6 b2 be 98 7a c7 be
       -0.14460486 0.35535908 -0.34941494 -0.3896072
000220 0e f2 b3 bc 81 e1 ca be b8 d1 15 bd e8 b0 7f 3e
       -0.021966007 -0.3962517 -0.036576957 0.24969828
000230 c6 de 6c bd 54 3d 19 3d 0a d2 b8 3e cf d9 8e be
       -0.05782964 0.037412003 0.36097747 -0.2790055
000240 1d ba 9a 3e f9 5c 9b 3e 04 69 06 3e 56 15 8b 3e
       0.30220118 0.3034437 0.13125998 0.27164716
000250 a3 aa a0 be 1d 1e 8d 3d 8c ca 88 bd d6 dd 59 be
       -0.31380185 0.06890509 -0.06679258 -0.2127603
000260 4c 2f d5 3d 09 2c d9 be b3 bb b6 3e 8a 87 d3 be
       0.10409412 -0.4241641 0.35690078 -0.41314346
000270 f2 73 d7 3e 6b 33 fb 3d e7 f9 9f 3e 47 00 77 be
       0.42080647 0.122656666 0.31245348 -0.241212
000280 5e 13 71 be 58 cb 93 3d 07 d3 95 be d7 cc 92 be
       -0.23542544 0.07216519 -0.29262564 -0.28671905
000290 d1 a1 d9 be bb b5 7e 3e 33 9b 90 bc 06 c3 a0 3e
       -0.4250627 0.24874012 -0.01765213 0.3139879
0002a0 c7 e5 b8 3e 22 0e f8 3d a1 d2 20 3e 2c 83 5e be
       0.36112806 0.121120706 0.15705349 -0.21729726
0002b0 d8 77 fd 3d 02 ca 56 bd 67 dd d6 be 6a 68 a0 3d
       0.12376374 -0.052438743 -0.41965792 0.078324154
0002c0 88 ae d7 be e9 60 d8 be 38 22 9c be 20 da 32 be
       -0.42125344 -0.42261437 -0.30494857 -0.1746602
0002d0 26 cb c3 be d6 31 e9 3d 9f c1 c0 be 44 c9 9d 3d
       -0.38240927 0.113864586 -0.3764772 0.07704404
0002e0 b5 9d 97 be 75 3e 5e 3e d3 12 86 3e e4 d0 fc 3c
       -0.29612508 0.21703513 0.26186237 0.030861326
0002f0 ba e6 d8 be 83 2f 74 3e 0f 75 4c 3e d6 c1 cd be
       -0.4236353 0.2384625 0.1996653 -0.40186948
000300 94 60 07 3e 09 a5 be be 28 75 ab be 76 04 9d bd
       0.13220435 -0.37235287 -0.3348782 -0.076668665
000310 ab 3e 85 be cf 2e 2e be c2 2f 92 3e 3e 96 04 be
       -0.26024374 -0.17010044 0.2855206 -0.12947938
000320 05 10 ba 3d 01 c7 b9 be 85 d1 75 3c 1c f4 20 3e
       0.09085087 -0.3628464 0.015003567 0.1571812
000330 4f ed c8 be be e7 3a be dc d4 9f bd f5 26 c7 be
       -0.39243552 -0.18252465 -0.078042716 -0.3889691
000340 b5 de 2f be 42 0d bb 3e 4f d4 cf 3e 26 7f d9 3e
       -0.171748 0.36533552 0.40591666 0.4247982
000350 1c 9a d9 3e 87 28 c5 3e 6c 07 ab be dd eb 39 3e
       0.4250039 0.38507482 -0.334041 0.18156381
000360 69 10 c3 be ea ba 82 3e 59 7d e2 bd 5d c4 ba 3e
       -0.38098457 0.2553323 -0.110590644 0.36477938
000370 ee 56 9c bc d3 59 ca bd b8 65 85 3e 88 ac c3 3e
       -0.01908442 -0.09880414 0.26054168 0.38217568
000380 40 70 1a 3e 93 08 86 3d b0 44 67 3e b5 04 9b be
       0.15081882 0.06544604 0.22584796 -0.3027703
000390 cf 5b 8b bc 6e 53 65 bc ee fd 9c be 5d 9c ff 3d
       -0.017011551 -0.013996942 -0.30662483 0.12480996
0003a0 24 d2 68 3d ba 75 ca bd ec d2 0a 3d bb 09 c5 be
       0.05684103 -0.09885736 0.033892557 -0.38483986
0003b0 4c a3 a8 3e d2 b3 cc bd 77 07 93 3e 5e bb b4 be
       0.32937086 -0.099952355 0.28716633 -0.352992
0003c0 24 a3 ad 3d 3e f7 53 be ee 16 cf be 3b 82 c3 3e
       0.08478382 -0.20699784 -0.4044718 0.38185295
0003d0 57 fe ef 3d 01 99 11 be 8b 70 63 3e 38 24 b4 be
       0.11718433 -0.14218523 0.222109 -0.35183883
0003e0 c3 aa c8 3e f2 a8 98 be 89 b0 8c bd fd b4 0f 3e
       0.3919278 -0.29816395 -0.06869609 0.14033885
0003f0 a8 c5 d8 be 7b c7 80 3e be 5a b1 3c d2 2b 15 be
       -0.423383 0.25152192 0.021649715 -0.14567497

bias f4 [16]
000000 89 96 81 ba 08 c8 8c 3b 00 00 00 00 b4 69 f5 b9
       -0.0009886782 0.0042963065 0.0 -0.00046808796
000010 82 1e 0b bb 07 f2 6a 3b 00 00 00 00 12 b9 95 39
       -0.00212279 0.0035849826 0.0 0.00028557383
000020 00 00 00 00 00 00 00 00 56 3f e5 39 00 00 00 00
       0.0 0.0 0.00043725473 0.0
000030 00 00 00 00 70 cb 2c 3a 00 00 00 00 a4 23 00 3a
       0.0 0.0006591594 0.0 0.00048881234

weight f4 [16, 16]
000000 ce 77 49 3e 6a b0 64 be 75 74 cd bd 7e fc 84 be
       0.19674608 -0.22332922 -0.10031978 -0.25973886
000010 19 ee ce bd d7 88 3c be fd d7 37 be 1b 8c 23 3e
       -0.10104007 -0.18411575 -0.17953487 0.15971415
000020 04 51 1e 3e 3f a0 b6 be 38 6c 03 3b e0 c3 9b 3e
       0.15460593 -0.35669133 0.0020053517 0.30422878
000030 fb 1e 46 be 29 a9 11 3e fc cb 9d be 5c 05 c0 3e
       -0.19347756 0.14224686 -0.3081969 0.3750409
000040 16 a9 db 3d a2 88 43 be 45 0d a0 3e 91 98 81 3b
       0.1072561 -0.1909509 0.31260124 0.003954955
000050 8e 4c 08 3e 4e d4 77 be 1b 39 19 3c 5d e1 7d be
       0.13310453 -0.24202082 0.009351994 -0.24793
000060 ed 2a 98 3e b6 bf 95 3e 80 21 56 be b4 b3 9c bc
       0.2972025 0.29247826 -0.20911217 -0.019128658
000070 a3 8e c2 3d 08 52 1c 3e 2b da 6b be 8c 0d 2e 3d
       0.09499862 0.15265667 -0.23032443 0.042493388
000080 8c 31 57 3e cf e0 d3 be 5c a9 b0 bd a4 6b 0e 3e
       0.21014994 -0.41382453 -0.08626053 0.13908249
000090 06 d9 93 3e 2c b5 c9 bd a7 d8 89 be 8f d8 9e 3d
       0.28876513 -0.09849009 -0.26923105 0.07756149
0000a0 2a d3 79 3d 15 a2 d6 3e b5 9d 99 3e 47 b1 42 bd
       0.060992397 0.41920534 0.30003133 -0.047532346
0000b0 2e 81 60 bd e2 1f a7 3d 26 c1 d5 be bd c1 9f 3e
       -0.054810695 0.08160378 -0.41748923 0.31202498
0000c0 ea cc 58 3e 8f 03 4f 3e 47 89 95 be ae d0 a5 3c
       0.21171919 0.20216201 -0.29206297 0.020241108
0000d0 f8 1b 99 3e bd 7d 6d 3e ef 5e 3a be 8a be e8 bd
       0.2990415 0.23192497 -0.18200277 -0.113644674
0000e0 33 0e 8e be 45 02 10 3d 4f ca d3 be 4c 5a 99 3e
       -0.27745208 0.035158414 -0.41365287 0.29951704
0000f0 d6 f4 f5 bd 6e 3e 79 3e fa 77 05 be 90 2b da 3e
       -0.120095894 0.24340221 -0.13034049 0.4261136
000100 91 f0 95 be a6 35 86 3e 51 3b f2 bb 29 78 ce 3d
       -0.292851 0.26212806 -0.007392325 0.100815125
000110 f6 4e 72 3d f5 28 97 be 9a 38 d4 3e 9d 87 84 3e
       0.059157334 -0.29523435 0.41449434 0.25884715
000120 99 c3 42 3e 15 52 b8 3e d3 30 d4 bd 99 a3 1e 3e
       0.19019927 0.36000124 -0.10360875 0.15492095
000130 27 ff 2b be c1 0f 0f 3e d4 ce a4 be 33 43 9a 3e
       -0.16796552 0.13970853 -0.32189047 0.30129394
000140 2f 24 2b 3e 33 af 41 bd 8e e4 c3 bd e4 fb 9a 3e
       0.16713022 -0.047286224 -0.09565078 0.30270302
000150 f4 44 92 3e ca 2b d6 be a5 88 64 be 73 de 93 3d
       0.28568232 -0.41830283 -0.22317751 0.07220163
000160 d4 a2 2e bc 93 97 af 3e 74 be a4 be 47 6c 9f be
       -0.010658938 0.3429533 -0.32176554 -0.31137297
000170 2c 57 02 be 4e bd 78 3e af 82 6d 3e 22 61 62 be
       -0.12728566 0.24290964 0.23194383 -0.22107366
000180 61 7c 05 be 3b 5b b5 3e 44 8a 5c be f1 5d d2 3e
       -0.13035728 0.35421166 -0.21537119 0.41087297
000190 a9 57 72 be d6 63 4f bd ad b9 a7 be c4 49 aa be
       -0.23666252 -0.05063232 -0.32758847 -0.33259404
0001a0 a5 cb 46 3e 8e e5 72 3e 6f 54 c3 3e ff 28 ce 3e
       0.19413622 0.2372038 0.38150355 0.40265653
0001b0 0f 0e b1 3e d7 b0 26 be 97 d6 c6 bd 38 df 03 3d
       0.34581038 -0.16278397 -0.097088985 0.0321953
0001c0 d1 b6 b1 be f9 d7 d3 be f2 f6 85 3e 0d bc a9 3e
       -0.3470979 -0.41375712 0.26164967 0.33151284
0001d0 c6 da 80 be 50 07 c3 be 41 dd a7 3e 00 7f 31 bd
       -0.2516691 -0.38091516 0.3278599 -0.043334007
0001e0 6c 1f b7 be 13 61 d4 3d d1 37 73 3d 40 92 19 3d
       -0.3576616 0.10370078 0.059379403 0.03749299
0001f0 4f 02 44 3e 21 d6 97 3e 87 a9 dd be dc 7f d3 3e
       0.19141506 0.29655555 -0.43293402 0.41308486
000200 53 a3 0f be 1f 2a 8b be c8 9a ac 3d 8c 1b 8e be
       -0.14027147 -0.27180573 0.0842796 -0.27755392
000210 96 20 12 be bc 52 a2 3e 64 2b 15 bd 99 ae 44 be
       -0.14270243 0.31703746 -0.036418334 -0.19207229
000220 a3 4b 5b be 95 85 3f 3e a2 20 ed bd 88 65 ae be
       -0.21415572 0.18703301 -0.1157849 -0.34061837
000230 27 31 dc 3e 61 e7 8f 3e d6 bb bf be 9e 0d 42 3d
       0.4300625 0.28106216 -0.37447995 0.047376268
000240 2b cb 08 bd 32 9f cf 3e ac a7 04 bc d8 d2 48 bb
       -0.03339688 0.40551144 -0.008096617 -0.003064325
000250 be c7 bd 3d 33 24 6f be 72 e9 13 3c a8 c0 a1 be
       0.092666134 -0.23353653 0.009027826 -0.31592298
000260 ce e5 97 be 77 24 d4 be 90 15 8c be b2 ed 57 be
       -0.29667515 -0.4143407 -0.273602 -0.21086767
000270 05 8e 6f 3d 0b 0c 96 3e 1a e5 b5 bd f9 6e 9c 3e
       0.05848505 0.29306063 -0.08881588 0.30553415
000280 37 92 ab 3e b6 1c ab be cc e8 54 be 58 02 01 be
       0.3350999 -0.33420342 -0.2079193 -0.1259855
000290 23 34 a0 3e f9 e9 c9 3e 30 34 a4 be 32 ff c4 bc
       0.31289777 0.3943632 -0.32071066 -0.024047468
0002a0 65 c6 b0 3e be c9 69 3e 6f 97 af bd 71 55 26 3e
       0.34526363 0.22830865 -0.085738055 0.16243531
0002b0 11 72 7a 3e 62 f9 91 be 35 6a be be 13 12 e1 bd
       0.24457575 -0.28510576 -0.37190405 -0.109897755
0002c0 e8 21 a0 3d 9d 53 ab be 36 9b 93 3e d0 da 81 3e
       0.07818967 -0.3346223 0.28829354 0.25362253
0002d0 37 f3 d4 bd b2 f9 c0 be 52 ee c8 be c6 d5 91 3e
       -0.10397952 -0.37690502 -0.39244324 0.2848341
0002e0 52 36 c6 3d 86 7b ca be 6f a2 16 3d c0 f5 2b 3d
       0.096783295 -0.39547366 0.036776002 0.041982412
0002f0 a9 01 2d 3e 9a 94 51 3d b9 28 db be 85 f0 d2 3e
       0.16895165 0.051167108 -0.42804506 0.41199127
000300 30 a5 f2 3c 8d 20 8c 3e 31 3c 26 3e bd 34 22 be
       0.029619783 0.27368584 0.16233899 -0.1584043
000310 a5 4b 14 be fc 6e 25 3e d2 1d 8e be eb e6 ab bd
       -0.14481981 0.16155618 -0.27757126 -0.083936535
000320 6b 53 75 3e 49 82 50 3d 49 cf c9 be f6 12 2e 3e
       0.23957603 0.0509055 -0.3941596 0.1699942
000330 b7 d5 47 be 8a cb a6 be 35 19 35 3e 69 3a 5e be
       -0.1951512 -0.32577163 0.17685397 -0.21701969
000340 9b ed c4 be e4 3a a0 3e aa 46 a5 be 2d 9f ad 3e
       -0.3846253 0.3129493 -0.32280475 0.33910504
000350 2f 55 d0 be 7b 58 1f 3e 9a 2e a7 be 73 31 a9 3e
       -0.4068999 0.15561096 -0.32652742 0.3304554
000360 42 d6 f8 bd b3 7e 71 3e ca 02 b0 be 21 4a c9 3e
       -0.121502414 0.23583488 -0.34377128 0.39314368
000370 dd 60 94 3e e9 86 7f 3e 8d e8 59 be b4 d4 d1 3d
       0.2898015 0.24953808 -0.21280117 0.10245648
000380 42 b9 65 3d 24 ad c7 3e 77 ea 86 be b1 b2 99 3e
       0.05608488 0.38999283 -0.26350757 0.30019143
000390 7a bc 6b bd 0b 9c 15 3e 5a 0a 99 be 18 e7 b5 be
       -0.057552792 0.14610307 -0.2989071 -0.35527873
0003a0 99 ee 3c bd 2b e3 11 3e 15 c1 b6 be f1 bb 04 3e
       -0.046125982 0.14246814 -0.35694185 0.12962319
0003b0 f3 0f c4 be fc 55 75 3e 1b 54 1a be 4c 6c c1 be
       -0.38293418 0.23958582 -0.15071146 -0.37777936
0003c0 45 56 8c 3e ec d7 32 3e e1 01 69 3d 1e 1d db 3e
       0.27409568 0.1746518 0.056886557 0.42795652
0003d0 c5 62 97 be 08 68 8b 3e f5 17 2c be 05 ad cc bd
       -0.29567543 0.27227807 -0.16806014 -0.09993938
0003e0 8f d7 45 3e 96 1a f0 bc 1d 9f 8e 3e 27 78 6f bd
       0.1932051 -0.029309552 0.2785577 -0.058464196
0003f0 3e b6 32 be 5e a0 83 be 35 25 7a be ab eb cc 3d
       -0.17452332 -0.25708288 -0.24428256 0.100058876

bias f4 [16]
000000 00 00 00 00 00 00 00 00 90 d0 03 bb 7a 79 12 3b
       0.0 0.0 -0.0020113327 0.0022350238
000010 b1 c1 cc ba 0a 66 19 bb 58 0c 92 ba 00 00 00 00
       -0.0015621689 -0.0023406767 -0.0011142595 0.0
000020 e1 c0 6b 3a 34 a1 41 b9 56 4c 49 bb 00 00 00 00
       0.000899328 -0.00018465967 -0.0030715666 0.0
000030 00 00 00 00 21 34 16 3b ce e4 0a bb fa ed d1 3a
       0.0 0.0022919255 -0.0021193507 0.0016016357

weight f4 [16, 16]
000000 c9 9a 70 3e 9a cd 29 3d 19 1d 9b be 3f 7a c0 3c
       0.23496546 0.041455843 -0.30295637 0.023495791
000010 ba 1b 71 3e 16 92 9e 3e 5d 0d a7 be d2 ba 3b 3e
       0.23545733 0.3097083 -0.32627383 0.18332985
000020 8e c3 8c be 50 f9 c7 3e b9 16 c4 3e d5 fa 75 3e
       -0.27492946 0.39057398 0.38298586 0.24021466
000030 25 47 8f be 05 8c 8d bd 09 0e 94 bb ef e9 2d 3d
       -0.27983966 -0.06911472 -0.0045182747 0.042459425
000040 70 9f 49 3d a5 e1 8f 3e d8 2f fc 3d e6 a0 cb 3e
       0.049224317 0.2810184 0.12313813 0.39771193
000050 a6 54 1a be 81 bd 53 3d ca d9 99 be 37 14 92 3e
       -0.15071353 0.051694397 -0.30048972 0.28531048
000060 d8 a6 d9 be 02 7a 89 3d a5 ab 11 3c 6a 2a 84 be
       -0.42510104 0.06712724 0.008891021 -0.2581361
000070 86 aa 09 3e 54 cc 7a be 4a 40 96 be 89 4a c0 3e
       0.13443956 -0.24492007 -0.29345924 0.37556866
000080 93 8f d0 3d 0e 56 58 bd e2 ae b0 be 55 bd ad 3e
       0.101836346 -0.052816443 -0.34508425 0.3393351
000090 70 71 77 3d 42 3b 8c be de 87 dc be 85 e5 c9 3e
       0.060410917 -0.2738896 -0.43072408 0.39432922
0000a0 fb 66 37 bd 93 ab bf 3e 08 9e de 3d 5d f6 39 3e
       -0.044775944 0.37435588 0.10869986 0.18160386
0000b0 aa d8 d0 3e 64 eb 7f 3d 04 71 63 be 78 2a 1d 3e
       0.40790302 0.062480345 -0.22211081 0.15348232
0000c0 0f 5f b9 3e 9b a5 8e 3e 37 82 1e 3d 2c 07 0c bd
       0.36205336 0.27860722 0.0386984 -0.034186527
0000d0 30 9d 50 bc b9 0e 99 be 32 bf d8 3d 38 eb 4f 3c
       -0.012732789 -0.29894045 0.105833426 0.012690358
0000e0 3e 89 72 be 89 1b 80 3e b2 ac d8 be e2 f5 b9 be
       -0.23685166 0.25021008 -0.42319256 -0.36320406
0000f0 34 d7 bb 3e 59 28 86 bd 77 a8 d1 be ad 10 05 be
       0.36687624 -0.065506645 -0.4094884 -0.12994643
000100 ce 08 9c be 18 59 91 3e 43 8f 7f 3e 9b 97 ab 3e
       -0.30475467 0.28388286 0.24956994 0.33514103
000110 0a 38 cb 3e 2c f2 15 3e 71 98 c2 3d c3 d0 4c 3e
       0.39691192 0.14643162 0.09501732 0.20001511
000120 49 be 69 be 30 5c 8d bd c3 22 53 3c d5 9c 5c be
       -0.22826494 -0.06902349 0.012886706 -0.21544202
000130 ea 47 49 bd 11 86 87 bc d6 cd 8e bb 64 c8 77 3d
       -0.04914085 -0.01654342 -0.0043580336 0.06049384
000140 f6 1f 4f be 28 0a d6 3e 94 22 1c 3e 2f a8 b5 bd
       -0.20227036 0.41804624 0.15247566 -0.08869969
000150 7e 7f 8e be f1 3d 87 be 3d c4 48 3e 83 72 ab be
       -0.27831644 -0.26414445 0.19606109 -0.33485803
000160 a4 fc 0d be f9 a5 4e be 87 2f 8f bd 89 53 ac be
       -0.13865906 -0.20180501 -0.06991487 -0.33657482
000170 0c 94 0b be 7b 5f 3b be e5 71 11 3d 8a c8 cd 3c
       -0.13630694 -0.18298142 0.03550901 0.025120039
000180 e2 55 3f be 43 63 aa 3d a5 38 7c be e4 5e a7 bd
       -0.18685105 0.08319714 -0.24630983 -0.08172396
000190 d2 06 39 be ba 6b b0 be 10 76 15 bd 48 3a d2 3b
       -0.18069008 -0.3445719 -0.036489546 0.006415639
0001a0 01 e6 a0 3e d6 62 31 be c5 db d1 bd da 11 cb 3e
       0.3142548 -0.17322859 -0.10246996 0.39662057
0001b0 a0 fa b1 bd 83 e1 8f 3e dc f1 81 bb 21 0f 68 3e
       -0.08690381 0.2810174 -0.0039655995 0.22662021
0001c0 7f 3d c5 be 2b c6 cc be 5b 89 cd 3e 38 12 95 3e
       -0.3852348 -0.3999494 0.40143856 0.29115462
0001d0 c8 a3 25 3e ba 17 22 be 50 c4 da 3e b0 b5 81 3d
       0.16175759 -0.15829363 0.427279 0.06333482
0001e0 ad 74 ac bc fb 28 00 3e 47 53 8b 3e ec 39 39 be
       -0.02105173 0.12515633 0.27211973 -0.18088502
0001f0 da f3 85 3e 3d 77 ba be 1e 41 c7 be 17 92 4d be
       0.26162606 -0.36419097 -0.38916868 -0.2007526
000200 64 72 c9 be 21 b9 5a be 71 b7 40 3c 5e a0 d5 3e
       -0.39345086 -0.21359684 0.011762486 0.41723913
000210 12 9a a2 be 68 68 c0 3e 45 ef c8 3d 06 d7 c6 bc
       -0.3175817 0.37579656 0.09811262 -0.024272453
000220 88 4d 44 3d 66 a4 9a be 4b 59 bd be ff e7 d6 bb
       0.047925502 -0.3020355 -0.36982188 -0.006558418
000230 e2 e3 8e 3d a6 36 69 be 2d c7 13 be 62 9d c1 3e
       0.06977059 -0.22774753 -0.14431448 0.37815386
000240 06 14 a1 be 65 ae b4 3e 6a a2 38 3d 73 e6 c4 be
       -0.3146059 0.35289302 0.045076765 -0.3845707
000250 f8 4d 74 bd 71 f1 67 be 0d 53 5a 3e 00 7d a7 3e
       -0.05964467 -0.22650696 0.21320744 0.32712555
000260 ae c7 53 be 18 69 79 be 5d 63 b9 bc 09 b5 b2 bd
       -0.2068164 -0.24356496 -0.022630388 -0.08725936
000270 a5 47 1a 3e f6 54 a0 3e b3 a9 4a 3e 22 57 86 3e
       0.15066393 0.3131482 0.19791298 0.26238352
000280 39 8d 4e 3e 7c 4f 76 be e0 57 c9 be 3a c0 c9 be
       0.2017106 -0.24053758 -0.39324856 -0.3940447
000290 78 1d c7 3e e9 69 35 bc 93 85 a5 be b2 7f ad 3e
       0.3888967 -0.011072614 -0.32328472 0.33886486
0002a0 ec 4b 2f 3e 7a c2 52 be a8 f0 af bd 3d a6 7c 3b
       0.17118806 -0.20582 -0.085908234 0.0038551234
0002b0 54 ba c6 3e ae 0a 8a be bf ae 61 3e 5a 2b 56 be
       0.38814032 -0.26961273 0.22039317 -0.20914975
0002c0 21 07 6b 3e fe a7 cc 3e af e4 a9 3d 21 de ea bd
       0.22951938 0.39971918 0.08295571 -0.11468149
0002d0 5a 5d da be 48 97 6e 3e b8 54 82 3e f8 8a 23 bd
       -0.42649347 0.23299897 0.2545526 -0.039927453
0002e0 f4 7e af be 52 46 a6 bd 60 96 8e 3e 65 be c3 be
       -0.34276545 -0.08118881 0.27849102 -0.38231197
0002f0 6a b2 c2 be 8d 0d 8c be e7 b2 14 3d 35 c7 ab 3e
       -0.38026744 -0.27354088 0.036303427 0.3355042
000300 3c 8f bf 3e 3c 63 b0 3e ed f4 0a be ec 03 c2 3d
       0.37413967 0.3445071 -0.13569994 0.09473404
000310 46 09 80 3e a9 a3 5a bd 19 a6 ae 3e f4 02 12 3e
       0.25007075 -0.053378735 0.34111097 0.14258939
000320 34 60 9f be 1d bd a3 be 34 af de 3c 3f 54 dc be
       -0.31128085 -0.3198022 0.027183153 -0.43033025
000330 2b cf 64 be 33 61 ac 3d 4b e0 5e 3e 5c 5c 93 be
       -0.22344653 0.08416977 0.21765248 -0.28781402
000340 a8 67 96 be 1e 41 dd bd 6a c9 d7 3e 63 7d 0b be
       -0.29375958 -0.10803436 0.42145854 -0.1362205
000350 2c a8 cd 3e 8a c8 7e be 15 3e 5a be 50 e5 53 3e
       0.40167367 -0.24881187 -0.21312745 0.20692945
000360 73 5b 64 3c 33 5a 4a be f7 53 a1 3d 3c 0a 84 be
       0.013937819 -0.19760971 0.07877343 -0.25789058
000370 ab c8 4e bc ef 87 a3 bd b6 69 26 3d 45 8d 75 3e
       -0.012621085 -0.07984912 0.040628158 0.23979671
000380 c8 52 b3 be 28 ce 6c 3d 4e 5b 10 3e 64 53 2f bd
       -0.35024095 0.057813793 0.1409733 -0.042804137
000390 6f 89 9f 3e 8a 65 d9 3e cb 8b a4 3e 34 ec 2f 3e
       0.3115954 0.4246028 0.32137904 0.17179948
0003a0 1e 03 c3 3d 96 d9 16 bc 4c 91 2f be a0 be d8 3e
       0.09522079 -0.00920715 -0.1714527 0.42332935
0003b0 bd 98 90 bd 19 d0 fa 3c 22 a5 9a be 6e 85 5e be
       -0.070603825 0.030616807 -0.3020411 -0.21730587
0003c0 fe db f8 3d 5e a4 97 be cf b7 49 be 58 0e 71 3e
       0.12151335 -0.2961759 -0.19699024 0.23540628
0003d0 d7 3a c6 be 4c 0a a8 be 86 d7 0a 3e f2 e4 3e 3d
       -0.38716766 -0.32820356 0.13558778 0.046605058
0003e0 a8 45 a5 3c ed a5 d8 3e c0 87 46 be 51 0a c7 be
       0.020174816 0.4231409 -0.19387722 -0.38875058
0003f0 22 a7 cc 3e f3 50 c9 bd c3 f8 2e be a5 6e 8b 3d
       0.39971262 -0.09829893 -0.17087083 0.06808213

bias f4 [16]
000000 00 00 00 00 e8 9b 8e ba df 3b 0d 3b 00 00 00 00
       0.0 -0.0010880204 0.0021550579 0.0
000010 47 a9 a8 ba 00 00 00 00 56 f5 c3 3b 00 00 00 00
       -0.0012867831 0.0 0.005980174 0.0
000020 dc 65 ba 3b cb ee 6c 39 00 00 00 00 65 7f ff b9
       0.005688412 0.00022595671 0.0 -0.00048732306
000030 39 82 0b 3b d0 4b 5e 3a 00 00 00 00 fe 0c 3b 3a
       0.0021287336 0.0008479925 0.0 0.000713542

weight f4 [16, 16]
000000 60 a1 cb be 15 61 91 be cf e6 a8 3d d1 94 70 3e
       -0.39771557 -0.2839438 0.08247148 0.23494269
000010 b6 b4 f0 bd 4e a3 be be 37 20 ae be fc f3 49 3d
       -0.11753218 -0.37233967 -0.34008953 0.049304947
000020 37 23 c7 be 58 86 c9 3e a1 cb cf 3e 71 72 e2 bb
       -0.38894054 0.3936031 0.40585044 -0.006910615
000030 a3 8e 11 be b4 5f 84 3e 18 1e ce be e8 9b 41 be
       -0.14214568 0.25854266 -0.40257335 -0.1890713
000040 6a 47 a7 3d b0 e1 03 3e de c7 3e be ea 5d 9f bc
       0.08167918 0.12879062 -0.18630931 -0.019453961
000050 a9 33 18 3e 0a 68 e3 bd 7a a1 f9 bd 5f 20 9c 3b
       0.14863457 -0.11103828 -0.12189002 0.004764601
000060 9c b3 ba be 82 fe 0f 3e aa 7f 7f be 1d c3 c4 3e
       -0.36465156 0.14061931 -0.24951044 0.3843011
000070 42 8e d4 be c9 4e 36 3e 03 3e bb 3e 0d c9 42 be
       -0.41514784 0.17803492 0.3657075 -0.19022007
000080 44 5e 93 be 14 10 af 3e 18 51 2a be ac 9f 81 be
       -0.28782856 0.34191954 -0.16632497 -0.25317132
000090 f3 78 5c 3e 79 92 46 3e ab 1b 43 3e 4d cd c1 be
       0.21530513 0.19391812 0.19053523 -0.37851945
0000a0 c9 46 32 be f1 f4 ba 3e 3f 2c cf 3e f4 2d aa be
       -0.17409815 0.36515 0.40463445 -0.33238184
0000b0 e2 a7 94 be 36 43 ce be 89 f4 a8 3e c5 43 a6 3e
       -0.29034334 -0.40285653 0.32999066 0.3247358
0000c0 d7 32 d5 3d da 41 84 3e 4c fa ae bc 04 aa b2 be
       0.104100876 0.2583149 -0.021359585 -0.34895337
0000d0 63 53 43 bd d1 65 53 3d 21 a0 9d 3c 5c 76 1e bd
       -0.047686946 0.05161077 0.019241394 -0.038687095
0000e0 8f a8 6b be 65 91 28 3d c0 39 cd 3e 8a 3b f1 3d
       -0.23013519 0.041154284 0.40083122 0.11778934
0000f0 78 69 cc be b2 7b 8c be 99 5f 73 3c 66 36 b8 be
       -0.39924216 -0.27438122 0.014854335 -0.35979003
000100 7a 84 d6 3e 6e 6f ce be 25 20 92 3e be 9e da 3e
       0.41897947 -0.4031939 0.2854015 0.42699236
000110 c5 35 04 bd 05 7d 7e be 89 8e bf 3e a6 e6 c4 3e
       -0.03227784 -0.24852379 0.37413433 0.3845722
000120 d3 9b b8 3e 0f d9 b9 be d6 00 18 be 72 80 8e be
       0.36056384 -0.36298415 -0.14844069 -0.2783237
000130 12 53 51 be bd f5 cf be 26 07 98 be 23 00 20 3e
       -0.20441845 -0.4061717 -0.29692954 0.15625052
000140 e2 14 c7 be 26 7c 16 3e e4 4b 3e 3d 77 ca 0f be
       -0.3888312 0.14695796 0.046459094 -0.14042078
000150 cf ae 44 3e 71 17 0f be ef b5 bf 3c fc 5d 90 be
       0.19207309 -0.13973786 0.023402182 -0.28196704
000160 07 36 43 3e d6 bd de bd ae 4b 81 bd 18 f3 a7 bd
       0.19063579 -0.10876052 -0.06313263 -0.08200663
000170 06 8a a0 be 50 c9 a7 be 34 ac c7 3d 1b 4a be be
       -0.31355304 -0.32770777 0.09749642 -0.37165913
000180 e1 06 43 be 30 00 9f bd a6 d4 79 be cd e7 02 3e
       -0.19045593 -0.07763708 -0.24397525 0.12783737
000190 ab e6 40 3e f0 8f 48 3e 35 0e df 3d 4a 83 77 3e
       0.18837993 0.19586158 0.10891382 0.24171177
0001a0 49 a2 4e 3d fd 76 76 3c 09 2c 2e be cd 51 a0 be
       0.050447736 0.015043017 -0.17008986 -0.3131241
0001b0 0a 3f 24 3d ce 5a cb be 6f ec bb be d0 d4 70 3e
       0.04009918 -0.39717716 -0.36703822 0.23518682
0001c0 b0 ac 93 3d a2 81 16 3d 99 2c b5 be 2b 5c 02 3e
       0.07210672 0.03674472 -0.35385588 0.12730472
0001d0 9d 62 78 3d f4 6a c2 3e 5b de 1f 3d 8e d8 9d 3e
       0.06064092 0.37972224 0.039030414 0.3082928
0001e0 6d 80 cf be ba 07 8c 3e 4e 6d 83 bd 69 88 73 3e
       -0.4052767 0.27349645 -0.064173326 0.23782505
0001f0 73 ac a5 be a9 74 b1 3d fe 0f 73 3e be 5a 71 3d
       -0.3235813 0.08664829 0.2373657 0.05892443
000200 69 17 cd bd c8 8f e8 ba 54 40 dc 3e b0 69 12 bd
       -0.10014231 -0.0017743045 0.43017828 -0.035745323
000210 48 ff cb bd 72 c9 bd 3e f4 11 b2 3d 04 31 f7 bd
       -0.099608004 0.37067753 0.086948305 -0.12069896
000220 99 cf a0 bd 07 a3 cc be 8b 7c dd 3e 61 51 92 be
       -0.07852096 -0.3996813 0.4325908 -0.28577712
000230 67 40 89 be 87 63 64 3e e6 1e 89 3e d0 41 32 be
       -0.26806948 0.22303592 0.26781386 -0.17407918
000240 bb 30 97 3e e5 e1 90 3e 7c 2f 50 3e 55 6c 96 3e
       0.29529366 0.28297344 0.20330614 0.29379526
000250 07 c3 90 3e 1e 8f 15 be 5f 31 94 3e 81 55 98 3e
       0.28273794 -0.14605376 0.28943917 0.29752734
000260 37 79 ce be 34 17 a0 be d1 bc 68 bd dd 17 10 3d
       -0.40326855 -0.31267703 -0.056820694 0.035179008
000270 3d 9b 9c be 88 58 ac 3c 33 6b a6 3e 2d 00 62 3e
       -0.30587187 0.021038309 0.32503662 0.2207038
000280 30 a7 58 be c0 43 9b 3d 5f 61 5e 3d 7e 2b da bc
       -0.21157527 0.07581282 0.05429208 -0.026632067
000290 50 23 15 3e b1 ea b6 3e 04 23 2f be 14 08 09 be
       0.14564252 0.3572593 -0.17103201 -0.13381988
0002a0 13 44 fd bc 6c 17 9b bd d1 3b 1f bd f3 44 be 3c
       -0.03091625 -0.07572827 -0.038875405 0.023226237
0002b0 37 e0 a6 be 2b ef e3 3d a1 85 31 be 7f 0f bf 3e
       -0.32592937 0.11129602 -0.17336132 0.3731651
0002c0 ea cc b0 3e 99 52 9a be 55 d1 b1 3d 40 68 02 3d
       0.34531337 -0.30141142 0.08682505 0.0318377
0002d0 4c d1 67 3e b3 df 83 be 33 7f b1 3d a4 a8 49 3e
       0.22638434 -0.25756606 0.086668395 0.19693238
0002e0 77 fa bf 3e 4d c7 58 be f9 9b 89 3e b0 eb f5 bd
       0.37495777 -0.21169777 0.2687681 -0.120078444
0002f0 db 36 af 3e 9c 4d 64 be 03 e6 83 be ec 10 59 3e
       0.3422154 -0.2229523 -0.25761423 0.21197861
000300 91 7a 0b 3e 28 d6 7c 3e 4e ff b6 3e f0 61 b7 3d
       0.13620974 0.24691069 0.35741657 0.08954227
000310 bb ff c4 be b5 97 0a 3d df 26 22 be 6b 7b 10 3e
       -0.38476357 0.033836085 -0.1583514 0.1410958
000320 04 49 c2 3e aa 8e 14 be cc c6 98 be ef dd 5f 3d
       0.37946332 -0.14507547 -0.2983917 0.05465501
000330 40 b3 a8 be c8 17 c7 be 8b 35 9e 3e 0e fb 5a 3e
       -0.32949257 -0.3888533 0.30900225 0.21384832
000340 b5 91 ad be 93 7c 83 3e 25 2a 1d be 4d 99 9d be
       -0.33900228 0.2568098 -0.15348108 -0.30781022
000350 70 87 5c be cc 86 a7 3d b7 2c c6 3e b2 45 fd bd
       -0.2153604 0.08180007 0.3870599 -0.12366809
000360 ad 1a c2 3e 6e 01 d8 3e 5d 09 c7 3e 50 2f 8f be
       0.37910977 0.4218859 0.3887433 -0.27965784
000370 3e 35 ab 3e bd dd 53 be 0b bd 77 3d 3c f0 c1 bd
       0.33439058 -0.20690055 0.06048302 -0.09469649
000380 b5 1d ef bb 41 f3 73 3d 07 00 09 3d 8d 8c 01 3d
       -0.0072972425 0.059558157 0.03344729 0.03162818
000390 12 e2 a3 3e 0d c7 b9 be a3 36 56 be 1d 56 ad be
       0.32008415 -0.36284676 -0.2091928 -0.33854762
0003a0 e1 3b 11 3d c7 0e 45 be cf 89 02 bd d9 b2 76 bd
       0.035457496 -0.19243918 -0.031869706 -0.060229156
0003b0 f5 52 4e be 82 64 5b be 7e 02 c3 bd b4 7e a6 be
       -0.20148833 -0.2142506 -0.0952196 -0.32518542
0003c0 c0 78 94 3e 88 18 98 3d ca d8 59 be 77 88 61 3e
       0.28998375 0.07426554 -0.21274105 0.22024713
0003d0 00 96 97 3e b8 0d 85 3e 7b a1 27 be 51 15 58 bd
       0.29606628 0.2598703 -0.16370194 -0.052754704
0003e0 da 5e aa 3e 35 d5 3b be 84 0b 6c bd ff 08 d7 3e
       0.3327549 -0.18343051 -0.05762817 0.4199905
0003f0 db 76 92 3e fe de fe bd 72 e3 b1 3e 52 15 09 be
       0.28606305 -0.12444876 0.3474384 -0.1338704

bias f4 [16]
000000 00 00 00 00 00 00 00 00 8c 75 47 ba 00 00 00 00
       0.0 0.0 -0.00076087634 0.0
000010 d2 0e 2c 3b a6 75 a1 ba df af 20 bb 00 00 00 00
       0.002625395 -0.0012318387 -0.002451889 0.0
000020 00 00 00 00 e1 e2 9a bb 00 00 00 00 5f 61 0d 3b
       0.0 -0.004726753 0.0 0.002157293
000030 00 00 00 00 77 03 a6 3b 00 00 00 00 24 77 26 bb
       0.0 0.005066331 0.0 -0.0025400603
