ood/bbbp.pt (torch, 347597 bytes, 62 tensors)

weight f4 [16, 9]
00000000: e1ae 223d 668f f03e e0b4 d8be 0b3c 5e3e
00000010: a611 913d c23d 07be 1d71 1cbe f6dd 403e
00000020: 45e0 b63e 5448 f3be d178 4d3e d209 b1be
00000030: 0387 b43b 8fdd 8dbe 5f3c 453d bcbe e4be
00000040: b16a 643e 830b b0be 25a8 9f3e b236 bcbe
00000050: c378 bc3e c9f9 993e 7656 f8be e1b5 d6be
00000060: e2eb 61be 77d4 aebe c3fa f8be f00b 84bb
00000070: 0b07 a1be 681b 363e 508f debe b971 92be
00000080: acf9 523e 0339 353e 6f09 c03e eaa9 d1be
00000090: f565 c1be 29e9 4fbe 9773 873d 4b4e 2ebe
000000a0: dda0 0a3e 9f20 bd3e 45a6 043e cab4 bb3e
000000b0: 6209 f63d cfa3 4d3e 8778 cdbe 6930 b9bd
000000c0: 6b4b cb3e 8c4a 46be 2526 34be ca6c 5dbe
000000d0: d657 323e 88b5 de3e 8d00 523e 46b6 e23e
000000e0: 003a b33e a309 80bd 3958 26be 1b0d 26be
000000f0: fa11 593e 7e61 a93e cfb2 edbe f5ad 71be
00000100: 7c5d f2be b922 98be b658 c53e a8e7 e03e
00000110: f478 a1be 13fb 7dbe c5f9 203e e4f7 383e
00000120: d707 433d 1cd6 b8bd 8bdd 80be e103 e4be
00000130: cf84 0cbe b3c6 cbbe 2d82 db3e bc11 d93e
00000140: b1d0 b3be cc97 553e 8304 b63e f622 cf3e
00000150: 1314 ca3e d74e b3be 74ff c43e d907 ec3e
00000160: 3e05 e53c 4045 6f3e 923a 48be 7ffd f93e
00000170: cc6d e2be 4901 9abe 0112 ae3d f43a 5bbe
00000180: c0aa 37be c7cf 353e 68b5 8f3e 825d a33e
00000190: 32fc d43e 077a 783e 193d 5fbe e2b6 2d3e
000001a0: 6db4 97be ad6d 913e 76d9 513e a571 d43e
000001b0: 5fec 923e 788a e73e d54d c9bd cce5 d4be
000001c0: 1cf1 ca3e af5d e2be b4ec 943d 6fe6 a33d
000001d0: d77b ad3d 74f1 af3e bba2 d63d 6b18 2fbe
000001e0: 1ff4 eabc 5f2f f6be 0825 a9be af13 edbc
000001f0: 2a0e e63e 4e76 eebd b55b 833e 8c1c a5be
00000200: 10d8 c8be cd21 653e be33 8e3e 148f f1bc
00000210: f165 ba3e 4d53 423e de23 773e 0a9b c83d
00000220: e490 fa3e 3f33 c0be 312c bbbd c6d4 a0be
00000230: d9b7 97be 9e7b d33d 74e1 53bd 1a89 2fbd
0.03971756 0.46984404 -0.42325497 0.21702592 0.07083444 -0.13207152 -0.15277524 0.18834671
0.3571798 -0.4751612 0.20065619 -0.34577805 0.0055092587 -0.27708098 0.048153277 -0.4467677
0.22306325 -0.34383783 0.31182972 -0.3676048 0.36810884 0.30073383 -0.48503464 -0.41935638
-0.22062638 -0.34146473 -0.48628816 -0.0040297434 -0.31450686 0.17783892 -0.43468714 -0.28602389
0.20603055 0.1769753 0.37507197 -0.40949947 -0.377731 -0.20303787 0.06613844 -0.17022054
0.13537927 0.3693895 0.12954052 0.3666137 0.120135084 0.2008202 -0.40131018 -0.09042437
0.39705977 -0.19364375 -0.17592676 -0.21623531 0.17416319 0.43497872 0.20508023 0.4427969
0.35005188 -0.06251838 -0.16244592 -0.16215937 0.21198264 0.33082193 -0.46425483 -0.23601516
-0.47336948 -0.2971399 0.38544244 0.4392674 -0.31537592 -0.24802808 0.1572028 0.18063313
0.0476149 -0.09025213 -0.25169024 -0.4453421 -0.13722537 -0.39800033 0.42872754 0.42396343
-0.35120156 0.20858687 0.35550317 0.4045636 0.3946844 -0.35021088 0.38476145 0.46099737
0.027956601 0.2336626 -0.19553593 0.48826215 -0.44224393 -0.30079105 0.08499528 -0.21409208
-0.1793623 0.17755042 0.2806809 0.31907278 0.4159866 0.242653 -0.2180065 0.16964296
-0.2962984 0.28403988 0.20493111 0.41492954 0.28695962 0.4522283 -0.098292984 -0.4158157
0.39637077 -0.442121 0.0727171 0.08002936 0.08470886 0.34363902 0.10480257 -0.17099158
-0.02868086 -0.48083016 -0.33036065 -0.02894005 0.4493268 -0.116436586 0.25655904 -0.32248342
-0.39227343 0.22376175 0.2777385 -0.02948717 0.364059 0.18977089 0.24134776 0.09795196
0.48938668 -0.37539098 -0.09139288 -0.31412333 -0.29632452 0.103263125 -0.05172868 -0.04285536

bias f4 [16]
00000000: 5c04 983a 0000 0000 1eae 0bb9 0000 0000
00000010: 0000 0000 4072 4bbb 1ee7 943b 37da 41bb
00000020: a256 1cbb 1960 4abb 0000 0000 daf0 77bb
00000030: 2499 c03b 9736 023b 565a 93bb 0312 253b
0.0011597979 0.0 -0.00013320937 0.0 0.0 -0.003104344 0.004544153 -0.002957953
-0.0023855348 -0.0030880033 0.0 -0.0037832768 0.005877631 0.0019868964 -0.004496853 0.0025187738

weight f4 [16, 16]
00000000: 09bd 2d3e 1ab6 c93e 08e0 c9be b45b 09be
00000010: 1c3c 29bd d1ad 7c3e b64f 3abe a54d cebe
00000020: 9e91 2ebe 5a4f 71be 2621 d2be cd01 9dbe
00000030: d90c 2fbe f462 1b3e a4d4 74be 0e48 09be
00000040: c6ea b8be 39f8 81be f43a a2bd 489c 48be
00000050: bde8 10bd cc94 f93d 2921 5b3d 854d 7fbe
00000060: 826b 91bc 6b46 023d ff03 0d3d 6c9d 2f3e
00000070: 849c 00be 47ea c3be 51f5 15be 9cf4 e6bd
00000080: bf91 d1be db52 9e3c e96b 15be 401a 9f3e
00000090: 875b 9a3e 7132 973e 086b 49be e72d 333c
000000a0: 52c4 cb3e c015 c6be c863 2b3e 0c68 33be
000000b0: ec83 29be 4c80 743e d066 bdbc 7b5a bcbd
000000c0: 618b 813e 4a36 09be f334 b13e 830d e03c
000000d0: 5443 343e 3c9c c03e 75a2 2cbe 3a4d 623e
000000e0: fd2b 9f3d 941e c0be fa5d dd3e 1a6f 903e
000000f0: d759 bb3b dbf6 213e 614f 0cbe 70ed 68bd
00000100: c5ff 0ebc 8d6f f83d 377c b93d 3169 d13e
00000110: 75f4 b33e bdd0 7e3e 9f2a 31be 5d2a 64be
00000120: 59cb b5be 9123 4f3e 05f5 ad3e 708f fc3d
00000130: baa5 b23e c590 a0be d2b3 d4be cfd2 2b3e
00000140: e6b1 55be eba0 b13e c8e6 34bc 9c25 6f3d
00000150: 4473 0f3e ac32 aebe 5edc aabd 80f2 943e
00000160: c954 11be d736 d53d 9f8d 69be 3baf 9a3d
00000170: 258f 59be ebf5 c4bd 35a2 733e fbd3 d0bb
00000180: 80de 893e 2268 803e e6e5 b53e 8ad7 f0bd
00000190: 7753 b63d f530 dd3d f480 7dbe af4f 693e
000001a0: 1efe 86be a885 b3be ae96 cf3e cf3a 863d
000001b0: 9e68 963e daec c13e 084c b7be abe3 afbe
000001c0: 2947 a13d 882e 813d 3b39 fabc 3d5d 85be
000001d0: d3d7 d13d d94c 623e e743 9bbe 61aa 923e
000001e0: 0d33 bbbc e880 b83e ef16 9bbb a8d6 cd3d
000001f0: 5872 6bbe e343 03be bfa1 8d3d 7c04 903d
00000200: 9478 9a3e d98a 84be d13b c93d 2f4f 66be
00000210: 1b35 acbd 4de4 8fbe 01a6 a83e ede7 913e
00000220: c3f4 bdbe 68c1 a8be 50d2 0f3e c6ac a5be
00000230: 4db7 3dbe 68c7 d9be bc56 9cbe 4d00 a43e
00000240: 07a9 81be ef39 8f3e 47f5 f43d 40bf 96be
00000250: 381c cebd ea73 dabc 6f0a 953e 8097 cfbe
00000260: 43da ad3e a6fa d1be e9b1 a1be f9be 91be
00000270: bc2f 183e bc8b 9abe 1f7d aebe 65b9 233e
00000280: 5993 a5be 6fb8 9bbe d499 c33e 407b 7c3e
00000290: 0fcf 9fbe 134d c23d 024a 933d d247 6b3e
000002a0: ba83 6f3e f37b d93e 874d e53d 0612 933d
000002b0: b548 47bd 0e45 c73d 5960 efbd 31d5 b83e
000002c0: 37ab d03e c264 5abd 4903 cc3d d663 a7be
000002d0: 8568 aabe db08 9abe 26e6 a9bd 8837 7d3e
000002e0: 4104 ddbc ba37 b5be 3183 ec3d 30cf 813e
000002f0: 85a1 babe 248c cebe 4e21 50be efaf db3d
00000300: 0a58 073e 6eb4 73be c793 a23d 2ed4 8fbd
00000310: 80dc 07bd 5e39 ca3e f45c 253e 30bc 84bc
00000320: 807b 863d 8390 63be 248d 9f3e 8007 c9bc
00000330: 2e16 443e f034 18be 9006 073e 32d3 1e3e
00000340: 0ae4 5a3e 90cf 87bd bde1 5abe 7f62 043e
00000350: 710a aa3e 011f 0fbe 51d9 53bd 6e15 163d
00000360: 7d78 6c3e 4de6 f63d 247c e7bd f143 023e
00000370: ab73 21be 2387 17be ec5c b43e 942d b4be
00000380: 9f08 c9be 0ef2 b3bc 2697 ccbe b8d1 15bd
00000390: e8b0 7f3e 4828 7abd 3e40 0b3d 53dd b73e
000003a0: a285 8ebe 4dfd 983e f95c 9b3e 7cea 023e
000003b0: ce09 893e 5342 a2be ab67 863d e0fa 84bd
000003c0: ec01 56be 4c2f d53d 1843 d7be b3bb b63e
000003d0: 8a87 d3be 9854 d93e 9d77 013e 73d9 a13e
000003e0: 4700 77be a73e 6dbe ebcc 933d 0018 94be
000003f0: d7cc 92be 8c9e d9be 333d 813e 5e24 90bc
0.16966642 0.39396745 -0.39428735 -0.13413888 -0.04131709 0.2467568 -0.1819447 -0.40293613
-0.17047736 -0.23565426 -0.41040915 -0.30665436 -0.17094745 0.15174466 -0.23909241 -0.13406393
-0.36116618 -0.2538469 -0.07921401 -0.19590867 -0.035378207 0.12186584 0.05349842 -0.24931915
-0.017751459 0.031805437 0.03442764 0.17149895 -0.12559706 -0.38264677 -0.14644362 -0.11277124
-0.40931508 0.019326618 -0.14591946 0.31074715 0.30147955 0.2953067 -0.19669735 0.010936237
0.39798218 -0.3868847 0.16737282 -0.1752016 -0.1655423 0.23877066 -0.023120314 -0.09196945
0.2530165 -0.13399616 0.3461071 0.027350193 0.17603809 0.37619197 -0.16858847 0.22099772
0.07772062 -0.3752333 0.4323576 0.28209764 0.005717497 0.15816824 -0.13702156 -0.056867063
-0.008727972 0.121306516 0.09056895 0.40900567 0.35147443 0.24884315 -0.17301415 -0.22281785
-0.35506704 0.20228411 0.33975998 0.12332046 0.34892064 -0.3136045 -0.41543442 0.16779636
-0.20868644 0.34693083 -0.011041351 0.058385476 0.14008814 -0.34023035 -0.08342813 0.29091263
-0.14192499 0.104108505 -0.2280793 0.07552954 -0.21246012 -0.09617218 0.23792346 -0.0063729263
0.26927567 0.25079447 0.3552696 -0.11759861 0.089026384 0.108003534 -0.24756223 0.22784303
-0.2636575 -0.3506291 0.40544647 0.065541856 0.29376692 0.37876016 -0.35800195 -0.34353384
0.07874901 0.06307703 -0.030544868 -0.26047698 0.10246243 0.22099628 -0.30325243 0.28645614
-0.022851491 0.36035848 -0.0047329585 0.10050708 -0.22992837 -0.12818865 0.06915616 0.07032105
0.3017012 -0.25887182 0.09825862 -0.22491144 -0.084085666 -0.28103867 0.3293915 0.28497258
-0.371008 -0.32960057 0.14045072 -0.32358378 -0.18526955 -0.42534947 -0.30534923 0.3203148
-0.2532427 0.27973887 0.119608454 -0.29442787 -0.10063976 -0.0266666 0.29109523 -0.40545273
0.33955583 -0.41011542 -0.31581047 -0.28466013 0.14861959 -0.30184734 -0.34079835 0.15988691
-0.3233898 -0.3041415 0.382033 0.24656391 -0.3121266 0.09487357 0.0719185 0.22976616
0.23390093 0.42477378 0.11196428 0.07181172 -0.048653323 0.09729968 -0.11688299 0.36100152
0.40755627 -0.053318746 0.09961564 -0.32693356 -0.33282867 -0.3008488 -0.082958505 0.24728215
-0.026979567 -0.35394078 0.1154846 0.25353384 -0.36451355 -0.40341294 -0.20325205 0.10726916
0.13217178 -0.23799297 0.079383425 -0.07022892 -0.03316927 0.39496893 0.1614874 -0.016203016
0.065665245 -0.22223096 0.3116237 -0.02453971 0.19149086 -0.14863944 0.13186097 0.15510252
0.21376052 -0.06631386 -0.21375175 0.12928198 0.3321109 -0.13976671 -0.05172092 0.03664153
0.23092838 0.12055645 -0.11302975 0.1272123 -0.1576678 -0.14797644 0.35227144 -0.35191023
-0.3926439 -0.021966007 -0.39959067 -0.036576957 0.24969828 -0.06107357 0.033996813 0.35911044
-0.2783633 0.29880753 0.3034437 0.12784761 0.26765293 -0.31691226 0.06562742 -0.06493163
-0.2089917 0.10409412 -0.42043376 0.35690078 -0.41314346 0.42447352 0.12643285 0.31611213
-0.241212 -0.23168431 0.072168194 -0.2892456 -0.28671905 -0.42503774 0.25242004 -0.017595466

bias f4 [16]
00000000: 0000 0000 6d41 88bb 0000 0000 a731 8cbb
00000010: 3874 b43b 5fe4 403b e08e bb3b 6f9e 89bb
00000020: 0000 0000 0000 0000 e48b 0cbb 0000 0000
00000030: f40e ed39 29f7 50bb e807 53bb 934a 723b
0.0 -0.00415819 0.0 -0.00427838 0.0055070184 0.0029432995 0.005723819 -0.004199795
0.0 0.0 -0.0021445686 0.0 0.00045215304 -0.00318856 -0.0032200757 0.003697072

weight f4 [16, 16]
00000000: 06c3 a03e c0ec b83e 922c f83d a1d2 203e
00000010: 2c83 5ebe d877 fd3d 02ca 56bd 53dd d6be
00000020: 017e a03d 88ae d7be e960 d8be 3822 9cbe
00000030: 20da 32be 26cb c3be d631 e93d 9fc1 c0be
00000040: 44c9 9d3d b59d 97be 753e 5e3e d312 863e
00000050: e4d0 fc3c bae6 d8be 832f 743e 0f75 4c3e
00000060: d6c1 cdbe 9460 073e 09a5 bebe 2875 abbe
00000070: 7604 9dbd ab3e 85be cf2e 2ebe c22f 923e
00000080: 3e96 04be 81f6 b23d 01c7 b9be ed41 383c
00000090: bc00 1d3e 54e8 cabe 2fbf 40be c881 a7bd
000000a0: f526 c7be a593 30be b0c2 b83e 4fd4 cf3e
000000b0: da86 d73e 7561 d73e 5558 c33e be18 adbe
000000c0: ddeb 393e 9b8b c5be b060 823e 2cb9 eabd
000000d0: c185 b83e f176 c1bc b95b bbbd e8e6 823e
000000e0: 9552 c33e 4070 1a3e dbc0 7a3d b044 673e
000000f0: 192b 9dbe 50b8 adbc 7512 95bc 7e05 a0be
00000100: 5d9c ff3d 2a51 803d ba75 cabd bf0d 243d
00000110: eef0 c1be 6fbd ae3e 4b08 c9bd ea18 963e
00000120: 5ebb b4be 05e8 ac3d f41c 4ebe ee16 cfbe
00000130: c3b4 c63e f749 fb3d f929 0cbe f74e 683e
00000140: 3824 b4be 1a7d c83e f5d5 98be 89b0 8cbd
00000150: fdb4 0f3e a8c5 d8be 7bc7 803e 2ea2 ae3c
00000160: 698c 15be ce77 493e 6ab0 64be 7574 cdbd
00000170: 7efc 84be 19ee cebd d788 3cbe fdd7 37be
00000180: 1b8c 233e 0451 1e3e 3fa0 b6be 386c 033b
00000190: e0c3 9b3e fb1e 46be 29a9 113e fccb 9dbe
000001a0: 5c05 c03e 16a9 db3d a288 43be 450d a03e
000001b0: 9198 813b 8e4c 083e 4ed4 77be 1b39 193c
000001c0: 5de1 7dbe ed2a 983e b6bf 953e 8021 56be
000001d0: b4b3 9cbc a38e c23d 0852 1c3e 2bda 6bbe
000001e0: 8c0d 2e3d baeb 583e b9ec d2be 5ca9 b0bd
000001f0: 3035 103e 0d85 943e 7e14 c6bd a7d8 89be
00000200: e5b2 a23d 0ad5 863d 15a2 d63e f38f 9d3e
00000210: de02 2bbd 7129 4bbd dce7 ba3d 68d3 d2be
00000220: cb9a a03e 7753 573e d236 533e 4789 95be
00000230: 5b73 ca3c 6c86 9b3e 07fa 703e 60a9 35be
00000240: 038a ecbd 4aba 8bbe 4502 103d 886b d2be
00000250: 8bc2 9b3e dae8 ebbd c152 7f3e 78e2 00be
00000260: 5c7c d93e 2325 95be 6352 893e 513b f2bb
00000270: 95d5 da3d 8748 823d b807 94be 9a38 d43e
00000280: 0552 853e 99c3 423e 1552 b83e 41a7 ccbd
00000290: 7291 203e 27ff 2bbe ca02 133e f7c3 a3be
000002a0: 460a 9b3e ab25 2d3e b70e 30bd 8ee4 c3bd
000002b0: 0222 9d3e 3c1a 933e 4722 d5be a588 64be
000002c0: 141f 983d bfa2 70bc 9397 af3e 42ae a5be
000002d0: ee8e a1be 95da 06be 0a53 723e 477a 693e
000002e0: 5f5b 60be f072 04be 72d2 b33e 448a 5cbe
000002f0: 29e3 d03e 2d55 75be a18d 5bbd 2c8a a6be
00000300: aebf a9be a5cb 463e 8ee5 723e 6eda c33e
00000310: ff28 ce3e 0f0e b13e a9a2 25be 97d6 c6bd
00000320: 26f2 073d d1b6 b1be f9d7 d3be f2f6 853e
00000330: 0dbc a93e c6da 80be 5007 c3be 41dd a73e
00000340: 007f 31bd 6c1f b7be 1361 d43d d137 733d
00000350: 4092 193d 4f02 443e 21d6 973e 87a9 ddbe
00000360: dc7f d33e 0fa0 10be 62a8 8bbe c89a ac3d
00000370: 259b 8ebe 7217 13be dbd3 a13e 642b 15bd
00000380: 3db2 45be 51d5 60be 9585 3f3e 0b7c f9bd
00000390: 6241 b1be 662b d93e 5490 8b3e c671 c2be
000003a0: db26 3e3d 68f4 09bd ebdf cc3e aca7 04bc
000003b0: 0c45 0cbc 023a b13d fdf5 74be 46da e73b
000003c0: 53c8 a1be cee5 97be 7724 d4be fc4f 8cbe
000003d0: b2ed 57be 5974 7f3d 39fa 953e 0609 aebd
000003e0: 4347 9c3e cea7 ac3e 6cb3 a7be cce8 54be
000003f0: 17be f4bd e261 a23e a223 cd3e 9d33 a2be
0.3139879 0.36118126 0.12117876 0.15705349 -0.21729726 0.12376374 -0.052438743 -0.41965732
0.07836533 -0.42125344 -0.42261437 -0.30494857 -0.1746602 -0.38240927 0.113864586 -0.3764772
0.07704404 -0.29612508 0.21703513 0.26186237 0.030861326 -0.4236353 0.2384625 0.1996653
-0.40186948 0.13220435 -0.37235287 -0.3348782 -0.076668665 -0.26024374 -0.17010044 0.2855206
-0.12947938 0.08738423 -0.3628464 0.011246187 0.15332311 -0.39630377 -0.18822931 -0.08179051
-0.3889691 -0.17243822 0.36086035 0.40591666 0.4209507 0.4206654 0.3815333 -0.3380794
0.18156381 -0.38583073 0.25464392 -0.114611 0.36039546 -0.023616286 -0.09148354 0.25566792
0.38148943 0.15081882 0.061219078 0.22584796 -0.30696943 -0.021206051 -0.018197278 -0.3125419
0.12480996 0.06265481 -0.09885736 0.04005217 -0.37879127 0.341289 -0.09816035 0.29315883
-0.352992 0.08442692 -0.20128232 -0.4044718 0.38809785 0.12269967 -0.13687886 0.22686373
-0.35183883 0.39157945 -0.29850736 -0.06869609 0.14033885 -0.423383 0.25152192 0.021317568
-0.14604343 0.19674608 -0.22332922 -0.10031978 -0.25973886 -0.10104007 -0.18411575 -0.17953487
0.15971415 0.15460593 -0.35669133 0.0020053517 0.30422878 -0.19347756 0.14224686 -0.3081969
0.3750409 0.1072561 -0.1909509 0.31260124 0.003954955 0.13310453 -0.24202082 0.009351994
-0.24793 0.2972025 0.29247826 -0.20911217 -0.019128658 0.09499862 0.15265667 -0.23032443
0.042493388 0.21183673 -0.4119623 -0.08626053 0.1408279 0.2900776 -0.09671877 -0.26923105
0.07944278 0.06583603 0.41920534 0.30773887 -0.04175078 -0.04960007 0.09126255 -0.41176915
0.31368098 0.21027933 0.20626381 -0.29206297 0.024713209 0.30375993 0.23532878 -0.17740393
-0.11549761 -0.27290565 0.035158414 -0.41097665 0.30421862 -0.11519022 0.24933912 -0.12586391
0.4247769 -0.29129896 0.2682067 -0.007392325 0.10685269 0.0636149 -0.2891214 0.41449434
0.26039138 0.19019927 0.36000124 -0.09992839 0.15680483 -0.16796552 0.14356533 -0.31985447
0.30281276 0.169089 -0.042982783 -0.09565078 0.30690008 0.28730953 -0.41627714 -0.22317751
0.07427803 -0.014687239 0.3429533 -0.3235951 -0.3155436 -0.1316932 0.2366449 0.22800551
-0.21909855 -0.1293447 0.35121495 -0.21537119 0.4079831 -0.23958273 -0.053601865 -0.32527292
-0.33154052 0.19413622 0.2372038 0.38252586 0.40265653 0.34581038 -0.16175331 -0.097088985
0.033189915 -0.3470979 -0.41375712 0.26164967 0.33151284 -0.2516691 -0.38091516 0.3278599
-0.043334007 -0.3576616 0.10370078 0.059379403 0.03749299 0.19141506 0.29655555 -0.43293402
0.41308486 -0.14123558 -0.27276903 0.0842796 -0.2785274 -0.14364412 0.31606945 -0.036418334
-0.19306274 -0.21956374 0.18703301 -0.121818624 -0.34620196 0.42415923 0.2725855 -0.37977427
0.046423774 -0.03368035 0.40014586 -0.008096617 -0.008561384 0.08653642 -0.23921962 0.007075581
-0.31598148 -0.29667515 -0.4143407 -0.27404773 -0.21086767 0.062366817 0.29292467 -0.08497815
0.30523118 0.33721775 -0.32754076 -0.2079193 -0.11950319 0.31715304 0.40066248 -0.31680003

bias f4 [16]
00000000: 0000 0000 0000 0000 9873 7cbb 13c0 8bbb
00000010: 119c c93b 0000 0000 0000 0000 0000 0000
00000020: a298 be3b 77f5 923b 5f85 0f3b 7bf5 80bb
00000030: 0000 0000 0000 0000 d821 aebb 2431 7e3b
0.0 0.0 -0.0038521048 -0.0042648404 0.006152638 0.0 0.0 0.0
0.005816535 0.004484828 0.0021899564 -0.0039355136 0.0 0.0 -0.005314093 0.0038786614

weight f4 [16, 16]
00000000: 7778 acbc 65c6 b03e ec37 663e 4ea5 b2bd
00000010: 347f 223e 1172 7a3e 84a7 90be 356a bebe
00000020: e39f e4bd 9485 983d a240 adbe 50cb 913e
00000030: d0da 813e 37f3 d4bd bedf c2be 7eea cabe
00000040: c6d5 913e 5236 c63d 4c5c c8be 25df 243d
00000050: 2db7 3c3d a901 2d3e 9a94 513d b928 dbbe
00000060: e425 d53e fdee 0a3d 56ec 8d3e f97a 2a3e
00000070: bd34 22be a54b 14be e8ab 293e d21d 8ebe
00000080: ebe6 abbd 6b53 753e 4982 503d 49cf c9be
00000090: f612 2e3e b7d5 47be 8acb a6be 3519 353e
000000a0: 693a 5ebe 60d1 c5be b64e 9f3e aa46 a5be
000000b0: 54ba ac3e f221 d1be fa8a 1d3e 9a2e a7be
000000c0: 4448 a83e 42d6 f8bd 0187 6e3e 4826 b2be
000000d0: df14 c83e dd60 943e b3b6 7d3e 8de8 59be
000000e0: dd5d c73d 6d83 5e3d a3b1 c83e 7e69 88be
000000f0: c16c 9a3e d592 69bd 61d9 133e 3570 99be
00000100: 2f07 b5be 99ee 3cbd 81e8 153e 9400 b4be
00000110: 026d 083e f30f c4be 3ed3 763e 1b54 1abe
00000120: cec7 bebe ad51 8e3e 7327 363e e503 793d
00000130: 39ef da3e 8105 97be 8a2a 8d3e f338 28be
00000140: 2b0a cebd 8fd7 453e ce3d c3bc bf67 913e
00000150: 3a50 58bd 3eb6 32be 76df 83be 3525 7abe
00000160: 6af2 d73d bd54 763e 0571 333d 3b4e 98be
00000170: 3f7a c03c ba1b 713e c353 a13e 5d0d a7be
00000180: d2ba 3b3e 8ec3 8cbe 68cb c53e e8e4 c13e
00000190: 76ce 713e 2547 8fbe 058c 8dbd 090e 94bb
000001a0: 5b20 1c3d eb44 373d 64e5 8d3e bad3 f53d
000001b0: e032 cc3e a654 1abe 3be8 463d 9548 9bbe
000001c0: 3714 923e 5116 d9be 4db2 8b3d 3d7b 243c
000001d0: 6a2a 84be 86aa 093e bea8 79be 4fae 95be
000001e0: 97dd c03e 938f d03d 0e56 58bd c561 b1be
000001f0: 5ad1 ac3e 8e6c 773d d604 8dbe ef72 ddbe
00000200: 85e5 c93e 2321 3fbd 6a24 c13e dadc e53d
00000210: 1dd7 3e3e aad8 d03e 2f3c 783d bc4f 65be
00000220: cf6f 203e 21f9 bb3e 4837 903e b25a 323d
00000230: 2c07 0cbd 309d 50bc 5390 96be c70f df3d
00000240: 38eb 4f3c 3e89 72be d78b 7f3e 88dc d8be
00000250: fea9 bbbe 34d7 bb3e 5928 86bd 77a8 d1be
00000260: ad72 06be 4f44 9cbe 4c08 903e d639 803e
00000270: c276 ac3e 8f37 cb3e cd98 163e 83da c03d
00000280: c3d0 4c3e b8f0 67be 78a8 89bd 4be4 6c3c
00000290: d59c 5cbe ea47 49bd 1cf8 72bc 30cb 2dbb
000002a0: 8a9e 7e3d f61f 4fbe 280a d63e 9422 1c3e
000002b0: 2fa8 b5bd 7e7f 8ebe f13d 87be 3dc4 483e
000002c0: 8372 abbe a4fc 0dbe f9a5 4ebe 872f 8fbd
000002d0: 8953 acbe 0c94 0bbe 7b5f 3bbe e571 113d
000002e0: 8ac8 cd3c e255 3fbe 4363 aa3d 2ced 7cbe
000002f0: e588 afbd c607 39be f466 b1be d4e3 25bd
00000300: 483a d23b 5392 9e3e 29f0 2fbe 9cfa c4bd
00000310: 3b4d ce3e a0fa b1bd cd8b 8d3e 9468 05bc
00000320: 43ed 6a3e 25d0 c1be 31ba cabe a0da d03e
00000330: 3812 953e c8a3 253e 6246 1bbe 343c dd3e
00000340: b0b5 813d ad74 acbc 3c16 f73d c2ff 883e
00000350: ad8e 3dbe daf3 853e 3d77 babe 1e41 c7be
00000360: 7942 52be 4fdd cbbe bce1 5ebe 6eb9 b73b
00000370: a8c6 d33e 809a a2be f0e0 bc3e 3f9b b93d
00000380: 06d7 c6bc 4b17 343d 1bcb 9cbe 6107 bebe
00000390: ffe7 d6bb e2e3 8e3d 8844 6dbe af99 17be
000003a0: 14cf bf3e 0614 a1be 65ae b43e 5432 3b3d
000003b0: ecc9 c4be de4f 74bd 0184 67be 9d98 5a3e
000003c0: 007d a73e 55a2 53be e55c 79be 3f6d b4bc
000003d0: 09b5 b2bd a547 1a3e 476d a03e 0be1 4a3e
000003e0: c679 863e 398d 4e3e 7c4f 76be e057 c9be
000003f0: 3ac0 c9be 781d c73e e969 35bc 9385 a5be
-0.021053536 0.34526363 0.2248227 -0.087229356 0.15868837 0.24457575 -0.28252804 -0.37190405
-0.111633085 0.07447353 -0.33838373 0.28475428 0.25362253 -0.10397952 -0.38061327 -0.39632028
0.2848341 0.096783295 -0.39132917 0.04025187 0.046073128 0.16895165 0.051167108 -0.42804506
0.4163047 0.033919323 0.27719373 0.16648473 -0.1584043 -0.14481981 0.16569483 -0.27757126
-0.083936535 0.23957603 0.0509055 -0.3941596 0.1699942 -0.1951512 -0.32577163 0.17685397
-0.21701969 -0.38636303 0.3111474 -0.32280475 0.33735907 -0.4084621 0.15385047 -0.32652742
0.32867634 -0.121502414 0.23293687 -0.3479483 0.39078423 0.2898015 0.24776725 -0.21280117
0.097347 0.054324556 0.39198026 -0.26642984 0.30161098 -0.057024796 0.14438392 -0.2996842
-0.35357043 -0.046125982 0.14639474 -0.3515669 0.13322833 -0.38293418 0.2410402 -0.15071146
-0.37261814 0.2779669 0.17788486 0.06079473 0.42760637 -0.29496387 0.27571517 -0.16427974
-0.10060533 0.1932051 -0.023833182 0.28399464 -0.052810885 -0.17452332 -0.25756425 -0.24428256
0.10544284 0.24055763 0.043808956 -0.29747185 0.023495791 0.23545733 0.31509218 -0.32627383
0.18332985 -0.27492946 0.3863175 0.37869954 0.23613915 -0.27983966 -0.06911472 -0.0045182747
0.038116794 0.04474346 0.27714074 0.12003274 0.39882565 -0.15071353 0.048561316 -0.30328813
0.28531048 -0.4239984 0.068211176 0.010039148 -0.2581361 0.13443956 -0.24380776 -0.2923455
0.3766906 0.101836346 -0.052816443 -0.34644905 0.33753473 0.06040626 -0.27542752 -0.4325175
0.39432922 -0.04666246 0.37723094 0.11223765 0.18636747 0.40790302 0.06060427 -0.22393698
0.15667652 0.36713508 0.28167176 0.043543525 -0.034186527 -0.012732789 -0.29406986 0.10891681
0.012690358 -0.23685166 0.24955688 -0.42355752 -0.3665313 0.36687624 -0.065506645 -0.4094884
-0.13129683 -0.30520865 0.2813133 0.25044125 0.33684355 0.39690825 0.14706726 0.09416678
0.20001511 -0.2265042 -0.06721586 0.014458726 -0.21544202 -0.04914085 -0.014829662 -0.0026518814
0.062162913 -0.20227036 0.41804624 0.15247566 -0.08869969 -0.27831644 -0.26414445 0.19606109
-0.33485803 -0.13865906 -0.20180501 -0.06991487 -0.33657482 -0.13630694 -0.18298142 0.03550901
0.025120039 -0.18685105 0.08319714 -0.24699849 -0.085710324 -0.18069372 -0.3464886 -0.040500477
0.006415639 0.30971012 -0.17181458 -0.096181124 0.40293297 -0.08690381 0.27645722 -0.008142609
0.2294207 -0.37854114 -0.39595178 0.40791798 0.29115462 0.16175759 -0.15163568 0.43209994
0.06333482 -0.02105173 0.12064788 0.26757628 -0.18511458 0.26162606 -0.36419097 -0.38916868
-0.2053317 -0.39817283 -0.21765798 0.0056068217 0.413625 -0.317585 0.36890364 0.09062814
-0.024272453 0.043967526 -0.30623707 -0.37115005 -0.006558418 0.06977059 -0.23170674 -0.1480472
0.37462676 -0.3146059 0.35289302 0.045702294 -0.38435304 -0.05964648 -0.22608949 0.2134728
0.32712555 -0.20667394 -0.24351843 -0.022024749 -0.08725936 0.15066393 0.31333372 0.1981241
0.2626478 0.2017106 -0.24053758 -0.39324856 -0.3940447 0.3888967 -0.011072614 -0.32328472

bias f4 [16]
00000000: 0e98 6fbb 4470 a43b 0000 0000 457b 2abb
00000010: a79f 813b f59b b33b 497e 8cbb 0000 0000
00000020: 15dd 9e3b ce36 56ba 0000 0000 0000 0000
00000030: 9bba d43b dc92 94bb 0000 0000 0000 0000
-0.0036559138 0.005018266 0.0 -0.0026013416 0.0039557996 0.005481238 -0.0042875153 0.0
0.0048481324 -0.00081716187 0.0 0.0 0.0064919717 -0.0045341086 0.0 0.0

weight f4 [16, 16]
00000000: b27f ad3e ec4b 2f3e 7ac2 52be a8f0 afbd
00000010: 3da6 7c3b 54ba c63e ae0a 8abe bfae 613e
00000020: 5a2b 56be 2107 6b3e fea7 cc3e c380 aa3d
00000030: 064b eabd 5a5d dabe 2fe4 6e3e 037a 823e
00000040: a229 18bd c902 acbe 11b9 a5bd 89fb 8c3e
00000050: 5f70 c2be 26ba c2be 4581 8abe 68d9 153d
00000060: 8656 ad3e 1cd8 c03e 3c63 b03e 0b66 0cbe
00000070: 26ae be3d f56e 813e e833 61bd 62ab ad3e
00000080: f402 123e 4866 a0be fec9 a4be 97c2 d33c
00000090: 3f54 dcbe 2bcf 64be 4c48 a83d 93e3 5c3e
000000a0: 8e53 94be a867 96be 1e41 ddbd 4f5a d73e
000000b0: ad5b 0cbe 2ca8 cd3e d0a6 7fbe 621c 5bbe
000000c0: ae16 503e 2e41 5a3c 6838 4bbe 227a 9b3d
000000d0: 2104 86be 2c3f 92bc a0e8 acbd 7ef0 223d
000000e0: 3dce 703e 132a b5be 28ce 6c3d 4e5b 103e
000000f0: 8c26 3bbd 05b7 9d3e 8a65 d93e cb8b a43e
00000100: 34ca 333e 5ccc ab3d 96d9 16bc 75f9 37be
00000110: ef90 da3e 3923 86bd 9fc5 0c3d 22a5 9abe
00000120: ce98 5abe 0dd8 ff3d 5ea4 97be 69f9 49be
00000130: 66cc 713e b868 c4be d829 a8be 2e48 0a3e
00000140: f2e4 3e3d e685 a13c 926d d83e 1996 46be
00000150: 510a c7be 22a7 cc3e 1d6a cabd 2f79 2fbe
00000160: 5f66 8a3d 60a1 cbbe 1561 91be cfe6 a83d
00000170: d194 703e b6b4 f0bd 4ea3 bebe 3720 aebe
00000180: 357f 3b3d 4670 cbbe 5886 c93e 9236 cd3e
00000190: 453d 2dbc 65f4 17be 888d 823e 181e cebe
000001a0: e351 45be b447 a03d b0e1 033e dec7 3ebe
000001b0: c813 bdbc 22c6 143e 0a68 e3bd 7aa1 f9bd
000001c0: db4e a5ba 8962 bcbe 82fe 0f3e 27c1 81be
000001d0: 7d9b c13e 97df d7be c324 303e 033e bb3e
000001e0: 6203 49be c168 96be aaac af3e ef45 29be
000001f0: 2d53 84be e2a8 573e 7992 463e 4835 443e
00000200: 4dcd c1be 6e2c 31be d884 bb3e 3f2c cf3e
00000210: 0ba7 a9be 2d19 94be 5be5 cdbe 89f4 a83e
00000220: 07c3 a63e d732 d53d da41 843e 4cfa aebc
00000230: 04aa b2be 6353 43bd d165 533d 21a0 9d3c
00000240: f799 11bd 9cb5 67be 6591 283d 25db ce3e
00000250: 6ce4 f73d 7869 ccbe d0da 8abe 995f 733c
00000260: 088e b6be 9421 d83e 990d cfbe c20f 913e
00000270: 2143 dc3e 4015 febc 057d 7ebe 6a81 be3e
00000280: a6e6 c43e 84af b73e add6 babe d600 18be
00000290: 6407 8fbe 1d78 53be d052 d0be 2607 98be
000002a0: 6ba4 1d3e e214 c7be 71cc 173e 38b4 433d
000002b0: 77ca 0fbe 3303 463e 7117 0fbe 9dc3 ca3c
000002c0: fc5d 90be 868d 443e 11ff dbbd ae4b 81bd
000002d0: 65a5 a5bd 86d7 9fbe 9160 a7be 34ac c73d
000002e0: 229a bdbe e106 43be c38d 9cbd b18b 77be
000002f0: cde7 023e 44d0 423e f08f 483e b664 e33d
00000300: 4a83 773e 0a68 563d d580 8b3c 092c 2ebe
00000310: abd0 9fbe c0fc 2c3d 4dff cabe 6fec bbbe
00000320: 4f5b 733e b0ac 933d a281 163d 992c b5be
00000330: 2b5c 023e 9d62 783d f46a c23e 5bde 1f3d
00000340: 361b 9c3e 80d6 cfbe ba07 8c3e 030c 85bd
00000350: bcf7 6f3e b93a a8be 8b7e aa3d fe0f 733e
00000360: bf32 633d b2bf d3bd c88f e8ba 5440 dc3e
00000370: e5f4 1cbd a292 d2bd 72c9 bd3e f411 b23d
00000380: 607b ffbd 54f2 b8bd 07a3 ccbe 4baf da3e
00000390: 6274 94be 923a 8cbe aa3b 603e e61e 893e
000003a0: 127c 36be cc2e 953e e16b 913e 7c6e 543e
000003b0: 5b80 943e c4b5 903e 1e8f 15be c066 963e
000003c0: bb75 9a3e 887c c9be 2ff1 9dbe d459 59bd
000003d0: 60bf 233d 204b 97be 2d6a ce3c 336b a63e
000003e0: b3d0 6a3e c78f 54be c043 9b3d 5f61 5e3d
000003f0: ec7b bfbc 3f23 193e b1ea b63e 0423 2fbe
0.33886486 0.17118806 -0.20582 -0.085908234 0.0038551234 0.38814032 -0.26961273 0.22039317
-0.20914975 0.22951938 0.39971918 0.083253406 -0.11440091 -0.42649347 0.23329233 0.25483713
-0.03714908 -0.33595875 -0.08091939 0.27535656 -0.37976357 -0.38032645 -0.2705175 0.036584288
0.33855075 0.37664878 0.3445071 -0.13710801 0.0931056 0.25279966 -0.054981142 0.33919817
0.14258939 -0.31328034 -0.32185358 0.025849624 -0.43033025 -0.22344653 0.082169145 0.21571188
-0.28969997 -0.29375958 -0.10803436 0.42061087 -0.13706847 0.40167367 -0.24965978 -0.21397546
0.20321152 0.013321204 -0.19845736 0.07591654 -0.26175025 -0.017852388 -0.08442807 0.039780132
0.23516174 -0.35383663 0.057813793 0.1409733 -0.045691058 0.30803695 0.4246028 0.32137904
0.17557603 0.08388588 -0.00920715 -0.17966254 0.426887 -0.06549687 0.034368154 -0.3020411
-0.21347353 0.1249238 -0.2961759 -0.19724049 0.23613128 -0.38361144 -0.32844424 0.13504097
0.046605058 0.019717168 0.42271096 -0.19393195 -0.38875058 0.39971262 -0.09883521 -0.17136072
0.06757807 -0.39771557 -0.2839438 0.08247148 0.23494269 -0.11753218 -0.37233967 -0.34008953
0.04577561 -0.39734095 0.3936031 0.40080696 -0.01057369 -0.14839323 0.25498605 -0.40257335
-0.19269519 0.07826176 0.12879062 -0.18630931 -0.023080721 0.14528707 -0.11103828 -0.12189002
-0.0012612002 -0.36793926 0.14061931 -0.25342676 0.3781394 -0.42162773 0.17201523 0.3657075
-0.19630197 -0.29376796 0.3431142 -0.16530584 -0.25844708 0.21060517 0.19391812 0.1916095
-0.37851945 -0.17302105 0.3662479 0.40463445 -0.33135256 -0.28925458 -0.40214047 0.32999066
0.3257067 0.104100876 0.2583149 -0.021359585 -0.34895337 -0.047686946 0.05161077 0.019241394
-0.035547223 -0.22627872 0.041154284 0.4040157 0.12104115 -0.39924216 -0.27120066 0.014854335
-0.35655236 0.42213118 -0.40440062 0.28332335 0.43019965 -0.031015992 -0.24852379 0.3720811
0.3845722 0.35876095 -0.3649191 -0.14844069 -0.27935326 -0.20651288 -0.4068818 -0.29692954
0.15394752 -0.3888312 0.14824082 0.047779292 -0.14042078 0.19337158 -0.13973786 0.024751479
-0.28196704 0.19194612 -0.107420094 -0.06313263 -0.08088187 -0.3121912 -0.32690862 0.09749642
-0.37031657 -0.19045593 -0.076442264 -0.24174382 0.12783737 0.1902476 0.19586158 0.111031935
0.24171177 0.052345313 0.017029205 -0.17008986 -0.3121389 0.04223323 -0.39647904 -0.36703822
0.237653 0.07210672 0.03674472 -0.35385588 0.12730472 0.06064092 0.37972224 0.039030414
0.3048951 -0.40593338 0.27349645 -0.06496432 0.23434347 -0.32857302 0.083249174 0.2373657
0.055468317 -0.10339297 -0.0017743045 0.43017828 -0.038319487 -0.10281874 0.37067753 0.086948305
-0.12474704 -0.090305954 -0.3996813 0.42711863 -0.28995043 -0.27388436 0.2189776 0.26781386
-0.17820767 0.29137266 0.28402618 0.20745271 0.29004177 0.28263676 -0.14605376 0.29375267
0.30167946 -0.39352822 -0.3084807 -0.053064182 0.03997743 -0.29549503 0.025197113 0.32503662
0.22931175 -0.20757972 0.07581282 0.05429208 -0.02337452 0.14954852 0.3572593 -0.17103201

bias f4 [16]
00000000: 0000 0000 7cf9 233b 0000 0000 d9cb 74bb
00000010: 81ee 643b 0000 0000 38ab 69bb 0aff c3bb
00000020: 0000 0000 035a 523b 0000 0000 0000 0000
00000030: 0000 0000 5095 5dbb 43e4 84bb acd4 893b
0.0 0.002502053 0.0 -0.0037352948 0.0034932198 0.0 -0.0035655033 -0.0059813308
0.0 0.0032097108 0.0 0.0 0.0 -0.003381092 -0.004055531 0.0042062607

weight f4 [16, 16]
00000000: 1408 09be a104 d0bc 6c17 9bbd c558 07bd
00000010: bf27 f23c 37e0 a6be c069 ef3d 200a 2cbe
00000020: 7f0f bf3e 9b40 b13e 14d8 9abe 90b9 ae3d
00000030: 4068 023d d26c 6c3e 1e4a 81be 883e ba3d
00000040: a4a8 493e 8b6d be3e ff54 5abe f99b 893e
00000050: 1130 fbbd 215f ae3e a0ae 66be 03e6 83be
00000060: df5f 573e 917a 0b3e 28d6 7c3e 4eff b63e
00000070: f061 b73d 0764 c5be 5bb3 033d df26 22be
00000080: 6b7b 103e 57c6 c33e aa8e 14be 182c 97be
00000090: 3a7c 6e3d 40b3 a8be d98b c5be 22c4 9f3e
000000a0: 0efb 5a3e 6135 aebe cbe1 823e 8e3a 21be
000000b0: 4d99 9dbe b7d0 5cbe 8538 ad3d 4ac2 c53e
000000c0: b245 fdbd 2b83 bf3e 8b15 d63e 3142 c63e
000000d0: 73e3 8fbe d022 a93e 6127 56be a9f7 703d
000000e0: 06b4 cabd b51d efbb 41f3 733d 0700 093d
000000f0: 8d8c 013d ba28 a33e d999 babe 0ba8 57be
00000100: 1d56 adbe 7153 023d c70e 45be f6b0 11bd
00000110: 4f45 85bd f552 4ebe 3010 5fbe 6234 cabd
00000120: b47e a6be 6dbf 933e 297d 9a3d 3c49 57be
00000130: 7788 613e 4db9 963e b466 833e e31d 29be
00000140: 5115 58bd a343 a83e 5f96 39be e8e7 74bd
00000150: 7b75 d33e 7fab 933e 1a4f 04be 5da3 b03e
00000160: 7846 06be 3d1f c63d 97f4 9b3e 790b 933e
00000170: 32d2 413e 024e 24bd 0501 ac3d a42e 51be
00000180: f820 cb3e 378d c1bb f3cb b8be e44a 6dbe
00000190: 0e0f 54be f794 c13e da77 c33e 38f7 b6be
000001a0: c5a8 d53e 6972 2ebd c321 b3be 28b0 8cbc
000001b0: af64 3f3d 391a 09bd ce26 933e 74df 5f3e
000001c0: 002b 853e a86b a9be e23c 9f3e c510 503e
000001d0: 40f2 31be 0567 d63e a1e1 d53e 9160 1dbd
000001e0: 7937 053e eabd abbd 2167 823e 1864 ac3e
000001f0: 4792 7b3e b0f9 febd 1a6e a83e f5ab acbc
00000200: 7606 6dbe c65b f63d d307 82bd fb75 a63d
00000210: 9b42 b03e 1974 d1bd 2afb d2bd 0a2b a23e
00000220: dadc dabe 696e a0be c998 5cbe 5a92 c63e
00000230: 4363 653e 64bd 713c 2aab ab3d cfdb 9c3d
00000240: 5d12 953e ad44 85be 4f50 4cbd 06eb 23bd
00000250: 894c f2bc 88c6 833d 62ad 89be 0f8c aabd
00000260: 7277 c43e 38a9 db3d 29db a63d c66a 563e
00000270: 1d3e da3d 0daf 793e 6142 253d 806f cb3c
00000280: 7ce0 dabe 513b eebd cffe 51be 443a cb3e
00000290: 8809 3a3e 553c 1abe 7998 6ebe 8f7e f5bc
000002a0: 7fc1 843e 441f ab3d a77e c73d 94b6 2f3e
000002b0: 3fa7 eb3d 9639 93be 96da 943e c3d1 4b3e
000002c0: c4e9 c13d b7f3 bf3d c9fd b53d c9d3 cd3e
000002d0: 3531 dbbe 0e8f 5cbe 6600 aabe 9416 b33e
000002e0: 2e3e 523e cfab 8ebd da3a fc39 5525 1b3d
000002f0: 569f cebe 247f d83e cdc0 c43d 058d 7fbe
00000300: aef2 9d3e 40f2 c93e 9f3a 71be d3e1 a23d
00000310: d11b cc3e 2b8e ac3e e176 af3e 683e a63e
00000320: 80de 473e d60b 80be 1472 c13e bda8 1e3e
00000330: 798d 803e 867c eb3d 400f bd3e 6d3a f8bb
00000340: b349 313e f7a3 85be 8a4c 8d3e 7fee 4a3d
00000350: 4bab 99bd 9985 23be bc71 84be 1b0d 993d
00000360: 8d1b 763e 30b4 cd3c 9b14 813e af76 13be
00000370: ee84 99be bd02 a43e 69c7 fdbd 5ba1 2fbd
00000380: 6635 4dbe f6f5 bf3c 5243 6c3d 45c5 c6bd
00000390: 9f42 243d 40c9 b93d 9583 a6bd 948d fdbc
000003a0: 1230 f73d ea83 8cbe dd95 69be d093 9abd
000003b0: 09d9 a73e b25e 0cbe 28fd c2be 7652 383e
000003c0: a14c af3e ea9a cc3e 210b b03e f600 a5be
000003d0: 4aa0 fa3c 2434 d93e 2124 b33d 8b36 42be
000003e0: 4c67 a03e 647c 073e 46d6 643e 1f59 2b3e
000003f0: 040d 57bc bb19 6fbc 1c55 e33c 7dad 95be
-0.13381988 -0.025392832 -0.07572827 -0.03304364 0.029559968 -0.32592937 0.11690092 -0.16800737
0.3731651 0.34619603 -0.3024298 0.08531487 0.0318377 0.23088387 -0.2525186 0.09093958
0.19693238 0.3719295 -0.21321486 0.2687681 -0.12265027 0.34056953 -0.22527552 -0.25761423
0.21032666 0.13620974 0.24691069 0.35741657 0.08954227 -0.38552877 0.03215347 -0.1583514
0.1410958 0.3823726 -0.14507547 -0.29525828 0.05822394 -0.32949257 -0.38583258 0.31204325
0.21384832 -0.340251 0.2556289 -0.15744993 -0.30781022 -0.21563993 0.08458046 0.38624793
-0.12366809 0.3740476 0.4181331 0.38722375 -0.28103217 0.33034372 -0.2091346 0.058829937
-0.09897618 -0.0072972425 0.059558157 0.03344729 0.03162818 0.3186701 -0.364455 -0.21060197
-0.33854762 0.031817857 -0.19243918 -0.035569154 -0.0650736 -0.20148833 -0.21783519 -0.098732725
-0.32518542 0.28856984 0.07543404 -0.2102403 0.22024713 0.29438248 0.25664294 -0.16515307
-0.052754704 0.32864103 -0.18123768 -0.059791476 0.41300568 0.2884178 -0.129208 0.34499636
-0.13112819 0.09673927 0.30460045 0.2871969 0.1892784 -0.040113457 0.08398632 -0.20427948
0.3967359 -0.0059067267 -0.360931 -0.231731 -0.20708868 0.37808964 0.38177377 -0.35735488
0.41730323 -0.04258958 -0.34986696 -0.017173842 0.04672688 -0.033472273 0.28740543 0.21862584
0.2600937 -0.33089948 0.31101137 0.20318897 -0.17377567 0.41875473 0.41773704 -0.03842217
0.13009442 -0.083858326 0.25469306 0.33670115 0.24567519 -0.12449968 0.328965 -0.02107809
-0.23146996 0.12029223 -0.063491486 0.08127972 0.34425816 -0.10227222 -0.10301812 0.3167346
-0.4274662 -0.31334236 -0.21542658 0.38783532 0.22401147 0.014754627 0.08382256 0.07659113
0.29115573 -0.26028958 -0.049881276 -0.040019058 -0.02957751 0.06434351 -0.26890093 -0.08327495
0.3837238 0.10725635 0.0814727 0.20939168 0.106563784 0.24383183 0.040346507 0.02483344
-0.42749393 -0.116324075 -0.20507358 0.3969289 0.18167698 -0.15062077 -0.23300351 -0.029967574
0.25928876 0.08355573 0.09740954 0.17159492 0.11506509 -0.28754872 0.29073018 0.19904236
0.094684154 0.09372657 0.08886296 0.40200642 -0.4281098 -0.21538946 -0.3320343 0.34978163
0.20531532 -0.06966364 0.00048109033 0.0378774 -0.4035594 0.422845 0.09607086 -0.24956138
0.30849212 0.39442635 -0.23557518 0.07953229 0.39864972 0.33702216 0.34270385 0.32469487
0.19518471 -0.2500903 0.37782347 0.15494056 0.25107935 0.1149836 0.36925697 -0.0075753243
0.1731327 -0.26101658 0.27597457 0.049543854 -0.07503375 -0.15968932 -0.25868022 0.07473203
0.24033947 0.025110334 0.25211033 -0.14400743 -0.2998423 0.3203334 -0.1239155 -0.04287849
-0.20039901 0.023432713 0.05768139 -0.09705595 0.040102597 0.090715885 -0.08130566 -0.030951299
0.120697156 -0.27444392 -0.22811075 -0.07547724 0.32782772 -0.13707998 -0.38083768 0.18000206
0.3423815 0.3996194 0.3438349 -0.32227296 0.03059401 0.42422593 0.087471254 -0.18966119
0.3132881 0.13231045 0.22347364 0.16733216 -0.013125662 -0.014593537 0.027750544 -0.29233924

bias f4 [16]
00000000: 86ea b83b a2e4 deba d7c3 4e3b 2b4a 64ba
00000010: 0393 7cbb d1d6 b7bb 8dd5 07bb cee5 8ebb
00000020: 8213 3dbb e88e 42bb f40b d53b a5e0 85bb
00000030: 13c9 78bb c82e 633b 0000 0000 8162 323c
0.0056431917 -0.0017005394 0.0031549835 -0.00087085617 -0.0038539774 -0.005610325 -0.0020726651 -0.004360891
-0.002885074 -0.002968723 0.006501669 -0.0040856176 -0.0037961646 0.0034665335 0.0 0.010887743

weight f4 [16, 16]
00000000: 87f8 8cbd 4116 87bd 5412 a8be 0679 a73e
00000010: 5e6e ffbc 3617 c53e 411c a9be 18c2 2dbd
00000020: 7a97 bdbd c8e0 97be 0e2a a03e 0008 58be
00000030: 39a5 923e 9a22 0dbe 4099 d5bd a932 dcbe
00000040: 5d56 e03d b45f 153e 3594 433e 72cc 5b3e
00000050: ecc5 afbe 1195 06be c469 b4bd d4bf 77bd
00000060: 5db5 8c3e 2b89 db3e 49fb 14bd 00d7 3e3d
00000070: c741 713e 3e28 d0bd 57b9 b7be 4540 a43e
00000080: dbac a13e b9cb c73d d2eb 723e 6a1b b9be
00000090: a82a 86be 37ea bc3e ed7f ad3e 59b8 02be
000000a0: 8371 b6bd 0504 8fbe 81f8 c1be d59e 79bd
000000b0: ff4b 9dbd 30af 82be 8c20 ddbe 9ab3 2e3e
000000c0: f018 a23e de83 8ebe 6a7b 23be ce52 873c
000000d0: a185 90be b23b 1b3e a848 80be 5a43 d93c
000000e0: 51c4 2f3e d487 d03d db5f 383e dd09 1a3e
000000f0: b7ce 643e b729 4b3d 8079 cbbe e76b 943e
00000100: ba44 e93d 8eea 9d3d a852 afbd 244d 373e
00000110: 9278 b53e d4be acbe 6d2f bfbe ad14 923e
00000120: fab4 01be 1926 d53e 7378 a1be 8076 26bd
00000130: 6011 283e c00f 0ebd b2ad 823e ee65 243e
00000140: ada0 52be 1e60 bb3e e1cb cf3e e22a 11bb
00000150: f902 a2be 9834 c0be 4feb c2be 2ff3 c1bd
00000160: f5fa d0be 2353 643e 80b4 c9be d12d cabe
00000170: a921 e53d d7e7 df3c 6a74 cd3e 5e94 033e
00000180: ad31 b43e bf0e 3f3e f985 f0bc 3115 23be
00000190: aaf4 3a3e 8289 71bd 59c0 49be f46e 7dbe
000001a0: d533 8ebe aeec 06be b00c 513c 47a3 483e
000001b0: 4cf2 30be a08d 48be df97 88be bfe7 6a3e
000001c0: 5f9d 54be ccb4 813e 1de1 d3be 5c71 afbe
000001d0: 4939 94be 546e 2fbe 4c50 a83e 61a0 6ebd
000001e0: b407 bb3e 85e4 633e a651 b73e e874 c13e
000001f0: 44e6 babd ea2f cdbb 9f7c b43b 18ad b53e
00000200: 4420 18be 9b30 f0bd 0a8d f9bd 641c 14be
00000210: 8340 583d 3021 803e 749f 213d ec1d 3a3d
00000220: 903c 1dbe 479f b2be 365f 7bbd b7f4 b73e
00000230: a93b b43e c614 f7bd 9735 393c 418b c8be
00000240: 80f6 98bd 2ca1 18be 3e56 a03e 724b 72bd
00000250: aed0 0b3e e5a5 06be 5297 683e ee06 cabd
00000260: 36ca 27be e303 a03e 40a3 1fbd 0f81 41be
00000270: 7810 82be b2c9 5d3e 34a4 32be 21ef 20be
00000280: 305c b93e 41c8 b4be 3b7f b9be 6e88 d63e
00000290: c457 433d 111d 413e 74c1 a03e 46d8 143d
000002a0: e4aa 84be f615 d63e 578d 973e eb16 a73e
000002b0: e817 303e 3aec 8f3c fc30 8d3e 2020 a9be
000002c0: e762 c1be f342 81be 4a4f d5be 277e 8b3d
000002d0: e6e7 7fbc 1174 b13e 3ba0 323e 6a05 d03e
000002e0: dd85 1b3e 8537 c13e 3df9 6d3e b7ec d5bd
000002f0: 8dab 863e 9c48 83be fb2d cf3e 921f c6be
00000300: a2e2 973e 8af5 a13e 52ee 2b3e c2a0 0abe
00000310: 5112 aabd 9700 7a3e cb8d 4cbd 7de5 bdbe
00000320: a578 d4be 431f 0f3e 86bf 86bc b700 0ebe
00000330: 50bb 2abe 396a 09bd 8b0a ef3c 29f7 5d3e
00000340: 865a 723e ba2b 0e3d e14a 9cbe d1ab 6d3e
00000350: 0b7e 37bd a318 d2be e4f7 493e 2aad 96be
00000360: e203 5dbe 7f4f 1fbe 076e 3c3e bb06 8fbe
00000370: 9b36 a43e c59f 4f3e 030d 63be 5839 1dbe
00000380: 7a03 cd3e 0b0a c53e 7614 b23e 2847 e1bd
00000390: ad61 dcbe 6121 573e c34c 003e 54d0 bcbe
000003a0: 4190 22be 543d 3c3e 1049 933e 0490 dbbe
000003b0: ed7f 9fbb 6460 c1be 367e 4d3e 1009 f43d
000003c0: 56f7 dc3e b878 ad3e 300f 7cbe 9816 b63d
000003d0: 3780 33be ab95 08be ef31 1dbe efa2 9dbd
000003e0: 40a5 6b3c 41a5 133e 882c 5b3e 94ec 90be
000003f0: 7464 a0bd cefa 6b3d f09a 4abe 7af8 ae3e
-0.0688334 -0.065960415 -0.32826483 0.3270952 -0.031180557 0.3849427 -0.3302937 -0.04242143
-0.092574075 -0.29663682 0.31282085 -0.21096802 0.2864168 -0.1378273 -0.10429621 -0.430074
0.109539725 0.14587289 0.19099505 0.21464708 -0.3433069 -0.13142802 -0.08809236 -0.060485676
0.2748212 0.42878088 -0.036372457 0.04659176 0.23560248 -0.101639256 -0.3588359 0.32080284
0.3157719 0.09755654 0.23722771 -0.36153728 -0.2620442 0.36897442 0.33886662 -0.12765636
-0.089083694 -0.27932754 -0.37884906 -0.06094249 -0.07680511 -0.25524282 -0.43188894 0.170607
0.3165965 -0.27834982 -0.15965047 0.016518977 -0.2822695 0.1515949 -0.25055432 0.026521374
0.17164733 0.10182157 0.18005316 0.15042825 0.2234448 0.04960033 -0.39741135 0.28988573
0.11390062 0.077107534 -0.08560687 0.1790052 0.3544355 -0.3373934 -0.3734087 0.285314
-0.12666693 0.4163063 -0.31537208 -0.040640354 0.16412878 -0.03468299 0.25523144 0.16054508
-0.20569105 0.3659677 0.40585235 -0.0022150804 -0.31642893 -0.37540126 -0.3807015 -0.09470212
-0.40816465 0.22297339 -0.39395523 -0.3948808 0.11188061 0.02733223 0.4012788 0.12849566
0.3519415 0.18657969 -0.029360758 -0.15926053 0.18257394 -0.05896903 -0.19702281 -0.24749357
-0.2777392 -0.13176224 0.012759373 0.19593535 -0.17279929 -0.19585276 -0.26678368 0.22939967
-0.20763157 0.2533325 -0.41382685 -0.34266174 -0.28949955 -0.1713193 0.32873762 -0.058258418
0.36529315 0.22255142 0.3580448 0.37784505 -0.09125951 -0.0062618153 0.00550802 0.35483623
-0.14856058 -0.11728021 -0.12185104 -0.14463955 0.0527959 0.2502532 0.039458707 0.045438692
-0.15355134 -0.34887144 -0.061370097 0.3592889 0.35201767 -0.12064509 0.011304281 -0.39168742
-0.07468891 -0.14905232 0.31315798 -0.05915398 0.13653824 -0.13149221 0.22713974 -0.09864603
-0.16385731 0.31252965 -0.038974047 -0.18896888 -0.2540319 0.21658972 -0.17445451 -0.1571622
0.36203146 -0.35309032 -0.36229882 0.41900963 0.04769112 0.18858744 0.31397593 0.036339067
-0.2591163 0.4181363 0.2960002 0.32634673 0.1719662 0.017568696 0.27576435 -0.33032322
-0.3777077 -0.2524639 -0.41662055 0.06811171 -0.015619254 0.34658864 0.17443936 0.4062913
0.15187784 0.3773767 0.23239608 -0.104455404 0.26302758 -0.25641334 0.40464768 -0.3869596
0.29665095 0.31632644 0.1679013 -0.13537887 -0.08304275 0.24414288 -0.04993991 -0.37089148
-0.41498294 0.13976769 -0.016448747 -0.1386746 -0.16673017 -0.033548567 0.029179832 0.21676315
0.23667344 0.03470967 -0.30525878 0.23210074 -0.04479794 -0.4103442 0.19723469 -0.2942899
-0.21583512 -0.15557669 0.18401347 -0.27934822 0.3207291 0.20275791 -0.22172932 -0.15353906
0.40041715 0.38484225 0.34781235 -0.109999 -0.4304327 0.21008827 0.12529282 -0.36877692
-0.15875341 0.1838277 0.2876668 -0.42883313 -0.004867545 -0.37768853 0.20067677 0.11915791
0.43157452 0.33881164 -0.24615169 0.08891028 -0.17529379 -0.13338344 -0.1535108 -0.07697093
0.01438266 0.14418508 0.21403706 -0.28305495 -0.0783166 0.057612233 -0.19785666 0.34173948

bias f4 [16]
00000000: ba0e 41bb 2228 42ba f7ad 093b 5a91 883b
00000010: 61fc 7abb 0000 0000 0000 0000 def2 1ebb
00000020: f72e 90bb 0000 0000 efc7 5dbb 3c98 99bb
00000030: 0000 0000 620f 9d3b b414 9cbb f1bf 9f3b
-0.002945824 -0.0007406493 0.0021008232 0.004167718 -0.0038297402 0.0 0.0 -0.0024253647
-0.00440013 0.0 -0.0033841094 -0.004687337 0.0 0.0047930935 -0.00476321 0.004875176

weight f4 [16, 16]
00000000: da57 2e3e ec9e c7be 6ef9 993e f7c4 4c3e
00000010: f51f 22be 5c4c ca3e 556c 23be ef05 9fbd
00000020: 97c4 e43d 57df b8be 1021 0abe 4850 97be
00000030: 2e36 fb3c 39ce 453e 8109 e0bd 2864 d13e
00000040: 1a6a 3dbe ce13 3cbd 3f76 6c3d 028b 7fbe
00000050: c9d1 73be 0104 8a3e dbeb ba3e 5f4d adbe
00000060: a10f 953e 156d 823e fb0d 373e b2ee d1be
00000070: c487 31bd bef1 7e3e 9a52 94be c3a5 79be
00000080: 071d e2bc 6fad 3dbe 6da6 693c 677c d7be
00000090: d01b f2bc b941 47be 6e90 d6be bee7 263c
000000a0: d8b9 febd c112 88be 561a 12be 8950 49be
000000b0: 211f bc3c 6880 273e e600 9abe 0e5e bb3e
000000c0: a202 873e c00d abbe 3212 8abe b639 113e
000000d0: 8cc2 fc3d 10b5 c33e ad91 aabd cf2d cbbe
000000e0: 9b4d 76be cdcd 8e3e 417a a6be 82fc 003e
000000f0: 68d8 82be 2c6e d43c dc23 673e 897d 8fbe
00000100: 0ef1 c93e 0824 623e cbc1 5fbd 6b43 99be
00000110: 217f 243e bbf1 bdbd 128c 0f3e a75d 063e
00000120: cc24 9d3e 1402 9e3e a29b d43e 4452 7f3e
00000130: 82f7 803e 7537 d3bb 472c 8cbe e0b0 ddbe
00000140: 65fd b7be ceed 99be 8c3f 383e 31b8 66be
00000150: b854 a93e c1d8 553e e6e8 41be 340d 5ebe
00000160: 4db8 89be 0b39 a7bc d303 1d3e da01 92be
00000170: 95d4 11be 19cd c23c 6797 42be 2997 233e
00000180: fa51 0a3e 14f9 88be 47d0 b9be 596a 67be
00000190: cc30 af3e 5bfd 073b bf49 88be f54d 71be
000001a0: 7bd2 d63e 002b aabd 6ef0 a3be 6f69 a0bd
000001b0: 8a8a a6bd 4a6f c63d 812c 0ebe 5ca3 953d
000001c0: 5202 e43d 8ae5 9fbe ff3a 89be d92c c83e
000001d0: a1eb 483e 3985 a5be 17a0 d83e cb5c c5be
000001e0: d451 a63e 7f49 c6be 88f2 3cbe 4d21 a2bd
000001f0: 2248 d53e 0908 ae3e 19ef 5b3e f7e2 d63c
00000200: 98b3 d5be a15d cd3e 9907 9b3e acd6 42bd
00000210: 8a27 ae3d 4d93 8abe c822 363e 3ad1 c63e
00000220: ccd0 533e d7e3 22be b66a 973e a44a 2a3e
00000230: 6f79 a63e 6def 4f3e a1fe c1bd 493c 6c3d
00000240: 365b 1b3e 4c54 c1be 9cb1 00be b021 acbd
00000250: d2f1 d93e 1c6f 713e ffb6 153e af65 1e3e
00000260: 30b3 3e3e 277e e33c 9b3a 953e db5d 6bbe
00000270: b89e 903d 73a7 a5bd fc9d 283e 7c22 9fbe
00000280: 7cdb 823e a5cf 98be 7247 cf3e fa32 aebe
00000290: fdc8 83be 205b 2ebe 6a92 afbe 06ff af3e
000002a0: bbf9 8a3d 7408 b3be d997 51bd c3fb 41be
000002b0: da87 2fbe 96af 30be 177b 9bbe 3d17 80be
000002c0: fd4e 84be 761f 303e 06f2 4e3e a610 773c
000002d0: 1940 81bd e5e8 aabe 17ca a6be 1807 f03d
000002e0: 5173 5bba 99a0 2c3e 47ed 4dbd 1803 9dbd
000002f0: 63db 35be 7665 b03e 728d bbbe 3293 963e
00000300: 6503 99be d36a 13be 9f47 ab3d 60e8 d4be
00000310: 8399 66be 5971 533e 56f6 4bbe c7ce df3d
00000320: 40d1 bf3d 9ef4 0a3e 3254 683e bb4c 83ba
00000330: 4cf0 9c3e 35fa 8fbc 41d6 bdbe 5517 c93e
00000340: 1252 4fbe 09d6 853e 7932 aabe 03d2 563e
00000350: 541e 323e e1da 313e 4306 063e d85f 233d
00000360: 1ec0 fe3d e919 2dbe c036 5fbe 677e 083d
00000370: 1e87 2e3d 2d84 5bbe 642c c33e 723f bcbe
00000380: 82f2 e53d f149 c0be 669e bc3b a8f6 72bd
00000390: 0d39 82be 4ab3 873e d426 7f3e 4160 853e
000003a0: 55f4 b43e 5336 323d bbb7 463e f795 1cbd
000003b0: 79f2 92be 29a5 793e 3367 763e aaca d23d
000003c0: daa4 593e b13f b2be f9d8 d8be 0d8e 3abe
000003d0: cdee eb3d 3bd4 1ebe 93d2 1d3d aff6 52be
000003e0: cc8a 40be 0ce1 8a3c c61f b03c bb89 43be
000003f0: fe62 c83e 0fba 423e 3638 b7be fb78 b7be
0.170257 -0.38988435 0.30073112 0.19997011 -0.15832503 0.39511383 -0.15959294 -0.077648036
0.11170309 -0.36107895 -0.13489175 -0.29553437 0.030665483 0.19316949 -0.10939313 0.40896726
-0.18497506 -0.045917325 0.057729956 -0.24955371 -0.23810495 0.2695618 0.36508068 -0.33848092
0.29113486 0.25473848 0.17876427 -0.41002423 -0.043342367 0.24896905 -0.2896927 -0.2437964
-0.027601732 -0.18523191 0.01426087 -0.420871 -0.029554278 -0.19458665 -0.41907066 0.010187088
-0.12437791 -0.26576808 -0.14267859 -0.19659628 0.022964062 0.16357577 -0.3007881 0.36595196
0.26369196 -0.33408928 -0.26967007 0.14182171 0.12341794 0.38224077 -0.08328567 -0.39683387
-0.24053042 0.2789139 -0.32515147 0.12596324 -0.2555573 0.02593144 0.22572273 -0.28025463
0.39441723 0.22084057 -0.054628175 -0.29934248 0.16064121 -0.09274622 0.14018276 0.13121663
0.30692136 0.3086096 0.41524988 0.24933726 0.25188833 -0.00644582 -0.2737753 -0.43299007
-0.35935512 -0.30064243 0.17992991 -0.22531201 0.33072448 0.20883466 -0.189365 -0.21684724
-0.26898423 -0.020412942 0.1533349 -0.28517038 -0.1424125 0.023779439 -0.19003068 0.15975632
0.13507834 -0.26752532 -0.36291716 -0.22599162 0.34216917 0.0020750377 -0.26618764 -0.23564894
0.4195746 -0.08308983 -0.3201937 -0.0783261 -0.08131893 0.096891955 -0.13884164 0.07306549
0.11133255 -0.31229812 -0.26802823 0.39096716 0.19621135 -0.32328203 0.4230964 -0.38547358
0.32484305 -0.38727948 -0.18451893 -0.07916508 0.41656595 0.33990505 0.21477927 0.026231272
-0.41738582 0.40110496 0.30279234 -0.04756801 0.08503635 -0.27065507 0.17786705 0.38831502
0.20685118 -0.15907227 0.295736 0.16630036 0.3251452 0.20306177 -0.09472395 0.05767468
0.15171513 -0.37759626 -0.12567753 -0.08404863 0.42567307 0.23577541 0.14620589 0.15468477
0.18623042 0.027770115 0.29146275 -0.22985022 0.07061523 -0.08088579 0.16466516 -0.31080997
0.25558078 -0.2984592 0.40484196 -0.34023267 -0.2573928 -0.17026949 -0.34291393 0.34374255
0.067859136 -0.34967387 -0.051170204 -0.18943696 -0.17141667 -0.1725448 -0.30367348 -0.2501773
-0.25841513 0.17199501 0.20209512 0.015079653 -0.06311054 -0.3338081 -0.32576057 0.11720103
-0.00083713705 0.16858138 -0.050275113 -0.07666606 -0.1775947 0.3445241 -0.36631352 0.29409176
-0.29885402 -0.14396219 0.0836327 -0.41583538 -0.22519498 0.20648707 -0.19918188 0.109281115
0.09366083 0.13569877 0.22688368 -0.0010017374 0.30652082 -0.017575363 -0.37077525 0.39275613
-0.20246151 0.26139858 -0.33241633 0.2097855 0.17394382 0.17368652 0.13088326 0.039886326
0.12438987 -0.16904415 -0.21798229 0.03332367 0.042609327 -0.2143714 0.38119805 -0.36767155
0.11227895 -0.37556413 0.0057561873 -0.05931726 -0.2543415 0.26503974 0.24917156 0.26049998
0.3534266 0.04350884 0.19406025 -0.038228955 -0.28700617 0.2437941 0.24062805 0.10292561
0.21254292 -0.34814218 -0.42353037 -0.1821825 0.11520157 -0.15510647 0.038530897 -0.20601915
-0.18802947 0.016953014 0.021499526 -0.19095509 0.39138025 0.19016288 -0.35785073 -0.35834488

bias f4 [16]
00000000: 0000 0000 90e6 03bb 0000 0000 0000 0000
00000010: a8bf aabb 0000 0000 0000 0000 a0e5 273b
00000020: b8bc 02bb 50b9 62bb 0000 0000 2283 603b
00000030: 50ab d83a ada0 80ba 1ee3 853b 0000 0000
0.0 -0.002012644 0.0 0.0 -0.0052108355 0.0 0.0 0.0025619045
-0.001994891 -0.0034595318 0.0 0.0034257849 0.0016530547 -0.000981351 0.0040859124 0.0
