ood/BZR.pt (torch, 347085 bytes, 62 tensors)

weight f4 [16, 1]
0.40856043 0.35543805 -0.32456604 -0.04632776 -0.5726869 0.14007455 -0.50163764 -0.55522466
-0.1726802 -0.22116694 -0.262338 0.53365946 -0.067836344 0.43010393 0.48691675 -0.045611616
00000000: d52e d13e fafb b53e 852d a6be 2dc2 3dbd
00000010: 9c9b 12bf b46f 0f3e 536b 00bf 3423 0ebf
00000020: 14d3 30be 9679 62be 2b51 86be e89d 083f
00000030: c8ed 8abd 9536 dc3e 274d f93e 3fd3 3abd

bias f4 [16]
-0.007960965 0.008679419 0.0 0.0 0.0 0.0066169 0.0 0.0
0.0 0.0 0.0 -0.012600617 0.0 0.00010143721 -0.0066496944 0.0
00000000: b56e 02bc 1f34 0e3c 0000 0000 0000 0000
00000010: 0000 0000 95d2 d83b 0000 0000 0000 0000
00000020: 0000 0000 0000 0000 0000 0000 d172 4ebc
00000030: 0000 0000 b0ba d438 aee5 d9bb 0000 0000

weight f4 [16, 16]
0.31571794 0.08014968 -0.34423795 -0.21102728 -0.19836743 -0.23731816 -0.2612348 0.07638357
0.22319794 -0.31056002 -0.38483134 0.21436076 -0.25469345 0.12360007 0.36453846 0.40881664
-0.27734327 -0.13427515 0.17573905 -0.110218465 -0.38323817 0.3547187 -0.23730034 0.3267783
0.08737819 -0.2880373 0.09062359 0.23180687 0.13937347 -0.3388624 0.14402704 -0.41242874
-0.14489542 0.31116715 -0.19992195 0.07983684 0.38500628 0.064030744 -0.15123174 -0.3256518
-0.081489116 0.007992862 -0.24259213 -0.1316804 0.25656208 0.3883991 -0.21426603 -0.31325972
0.2625483 -0.23936877 0.11000048 -0.422938 0.3154576 -0.38265398 0.42609227 -0.19896962
0.31693572 -0.087659255 0.31619972 -0.081496805 0.19591542 -0.3095822 0.033338737 0.31203923
0.3991889 0.13989826 -0.07243362 -0.36970016 -0.02342657 -0.395278 0.3814245 0.333325
-0.28533804 -0.40292865 0.23567884 0.12549537 -0.3554602 -0.03426836 -0.18029517 0.19230543
-0.30125108 0.27631342 0.20788331 0.23705304 -0.32495546 0.17442983 -0.41304085 -0.10233566
-0.070891395 0.019160662 -0.18594168 -0.25262028 -0.3140951 0.3527087 -0.32939002 0.32236165
0.34842163 -0.17528638 -0.0126902545 0.058328178 -0.32004288 -0.29023686 -0.079614 -0.10811571
0.20348403 -0.32594383 0.20885077 0.028347826 0.12008634 0.27597213 0.15511532 -0.40841493
0.16927336 -0.2813685 0.109108865 -0.2363411 -0.29708835 0.20748825 -0.1203606 0.31656033
0.10184817 -0.0690999 0.40971172 0.089968584 -0.2201917 -0.05118737 -0.037553433 -0.32641304
0.07693032 -0.42846024 -0.07839507 0.3501164 0.074533746 0.20976974 -0.30191547 -0.15959279
-0.387762 0.04087322 -0.37376973 0.05567733 0.15038776 0.05165713 -0.39070055 -0.38927466
-0.30761328 0.3824807 0.4053119 0.20312883 0.35182804 -0.21825232 0.27226725 0.11694553
0.057705704 0.14171301 0.38390696 -0.30283517 0.2513614 -0.3018611 0.41363978 0.06199293
-0.21040893 0.41488585 0.25440776 0.16980739 0.08479052 0.040420484 -0.25947472 -0.24816146
0.3104694 -0.24734677 -0.20384252 0.12549363 0.32152987 -0.30800045 0.20777953 -0.10652682
0.05688519 0.2036886 0.20624977 -0.12549268 0.4059445 -0.3293293 -0.01488541 -0.34010136
0.2869353 -0.34119058 -0.4155472 -0.43350762 0.39596647 0.21369559 0.19672915 -0.34096938
-0.43276203 -0.41730675 0.00021411617 -0.3564997 -0.04540192 0.2786073 0.3142178 -0.41016603
-0.18204753 0.17867732 -0.14976513 -0.006996922 0.35196987 0.2902356 0.30677572 0.26450738
0.1195764 -0.01043455 -0.0873021 0.24888848 0.38981232 0.2780138 -0.12088855 0.43125567
0.20893754 -0.04640911 0.30340174 -0.21235757 0.32522064 -0.23656487 -0.4263552 0.39376563
0.27828613 0.32792562 -0.28626704 0.19731487 0.3690302 0.39965937 0.38105324 -0.08862102
-0.005577448 0.050280392 -0.18085466 -0.2129264 -0.14494029 -0.15187486 -0.29289177 0.22059356
-0.21814032 -0.17409945 -0.38931012 0.37197503 -0.3299109 0.118041664 0.29393527 0.255827
0.13934998 0.21911265 0.24024037 -0.03877135 0.34952685 0.35444176 0.00832298 -0.09916831
00000000: c8a5 a13e 8425 a43d f53f b0be 8917 58be
00000010: d520 4bbe 8803 73be 91c0 85be fd6e 9c3d
00000020: 008e 643e b901 9fbe 9d08 c5be 6381 5b3e
00000030: 2e67 82be 0922 fd3d c9a4 ba3e 6a50 d13e
00000040: f0ff 8dbe 6d7f 09be f0f4 333e 38ba e1bd
00000050: cb37 c4be b09d b53e dcfe 72be 7c4f a73e
00000060: 56f3 b23d a079 93be dc98 b93d c85e 6d3e
00000070: ebb7 0e3e 5f7f adbe d37b 133e dc29 d3be
00000080: 775f 14be 4d51 9f3e 57b8 4cbe 7f81 a33d
00000090: 8b1f c53e 8d22 833d 7edc 1abe d5bb a6be
000000a0: c4e3 a6bd 7ef4 023c 126a 78be 3ad7 06be
000000b0: 1b5c 833e 3fdc c63e 8e68 5bbe 9463 a0be
000000c0: bb6c 863e 161d 75be ef47 e13d 548b d8be
000000d0: a983 a13e 39eb c3be c428 da3e b1be 4bbe
000000e0: 6645 a23e b286 b3bd eee4 a13e cce7 a6bd
000000f0: 0d9e 483e 8f81 9ebe 338e 083d 9bc3 9f3e
00000100: 7d62 cc3e 7d41 0f3e 1458 94bd 5749 bdbe
00000110: 14e9 bfbc e161 cabe 124a c33e 93a9 aa3e
00000120: d417 92be aa4c cebe cb55 713e dc81 003e
00000130: e1fe b5be fb5c 0cbd 4c9f 38be b7eb 443e
00000140: 953d 9abe f478 8d3e 5ddf 543e 08be 723e
00000150: 9060 a6be bc9d 323e 177a d3be 5c95 d1bd
00000160: 822f 91bd d2f6 9c3c 7f67 3ebe 7257 81be
00000170: 13d1 a0be 3c96 b43e cfa5 a8be 960c a53e
00000180: 5264 b23e 467e 33be c9ea 4fbc 87e9 6e3d
00000190: a9dc a3be ed99 94be aa0c a3bd c56b ddbd
000001a0: 1e5e 503e 1ce2 a6be fadc 553e b339 e83c
000001b0: d4ef f53d 384c 8d3e 8dd6 1e3e c31b d1be
000001c0: ff55 2d3e 880f 90be 7874 df3d 6703 72be
000001d0: f71b 98be cd77 543e 9e7f f6bd 3214 a23e
000001e0: c695 d03d 4084 8dbd bcc5 d13e 7341 b83d
000001f0: ef79 61be d9a9 51bd a1d1 19bd 9c1f a7be
00000200: a58d 9d3d 245f dbbe 988d a0bd 7542 b33e
00000210: 26a5 983d e1cd 563e aa94 9abe 4b6c 23be
00000220: be88 c6be ad6a 273d bf5e bfbe e90d 643d
00000230: 40ff 193e 6d96 533d e709 c8be 024f c7be
00000240: 7d7f 9dbe 83d4 c33e 0b85 cf3e 0101 503e
00000250: ce22 b43e 897d 5fbe 9d66 8b3e 2381 ef3d
00000260: d15c 6c3d 371d 113e 748f c43e 360d 9bbe
00000270: 71b2 803e 8a8d 9abe 98c8 d33e 4cec 7d3d
00000280: 7075 57be eb6b d43e bc41 823e fde1 2d3e
00000290: a7a6 ad3d f38f 253d dfd9 84be 0a1e 7ebe
000002a0: d8f5 9e3e 7948 7dbe 18bc 50be 6781 003e
000002b0: 909f a43e 3cb2 9dbe 28c4 543e bc2a dabd
000002c0: 7200 693d bf93 503e 2433 533e 2781 00be
000002d0: f5d7 cf3e da9d a8be efe1 73bc c421 aebe
000002e0: 2fe9 923e 88b0 aebe 9ac2 d4be b6f4 ddbe
000002f0: 1ebc ca3e 04d3 5a3e 5e73 493e 8a93 aebe
00000300: fc92 ddbe 3ba9 d5be 5f84 6039 2187 b6be
00000310: 5df7 39bd 9ea5 8e3e 28e1 a03e 4801 d2be
00000320: ab6a 3abe 30f7 363e 085c 19be 7046 e5bb
00000330: 6535 b43e c399 943e b511 9d3e 836d 873e
00000340: 79e4 f43d adf5 2abc 72cb b2bd 9fdc 7e3e
00000350: 7b95 c73e d357 8e3e 6b94 f7bd 8bcd dc3e
00000360: b9f3 553e 7b17 3ebd 7957 9b3e 4374 59be
00000370: 5283 a63e 103e 72be 3b4b dabe a69b c93e
00000380: 857b 8e3e dee5 a73e 9891 92be e90c 4a3e
00000390: 87f1 bc3e 27a0 cc3e 6919 c33e f07e b5bd
000003a0: 06c3 b6bb d0f2 4d3d f731 39be 6109 5abe
000003b0: 3a6b 14be 1585 1bbe e9f5 95be 47e3 613e
000003c0: 2d60 5fbe 2047 32be a853 c7be 8373 be3e
000003d0: 15ea a8be d4bf f13d af7e 963e c2fb 823e
000003e0: c3b1 0e3e 115f 603e 9201 763e b5ce 1ebd
000003f0: 2ff5 b23e 6479 b53e 1c5d 083c c118 cbbd

bias f4 [16]
-0.00782802 0.0 0.010073042 0.0 -0.011108735 0.0 -0.0029495594 -0.009129326
0.0 0.0 0.005515061 -0.0015568853 0.0 0.0 0.0 -0.0078392625
00000000: 1841 00bc 0000 0000 6609 253c 0000 0000
00000010: 6901 36bc 0000 0000 654d 41bb 2b93 15bc
00000020: 0000 0000 0000 0000 afb7 b43b 6710 ccba
00000030: 0000 0000 0000 0000 0000 0000 4070 00bc

weight f4 [16, 16]
0.24587157 -0.075729094 -0.38783008 -0.39366874 0.07339986 6.736297e-05 0.40891698 0.09795096
0.14548966 -0.2938549 -0.38093755 0.18815574 -0.41423675 0.35258764 -0.024241326 0.18288404
0.1353944 -0.04796068 -0.25939715 0.35857275 0.19670856 -0.024038257 -0.26033062 0.39455044
0.23077847 -0.30893233 -0.15366715 0.4024834 0.33779836 -0.18617257 -0.26553828 0.15022185
-0.13366997 0.37212038 0.0037486332 0.07567304 -0.34550396 -0.37650248 0.026551489 -0.039844863
-0.317195 -0.0033033665 0.43072632 -0.29585925 -0.40670365 0.2759127 -0.2604143 -0.21234961
-0.100037836 -0.34072414 0.22875944 0.37846717 -0.38085255 0.018718183 0.10717727 0.08388393
-0.08276359 0.16431078 0.27840063 -0.16847613 -0.20066619 0.11263641 -0.40914226 -0.23051603
0.2816562 -0.31775114 -0.29403788 -0.022999473 0.27734694 0.095969215 0.30488384 -0.2617262
-0.020245334 -0.09219508 0.1675384 0.41693312 -0.07975998 -0.009352097 0.30527583 0.36451074
0.012265274 0.34344828 0.30598915 0.07057946 -0.12617828 -0.19974205 -0.24140039 -0.31727403
-0.2630431 -0.25509992 0.396164 -0.33615315 -0.07132531 -0.06066477 0.24153408 0.39447752
0.34352988 -0.18136285 0.26527038 -0.260623 -0.3349869 -0.11471016 0.41651276 -0.3545073
-0.39347264 -0.078679025 -0.27459288 0.203933 0.049557157 0.09509329 0.22216344 -0.18116967
-0.15292184 0.13085075 -0.2378777 -0.42924407 -0.26927617 -0.16776307 0.09197157 -0.17610513
0.052680425 0.32800207 -0.3464317 0.3359349 0.14854676 -0.24851042 -0.23294462 -0.4321349
-0.15637496 -0.1804127 -0.12540013 -0.31920132 -0.35584936 -0.39972305 -0.27879277 -0.052995097
-0.21426938 -0.19778073 -0.36756504 -0.1129724 0.2986264 0.05766585 -0.0139658665 0.2007575
-0.10640562 -0.12853862 -0.028728526 0.35205325 -0.4036888 -0.12660182 0.4303029 0.118045636
-0.09113157 -0.3845383 -0.25903085 0.21218242 0.01269805 0.3600336 -0.051195912 -0.05524729
0.42141297 0.16253674 -0.22384006 0.08123567 -0.315789 -0.19563146 -0.13495587 0.36437225
0.05456339 -0.21187223 -0.016454859 0.3195279 -0.10746149 -0.30014783 -0.2500115 -0.3747718
-0.3024261 -0.42450458 -0.006481918 -0.3275165 -0.33933774 -0.14753492 -0.30564368 -0.24168709
0.20146814 -0.37256014 -0.091014445 0.28098777 0.24882668 -0.23297016 0.24377462 0.28833124
0.10612768 0.2121963 -0.10142608 -0.07452255 0.15521948 -0.062426116 0.15675122 0.28171888
0.13662475 0.07774725 -0.20282654 -0.13600242 0.04597742 -0.05491569 0.2662281 0.2267354
0.40087688 0.14931192 -0.2915283 0.37859952 0.02188327 -0.39364886 0.2889542 -0.28317338
0.28849915 0.06483126 -0.2983805 0.2781413 -0.068346575 -0.32347044 0.26813337 -0.26720467
0.1111297 0.23574872 0.159955 0.11913727 0.19280928 -0.34020737 -0.22357382 0.21189266
0.3244804 0.08070487 0.039698604 -0.3495889 -0.084262975 -0.21813618 0.422436 0.42347208
0.0654819 0.34519398 0.018167976 -0.12447268 -0.32630786 0.36634988 0.11000306 -0.080618635
-0.2784906 0.31137273 0.17642719 -0.25836742 0.405839 -0.32042357 -0.06046258 0.02116074
00000000: c2c5 7b3e db17 9bbd aa91 c6be f38e c9be
00000010: aa52 963d 3845 8d38 915d d13e 839a c83d
00000020: 3efb 143e 2674 96be 3f0a c3be e6ab 403e
00000030: d716 d4be 5e86 b43e bf95 c6bc f445 3b3e
00000040: d4a4 0a3e 6b72 44bd b4cf 84be d996 b73e
00000050: f86d 493e e1eb c4bc 0e4a 85be 8402 ca3e
00000060: 3151 6c3e 612c 9ebe ec5a 1dbe 4e12 ce3e
00000070: e8f3 ac3e 06a4 3ebe a2f4 87be c2d3 193e
00000080: c8e0 08be 9086 be3e a1ab 753b 77fa 9a3d
00000090: e5e5 b0be efc4 c0be 8282 d93c 5e34 23bd
000000a0: 6267 a2be 4b7d 58bb 2988 dc3e dd7a 97be
000000b0: 763b d0be 6e44 8d3e 0655 85be 2d72 59be
000000c0: a3e0 ccbd 6573 aebe ea3f 6a3e 73c6 c13e
000000d0: 1bff c2be e056 993c c27f db3d 57cb ab3d
000000e0: f57f a9bd 1641 283e 878a 8e3e 0285 2cbe
000000f0: 707b 4dbe ebad e63d 187b d1be 650c 6cbe
00000100: 3e35 903e 47b0 a2be 228c 96be 6469 bcbc
00000110: 6b00 8e3e 828b c43d bc19 9c3e fa00 86be
00000120: 8bd9 a5bc c6d0 bcbd 308f 2b3e 4278 d53e
00000130: 3359 a3bd 8a39 19bc 1d4d 9c3e 27a1 ba3e
00000140: 4af4 483c 74d8 af3e 9caa 9c3e f78b 903d
00000150: e134 01be 2e89 4cbe aa31 77be be71 a2be
00000160: 96ad 86be 759c 82be 02d6 ca3e 441c acbe
00000170: 0113 92bd 9f7b 78bd b654 773e f5f8 c93e
00000180: 26e3 af3e 2fb7 39be 85d1 873e 6170 85be
00000190: 6783 abbe 29ed eabd 2941 d53e fb81 b5be
000001a0: 3f75 c9be 7822 a1bd 7097 8cbe d0d3 503e
000001b0: 72fc 4a3d 45c0 c23d d07e 633e 8b84 39be
000001c0: 8b97 1cbe bdfd 053e 3696 73be e1c5 dbbe
000001d0: 91de 89be 15ca 2bbe 975b bc3d e754 34be
000001e0: 6ec7 573d e3ef a73e 7f5f b1be a9ff ab3e
000001f0: a41c 183e 8479 7ebe 0989 6ebe c940 ddbe
00000200: c220 20be 1bbe 38be e468 00be 5b6e a3be
00000210: e331 b6be 80a8 ccbe edbd 8ebe 6311 59bd
00000220: 6f69 5bbe 0887 4abe 7c31 bcbe 135e e7bd
00000230: 8fe5 983e 0733 6c3d 17d1 64bc 6093 4d3e
00000240: 31eb d9bd a19f 03be 1658 ebbc 5340 b43e
00000250: 4cb0 cebe e8a3 01be a950 dc3e e9c1 f13d
00000260: 30a3 babd 34e2 c4be b19f 84be 5946 593e
00000270: 7b0b 503c 5356 b83e ceb2 51bd fb4a 62bd
00000280: 71c3 d73e 0870 263e 5436 65be e35e a63d
00000290: 19af a1be 9d53 48be df31 0abe 008f ba3e
000002a0: dc7d 5f3d 09f5 58be 57cc 86bc 2999 a33e
000002b0: c514 dcbd faac 99be 8201 80be 17e2 bfbe
000002c0: 98d7 9abe aa58 d9be 4566 d4bb 3eb0 a7be
000002d0: adbd adbe 6513 17be 547d 9cbe d27c 77be
000002e0: aa4d 4e3e 34c0 bebe c865 babd a1dd 8f3e
000002f0: 6ccc 7e3e bb8f 6ebe 0ea0 793e 27a0 933e
00000300: 7859 d93d fd49 593e 7ab8 cfbd 479f 98bd
00000310: dbf1 1e3e 87b2 7fbd 6483 203e 753d 903e
00000320: 5ce7 0b3e f339 9f3d c3b1 4fbe 3844 0bbe
00000330: d252 3c3d 46ef 60bd 0d4f 883e 532d 683e
00000340: bc3f cd3e 39e5 183e 3343 95be ccd7 c13e
00000350: 8b44 b33c 588c c9be cef1 933e 1afc 90be
00000360: 29b6 933e 40c6 843d 54c5 98be 8968 8e3e
00000370: 4af9 8bbd eb9d a5be c748 893e 0dcf 88be
00000380: f897 e33d 1d68 713e 3ecb 233e 3efe f33d
00000390: cc6f 453e a92f aebe 89f0 64be 64fa 583e
000003a0: 4c22 a63e 9848 a53d 019b 223d 51fd b2be
000003b0: 1192 acbd 175f 5fbe 8849 d83e 55d1 d83e
000003c0: 601b 863d 44bd b03e 02d5 943c 88eb febd
000003d0: d311 a7be 3692 bb3e 4949 e13d 621b a5bd
000003e0: 5296 8ebe 3f6c 9f3e 54a9 343e bc48 84be
000003f0: 21ca cf3e 8f0e a4be 9ca7 77bd 4a59 ad3c

bias f4 [16]
-0.009802933 -0.008245131 0.0 0.0 -0.008518342 0.0 0.009361079 0.0
0.0 0.0 -0.0051619206 0.0 0.0016030815 -0.010745406 -0.012774458 -0.013877463
00000000: 7b9c 20bc 9616 07bc 0000 0000 0000 0000
00000010: 8490 0bbc 0000 0000 365f 193c 0000 0000
00000020: 0000 0000 0000 0000 5425 a9bb 0000 0000
00000030: 7d1e d23a 800d 30bc f64b 51bc 4c5e 63bc

weight f4 [16, 16]
0.35438597 0.07181433 0.31092906 -0.28291374 0.21019413 0.35472685 -0.26448175 -0.11361155
0.14011891 0.08655719 0.069611676 -0.06609453 -0.12144421 0.26928005 -0.11092331 0.11875417
-0.25341716 -0.31621006 -0.35405427 0.3908281 -0.19032563 -0.24863431 0.07407052 0.37052542
0.0591323 0.16053309 0.12067144 0.350711 0.16755024 -0.343707 0.00316575 0.36817065
-0.38935375 -0.12632376 -0.40829584 -0.3844332 0.17735817 0.37692443 0.40628293 -0.15600799
0.3336706 -0.3210912 -0.36527568 0.33294007 0.2011868 0.0662655 -0.33824414 -0.0061098766
0.35709193 -0.18648708 0.28475308 -0.2063144 -0.38020065 0.3874375 -0.39890978 -0.20028958
-0.059776146 0.33816102 0.0007188481 -0.096035026 0.25503156 -0.086849764 0.3055112 0.39075935
0.17997952 0.045593996 0.3270799 -0.4134783 -0.43024117 0.111224785 -0.28518328 -0.3721648
-0.11816823 -0.2780252 0.07606322 -0.24491994 0.0006928837 0.22808452 -0.22651793 0.35756126
-0.16713218 0.3391524 -0.24970762 -0.2924435 0.18977234 0.4110695 -0.22951174 -0.39146337
-0.22203615 0.25091872 -0.3456138 -0.12636028 -0.3747776 -0.026083665 0.30536094 0.009400464
-0.011176621 -0.058616254 0.40139598 0.0808893 0.03570422 0.08003149 0.0469683 0.32388654
0.33310813 0.11590504 0.23298849 -0.35089123 -0.350783 0.010357495 0.14082181 0.08923783
0.2098208 0.3880472 -0.40709412 -0.43097466 0.013092788 -0.27691662 0.14532052 0.10279548
0.023809481 0.04872191 0.021500401 -0.4009454 0.19995026 0.14229764 0.4041489 0.073798575
0.023701768 0.019015102 -0.067275375 0.14691544 0.054116342 0.4176067 -0.22564402 -0.2462415
0.37067014 0.22706494 0.04459697 0.368513 -0.021967685 0.13065094 0.08078177 0.00023746086
0.26664233 -0.24092698 -0.14339775 0.3252096 0.24985547 0.16290684 0.19727995 0.27760842
-0.010338796 0.42923293 0.1094663 -0.09382248 0.20168108 0.15062506 -0.32635045 0.01735179
0.10047484 0.31120676 -0.3542008 -0.31646788 -0.32957533 0.24215166 -0.01863523 -0.404537
-0.2842805 0.36870655 0.21457098 0.32318607 -0.42887866 -0.1730495 0.116029546 0.19878632
0.35961726 -0.40877524 0.23475175 0.072322026 0.4248089 -0.3717943 0.016916608 -0.41550416
-0.12024993 0.22795232 0.28179353 -0.39822975 0.03264808 0.35328653 -0.09103455 -0.07987926
0.06575047 -0.024006383 -0.019098254 0.3893494 -0.14287943 -0.3935476 0.3671782 -0.16145289
-0.19099219 -0.14985484 0.27558213 0.024322111 0.25214848 -0.2723864 -0.16179655 -0.28895965
0.31912482 -0.3948236 -0.4056541 0.25453994 -0.24823679 0.36595783 -0.34612247 -0.012460963
0.1923743 0.26602367 -0.16855867 -0.108246826 0.15671198 -0.22034149 -0.24977168 0.23394014
0.10742593 -0.3843778 -0.01848884 0.1638284 -0.41734815 -0.20149606 -0.38699326 -0.42802948
-0.1899915 0.384749 -0.0008198667 -0.026286064 0.082422905 0.0856221 -0.008155152 0.180161
-0.12991984 0.4304351 0.0322903 -0.15638456 -0.033612214 0.2591249 -0.29082212 0.39687198
-0.048084516 -0.03565344 -0.18002808 0.2527226 0.14483921 0.15712601 -0.15396105 -0.26591176
00000000: 1472 b53e 6413 933d 1832 9f3e 12da 90be
00000010: 213d 573e c29e b53e 276a 87be 2cad e8bd
00000020: 557b 0f3e e544 b13d 9190 8e3d 925c 87bd
00000030: beb7 f8bd 13df 893e c32b e3bd 6335 f33d
00000040: e5bf 81be 49e6 a1be 9a46 b5be 9f1a c83e
00000050: b9e4 42be fe99 7ebe 49b2 973d 82b5 bd3e
00000060: b634 723d c962 243e 9722 f73d 6490 b33e
00000070: 4a92 2b3e 5dfa afbe 7978 4f3b dd80 bc3e
00000080: 6059 c7be 045b 01be 270c d1be 6ed4 c4be
00000090: 619d 353e 3dfc c03e 5104 d03e 8fc0 1fbe
000000a0: dfd6 aa3e 1166 a4be 6a05 bbbe 1f77 aa3e
000000b0: ea03 4e3e 35b6 873d 562e adbe 5c35 c8bb
000000c0: c1d4 b63e 78f6 3ebe 28cb 913e 1544 53be
000000d0: a9a9 c2be 355e c63e e73d ccbe b618 4dbe
000000e0: d5d7 74bd 7123 ad3e 1471 3c3a 03ae c4bd
000000f0: 7f93 823e 4ade b1bd f76b 9c3e 9c11 c83e
00000100: 8d4c 383e c5c0 3a3d 0477 a73e 6eb3 d3be
00000110: 9248 dcbe d2c9 e33d 8b03 92be 628c bebe
00000120: 2f02 f2bd 5259 8ebe 09c7 9b3d 4bcc 7abe
00000130: a3a2 353a fd8e 693e 51f4 67be 4512 b73e
00000140: b324 2bbe 62a5 ad3e 5bb3 7fbe 28bb 95be
00000150: ae53 423e b477 d23e 2005 6bbe e36d c8be
00000160: 725d 63be 6b78 803e 4bf4 b0be 9764 01be
00000170: d9e2 bfbe 69ad d5bc 4558 9c3e 6704 1a3c
00000180: 251e 37bc 9917 70bd c683 cd3e 4aa9 a53d
00000190: 973e 123d 8de7 a33d d561 403d 75d4 a53e
000001a0: 268d aa3e 9f5f ed3d 8994 6e3e 04a8 b3be
000001b0: d499 b3be 7cb2 293c 9833 103e 53c2 b63d
000001c0: 44db 563e 1fae c63e a46e d0be b6a8 dcbe
000001d0: 2283 563c 04c8 8dbe e7ce 143e 7086 d23d
000001e0: 1a0c c33c a090 473d 9c21 b03c b748 cdbe
000001f0: c3bf 4c3e 79b6 113e 9bec ce3e b523 973d
00000200: 362a c23c 8fc5 9b3c acc7 89bd 0071 163e
00000210: 19a9 5d3d 8cd0 d53e 3a0f 67be bb26 7cbe
00000220: 7ac8 bd3e b683 683e 50ab 363d bcad bc3e
00000230: 93f5 b3bc 5cc9 053e ea70 a53d eafe 7839
00000240: 5885 883e 90b5 76be dcd6 12be df81 a63e
00000250: 1dda 7f3e 0dd1 263e c103 4a3e b122 8e3e
00000260: 0e64 29bc 6bc4 db3e de2f e03d 0026 c0bd
00000270: 7c85 4e3e 753d 1a3e 6817 a7be 5725 8e3c
00000280: c1c5 cd3d 7e56 9f3e cf59 b5be 1408 a2be
00000290: 19be a8be 9bf6 773e e9a8 98bc 791f cfbe
000002a0: 378d 91be 1bc7 bc3e 7fb8 5b3e a578 a53e
000002b0: fc95 dbbe e333 31be e6a0 ed3d a48e 4b3e
000002c0: c11f b83e fd4a d1be c362 703e 921d 943d
000002d0: 8d80 d93e d35b bebe b394 8a3c f6bc d4be
000002e0: 9845 f6bd 556c 693e 3e47 903e c5e4 cbbe
000002f0: feb9 053d f9e1 b43e 5270 babd bd97 a3bd
00000300: 2fa8 863d 09a9 c4bc f173 9cbc ce58 c73e
00000310: fc4e 12be 127f c9be c8fe bb3e e853 25be
00000320: 7593 43be 8c73 19be 1a19 8d3e 2a3f c73c
00000330: 9b19 813e 3b76 8bbe ffad 25be 85f2 93be
00000340: 5464 a33e 5226 cabe e5b1 cfbe 0f53 823e
00000350: c931 7ebe d35e bb3e f736 b1be 1129 4cbc
00000360: c5fd 443e 4134 883e a59a 2cbe 83b0 ddbd
00000370: 1b79 203e 33a1 61be 26c4 7fbe 018e 6f3e
00000380: 2002 dc3d 2bcd c4be e875 97bc a2c2 273e
00000390: a8ae d5be fc54 4ebe fb23 c6be ae26 dbbe
000003a0: 228d 42be d2fd c43e 53ec 56ba df55 d7bc
000003b0: 57cd a83d a45a af3d 309d 05bc 207c 383e
000003c0: b509 05be fd61 dc3e d542 043d 4623 20be
000003d0: f6ac 09bd 05ac 843e a3e6 94be ce32 cb3e
000003e0: 45f4 44bd 5709 12bd 4859 38be db64 813e
000003f0: bb50 143e a4e5 203e f7a7 1dbe 9625 88be

bias f4 [16]
-0.01174471 0.0 0.011584715 0.0 0.0 0.0 0.0054127774 -0.009755434
-0.010903634 -0.0002420022 0.0 -0.0064473148 0.010175337 0.0 0.0 0.0
00000000: e26c 40bc 0000 0000 d1cd 3d3c 0000 0000
00000010: 0000 0000 0000 0000 ab5d b13b 41d5 1fbc
00000020: 28a5 32bc f9c1 7db9 0000 0000 ff43 d3bb
00000030: 75b6 263c 0000 0000 0000 0000 0000 0000

weight f4 [16, 16]
-0.14960101 0.1218017 -0.30320054 0.11002732 -0.31743854 -0.09727554 0.02758182 -0.20272976
-0.39021483 0.24336097 -0.08822614 0.08444466 0.40784943 -0.06164646 -0.29771766 -0.16651239
0.37444624 0.28050324 -0.3587876 -0.2245086 -0.19109967 0.21774113 0.35073474 0.22650395
0.11176782 0.023197407 -0.21801223 0.24682803 -0.42491975 -0.3347933 0.35560128 -0.106296964
-0.20807979 0.19005758 0.1561244 -0.021758962 -0.048926424 0.347602 0.26242483 0.3949804
0.13084501 0.16443285 0.24875143 -0.30290604 0.101801656 0.048613146 0.23145215 0.14842112
-0.00562799 0.3805375 -0.05975076 0.4127322 -0.41445354 0.41453898 -0.30726182 0.09059948
0.35082692 0.2442066 -0.41353178 0.15744233 -0.30355966 0.38306013 0.41061923 0.29563916
0.33815 -0.27026567 0.015821742 -0.08437194 0.2575002 -0.094260514 0.33179134 -0.27627453
0.13175209 -0.18097238 0.2487521 0.18784125 -0.15336744 -0.16544862 0.3496126 0.12901475
-0.13490395 -0.3292858 0.24814259 0.29733276 0.19706436 -0.34403375 0.36978102 0.21579878
0.20351467 0.32464173 -0.24549064 -0.29497108 0.020163553 -0.25561666 -0.14571938 -0.11268065
-0.30143315 -0.08083309 -0.06175832 -0.16507511 0.16347528 0.05897868 0.410141 -0.3077487
-0.058533624 -0.14088576 -0.19922426 -0.40469372 0.123366944 -0.11736937 -0.4173595 -0.2682854
-0.36457354 -0.27076894 -0.054415308 -0.16651094 -0.04459346 0.076988444 -0.31650198 -0.3091122
-0.2068676 0.41489887 -0.2615987 0.23087817 0.42235124 -0.108923085 0.025714021 -0.36632553
0.36568484 0.42415553 -0.24129264 -0.079833895 -0.0912761 0.086960845 0.34830004 0.2780368
0.18352467 0.3294381 0.3597843 0.36297128 -0.19872417 0.06972976 0.22798438 0.38468918
-0.24185063 0.2920476 -0.13389707 0.16457291 -0.33651134 -0.37885183 0.3190614 0.31785938
0.4222607 0.22960566 -0.2869035 -0.044050336 0.3304155 -0.3171986 -0.16128802 0.0011633404
0.3461521 0.25773394 -0.01177402 0.34163737 0.18853027 -0.13001823 -0.4102936 0.4292076
0.398678 -0.2530453 -0.32833555 0.14072421 0.31072652 0.010012822 -0.40742457 -0.004743489
-0.15637067 0.11552027 -0.38186008 -0.01212327 0.41914588 -0.35390362 -0.34049484 -0.4313075
-0.18275502 -0.14100505 0.16471966 0.35949013 -0.3492606 -0.18496199 0.14527282 -0.23632061
0.110046014 -0.40485808 -0.39059308 -0.29295665 0.054108106 0.088517115 0.3759024 0.3635312
0.26662827 0.016996296 0.09531262 0.27638552 -0.21884741 0.4148278 0.24353361 -0.38739032
-0.38077584 0.18356791 -0.02563138 -0.112136275 0.2788225 0.0143574495 -0.20933598 0.09092928
0.25411516 0.3137921 0.2948975 -0.2759097 0.052709695 -0.22486323 -0.32038718 -0.38824573
-0.24983363 0.1877514 0.22569823 -0.03145061 -0.31798545 0.38479882 0.0861148 0.10247634
-0.30929527 -0.055025835 -0.30781326 0.269663 -0.111315794 0.36223128 -0.40364248 -0.048883837
-0.17430466 0.089588985 0.30930904 0.008704328 0.1804192 0.1856826 0.090700604 0.28508475
0.35898983 -0.32559127 0.19291052 -0.3878462 -0.20386374 -0.1684992 0.21205796 0.033806454
00000000: 0231 19be 2b73 f93d 1a3d 9bbe 0156 e13d
00000010: 4e87 a2be 6638 c7bd 45f3 e13c 6498 4fbe
00000020: 3dca c7be 9e33 793e e8af b4bd 52f1 ac3d
00000030: a4d1 d03e 0081 7cbd 736e 98be 3982 2abe
00000040: 6bb7 bf3e 1f9e 8f3e 02b3 b7be 95e5 65be
00000050: a2af 43be 88f7 5e3e 8193 b33e a7f0 673e
00000060: 87e6 e43d 7d08 be3c 993e 5fbe 7dc0 7c3e
00000070: 158f d9be 076a abbe 5f11 b63e 39b2 d9bd
00000080: de12 55be 749e 423e 13df 1f3e da3f b2bc
00000090: 1367 48bd e4f8 b13e 8c5c 863e df3a ca3e
000000a0: 3cfc 053e 1661 283e b2b8 7e3e 8016 9bbe
000000b0: 637d d03d 941e 473d cb01 6d3e b5fb 173e
000000c0: 006b b8bb d0d5 c23e 37bd 74bd a351 d33e
000000d0: 4133 d4be 743e d43e 6c51 9dbe 388c b93d
000000e0: 969f b33e 4c11 7a3e 70ba d3be 9038 213e
000000f0: 2c6c 9bbe 7520 c43e af3c d23e 045e 973e
00000100: ff21 ad3e 4360 8abe 999c 813c 32cb acbd
00000110: 11d7 833e a80b c1bd 8ee0 a93e db73 8dbe
00000120: 05ea 063e d350 39be dfb8 7e3e 7559 403e
00000130: 5b0c 1dbe 5d6b 29be 6c00 b33e 711c 043e
00000140: 4324 0abe 2698 a8be 1719 7e3e 003c 983e
00000150: 3dcb 493e 3125 b0be f053 bd3e 5bfa 5c3e
00000160: 2666 503e 7137 a63e e661 7bbe 7306 97be
00000170: 092e a53c 30e0 82be 7637 15be 1dc5 e6bd
00000180: 7255 9abe d28b a5bd 4bf6 7cbd 7309 29be
00000190: 1066 273e a193 713d 00fe d13e 3d91 9dbe
000001a0: f4c0 6fbd 5b44 10be 7201 4cbe 0434 cfbe
000001b0: cfa7 fc3d 5a5f f0bd 25b0 d5be b45c 89be
000001c0: 62a9 babe 3aa2 8abe 96e2 5ebd d881 2abe
000001d0: a2a7 36bd 1eac 9d3d 8c0c a2be f443 9ebe
000001e0: 1ad5 53be a06d d43e 44f0 85be 546b 6c3e
000001f0: 6c3e d83e 1113 dfbd 36a6 d23c 058f bbbe
00000200: 0b3b bb3e ea2a d93e 6b15 77be f47f a3bd
00000210: f7ee babd 8718 b23d 6254 b23e d75a 8e3e
00000220: e4ed 3b3e 1cac a83e a635 b83e 5fd7 b93e
00000230: 597e 4bbe 7ace 8e3d bd74 693e fbf5 c43e
00000240: b1a7 77be 4387 953e 501c 09be cd85 283e
00000250: 374b acbe def8 c1be 045c a33e 77be a23e
00000260: 8e32 d83e bf1d 6b3e 04e5 92be 206e 34bd
00000270: 382c a93e db67 a2be b028 25be 3a7b 983a
00000280: d93a b13e b4f5 833e d2e7 40bc 18eb ae3e
00000290: 140e 413e 8023 05be 0112 d2be 19c1 db3e
000002a0: 861f cc3e 278f 81be 991b a8be 021a 103e
000002b0: 8c17 9f3e d20c 243c f499 d0be 456f 9bbb
000002c0: a21f 20be e495 ec3d 2a83 c3be aea0 46bc
000002d0: 4a9a d63e db32 b5be 5755 aebe 56d4 dcbe
000002e0: 2224 3bbe a163 10be 45ac 283e 170f b83e
000002f0: 49d2 b2be ad66 3dbe 66c2 143e 08fe 71be
00000300: ce5f e13d 8f49 cfbe d1fb c7be 6afe 95be
00000310: 76a0 5d3d 7648 b53d 4876 c03e c320 ba3e
00000320: 8083 883e d13b 8b3c 4333 c33d 6782 8d3e
00000330: 8919 60be 4f64 d43e e060 793e 0658 c6be
00000340: 0df5 c2be 3af9 3b3e e6f8 d1bc b4a7 e5bd
00000350: d3c1 8e3e 823b 6b3c 2c5c 56be 2139 ba3d
00000360: 621b 823e 5ca9 a03e cefc 963e 0944 8dbe
00000370: 1fe6 573d 8c42 66be ca09 a4be 25c8 c6be
00000380: 63d4 7fbe e741 403e 701d 673e 5bd2 00bd
00000390: fdce a2be 5a04 c53e f55c b03d 1edf d13d
000003a0: f35b 9ebe c562 61bd b399 9dbe 4511 8a3e
000003b0: 89f9 e3bd 6176 b93e 3aaa cebe 6b3a 48bd
000003c0: ec7c 32be 6e7a b73d c15d 9e3e 999c 0e3c
000003d0: d0bf 383e 9423 3e3e 3dc1 b93d a1f6 913e
000003e0: 84cd b73e e6b3 a6be 568a 453e c793 c6be
000003f0: a8c1 50be 0e8b 2cbe b925 593e a378 0a3d

bias f4 [16]
0.009799401 -0.0062691807 0.0 -0.011197299 0.0078052282 0.007411291 0.0 0.011467501
-0.011960068 -0.005094888 0.0039041757 0.0 -0.0070485757 0.0 0.009802843 0.0
00000000: ab8d 203c b36d cdbb 0000 0000 e074 37bc
00000010: 00c3 ff3b 6ada f23b 0000 0000 2fe2 3b3c
00000020: 29f4 43bc 05f3 a6bb 33dd 7f3b 0000 0000
00000030: bdf7 e6bb 0000 0000 1b9c 203c 0000 0000

weight f4 [16, 16]
-0.1454113 -0.13874711 0.34018648 0.23058802 -0.29164642 -0.41313052 -0.16059767 -0.42216563
0.42397666 0.19982034 0.20764965 0.016936703 -0.39314306 -0.26229814 -0.21745034 0.40189967
0.41488072 -0.21246974 -0.11400912 0.34520897 0.17398767 0.3951936 0.13900037 -0.30627456
0.13314658 0.0149014015 -0.02244634 -0.16970792 0.08275846 -0.39003485 -0.42407796 -0.14892554
-0.19589344 0.07502413 0.23941188 0.101866804 -0.39580283 0.082026936 0.4077813 0.1089904
-0.2415488 -0.021620158 -0.2115091 -0.093831666 0.18416624 -0.32988954 0.040801726 0.29473588
0.20409814 -0.33517668 0.2517679 -0.084100835 -0.10108348 -0.3673106 0.42023262 0.19598758
0.19548543 0.19312592 -0.3513542 -0.21663147 -0.364145 0.23029324 -0.3445006 0.015084144
0.17473078 -0.22866414 0.374476 0.17804843 0.34869924 -0.3486025 -0.3209422 0.32089943
-0.33302405 -0.032058943 -0.08799726 0.01698409 -0.13196804 0.25307778 0.0045408322 0.117018566
-0.39339593 -0.14873596 -0.22343513 0.035580646 -0.37398872 0.03971382 -0.41542256 -0.17124896
-0.07390213 -0.004380636 0.09420286 -0.2473257 0.28016284 -0.41753578 -0.10883525 -0.22207259
-0.19058472 -0.34547326 0.3760712 -0.38322732 0.34436515 -0.227443 0.37640482 0.094737686
-0.21647786 -0.41906852 -0.08027803 0.35510513 0.17365478 -0.15559602 -0.25839937 0.028447976
-0.12174694 -0.26108706 -0.32643202 -0.28001294 -0.2866477 0.428298 0.05144048 0.063542515
0.2947397 -0.36143884 0.076159246 -0.1193549 0.19777279 0.14397831 -0.28296393 -0.3873663
-0.07676128 -0.32088345 -0.12189079 0.21795788 -0.031142395 -0.024931474 0.1380416 -0.25108483
0.37412256 -0.3098528 0.16146602 0.2630682 -0.0015090122 -0.18023348 0.19623816 -0.117413916
-0.4063155 0.21121734 0.29919392 0.16112308 -0.33535102 -0.29759258 0.14386109 0.20994991
0.07941347 0.3182183 0.084712185 -0.34499648 0.19310725 0.36705783 -0.3031559 -0.40361318
0.017404733 0.30571547 0.2051168 -0.2812064 0.1999442 -0.12365576 -0.07027248 -0.030165603
-0.34146297 -0.1803889 0.016074354 0.2648084 -0.25735834 0.17967051 0.08439341 -0.037994213
-0.11013459 -0.35924596 0.14286458 -0.23632912 0.41107297 0.16295408 0.16009907 0.4160077
-0.038699742 -0.17065203 0.01278704 -0.13460433 0.14339378 -0.4312738 0.07079482 -0.066654705
-0.095527716 0.25614735 -0.33543968 -0.09497019 0.33922538 0.0866258 -0.28209707 0.26893815
-0.35254392 0.29020178 -0.16810277 0.15109721 0.3336594 0.3848575 0.14629278 0.1914368
-0.121760994 -0.115981005 -0.39521334 0.19456933 0.08029433 0.114114515 -0.2761734 -0.4415564
0.21876289 -0.21584526 -0.15019563 0.1291389 0.15983485 -0.41534925 -0.120311625 0.37328058
0.078562364 -0.25258455 0.34378257 -0.4032682 0.044196922 0.09827834 0.043351144 0.3954384
0.0809434 -0.2782328 -0.06427341 -0.1790386 0.3598681 0.056659434 -0.39215574 0.0065033915
0.0047475668 0.025752373 0.10295054 0.23287018 -0.3446443 0.13321045 -0.21729137 0.28317335
-0.2370503 -0.309109 -0.24901804 0.24950656 -0.08197031 0.37774196 -0.3608059 0.13994092
00000000: b3e6 14be b913 0ebe ec2c ae3e 441f 6c3e
00000010: ae52 95be d885 d3be b773 24be 1826 d8be
00000020: 7813 d93e b49d 4c3e 1ca2 543e d7be 8a3c
00000030: 0c4a c9be f14b 86be 4dab 5ebe cbc5 cd3e
00000040: 3f6b d43e ab91 59be 9d7d e9bd 3bbf b03e
00000050: d329 323e d156 ca3e 1d56 0e3e 05d0 9cbe
00000060: 9457 083e 0225 743c 63e1 b7bc eac7 2dbe
00000070: 447d a93d a6b2 c7be bf20 d9be f07f 18be
00000080: 4a98 48be 40a6 993d 6328 753e 8b9f d03d
00000090: aba6 cabe bdfd a73d b6c8 d03e 5c36 df3d
000000a0: 9258 77be c21c b1bc d795 58be d12a c0bd
000000b0: 1396 3c3e 48e7 a8be b61f 273d 9fe7 963e
000000c0: 1aff 503e 479c abbe b9e7 803e 0f3d acbd
000000d0: db04 cfbd 2310 bcbe bb28 d73e f8b0 483e
000000e0: 552d 483e cdc2 453e b3e4 b3be a4d4 5dbe
000000f0: 3771 babe fed1 6b3e 6262 b0be 7c23 773c
00000100: a0ec 323e ef26 6abe 51bb bf3e 5452 363e
00000110: b588 b23e 077c b2be 8952 a4be ee4c a43e
00000120: 2182 aabe 3d50 03bd e837 b4bd 3822 8b3c
00000130: a122 07be 6993 813e 43cb 943b 6ea7 ef3d
00000140: 316b c9be 3d4e 18be 2ecc 64be 03bd 113d
00000150: 737b bfbe f5aa 223d 44b2 d4be e35b 2fbe
00000160: 005a 97bd 708b 8fbb 6eed c03d f342 7dbe
00000170: 8171 8f3e 40c7 d5be 04e5 debd ff66 63be
00000180: a428 43be dfe1 b0be 688c c03e 5f36 c4be
00000190: a150 b03e d1e6 68be 22b8 c03e d505 c23d
000001a0: 5fac 5dbe 2690 d6be cf68 a4bd 57d0 b53e
000001b0: 8fd2 313e 9054 1fbe ec4c 84be bb0b e93c
000001c0: 7656 f9bd 34ad 85be 1922 a7be db5d 8fbe
000001d0: 7dc3 92be e049 db3e 41b3 523d 9422 823d
000001e0: 1fe8 963e 830e b9be 61f9 9b3d 5870 f4bd
000001f0: f384 4a3e 0d6f 133e a6e0 90be e054 c6be
00000200: 0535 9dbd d64a a4be e1a1 f9bd 5a30 5f3e
00000210: 561e ffbc 173d ccbc c75a 0d3e 318e 80be
00000220: fe8c bf3e 07a5 9ebe 5957 253e e0b0 863e
00000230: 0cca c5ba 208f 38be a8f2 483e b576 f0bd
00000240: 9608 d0be 5c49 583e f22f 993e 73fd 243e
00000250: 21b3 abbe 0e5e 98be 5250 133e 1cfd 563e
00000260: 88a3 a23d 82ed a23e 957d ad3d 61a3 b0be
00000270: e8bd 453e 01ef bb3e 4037 9bbe 63a6 cebe
00000280: 5f94 8e3c bd86 9c3e 230a 523e 49fa 8fbe
00000290: 2cbe 4c3e 3b3f fdbd 05eb 8fbd db1d f7bc
000002a0: 3cd4 aebe deb7 38be 5dae 833c f794 873e
000002b0: 79c4 83be 8cfb 373e 74d6 ac3d d29f 1bbd
000002c0: 3e8e e1bd 16ef b7be 184b 123e 4300 72be
000002d0: 2878 d23e 6fdd 263e 03f1 233e f6fe d43e
000002e0: 9f83 1ebd 68bf 2ebe bc80 513c b8d5 09be
000002f0: d2d5 123e ebcf dcbe e0fc 903d 4382 88bd
00000300: 09a4 c3bd bf25 833e c0be abbe bb7f c2bd
00000310: f3ae ad3e de68 b13d 076f 90be 43b2 893e
00000320: a380 b4be 5495 943e 2223 2cbe 3ab9 1a3e
00000330: 68d5 aa3e 0b0c c53e c6cd 153e 0208 443e
00000340: d45d f9bd 7387 edbd 6759 cabe 2f3d 473e
00000350: 5b71 a43d dfb4 e93d 9a66 8dbe ae13 e2be
00000360: 6103 603e 8a06 5dbe e2cc 19be fd3c 043e
00000370: bfab 233e a8a8 d4be f165 f6bd a21e bf3e
00000380: 4ee5 a03d c352 81be 4504 b03e 2b79 cebe
00000390: d507 353d 2846 c93d f890 313d e776 ca3e
000003a0: a7c5 a53d 8874 8ebe c7a1 83bd e555 37be
000003b0: a240 b83e b913 683d a3c8 c8be 671a d53b
000003c0: 7a91 9b3b a4f6 d23c bcd7 d23d 8575 6e3e
000003d0: 3875 b0be 5268 083e a181 5ebe 19fc 903e
000003e0: 50bd 72be 8943 9ebe 96fe 7ebe a67e 7f3e
000003f0: 0de0 a7bd 6567 c13e 8dbb b8be ac4c 0f3e

bias f4 [16]
-0.007009963 0.0070285923 0.0 0.0 0.0 -0.001428247 0.0 0.0041937907
0.007358716 -0.008570998 0.0 0.0 0.009660823 -0.009925324 0.0 0.0
00000000: d5b3 e5bb 1b50 e63b 0000 0000 0000 0000
00000010: 0000 0000 0434 bbba 0000 0000 116c 893b
00000020: 6221 f13b 5f6d 0cbc 0000 0000 0000 0000
00000030: 6e48 1e3c d39d 22bc 0000 0000 0000 0000

weight f4 [16, 16]
-0.15415348 0.06308194 0.2751468 0.22132628 -0.40405476 -0.06267673 0.18075989 -0.42889982
-0.31805336 -0.42898422 0.059226092 0.0936385 -0.18022619 0.17471947 0.06503944 0.18425822
0.37487438 -0.29486358 -0.33620173 0.41121987 -0.22523984 0.30390626 -0.14634882 -0.10003215
-0.19832893 0.12745851 -0.02787645 0.3458398 -0.4318938 -0.014806207 0.063868254 0.1401124
0.34308535 0.1582385 -0.37476045 0.0594287 -0.18357313 0.26708058 -0.18863872 -0.040238827
0.11979918 0.29220346 -0.20771763 0.3224953 -0.2916856 -0.09619777 -0.2715051 0.09177908
-0.34559307 0.00079009944 -0.2994599 0.2786945 -0.39244935 -0.18991083 -0.36753315 -0.26820648
0.03622389 0.21090914 0.21646062 -0.3418789 -0.071959384 -0.08511064 0.18250647 -0.044106487
-0.049544066 -0.26252076 -0.30124855 -0.020464612 0.20392495 -0.21386203 0.09224851 0.22111748
-0.14907992 0.39965665 0.39357826 0.2592616 0.1946827 -0.3360152 0.23091784 -0.050466068
0.32769445 -0.362424 -0.015486412 0.39306077 0.085429616 0.1403479 -0.0018564306 -0.21390449
0.20724328 0.33578652 0.23733415 -0.29141748 -0.30146277 0.4131586 -0.05429373 0.18044315
0.11609042 -0.28187096 0.37221155 0.076935485 -0.2077137 0.40770745 0.14292988 0.09380266
-0.30555215 0.37160122 -0.21935485 -0.15174854 -0.43282297 0.11317184 -0.24545683 -0.38412824
0.30436113 -0.3950199 -0.08970998 -0.1632163 0.031246612 0.063502274 0.38250223 0.13147058
-0.14009233 -0.25720727 -0.11495607 0.23921934 -0.41754058 0.16477159 -0.028339474 -0.20287617
0.2920326 0.22752224 0.015004651 -0.21377178 -0.26351526 -0.1154359 -0.2681995 -0.06462621
0.15399659 -0.03946183 0.056291595 -0.15799528 -0.10694336 0.25942662 -0.052835077 0.10820656
-0.29874998 -0.25144202 0.3305656 -0.013319544 0.4211911 -0.14618745 0.23039949 0.1875686
-0.3721873 -0.2449552 0.36503607 -0.14468735 -0.39974505 0.32089314 0.41167465 0.28118822
0.26940155 -0.13992998 0.36450553 -0.19155784 0.17348309 -0.41714168 0.38094756 -0.3328586
-0.411583 0.17088304 0.37442875 -0.35154566 0.40547734 0.06756225 0.21938798 0.08808811
-0.43857694 0.36446428 0.34806222 0.22793277 0.0054098917 0.17410447 0.023431215 0.12354872
-0.061320085 0.39787126 -0.14340627 -0.06827049 0.11371867 0.37639213 -0.2419711 -0.18812872
-0.38136464 0.3273683 0.40476078 0.086381994 -0.35985103 -0.3373109 0.3413271 0.029316727
0.095429584 -0.25588334 -0.35826582 -0.21867399 -0.41557065 0.3018786 0.15596175 -0.35769734
0.4239951 -0.1069495 0.21735336 0.09276444 0.1533379 -0.04048059 -0.048915584 -0.20781352
0.12665567 0.03754336 0.3080475 -0.3259079 0.16266645 0.13049717 0.012527396 -0.24519156
-0.21841915 0.32568246 0.2982141 0.17440738 -0.4110316 -0.2878431 0.14352354 0.42125696
-0.4119653 0.106047176 -0.4090192 -0.41570067 -0.3272608 -0.21310109 -0.2629371 -0.2507689
0.043490015 -0.08443918 0.2553004 0.09868025 -0.17236197 -0.2921981 0.32872468 0.0050729415
0.09947335 0.21134965 -0.0863791 -0.22085267 0.026893081 -0.24175599 0.21439935 0.15921468
00000000: 69da 1dbe 1b31 813d 0be0 8c3e 5ba3 623e
00000010: 44e0 cebe a85c 80bd 1f19 393e c298 dbbe
00000020: e4d7 a2be d2a3 dbbe 0f97 723d 8bc5 bf3d
00000030: 378d 38be a9e9 323e 6633 853d 30ae 3c3e
00000040: 89ef bf3e 5cf8 96be a222 acbe 698b d23e
00000050: 46a5 66be 9a99 9b3e 77dc 15be a8dd ccbd
00000060: bd16 4bbe 7c84 023e 275d e4bc ea11 b13e
00000070: 2f21 ddbe bc95 72bc 5ccd 823d a079 0f3e
00000080: e2a8 af3e 4609 223e 9ae0 bfbe 826b 733d
00000090: 98fa 3bbe c9be 883e 822a 41be 78d1 24bd
000000a0: 4659 f53d b19b 953e eeb3 54be 1b1e a53e
000000b0: d157 95be 5603 c5bd b702 8bbe acf6 bb3d
000000c0: 93f1 b0be ad1e 4f3a cf52 99be 0cb1 8e3e
000000d0: 1fef c8be fc77 42be 4e2d bcbe 5c52 89be
000000e0: 805f 143d 91f8 573e daa7 5d3e c00a afbe
000000f0: 715f 93bd 7d4e aebd fae2 3a3e 01a9 34bd
00000100: b8ee 4abd 1f69 86be 403d 9abe 67a5 a7bc
00000110: b4d1 503e a6fe 5abe c9ec bc3d 9f6c 623e
00000120: 68a8 18be cc9f cc3e 1783 c93e f0bd 843e
00000130: e75a 473e 2f0a acbe ba75 6c3e 82b5 4ebd
00000140: 91c7 a73e a38f b9be b8ba 7dbc 433f c93e
00000150: b9f5 ae3d 5cb7 0f3e 7953 f3ba c709 5bbe
00000160: 9537 543e 36ec ab3e b907 733e ac34 95be
00000170: 5459 9abe 8689 d33e 1a63 5ebd 17c6 383e
00000180: d0c0 ed3d 6451 90be 8392 be3e 5a90 9d3d
00000190: e6b2 54be 08bf d03e 365c 123e 9c1b c03d
000001a0: 5571 9cbe 8442 be3e 8f9e 60be f863 1bbe
000001b0: f99a ddbe a3c6 e73d 0959 7bbe 75ac c4be
000001c0: 39d5 9b3e 0c40 cabe deb9 b7bd 2c22 27be
000001d0: e5f8 ff3c 7b0d 823d 55d7 c33e 39a0 063e
000001e0: 5d74 0fbe acb0 83be 176e ebbd eaf5 743e
000001f0: e1c7 d5be e2b9 283e 2f28 e8bc c5be 4fbe
00000200: 4c85 953e 97fb 683e 11d6 753c fde6 5abe
00000210: 79eb 86be a869 ecbd 7251 89be bf5a 84bd
00000220: 48b1 1d3e baa2 21bd 0492 663d 84c9 21be
00000230: 1f05 dbbd 91d3 843e 9869 58bd 679b dd3d
00000240: c2f5 98be 02bd 80be e53f a93e 373a 5abc
00000250: 5ca6 d73e 2ab2 15be d8ed 6b3e fc11 403e
00000260: 558f bebe 89d5 7abe 02e6 ba3e ec28 14be
00000270: 62ab ccbe 1b4c a43e 05c7 d23e e7f7 8f3e
00000280: 00ef 893e ce49 0fbe 78a0 ba3e bd27 44be
00000290: 8da5 313e 9893 d5be 8f0b c33e 716c aabe
000002a0: 02bb d2be f7fb 2e3e 20b5 bf3e cbfd b3be
000002b0: ba9a cf3e 145e 8a3d 3ea7 603e 8a67 b43d
000002c0: 288d e0be 109b ba3e 3635 b23e 3567 693e
000002d0: 7645 b13b 7148 323e d2f2 bf3c 1c07 fd3d
000002e0: c52a 7bbd c8b5 cb3e 18d9 12be 66d1 8bbd
000002f0: 56e5 e83d 78b6 c03e 46c7 77be d1a4 40be
00000300: 3a42 c3be d19c a73e ce3c cf3e 0be9 b03d
00000310: 653e b8be 04b4 acbe 6dc2 ae3e a229 f03c
00000320: 9670 c33d 2403 83be 9e6e b7be 13ec 5fbe
00000330: adc5 d4be d58f 9a3e 70b4 1f3e 1b24 b7be
00000340: e315 d93e 5708 dbbd e191 5e3e 48fb bd3d
00000350: 9c04 1d3e face 25bd b55b 48bd 11cd 54be
00000360: 06b2 013e 11c7 193d 67b8 9d3e 66dd a6be
00000370: 0992 263e 0da1 053e b53f 4d3c 7f13 7bbe
00000380: 45a9 5fbe dabf a63e 85af 983e d997 323e
00000390: bc72 d2be 2c60 93be d6f7 123e feae d73e
000003a0: 1eed d2be 432f d93d f76a d1be b8d6 d4be
000003b0: ba8e a7be 2c37 5abe b19f 86be c864 80be
000003c0: 9622 323d 73ee acbd bcb6 823e df18 ca3d
000003d0: a87f 30be fd9a 95be 9a4e a83e eb3a a63b
000003e0: afb8 cb3d 0b6c 583e 87e7 b0bd 3427 62be
000003f0: e14e dc3c e28e 77be 818b 5b3e 2c09 233e

bias f4 [16]
0.0 -0.005307787 0.009688272 0.0057112747 0.009090842 -0.0074643455 -0.009195739 0.0
0.00912564 0.0 -0.009640502 -0.010342485 0.0 -0.0073879454 0.0 0.008724894
00000000: 0000 0000 f2ec adbb 8fbb 1e3c a525 bb3b
00000010: c1f1 143c 7897 f4bb baa9 16bc 0000 0000
00000020: b583 153c 0000 0000 32f3 1dbc 8773 29bc
00000030: 0000 0000 9416 f2bb 0000 0000 dcf2 0e3c

weight f4 [16, 16]
-0.21305618 -0.13822494 0.090762444 0.06151891 0.064846694 -0.21532597 0.085637435 -0.18468459
0.09074422 0.018416004 0.02164633 -0.17664646 -0.34869537 -0.3066507 0.09849984 0.18893656
-0.10208071 0.29549578 -0.17276071 0.21886702 0.078297235 0.37958917 0.31883568 -0.12755719
0.005955816 -0.32757172 0.2456811 -0.105705194 -0.34261304 -0.18410502 -0.3886513 -0.12864168
-0.14525512 -0.4170397 0.12722601 -0.3003879 0.10346246 -0.19957665 0.046981584 -0.20330253
-0.06980791 0.03337864 0.19077343 0.15210569 0.33337373 0.4050809 -0.41075587 -0.09521488
0.19391513 -0.16835715 -0.12699541 -0.28148636 0.08112056 -0.12692118 -0.064079426 0.22699907
0.3072535 -0.2915454 -0.3601517 0.17822312 -0.29860204 -0.04561046 0.070000194 -0.42942145
0.34221113 0.12963754 0.041592944 0.035837308 -0.3597222 0.22924739 -0.1569166 -0.29785258
-0.017904717 0.33965877 -0.31426665 -0.07741833 0.16821107 -0.35014927 0.360311 0.017322194
-0.0041690194 0.13110667 -0.038599983 0.20278388 0.2836194 -0.43539008 0.36595434 0.41763085
-0.095831126 0.10571449 0.26127174 0.40510905 0.13502894 0.22166076 -0.30327925 -0.43111274
0.13215257 0.10632598 -0.1246741 -0.29045153 -0.09348019 -0.25561658 -0.21640961 0.12125118
-0.028514566 -0.021632496 -0.08557152 -0.26072323 0.4161638 0.25780743 -0.13449278 0.11695977
0.35251865 -0.26749206 -0.20887415 -0.33132115 -0.22572026 -0.006652416 0.22029948 0.39021
0.36272246 0.24930376 0.28193882 -0.11019591 0.33085513 -0.074632235 -0.06515073 0.08255624
0.09384343 -0.32734877 -0.021099482 -0.41990268 -0.33184826 0.11650546 0.35269228 0.07478477
-0.31051993 0.25985578 -0.3381797 0.09522083 0.07702897 0.40083644 0.025537329 -0.28393826
0.34493977 0.08028498 -0.16669512 -0.43930176 -0.19913493 0.30990845 0.27512 -0.01925177
-0.19890806 -0.060931485 0.34051657 0.27386954 -0.040154886 0.15128927 -0.0033994298 0.15799852
0.14285947 0.29717425 -0.3542312 0.020751202 -0.040331475 -0.08512914 -0.27653223 0.14325178
0.25092494 -0.023651889 -0.19535701 -0.12062834 -0.06037307 0.05934177 0.37794644 -0.0076235784
-0.01158767 -0.26521644 0.2850398 0.08665967 0.39144585 -0.17184468 0.054041963 0.13484782
0.34179172 0.16639233 0.23634796 -0.008620563 -0.20730968 0.1011801 0.22522224 -0.293876
-0.08017918 -0.3122738 -0.19012398 -0.18367496 0.03346297 0.21964994 0.18712834 0.31065208
0.25674483 -0.02539615 -0.33068863 0.03839965 -0.2775252 0.31937012 -0.4247891 -0.13963425
0.02283646 -0.26013675 -0.30838785 -0.1262699 -0.37381092 0.09790359 -0.31047702 0.23195311
-0.2955786 -0.34809616 0.12867768 -0.3920386 0.42650485 0.27119368 -0.2416777 0.21340945
0.42205456 -0.28906226 0.2789548 0.11666931 -0.3743658 -0.097617775 -0.053310487 -0.29708138
-0.10327502 0.25055867 0.32517785 0.051510476 -0.14783375 -0.41300532 -0.2924508 -0.02154588
0.004754329 0.15199499 -0.034378123 -0.38984382 -0.26283705 -0.0996511 0.30058265 0.10319956
-0.016211478 -0.39194286 -0.34995776 0.030244365 -0.29968336 0.38661754 -0.4314528 -0.22032055
00000000: 662b 5abe d78a 0dbe a9e1 b93d 41fb 7b3d
00000010: 58ce 843d 697e 5cbe ae62 af3d f51d 3dbe
00000020: 1bd8 b93d 29dd 963c a553 b13c cfe2 34be
00000030: 3388 b2be 5201 9dbe 49ba c93d 9678 413e
00000040: b10f d1bd 394b 973e 2fe8 30be ad1e 603e
00000050: 4d5a a03d 8359 c23e 6e3e a33e 5a9e 02be
00000060: 0129 c33b 7bb7 a7be d493 7b3e f77b d8bd
00000070: fa6a afbe 0786 3cbe 4efd c6be a5ba 03be
00000080: c2bd 14be 3a86 d5be 8947 023e 71cc 99be
00000090: 20e4 d33d d25d 4cbe c36f 403d 8a2e 50be
000000a0: 73f7 8ebd 0ab8 083d 1c5a 433e 98c1 1b3e
000000b0: f6af aa3e c466 cf3e 984e d2be 0500 c3bd
000000c0: b091 463e d165 2cbe 160b 02be fb1e 90be
000000d0: 8922 a63d a0f7 01be 133c 83bd 7272 683e
000000e0: 5550 9d3e 7045 95be ce65 b8be 1f80 363e
000000f0: 5ee2 98be 09d2 3abd 435c 8f3d 21dd dbbe
00000100: 4c36 af3e b4bf 043e 5d5d 2a3d 24ca 123d
00000110: 822d b8be d4bf 6a3e bfae 20be 2280 98be
00000120: eaac 92bc c1e7 ad3e 8fe7 a0be 808d 9ebd
00000130: 863f 2c3e c446 b3be af7a b83e 46e7 8d3c
00000140: 459c 88bb d440 063e 041b 1ebd 94a6 4f3e
00000150: 9036 913e 73eb debe 5e5e bb3e b6d3 d53e
00000160: 1c43 c4bd d780 d83d 69c5 853e 746a cf3e
00000170: 0745 0a3e 0afb 623e 6b47 9bbe cfba dcbe
00000180: 0153 073e 6fc1 d93d 2255 ffbd 10b6 94be
00000190: 8b72 bfbd 2de0 82be 7b9a 5dbe 8a52 f83d
000001a0: 6197 e9bc a236 b1bc 1f40 afbd 847d 85be
000001b0: 6c13 d53e 56ff 833e 7ab8 09be 9b88 ef3d
000001c0: 537d b43e b8f4 88be 1be3 55be eda2 a9be
000001d0: 3623 67be 83fc d9bb 3096 613e 9bc9 c73e
000001e0: c2b6 b93e 7c49 7f3e 495a 903e 65ae e1bd
000001f0: d865 a93e c9d8 98bd bf6d 85bd 3f13 a93d
00000200: fc30 c03d 429a a7be d2d8 acbc 7cfd d6be
00000210: 04e8 a9be 6a9a ee3d 1594 b43e c228 993d
00000220: 78fc 9ebe d10b 853e e425 adbe 2303 c33d
00000230: 5dc1 9d3d 6f3a cd3e a933 d13c 5b60 91be
00000240: f29b b03e 746c a43d 20b2 2abe 29ec e0be
00000250: 07ea 4bbe 52ac 9e3e 87dc 8c3e e3b5 9dbc
00000260: 8eae 4bbe 4b93 79bd 3058 ae3e a138 8c3e
00000270: 7379 24bd 93eb 1a3e f8c8 5ebb 5dca 213e
00000280: c149 123e 3927 983e cb5d b5be 6dfe a93c
00000290: 9e32 25bd 3058 aebd a295 8dbe 98b0 123e
000002a0: 3c79 803e 9bc1 c1bc ab0b 48be fe0b f7bd
000002b0: c149 77bd 5b10 733d 3282 c13e 36cf f9bb
000002c0: 36da 3dbc 73ca 87be bdf0 913e a07a b13d
000002d0: 976b c83e 0df8 2fbe 1b5b 5d3d 8c15 0a3e
000002e0: 53ff ae3e c062 2a3e 3305 723e 433d 0dbc
000002f0: fd48 54be 8337 cf3d a9a0 663e ea76 96be
00000300: fb34 a4bd 5ae2 9fbe dcaf 42be 4a15 3cbe
00000310: 7810 093d eaeb 603e 929e 3f3e ca0d 9f3e
00000320: 0f74 833e 960b d0bc 0550 a9be f448 1d3d
00000330: c817 8ebe 7b84 a33e f57d d9be 48fc 0ebe
00000340: 8713 bb3c a530 85be 03e5 9dbe e64c 01be
00000350: 2564 bfbe ad81 c83d d8f6 9ebe 1e85 6d3e
00000360: 1456 97be a939 b2be 15c4 033e 49b9 c8be
00000370: d85e da3e e6d9 8a3e 5c7a 77be 0288 5a3e
00000380: 8917 d83e f8ff 93be 2ad3 8e3e 52f0 ee3d
00000390: e0ac bfbe d4eb c7bd 195c 5abd 0d1b 98be
000003a0: db81 d3bd 3a49 803e b67d a63e a6fc 523d
000003b0: bb61 17be 6f75 d3be 1cbc 95be fc80 b0bc
000003c0: 34ca 9b3b 93a4 1b3e 13d0 0cbd 9c99 c7be
000003d0: 9492 86be e015 ccbd f8e5 993e 4a5a d33d
000003e0: efcd 84bc bcac c8be aa2d b3be 08c3 f73c
000003f0: 1970 99be bcf2 c53e 62e7 dcbe b69b 61be

bias f4 [16]
0.0 -0.0072628115 0.011015435 0.0 0.0 -0.010787523 0.0 0.0
-0.0071391948 -0.010399517 0.0 0.0011690514 0.0015800216 0.0 0.0 0.0043653045
00000000: 0000 0000 e1fc edbb 157a 343c 0000 0000
00000010: 0000 0000 27be 30bc 0000 0000 0000 0000
00000020: e8ef e9bb bc62 2abc 0000 0000 db3a 993a
00000030: ba18 cf3a 0000 0000 0000 0000 d40a 8f3b
