ood/clintox.pt (torch, 347597 bytes, 62 tensors)

weight f4 [16, 9]
00000000: 8f05 c03e 4cd8 293e 4a81 dbbe 6a53 7f3d
00000010: 4467 58be e4c7 923e 924f 5fbe 9d06 84bd
00000020: a745 f73d e3a1 a73e df36 6cbe b2c2 bd3e
00000030: bdb2 adbe feb7 e2bd c306 90be 7172 e03d
00000040: e34b c8be 3483 143a 3877 adbe e66f a13e
00000050: b954 e3be 2604 5cbe dfe5 d4be f612 9ebe
00000060: d87b 103d d063 6e3e 57c6 7a3e 9409 c6be
00000070: 8921 b2bd a1e8 d1bd 2670 533e c664 4cbd
00000080: dfed 83bd fcca 9cbe 7680 aebe 80ab bdbc
00000090: 3baf 753e 362f 74be 3a0f e53d 4ff8 7c3e
000000a0: c255 2fbe ffe7 e93e e2dc e73e 997d 943e
000000b0: 4aec 553e 913c c5be 73ab 873e 8355 58bd
000000c0: 7cf6 c23e 8324 cbbe f087 8fbc 7819 e63e
000000d0: 6d61 b83d 2405 253e 7943 eebb 4e3e 71be
000000e0: 1db0 723e e48f c33e dfda 863e 2fe5 b3be
000000f0: 9957 abbe 2b01 f03e 8bc5 87bd 671d 4e3e
00000100: fcde 0b3e 03f7 9fbe 5efa d53e 42d8 ad3d
00000110: cc4b 61be b27c eb3e b1fd 203e ba5e ec3d
00000120: 9b13 acbe 8fda db3e b720 7ebe e6cd 2fbe
00000130: f96a f3be 6a0c 0b3e 0d2f 8ebe c782 debe
00000140: 074e b03e e8d1 e4be bfdc cfbd 0817 3dbe
00000150: bdcc 103d 4623 933d a791 dd3e d24f 183e
00000160: df4c 22be 88fd 94be d065 07be 1592 8a3e
00000170: 2bf6 f2be 09ae 3c3e 4942 0cbd 6f09 6bbe
00000180: 2707 a43e 5a03 7e3e e210 8b3c e0a8 77be
00000190: f4a4 98be 8e06 07be 955b 9bbe 38d1 aebd
000001a0: c6b7 283e 6967 5bbd 286e 823d 920a 37be
000001b0: 724a 02be bdea 943e 5382 58bd 3eaf 043e
000001c0: 7cab a9be 3dff 85be 58f8 c23e 0f39 82bc
000001d0: 9051 f73e 945c 29be 2e76 853e 7d4d 593e
000001e0: 0a98 d7be a9e4 8dbe 9473 d33e ad9f 27be
000001f0: 9b8e e7be 94e1 b93e bad9 f03e d64a a43e
00000200: d751 a23e 8843 13be 5339 d53e 9d80 51be
00000210: 5091 4d3e 2e4c eebe 0c37 df3e d1db b6be
00000220: 0868 e7be ed6f 543e 5c7b db3e 68fa c8be
00000230: d9b5 fd3e f7f6 b53d 67a3 813e f2d9 d53d
0.3750424 0.16586417 -0.42872077 0.06233541 -0.21133143 0.2866813 -0.21807697 -0.06446574
0.12073832 0.32740697 -0.23067807 0.37062603 -0.3392543 -0.1107025 -0.2813016 0.10959328
-0.39120397 0.0005665303 -0.3388002 0.31530684 -0.44400576 -0.21485958 -0.41581628 -0.3087384
0.035274357 0.23280263 0.24489723 -0.38679183 -0.086978026 -0.102494486 0.2064825 -0.049900793
-0.06441855 -0.30623615 -0.34082383 -0.023153067 0.23992626 -0.23846135 0.11184545 0.24704097
-0.17122558 0.4568481 0.45285708 0.29002073 0.20890918 -0.3852277 0.26497993 -0.052815925
0.38078678 -0.39676294 -0.017520875 0.44941306 0.090029575 0.16115242 -0.007271227 -0.23558924
0.23699994 0.38195717 0.2633886 -0.3513579 -0.3346527 0.4687589 -0.06629475 0.20128404
0.1365928 -0.31243142 0.41792578 0.084885135 -0.2200157 0.45993572 0.15721776 0.11541505
-0.33608708 0.42940184 -0.24817167 -0.17168388 -0.4754255 0.13578954 -0.27770272 -0.4345915
0.3443453 -0.44691396 -0.10149526 -0.18465817 0.035351504 0.07184462 0.43275186 0.14874199
-0.15849636 -0.2909968 -0.13222432 0.27064577 -0.47453436 0.18425764 -0.034242902 -0.22952817
0.32036707 0.24805966 0.016975824 -0.24185514 -0.2981335 -0.13186094 -0.3034331 -0.08535999
0.16476354 -0.053565416 0.06368667 -0.17875126 -0.12723711 0.2908534 -0.05285866 0.12957475
-0.33138645 -0.26171294 0.38080096 -0.015896348 0.48304415 -0.16539222 0.26066726 0.21220966
-0.42108184 -0.27713516 0.41299117 -0.16369505 -0.45225987 0.36304915 0.47041112 0.32088345
0.31703064 -0.1438123 0.41645297 -0.20459218 0.20074964 -0.46542495 0.43596685 -0.35714582
-0.45196557 0.20745821 0.42867553 -0.39253545 0.495528 0.088849954 0.2531998 0.104419604

bias f4 [16]
00000000: 2e79 a1bb 2cf7 bf3b 0000 0000 0000 0000
00000010: 085d f63b 9203 7e3b f02c a9bb 65dd 49bb
00000020: 0000 0000 0000 0000 16d2 0fbb 0000 0000
00000030: ea14 ed3b 0000 0000 be65 9e3b a74d a63b
-0.004927776 0.0058583226 0.0 0.0 0.0075184144 0.0038759452 -0.0051628277 -0.0030802127
0.0 0.0 -0.002194529 0.0 0.007235159 0.0 0.004833906 0.005075175

weight f4 [16, 16]
00000000: 04ec dbbe 20e4 bf3e 3635 b23e 3567 693e
00000010: f7ff d43b 7152 353e 0044 c83c 3ca8 0c3e
00000020: f55a 54bd 843a d03e 30c3 10be 66d1 8bbd
00000030: e9a7 043e 2680 c43e 1fa9 76be ec41 3fbe
00000040: 8bb0 c5be 50a3 a43e ce3c cf3e 0be9 b03d
00000050: fb25 bbbe 8111 afbe 17e0 ab3e b360 c23c
00000060: 9670 c33d 2403 83be 9e6e b7be 13ec 5fbe
00000070: af37 d7be d58f 9a3e 2ee6 193e ea1e babe
00000080: 7227 da3e 22c3 d5bd e191 5e3e 48fb bd3d
00000090: 9c53 183e 4d94 2fbd a5a5 5abd 2961 51be
000000a0: d420 093e ca06 373d fbb1 9d3e 66dd a6be
000000b0: b6e8 2a3e 54cc 0c3e a2cc 023c f48a 7fbe
000000c0: 45a9 5fbe dabf a63e 85af 983e d997 323e
000000d0: bc72 d2be 2c60 93be d6f7 123e feae d73e
000000e0: 1eed d2be 432f d93d f76a d1be b8d6 d4be
000000f0: ba8e a7be 2c37 5abe b19f 86be c864 80be
00000100: d019 fc3c 0011 cbbd bcb6 823e df18 ca3d
00000110: 5bb9 36be 138e 98be 1d39 a53e 79d6 42bc
00000120: f18c ba3d ac54 503e 5b70 b3bd 3427 62be
00000130: 9455 253c 89a7 7ebe b53c 553e 0e0e 1d3e
00000140: c907 55be daa2 0bbe a9e1 b93d 41fb 7b3d
00000150: b87a 8b3d 7ffa 56be 0422 b63d 64e4 39be
00000160: 1bd8 b93d 29dd 963c a553 b13c cfe2 34be
00000170: 4af2 afbe 5201 9dbe db0d cf3d fecc 453e
00000180: b10f d1bd f234 993e 14c0 2abe 1c8e 6c3e
00000190: 8d59 b03d 0449 c53e 64d5 a53e 5a9e 02be
000001a0: 44ca 413c 7bb7 a7be da75 803e a62d cbbd
000001b0: fa6a afbe 319f 36be 4efd c6be e621 f9bd
000001c0: c2bd 14be a96c d7be edd4 f23d dd2a a2be
000001d0: a997 ba3d 957a 54be 1057 263d 8a2e 50be
000001e0: e090 9fbd 0ab8 083d bca7 3c3e ddef 113e
000001f0: f6af aa3e 2c4e cb3e 984e d2be f21f d9bd
00000200: 6969 403e a788 32be 160b 02be fb1e 90be
00000210: 8c72 9a3d 7b66 07be 18a6 8ebd c0ad 623e
00000220: 5550 9d3e 7045 95be 3589 b8be 1f80 363e
00000230: a6a4 9bbe 09d2 3abd 40a7 833d cbc9 debe
00000240: a73d aa3e 99cd f53d 5d5d 2a3d 24ca 123d
00000250: 33e8 bcbe d4bf 6a3e e54d 29be 502d 9dbe
00000260: eaac 92bc c1e7 ad3e b51d a1be 808d 9ebd
00000270: b715 283e c446 b3be daa5 b33e 46e7 8d3c
00000280: a9a5 f4bb 42f2 063e 79ec f5bc 8ccc 5f3e
00000290: 9c4c 953e ba16 ddbe 6c9a bc3e 4bcf d33e
000002a0: 19ae b3bd d780 d83d 2c22 883e b03c d43e
000002b0: 21ce 053e fd2b 6b3e fc36 9dbe 6fab d9be
000002c0: 66e2 fe3d a36a ca3d 2255 ffbd 10b6 94be
000002d0: c781 cebd 2de0 82be a4c1 61be 47c9 e93d
000002e0: 6197 e9bc a236 b1bc 891f b0bd 847d 85be
000002f0: ade3 d43e 56ff 833e cd41 11be 9b88 ef3d
00000300: 89c1 b13e a139 88be 1be3 55be eda2 a9be
00000310: 8927 65be 9933 c5bb 6c22 653e 51b2 c83e
00000320: c2b6 b93e 7c49 7f3e cd72 903e 65ae e1bd
00000330: 0592 a93e c9d8 98bd 0f64 7fbd 5cb7 af3d
00000340: 88ca cf3d a679 a1be 0292 71bc befb d2be
00000350: 0547 a2be 3a44 fb3d 1d28 bb3e 04af a83d
00000360: a8c2 9bbe d10b 853e 9327 aabe 64ba d03d
00000370: 5dc1 9d3d d666 d03e 53a8 083d 5eb8 8bbe
00000380: c37b ad3e ed71 a13d 3527 22be bd5e d9be
00000390: 40c1 45be b007 a03e 208e 8d3e b617 c9bc
000003a0: 388c 43be 4b93 79bd 6a8a b03e bbe2 903e
000003b0: 39d9 39bd c4f1 223e 95d2 0ebc ae92 263e
000003c0: a730 183e 3a2f 9b3e cb5d b5be 6dfe a93c
000003d0: 86f5 0dbd 1326 a3bd 75bc 8abe ad6e 183e
000003e0: 3c79 803e 9bc1 c1bc 2094 45be fe0b f7bd
000003f0: a680 60bd 5b10 733d 5d6a c43e 7c17 feba
-0.42953503 0.37478733 0.34806222 0.22793277 0.00650024 0.1770723 0.024446487 0.13736051
-0.051844556 0.40669644 -0.14136958 -0.06827049 0.12954678 0.3837902 -0.24087952 -0.18677491
-0.38611254 0.32155848 0.40476078 0.086381994 -0.36552414 -0.34193042 0.33569404 0.02372775
0.095429584 -0.25588334 -0.35826582 -0.21867399 -0.4203467 0.3018786 0.15029213 -0.3635171
0.4260822 -0.10437609 0.21735336 0.09276444 0.14875644 -0.04286604 -0.053380627 -0.2044722
0.13391429 0.04468421 0.3079985 -0.3259079 0.16690335 0.1374982 0.007983359 -0.2495535
-0.21841915 0.32568246 0.2982141 0.17440738 -0.4110316 -0.2878431 0.14352354 0.42125696
-0.4119653 0.106047176 -0.4090192 -0.41570067 -0.3272608 -0.21310109 -0.2629371 -0.2507689
0.030774027 -0.09915352 0.2553004 0.09868025 -0.17844145 -0.29795894 0.32270136 -0.011891955
0.09108914 0.203448 -0.087616645 -0.22085267 0.010091204 -0.24868597 0.20823939 0.15337393
-0.20803751 -0.13636342 0.090762444 0.06151891 0.06810516 -0.20993994 0.08893207 -0.1815353
0.09074422 0.018416004 0.02164633 -0.17664646 -0.3436454 -0.3066507 0.101100646 0.1931648
-0.10208071 0.29923207 -0.16674834 0.23101085 0.086108305 0.3853227 0.32389367 -0.12755719
0.011828009 -0.32757172 0.25089914 -0.09920816 -0.34261304 -0.17834164 -0.3886513 -0.12164669
-0.14525512 -0.4207509 0.118570186 -0.31673327 0.09110958 -0.20749886 0.040610373 -0.20330253
-0.077913046 0.03337864 0.1842336 0.14251657 0.33337373 0.39708078 -0.41075587 -0.10601796
0.18790211 -0.17434941 -0.12699541 -0.28148636 0.07541379 -0.13222687 -0.069652736 0.22136593
0.3072535 -0.2915454 -0.3604218 0.17822312 -0.30399054 -0.04561046 0.06428385 -0.4351333
0.33250162 0.12002105 0.041592944 0.035837308 -0.36895904 0.22924739 -0.1653362 -0.30698633
-0.017904717 0.33965877 -0.31467977 -0.07741833 0.16414534 -0.35014927 0.35087472 0.017322194
-0.0074660373 0.13178352 -0.030019986 0.21855372 0.2916001 -0.43181401 0.36836565 0.4136909
-0.08773441 0.10571449 0.2658857 0.4145255 0.13066913 0.22965999 -0.30706012 -0.42513606
0.12445526 0.098836206 -0.1246741 -0.29045153 -0.10083347 -0.25561658 -0.22046524 0.11415344
-0.028514566 -0.021632496 -0.08599765 -0.26072323 0.41579953 0.25780743 -0.14185257 0.11695977
0.34717968 -0.26606467 -0.20887415 -0.33132115 -0.22378363 -0.006018114 0.22376412 0.39198545
0.36272246 0.24930376 0.28212586 -0.11019591 0.33119217 -0.074632235 -0.062351283 0.08579895
0.10146052 -0.31538123 -0.014744284 -0.4120769 -0.3169481 0.122688726 0.36554042 0.082365066
-0.30421948 0.25985578 -0.33233318 0.10191801 0.07702897 0.40703458 0.03336365 -0.27289099
0.33883485 0.07883058 -0.15835269 -0.42455092 -0.19312 0.31255865 0.27647495 -0.024547439
-0.19096458 -0.060931485 0.34480602 0.28297982 -0.045373175 0.15912539 -0.008717199 0.16266891
0.1486231 0.30309469 -0.3542312 0.020751202 -0.034657978 -0.079662465 -0.27096906 0.1488597
0.25092494 -0.023651889 -0.19294786 -0.12062834 -0.05481019 0.05934177 0.383624 -0.0019385661

bias f4 [16]
00000000: 8bc5 933a 84b1 babb 5e76 94bb 0000 0000
00000010: 3b19 c7bb 60e1 453b 0000 0000 0000 0000
00000020: 0dcc b8bb a859 05bc d297 85bb 5887 f6bb
00000030: 62d3 583b 161c ee3b 73aa acbb b847 b93b
0.0011274082 -0.005697431 -0.004530712 0.0 -0.0060760058 0.0030194148 0.0 0.0
-0.005639559 -0.0081390515 -0.0040769363 -0.0075234585 0.0033084978 0.0072665317 -0.0052693426 0.0056543015

weight f4 [16, 16]
00000000: 5a42 6dbc 441d 89be b93a 943e 9c6c ac3d
00000010: 72be c63e 2af4 33be 2b64 603d 8c15 0a3e
00000020: f482 ad3e a050 353e e922 6e3e d053 1ebc
00000030: 24fd 58be 131f b33d 593e 623e 5fee 97be
00000040: fb34 a4bd c347 9fbe f9ca 42be c07b 40be
00000050: 1e02 053d 1e25 613e b688 403e ca0d 9f3e
00000060: ce92 833e 960b d0bc 45ce a8be 6d20 1c3d
00000070: c817 8ebe 1d96 a33e f57d d9be 37bd 0fbe
00000080: cbde e43c fcc1 81be f8ad 99be e64c 01be
00000090: 7530 bcbe 0432 d93d d8f6 9ebe 1e85 6d3e
000000a0: ec17 94be c711 abbe 054e 0a3e e583 c8be
000000b0: b498 dd3e 5cef 8e3e 0218 71be ec9b 613e
000000c0: a724 d73e 31a8 8fbe 1ce7 943e 52f0 ee3d
000000d0: 4fa6 babe cafb afbd 195c 5abd 0d1b 98be
000000e0: 2b80 bdbd ab11 873e c6a1 ab3e f3da 7c3d
000000f0: c2d2 0cbe b415 d3be 85f1 8fbe 4b07 28bc
00000100: 34ca 9b3b cfee 173e fedb 1dbd 9028 c9be
00000110: 5fd7 88be 6585 d4bd 13e0 973e 4a5a d33d
00000120: 1e0c a7bc bcac c8be a83a b5be 60c7 d43c
00000130: 1970 99be 58d5 c33e 62e7 dcbe da0c 66be
00000140: 69eb d3be 05ec af3e 2c4a bc3e 50ff 5e3e
00000150: a4a4 86be 4de3 bfbe 67e7 d0be d8af 5f3e
00000160: 86dc 7e3d 7790 653e e15e 173e 77df b63e
00000170: dc72 d93e 9830 873e 42bd b73d e324 95be
00000180: 63fa d9be 6e62 c33e b43e ea3d 5b5a cf3e
00000190: 429e 5dbe 9e27 86bd 698b afbe dd65 283e
000001a0: 52ce ab3e 867c cb3e b8b3 123d 02ec 1cbe
000001b0: 1baa 923e 2f28 4a3e 5f0c 7d3e e9d3 50be
000001c0: 181a 403d b104 e8bd f69f b5bd 2d23 1dbe
000001d0: dcf0 c33d 7752 133e 3c0a 923d 45e0 37bd
000001e0: 9b5f b4be 8633 15be 93a5 b53e d885 97be
000001f0: ef2c d4be 03b0 d8bd 05f5 0f3e 16de a6be
00000200: a1e5 0c3e 1c89 6ebe 5cf3 39be c0ed 84be
00000210: b17c 293a 67d7 afbe fdcf b9bd 3865 4dbe
00000220: 3392 ba3e 909b 69be e8c8 cc3d eb21 89be
00000230: 939f 5d3e d759 c7be 3c32 41be 344b 583e
00000240: 6de3 ae3e c6de 233e 7b70 8abe ee3c 4c3d
00000250: 8f24 55bc 3291 a43e 0e7d f5bd 3fc0 95be
00000260: 3f48 883e e616 213e 86cc 50be d4af b43e
00000270: 4e85 763e 9e68 cdbe 0e03 933e af0a 51be
00000280: ddcb dbbd 437a 883e 1844 ee3c cb8d d23e
00000290: 1467 c3be ab40 3c3e 7420 743d f3dd eabd
000002a0: 30de 11be f217 283e 2e93 9d3e 8d08 d7be
000002b0: db14 303e efdb a7be 6309 8ab9 4143 80be
000002c0: 6055 2e3d 192f cabe d1e4 493e 6d9a 9bbe
000002d0: 8e1b 8d3e 518e a8be 4dc4 a53e 9fd7 873e
000002e0: 16e3 dcbe d3c4 bdbe 6101 4abe 7f75 98be
000002f0: c719 dcbe 7c6d 69bb 5e54 8ebe 20f6 203e
00000300: dc34 c6be a275 83be cf52 363e 052e 203e
00000310: 7fdb a73e c6ed bbbe 09f1 aabe d7c4 37be
00000320: b4bd 603d 400f 1fbe 6f7c ed3d 1835 a73e
00000330: 180f e33d 925b a83e 17ee d13d 3ac3 343e
00000340: bacb b5be 868a a6bd 28c0 b13e de6b 2cbe
00000350: 6e3f 22be 90ec 45be 1543 1f3e f51b c63e
00000360: e9d8 303e c451 c23e fe0d 9a3e 0ced 74bd
00000370: b8b6 1bbe 18d4 1fbe 41e4 363e 6660 913e
00000380: 9f37 d4be 47e3 52be 9881 d5be 4818 85be
00000390: cacb af3e f221 c83e c651 8fbe 1bb9 5dbe
000003a0: 28f2 103e f843 263e 8b63 363d b25f a3bd
000003b0: d3cd 63be de90 c8be 8a67 f8bd d1b9 b3be
000003c0: b064 bf3e 073f bc3e 3a58 a1be a093 3f3e
000003d0: e2cf 9e3e 644f b43e ad0f b43e 5e13 9dbe
000003e0: 0e55 aa3e 5ae6 d13e 90e3 aa3c b398 563e
000003f0: 51cf 37be fffa db3e 0340 cbbe 28dc 8bbe
-0.0144811515 -0.2678014 0.28951052 0.08419153 0.38817173 -0.1757361 0.054783028 0.13484782
0.33888972 0.17706537 0.23255505 -0.009663537 -0.21190315 0.08746161 0.22094096 -0.2967405
-0.08017918 -0.31109437 -0.1902274 -0.18797207 0.032472722 0.21986815 0.18802151 0.31065208
0.2569794 -0.02539615 -0.3296987 0.03811686 -0.2775252 0.31950465 -0.4247891 -0.14037023
0.027938267 -0.2534331 -0.3001554 -0.1262699 -0.3675572 0.10605243 -0.31047702 0.23195311
-0.289245 -0.33412 0.13506325 -0.39163128 0.43280566 0.27916992 -0.23544315 0.22032136
0.4202015 -0.28058007 0.29082572 0.11666931 -0.36455008 -0.08592947 -0.053310487 -0.29708138
-0.09252962 0.26380667 0.3352186 0.061732244 -0.13752273 -0.41227496 -0.28113952 -0.010255645
0.004754329 0.14837192 -0.03853988 -0.3928876 -0.26726815 -0.103770055 0.29663143 0.10319956
-0.02039152 -0.39194286 -0.35396314 0.025973976 -0.29968336 0.38248706 -0.4314528 -0.2246584
-0.4139054 0.34359756 0.3677534 0.21777081 -0.26297486 -0.37478104 -0.40801546 0.21844423
0.062222026 0.2241839 0.14782287 0.35717365 0.42470443 0.26404262 0.08971645 -0.29129705
-0.42573842 0.38161033 0.11437741 0.40498623 -0.21642402 -0.06550525 -0.3428605 0.16445108
0.33555847 0.3974344 0.035815924 -0.15324405 0.28645405 0.19741891 0.2471175 -0.20393337
0.046899885 -0.1132902 -0.08868401 -0.1534545 0.09567425 0.14386927 0.07130858 -0.044891614
-0.3522919 -0.14570436 0.35477886 -0.29594302 -0.41440532 -0.105804466 0.14058311 -0.32591313
0.13759471 -0.2329449 -0.1815924 -0.2596264 0.0006465419 -0.34344026 -0.09072874 -0.20058143
0.36439666 -0.22813249 0.09999257 -0.2678369 0.21642904 -0.3893573 -0.18866819 0.21122438
0.34157887 0.1600295 -0.2703894 0.049862795 -0.0130092045 0.32142025 -0.11986743 -0.29248235
0.2661762 0.15731391 -0.2039052 0.35290396 0.24074289 -0.4011888 0.28713268 -0.20414232
-0.10732243 0.26655778 0.029085204 0.41123804 -0.3816458 0.18384044 0.059601262 -0.11468115
-0.14244914 0.16415384 0.30776352 -0.4199871 0.17195456 -0.32784984 -0.00026328405 -0.2505131
0.04256189 -0.39489058 0.19716193 -0.30391255 0.27560085 -0.3292108 0.32376328 0.26531693
-0.43142003 -0.37064227 -0.19727089 -0.29777142 -0.42988417 -0.0035618236 -0.27798742 0.15718889
-0.38712204 -0.25675684 0.17805026 0.15642555 0.3278465 -0.36704844 -0.3338702 -0.17946182
0.054868415 -0.15533161 0.115959994 0.32657695 0.11086863 0.32882363 0.1025049 0.17652598
-0.35506994 -0.0813189 0.34716916 -0.16838023 -0.15844509 -0.19328523 0.15552934 0.38693205
0.17270245 0.37953007 0.300888 -0.059796378 -0.1520642 -0.15608251 0.1786051 0.2839386
-0.41448686 -0.20594512 -0.41700435 -0.25995088 0.34335166 0.39088398 -0.27992076 -0.21652643
0.14154875 0.16236866 0.044528525 -0.07977237 -0.22246484 -0.39173025 -0.121291235 -0.35102704
0.37381506 0.36766836 -0.31512624 0.18708658 0.31017977 0.3521682 0.3516821 -0.30678838
0.33268017 0.40996057 0.020860463 0.20956688 -0.17950179 0.42964932 -0.39697275 -0.27316403

bias f4 [16]
00000000: 3a2b 99bb 0000 0000 866e d63b a458 183c
00000010: 0000 0000 8b13 adbb e3ba a4bb 43c8 9abb
00000020: 8a3e 213b b37e 23bb b803 b7bb 0000 0000
00000030: 7f1e 76bb 32fb 8dbb 0000 0000 e8f0 edbb
-0.0046743425 0.0 0.006543937 0.009298477 0.0 -0.0052818707 -0.0050271614 -0.00472358
0.0024603927 -0.0024947345 -0.00558516 0.0 -0.0037554798 -0.0043329233 0.0 -0.0072613843

weight f4 [16, 16]
00000000: 81e0 8e3d 27c6 41be f0b8 28be 924f 173e
00000010: 190b 7e3e c857 8f3e b467 bb3e b661 5a3e
00000020: 399f 47be 8743 1a3e f38a 88be a948 823e
00000030: 310e 373e 17aa ba3e 099e 7e3e f183 c73e
00000040: a1f8 b8bd aed7 bebe 4db6 b13e a98b c6be
00000050: 0a30 713d 4559 8f3d d34b 933d c3a6 9a3e
00000060: 43d4 bc3d f255 1abe 7f34 cbbc 37b9 dabe
00000070: ec91 94be 380f cfbc d4cb ca3e 1765 d6bd
00000080: cf60 693e 7c98 8fbe d421 b1be 131a 4b3e
00000090: f4cb 7f3e dd94 dbbc a778 a53e 4011 283e
000000a0: d03e 5b3e d472 a73d eabb db3e 2cf4 abbe
000000b0: ad44 b3bd db46 92be b71a 87be 839b ad3d
000000c0: ec8c 43bd f812 23bd 09bd 2d3e 1ab6 c93e
000000d0: 08e0 c9be b45b 09be 1c3c 29bd d1ad 7c3e
000000e0: b64f 3abe a54d cebe 9e91 2ebe 5a4f 71be
000000f0: 2621 d2be cd01 9dbe d90c 2fbe f462 1b3e
00000100: 7e82 78be 0e48 09be a37c b6be b595 87be
00000110: f2c9 99bd aedb 4ebe 6c9b 2cbd 8ed2 fc3d
00000120: ff0f 5d3d ba97 7dbe 0e6d a4bc 2060 133d
00000130: 991a fb3c 2868 2e3e 2e47 f7bd 8965 c3be
00000140: 7229 10be 9cf4 e6bd 05cb d0be 39eb b23c
00000150: e96b 15be 58e7 9f3e 3039 9b3e f8c7 973e
00000160: 04b7 47be 9dab 563c f081 cc3e c015 c6be
00000170: 5c10 2d3e 82af 31be ec83 29be 2d51 763e
00000180: 6fad eebc 7b5a bcbd 60e6 7f3e d3a8 14be
00000190: 1f69 b33e 86d4 b23c 5f32 2e3e 5ed7 c03e
000001a0: d526 2fbe e662 633e df34 993d b9e7 bdbe
000001b0: 3af4 d93e b114 8f3e a72c 303c a0f1 1f3e
000001c0: 1875 01be 9de0 55bd 5a85 efbb 5a1d 0b3e
000001d0: 690c ae3d c622 d53e 2338 b83e 50e1 7a3e
000001e0: 4ea2 30be c85b 5fbe bd1e b1be 126a 493e
000001f0: bc20 b13e ec04 ff3d c590 af3e ab0e 9fbe
00000200: c58b d7be 301a 243e 3df9 57be eba0 b13e
00000210: 04f0 62bc ad25 6f3d 4c73 0f3e 918f afbe
00000220: 0e93 b0bd 0468 933e 710e 12be d1c4 cf3d
00000230: 858d 69be 9752 953d 50cc 5cbe 0bea cabd
00000240: e485 713e 0107 37bc 3b4c 873e 1ce3 873e
00000250: 5e1b b33e 4107 e5bd 4920 c03d c46b d63d
00000260: c503 81be 28b7 663e 4735 85be de4b b6be
00000270: ff17 d03e afac 7e3d 94aa 933e 1737 c03e
00000280: 5f11 babe 0dc9 b2be 6787 a93d 882e 813d
00000290: d26c d7bc 3d5d 85be d3d7 d13d 1d92 663e
000002a0: 1010 99be 1af1 933e 7f69 cdbc 67b0 ba3e
000002b0: ef16 9bbb 9988 d63d 8687 67be 992a febd
000002c0: 9bf0 a13d e3a9 813d 710d 9e3e f1d3 80be
000002d0: d13b c93d 7748 61be a2a8 a1bd df53 8ebe
000002e0: a703 ac3e 5392 933e f67e bbbe 68c1 a8be
000002f0: e664 163e c649 a2be 4db7 3dbe 5841 d6be
00000300: bc56 9cbe 4d00 a43e 07a9 81be ef39 8f3e
00000310: 47f5 f43d 40bf 96be 381c cebd ea73 dabc
00000320: 6f0a 953e 8097 cfbe 43da ad3e a6fa d1be
00000330: e9b1 a1be f9be 91be bc2f 183e bc8b 9abe
00000340: 9795 b1be 65b9 233e 6360 a6be 9bbd 9ebe
00000350: 2cb1 c43e 18d9 7a3e d807 a2be 54e3 c43d
00000360: f168 8b3d 697e 6d3e 6e6b 703e 8794 da3e
00000370: 2442 d93d 337e 8a3d ca0e 42bd fcd8 c13d
00000380: 6758 ddbd c38c b83e 8c87 d43e ed71 2abd
00000390: 4903 cc3d 142a a4be 2a0e a7be eac3 97be
000003a0: 2b6a 9bbd 8d27 803e 5b99 a8bc ba37 b5be
000003b0: 29d3 fa3d 4882 853e 85a1 babe 6aa9 cabe
000003c0: 3e7a 57be efaf db3d e3fe f93d d46c 7dbe
000003d0: 34dc a13d 9214 9dbd a1a6 23bd 59fe c63e
000003e0: 7797 1d3e 24ea 9abc b4b2 773d 28f0 63be
000003f0: 6db0 9b3e 2e88 04bd 2a41 493e 4bd2 1bbe
0.069764145 -0.18923245 -0.16476798 0.14776447 0.24808921 0.2799666 0.36602557 0.21326336
-0.19494332 0.15064822 -0.2666851 0.2544606 0.17876507 0.36457893 0.24864973 0.3896785
-0.09031797 -0.37273926 0.34709397 -0.38778427 0.058883704 0.06999449 0.07192197 0.30205354
0.09220173 -0.15071848 -0.024805306 -0.42719433 -0.2901758 -0.025275812 0.39608634 -0.104685
0.22790836 -0.28046024 -0.3459612 0.19834165 0.24980146 -0.026804382 0.32318613 0.1641283
0.2141068 0.081761986 0.42916805 -0.33584726 -0.08753333 -0.28569683 -0.2638757 0.08476927
-0.047741815 -0.039813012 0.16966642 0.39396745 -0.39428735 -0.13413888 -0.04131709 0.2467568
-0.1819447 -0.40293613 -0.17047736 -0.23565426 -0.41040915 -0.30665436 -0.17094745 0.15174466
-0.24268529 -0.13406393 -0.35641965 -0.26481405 -0.07509221 -0.20200989 -0.04214041 0.123448476
0.053970333 -0.2476491 -0.020071533 0.035980344 0.030652331 0.1703192 -0.12074123 -0.38163403
-0.1407831 -0.11277124 -0.40779892 0.021840679 -0.14591946 0.3123119 0.30317068 0.29644752
-0.19503409 0.013102439 0.39942884 -0.3868847 0.16900772 -0.17352107 -0.1655423 0.24054404
-0.029135434 -0.09196945 0.24990225 -0.14517526 0.3504114 0.021829855 0.17011403 0.37664312
-0.17104657 0.22205696 0.074807875 -0.37090853 0.42569143 0.27945474 0.010752833 0.15619516
-0.12642324 -0.05221616 -0.007309598 0.13585415 0.08498461 0.41628093 0.3598033 0.24500012
-0.17249414 -0.21812356 -0.34593764 0.19669369 0.34595287 0.12452111 0.34290138 -0.31065878
-0.42098823 0.16025615 -0.2109117 0.34693083 -0.0138511695 0.05838554 0.14008826 -0.3428922
-0.086217985 0.28790295 -0.14263321 0.101449616 -0.22807892 0.072911434 -0.21562314 -0.099079214
0.23586231 -0.011171103 0.26425347 0.26540458 0.34981817 -0.11183024 0.09381158 0.104697734
-0.25198188 0.22530806 -0.2601721 -0.35604757 0.40643308 0.062176403 0.28841078 0.3754203
-0.36341378 -0.34919015 0.08277779 0.06307703 -0.026297007 -0.26047698 0.10246243 0.22516675
-0.29895067 0.28894883 -0.025074719 0.3646271 -0.0047329585 0.10475273 -0.22610292 -0.124104686
0.0790722 0.063312314 0.3086963 -0.25161698 0.09825862 -0.220003 -0.07893492 -0.27798364
0.33596537 0.28822574 -0.366203 -0.32960057 0.14686927 -0.3169691 -0.18526955 -0.41846728
-0.30534923 0.3203148 -0.2532427 0.27973887 0.119608454 -0.29442787 -0.10063976 -0.0266666
0.29109523 -0.40545273 0.33955583 -0.41011542 -0.31581047 -0.28466013 0.14861959 -0.30184734
-0.3468444 0.15988691 -0.32495412 -0.31004032 0.3841642 0.24496877 -0.3164661 0.09613672
0.06807125 0.23192753 0.23478481 0.42691442 0.106083184 0.06762352 -0.047377385 0.094652146
-0.10807877 0.36044893 0.41509664 -0.041612554 0.09961564 -0.32063353 -0.32627994 -0.29641658
-0.07588609 0.25030175 -0.020580938 -0.35394078 0.12247307 0.2607596 -0.36451355 -0.39582378
-0.21042725 0.10726916 0.12206819 -0.24748546 0.079033285 -0.07669939 -0.03995383 0.38865927
0.1538981 -0.018910475 0.06047316 -0.22259581 0.3040804 -0.032356434 0.19653764 -0.15216939

bias f4 [16]
00000000: b038 bebb c221 1f3b a5f9 4bbb 0000 0000
00000010: 5b6a 09bb abfe fd3a 2175 dcbb f811 d73b
00000020: 49a1 a433 0359 133a 0000 0000 169f d63b
00000030: 0000 0000 f691 e5bb b04d ec3b 9824 09bc
-0.0058050975 0.0024281596 -0.0031124142 0.0 -0.0020967934 0.0019378265 -0.00672783 0.0065634213
7.666183e-08 0.0005620869 0.0 0.0065497262 0.0 -0.0070059253 0.0072114095 -0.008370541

weight f4 [16, 16]
00000000: 27ff ff3d 2755 233e cb3e 5c3e 90cf 87bd
00000010: 3a77 5ebe 4ad3 023e 3db6 a63e 3da5 12be
00000020: 944b 48bd c578 0c3d 001a 6d3e 4197 ee3d
00000030: 247c e7bd f185 fc3d 438c 25be 8eb1 1abe
00000040: 5ae7 b83e e597 b1be 9b62 c6be 0ef2 b3bc
00000050: 7d06 c7be ce34 10bd 78e5 823e a351 54bd
00000060: 543d 193d 54de bb3e cfd9 8ebe dd31 9e3e
00000070: f95c 9b3e f945 0d3e e8cf 8e3e 6e97 9dbe
00000080: d1fd 813d 8cca 88bd 69ca 5dbe 4c2f d53d
00000090: 0216 dbbe 71ca b53e 4174 d6be 4648 d43e
000000a0: 6b33 fb3d 63d0 9c3e 4700 77be 897c 83be
000000b0: ebcc 933d 07d3 95be 9635 96be 1280 dcbe
000000c0: bbb5 7e3e 5e24 90bc 06c3 a03e c0ec b83e
000000d0: 922c f83d a1d2 203e 2c83 5ebe d877 fd3d
000000e0: 02ca 56bd 53dd d6be 017e a03d 88ae d7be
000000f0: e960 d8be 3822 9cbe 20da 32be 26cb c3be
00000100: b3af e03d 9fc1 c0be 00c3 993d b59d 97be
00000110: 25b6 5a3e 2452 853e b223 da3c e6f8 dabe
00000120: 832f 743e bc1e 483e d6c1 cdbe f45e 033e
00000130: 09a5 bebe e249 aebe 553a a9bd 2e79 87be
00000140: 02dd 2fbe 301a 923e cbb3 00be 0510 ba3d
00000150: 6059 bbbe f4a4 883c 7c0d 1f3e b1ba c9be
00000160: bee7 3abe 2b82 a3bd f526 c7be 0178 32be
00000170: 7db4 ba3e 6b0e cb3e bd31 d83e b945 d83e
00000180: db46 c23e c19e acbe 57c0 373e 836a c3be
00000190: 813e 7d3e 7535 e5bd f7c8 b73e ff23 ccbc
000001a0: d359 cabd a013 823e 9552 c33e 507c 133e
000001b0: 9308 863d 1f76 603e e6bb 9ebe 99be bbbc
000001c0: 5579 60bc 076b 9dbe be40 fb3d 24d2 683d
000001d0: 8fe3 bbbd 92df 0a3d 871a c5be 59cc a83e
000001e0: d2b3 ccbd 88e0 923e 5ebb b4be 0db5 aa3d
000001f0: fe60 54be 3670 cbbe 62b9 c33e 7640 ee3d
00000200: 0199 11be ac13 633e 3824 b4be 1a7d c83e
00000210: f5d5 98be 89b0 8cbd fdb4 0f3e a8c5 d8be
00000220: 7bc7 803e 2ea2 ae3c 698c 15be ce77 493e
00000230: 6ab0 64be 7574 cdbd 7efc 84be 19ee cebd
00000240: 5202 3dbe 6bae 36be 7d53 243e 0451 1e3e
00000250: ccc1 b6be 068a 3e3b d279 9b3e 92b8 46be
00000260: 29a9 113e 7817 9ebe 5c05 c03e 8c5c da3d
00000270: a288 43be f4de 9f3e 3c64 513b 58bb 073e
00000280: 051e 7abe 2975 2d3c ce33 7fbe ed2a 983e
00000290: 0985 943e eed5 54be 4bc9 aebc 0920 be3d
000002a0: 0852 1c3e 3517 6ebe 8c0d 2e3d 96b0 563e
000002b0: b9ec d2be 9a2c b7bd a8ff 0d3e 6d61 933e
000002c0: 7e14 c6bd a7d8 89be e5b2 a23d 2ad3 793d
000002d0: 15a2 d63e 9172 9a3e 47b1 42bd 2e81 60bd
000002e0: 76cd aa3d 26c1 d5be cb9a a03e 7753 573e
000002f0: 6546 4d3e 4789 95be 1ef1 983c 1bbd 983e
00000300: 5fd4 663e acfc 3cbe 3429 f1bd 330e 8ebe
00000310: d0ab f83c 745a d5be beba 963e 5637 00be
00000320: ce98 773e 14b8 0abe 5c7c d93e 9609 98be
00000330: 9b01 873e b354 51bc 57b8 c53d d81f 5d3d
00000340: 8ef5 92be 909c d53e d91d 873e 99c3 423e
00000350: 5f2c bb3e 5bfb cbbd 1176 253e 9409 25be
00000360: 7ea8 103e de5e a1be 460a 9b3e e4d5 333e
00000370: 45fc 38bd dca7 b6bd ec66 9f3e 186d 963e
00000380: 4722 d5be a588 64be 141f 983d d4a2 2ebc
00000390: 9397 af3e e6d3 a3be 476c 9fbe 2c57 02be
000003a0: b4d7 7a3e af82 6d3e 5f5b 60be f072 04be
000003b0: bae2 b53e 448a 5cbe 9de4 d23e 6f5c 71be
000003c0: c450 30bd d919 a6be 9c53 a9be a5cb 463e
000003d0: 6ecb 753e 71a6 c43e a49e d13e e48b b43e
000003e0: a9a2 25be b0e3 b8bd 26f2 073d 5f2e aebe
000003f0: f9d7 d3be 339b 883e e233 ad3e f9d9 7abe
0.12499838 0.15950452 0.21508329 -0.06631386 -0.21725169 0.12775913 0.32560912 -0.14320846
-0.048900202 0.034294862 0.2315445 0.11649943 -0.11302975 0.12330235 -0.16166787 -0.15106794
0.36114007 -0.346862 -0.38747105 -0.021966007 -0.38872138 -0.03520661 0.25565696 -0.051835667
0.037412003 0.3669306 -0.2790055 0.30897418 0.3034437 0.13796224 0.27892995 -0.30779594
0.0634724 -0.06679258 -0.21659245 0.10409412 -0.42790228 0.35506013 -0.4188557 0.4146139
0.122656666 0.30627736 -0.241212 -0.2568095 0.072168194 -0.29262564 -0.29337758 -0.4306646
0.24874012 -0.017595466 0.3139879 0.36118126 0.12117876 0.15705349 -0.21729726 0.12376374
-0.052438743 -0.41965732 0.07836533 -0.42125344 -0.42261437 -0.30494857 -0.1746602 -0.38240927
0.10971012 -0.3764772 0.075078964 -0.29612508 0.21358545 0.2603923 0.026628349 -0.4276802
0.2384625 0.19542974 -0.40186948 0.1282919 -0.37235287 -0.34040743 -0.08263079 -0.2645964
-0.17174152 0.28535604 -0.12568586 0.09085087 -0.36591625 0.016680218 0.15532488 -0.39400247
-0.18252465 -0.07983812 -0.3889691 -0.1742859 0.36465827 0.39659438 0.42225447 0.42240694
0.37944683 -0.3371487 0.17944466 -0.381672 0.24730875 -0.11191837 0.35895512 -0.024919508
-0.09880414 0.25405598 0.38148943 0.1440289 0.06544604 0.2192006 -0.3100273 -0.022918032
-0.013700803 -0.30745718 0.12268208 0.05684103 -0.09174263 0.03390462 -0.384968 0.32968405
-0.099952355 0.2868693 -0.352992 0.08335314 -0.20740125 -0.39734048 0.38227373 0.11633389
-0.14218523 0.22175473 -0.35183883 0.39157945 -0.29850736 -0.06869609 0.14033885 -0.423383
0.25152192 0.021317568 -0.14604343 0.19674608 -0.22332922 -0.10031978 -0.25973886 -0.10104007
-0.18457916 -0.17839973 0.16047473 0.15460593 -0.3569473 0.0029073968 0.3036638 -0.19406345
0.14224686 -0.3087728 0.3750409 0.10662183 -0.1909509 0.31224787 0.0031950613 0.1325506
-0.24425514 0.010587015 -0.24922106 0.2972025 0.29007748 -0.20784733 -0.021336218 0.09283454
0.15265667 -0.2325104 0.042493388 0.209658 -0.4119623 -0.08944054 0.13867056 0.28785267
-0.09671877 -0.26923105 0.07944278 0.060992397 0.41920534 0.30165532 -0.047532346 -0.054810695
0.0833997 -0.41748923 0.31368098 0.21027933 0.20046385 -0.29206297 0.018669661 0.29831776
0.2254195 -0.18455762 -0.11775437 -0.27745208 0.030355364 -0.41670573 0.29439348 -0.12521109
0.24179384 -0.13546783 0.4247769 -0.29694813 0.26368412 -0.0127765415 0.09654301 0.053985447
-0.28702968 0.4172101 0.2638996 0.19019927 0.3655729 -0.099600516 0.1615832 -0.16116935
0.14126775 -0.3151769 0.30281276 0.17562062 -0.045162458 -0.089187354 0.3113321 0.29380107
-0.41627714 -0.22317751 0.07427803 -0.010658938 0.3429533 -0.31997603 -0.31137297 -0.12728566
0.24496347 0.23194383 -0.21909855 -0.1293447 0.3552454 -0.21537119 0.41190043 -0.23570417
-0.043045774 -0.32441595 -0.330716 0.19413622 0.24003384 0.38408235 0.40941346 0.35262978
-0.16175331 -0.09027803 0.033189915 -0.34019753 -0.41375712 0.26680908 0.33828646 -0.24497212

bias f4 [16]
00000000: 1603 debb c634 c53b 63a7 0ebc 0000 0000
00000010: dbc5 98bb d9d7 16bb 61fc c1bb 1be9 55ba
00000020: 0000 0000 bb3d 1fba 40b5 0fbb 0000 0000
00000030: 9093 aebb 7de6 e63b 0000 0000 3be6 f13b
-0.00677527 0.006018254 -0.0087069 0.0 -0.004662258 -0.0023016839 -0.0059199785 -0.00081600406
0.0 -0.0006074567 -0.0021928102 0.0 -0.0053276494 0.0070465193 0.0 0.007382182

weight f4 [16, 16]
00000000: 158f c2be e7ad a83e ace5 8bbd 6c1f b7be
00000010: c3da cb3d 62fa 743d b418 203d 4dd1 453e
00000020: 21d6 973e af53 dcbe 19d0 d43e 0fa0 10be
00000030: 0293 8abe 261d b23d 259b 8ebe aa37 10be
00000040: 25d0 a03e aed6 1bbd 0bda 44be a34b 5bbe
00000050: 93ef 3d3e 3ed8 f2bd 6f49 afbe ac89 db3e
00000060: e668 8f3e e4b0 c0be 9321 383d 68f4 09bd
00000070: f1cb ce3e e85b 18bc 9e24 57bb 0d9c b93d
00000080: e651 6fbe 72e9 133c 53c8 a1be cee5 97be
00000090: 7724 d4be fc4f 8cbe b2ed 57be 058e 6f3d
000000a0: 39fa 953e 1ae5 b5bd 4347 9c3e cea7 ac3e
000000b0: 48ac a9be cce8 54be 351a fdbd 466a a03e
000000c0: 3688 cb3e 1fdc a3be d6c6 a7bc 65c6 b03e
000000d0: f036 6a3e 808c abbd 7f08 273e 4033 7b3e
000000e0: 84a7 90be 356a bebe 8d2c ddbd e821 a03d
000000f0: 01fb aabe 369b 933e d0da 813e 1681 d3bd
00000100: b2f9 c0be 52ee c8be c6d5 913e 5236 c63d
00000110: 867b cabe 6fa2 163d c0f5 2b3d a901 2d3e
00000120: 9a94 513d b928 dbbe 85f0 d23e 30a5 f23c
00000130: 8d20 8c3e 313c 263e bd34 22be a54b 14be
00000140: 52f9 263e d257 8dbe ebe6 abbd 6b53 753e
00000150: 7b92 573d 65df cabe bb9a 2f3e 4233 48be
00000160: 8acb a6be 3519 353e 693a 5ebe 60d1 c5be
00000170: 5d11 a03e aa46 a5be 54ba ac3e e068 d0be
00000180: 9037 183e 031e aabe 5553 a53e 42d6 f8bd
00000190: 992b 6e3e c418 b4be 538c c63e 672d 913e
000001a0: b3b6 7d3e 52e3 5ebe b5bb c43d 50f9 6a3d
000001b0: 17b3 c53e 5fce 89be c16c 9a3e 98ec 80bd
000001c0: 3113 173e 5a0a 99be 2f07 b5be 99ee 3cbd
000001d0: 2be3 113e 2407 b6be f1bb 043e f30f c4be
000001e0: 3ed3 763e 1b54 1abe cad2 c0be 9639 8c3e
000001f0: aa2d 323e e101 693d 39ef da3e 8105 97be
00000200: 581c 883e b840 33be a91b d9bd 8fd7 453e
00000210: 0aef debc 31c3 8b3e ebf0 84bd 566a 3abe
00000220: 76df 83be f1cc 7cbe ea41 c73d c99a 703e
00000230: ef23 0e3d 2b45 9dbe 3f7a c03c 2f8a 693e
00000240: 5c7e 9c3e 015e a9be d4b0 323e 8ec3 8cbe
00000250: ea4c c63e d303 c13e a0ba 713e 36d9 91be
00000260: 058c 8dbd 4fbe 13bc 837e 1b3d 709f 493d
00000270: 95b1 8d3e 96c3 f43d e032 cc3e 1ef9 1ebe
00000280: ed5c 583d 9246 99be 3714 923e 5116 d9be
00000290: 4db2 8b3d 3d7b 243c 6a2a 84be 86aa 093e
000002a0: bea8 79be 4fae 95be 97dd c03e 938f d03d
000002b0: 0e56 58bd c561 b1be 5ad1 ac3e 8e6c 773d
000002c0: d604 8dbe ef72 ddbe 85e5 c93e 2321 3fbd
000002d0: c0ab be3e e9f0 db3d 5df6 393e aad8 d03e
000002e0: 2f3c 783d bc4f 65be 4b59 1b3e 0f5f b93e
000002f0: 9ba5 8e3e 3782 1e3d 2c07 0cbd 309d 50bc
00000300: ce4c 95be 522f e83d 11b0 003d 3e89 72be
00000310: a640 823e 5012 d5be a32e b6be 8eb7 bf3e
00000320: 5928 86bd 8ecb cebe 8276 ffbd ce08 9cbe
00000330: c011 953e bf94 833e c276 ac3e e31e cf3e
00000340: 6ed2 1a3e ba5e ca3d c3d0 4c3e b8f0 67be
00000350: e5ca 82bd c664 623c f8b0 59be 1625 4ebd
00000360: 1cf8 72bc d1f6 9cbb 714b 763d f61f 4fbe
00000370: fb8f d73e 7104 1a3e 2fa8 b5bd 6994 8dbe
00000380: f13d 87be 3dc4 483e 8372 abbe a4fc 0dbe
00000390: f9a5 4ebe 872f 8fbd 8953 acbe 0c94 0bbe
000003a0: 7b5f 3bbe e571 113d 8ac8 cd3c e255 3fbe
000003b0: 4363 aa3d 2ced 7cbe e588 afbd c607 39be
000003c0: 4692 b0be 1eaf 19bd 58c9 113d 5392 9e3e
000003d0: ec8e 33be 51f1 c3bd bee3 cb3e da65 a6bd
000003e0: cd8b 8d3e d974 8ebb 35f0 673e 7f3d c5be
000003f0: 3808 ccbe ac55 d03e 3812 953e bba5 273e
-0.37999788 0.32945177 -0.06830916 -0.3576616 0.09953835 0.059809096 0.03908606 0.19318123
0.29655555 -0.43032596 0.41565016 -0.14123558 -0.27065283 0.08696966 -0.2785274 -0.14083734
0.31408802 -0.03804653 -0.19223802 -0.21415572 0.18548422 -0.11857651 -0.34235713 0.42878473
0.2800972 -0.37634957 0.044953894 -0.03368035 0.4038997 -0.009299256 -0.0032828222 0.090629674
-0.23371086 0.009027826 -0.31598148 -0.29667515 -0.4143407 -0.27404773 -0.21086767 0.05848505
0.29292467 -0.08881588 0.30523118 0.33721775 -0.33139253 -0.2079193 -0.12358514 0.3133108
0.39752358 -0.32003877 -0.020480555 0.34526363 0.2287252 -0.083764076 0.16311835 0.24531269
-0.28252804 -0.37190405 -0.10799513 0.07818967 -0.33394626 0.28829354 0.25362253 -0.103273556
-0.37690502 -0.39244324 0.2848341 0.096783295 -0.39547366 0.036776002 0.041982412 0.16895165
0.051167108 -0.42804506 0.41199127 0.029619783 0.27368584 0.16233899 -0.1584043 -0.14481981
0.16306046 -0.27606064 -0.083936535 0.23957603 0.05262993 -0.39623562 0.17148869 -0.19550803
-0.32577163 0.17685397 -0.21701969 -0.38636303 0.31263247 -0.32280475 0.33735907 -0.40705013
0.14864945 -0.33226022 0.3229014 -0.121502414 0.23258819 -0.35175145 0.38778934 0.28354952
0.24776725 -0.21766403 0.09606115 0.05736667 0.38613197 -0.2691526 0.30161098 -0.06295127
0.14753415 -0.2989071 -0.35357043 -0.046125982 0.14246814 -0.35552323 0.12962319 -0.38293418
0.2410402 -0.15071146 -0.3766082 0.27387685 0.17400232 0.056886557 0.42760637 -0.29496387
0.26584125 -0.17505157 -0.10600979 0.1932051 -0.027213592 0.27297357 -0.06491264 -0.18204626
-0.25756425 -0.24687554 0.09729369 0.23496546 0.034702238 -0.30716833 0.023495791 0.22806619
0.30565155 -0.33079532 0.17450267 -0.27492946 0.38730556 0.3769823 0.23606348 -0.2848603
-0.06911472 -0.009017541 0.037962448 0.049224317 0.27674547 0.119513676 0.39882565 -0.15524718
0.052822996 -0.29936653 0.28531048 -0.4239984 0.068211176 0.010039148 -0.2581361 0.13443956
-0.24380776 -0.2923455 0.3766906 0.101836346 -0.052816443 -0.34644905 0.33753473 0.06040626
-0.27542752 -0.4325175 0.39432922 -0.04666246 0.3724041 0.10739309 0.18160386 0.40790302
0.06060427 -0.22393698 0.15170781 0.36205336 0.27860722 0.0386984 -0.034186527 -0.012732789
-0.2916016 0.11337151 0.03141791 -0.23685166 0.25439948 -0.41615534 -0.35582456 0.3744473
-0.065506645 -0.40389675 -0.124737754 -0.30475467 0.29115105 0.25699422 0.33684355 0.40453252
0.15119335 0.09881349 0.20001511 -0.2265042 -0.06386355 0.013817972 -0.21258914 -0.050328337
-0.014829662 -0.004790165 0.06013054 -0.20227036 0.42102036 0.15040757 -0.08869969 -0.2765229
-0.26414445 0.19606109 -0.33485803 -0.13865906 -0.20180501 -0.06991487 -0.33657482 -0.13630694
-0.18298142 0.03550901 0.025120039 -0.18685105 0.08319714 -0.24699849 -0.085710324 -0.18069372
-0.34486598 -0.03752052 0.035592407 0.30971012 -0.17534989 -0.09567512 0.3982219 -0.081248954
0.27645722 -0.0043474254 0.22650225 -0.3852348 -0.3985002 0.40690362 0.29115462 0.16371815

bias f4 [16]
00000000: 4426 02b9 e0fa 02bb 0000 0000 8b36 363a
00000010: 0000 0000 dd53 cc3a 7c6f bbbb 0000 0000
00000020: 79a8 cebb 6d02 97bb 0000 0000 0000 0000
00000030: 6862 043c 5c7a 853b 0000 0000 ef50 793b
-0.00012412021 -0.001998596 0.0 0.00069508766 0.0 0.0015588958 -0.005720077 0.0
-0.0063067046 -0.0046084435 0.0 0.0 0.0080801025 0.0040734243 0.0 0.0038042625

weight f4 [16, 16]
00000000: ba17 22be 50c4 da3e b0b5 813d ad74 acbc
00000010: fb28 003e 4753 8b3e ec39 39be daf3 853e
00000020: 3d77 babe 1e41 c7be 1792 4dbe 6472 c9be
00000030: 21b9 5abe 5bb2 253c a8c6 d33e 809a a2be
00000040: 2440 c33e c334 d23d 06d7 c6bc 4b17 343d
00000050: 1bcb 9cbe 6107 bebe c927 b63a e2e3 8e3d
00000060: a150 66be 04d4 12be 14cf bf3e 0614 a1be
00000070: a574 ba3e c349 4d3d ecc9 c4be d945 52bd
00000080: 1e9f 6dbe 1821 553e 007d a73e bf4b 54be
00000090: e55c 79be 1c6d c3bc a6ca babd a547 1a3e
000000a0: f05a 9e3e 7b97 473e c679 863e 398d 4e3e
000000b0: 5a0f 7fbe 820e ccbe 3ac0 c9be 42d3 c43e
000000c0: e32e 7dbc e99b a7be b27f ad3e 51d5 2e3e
000000d0: 7ac2 52be 584e b5bd 015f b339 54ba c63e
000000e0: 13e9 8bbe e126 5e3e 5a2b 56be 2107 6b3e
000000f0: f0fe cb3e 3ddd a23d 064b eabd 6140 dcbe
00000100: bd52 783e 5e33 883e f88a 23bd 005b afbe
00000110: 11b9 a5bd 3dbd 8e3e 1e69 bdbe 6ab2 c2be
00000120: 01f0 86be 9d96 2b3d 5aec ab3e 3c8f bf3e
00000130: 56a2 b73e 2ba0 07be 5a1c be3d ca96 853e
00000140: 05d4 6bbd f0b5 ac3e f402 123e 4866 a0be
00000150: fec9 a4be 97c2 d33c dc01 ddbe 2bcf 64be
00000160: 9ba7 a83d dda5 593e 8e53 94be a867 96be
00000170: 554d debd d06a d53e ad5b 0cbe d84f cc3e
00000180: 87eb 7dbe 3330 59be 50e5 533e fb76 563c
00000190: 6838 4bbe 7a97 9f3d fedf 82be abc8 4ebc
000001a0: b68e a7bd 704a 2a3d f8ae 743e c852 b3be
000001b0: 00db 733d b266 113e 6453 2fbd 1a66 a03e
000001c0: df18 d73e f986 a23e 34ec 2f3e 2fcb c13d
000001d0: 96d9 16bc a906 32be 44be d63e bd98 90bd
000001e0: de55 de3c 4523 9cbe 6e85 5ebe fedb f83d
000001f0: bd5c 9abe e826 4dbe 8594 703e b24b c8be
00000200: d829 a8be 2e48 0a3e f2e4 3e3d e685 a13c
00000210: 926d d83e 1996 46be 510a c7be 22a7 cc3e
00000220: 1d6a cabd 2f79 2fbe 5f66 8a3d 60a1 cbbe
00000230: 1561 91be cfe6 a83d d194 703e b6b4 f0bd
00000240: a97d c6be e221 b4be fcf3 493d 3723 c7be
00000250: 5886 c93e a1cb cf3e 4ff9 7dbc a38e 11be
00000260: 0f55 813e 2109 d0be e89b 41be 6a47 a73d
00000270: 1cff ee3d 4b61 3fbe ea5d 9fbc e59a 0e3e
00000280: e390 f0bd d4ff 02be 5f20 9c3b 2b07 bbbe
00000290: 82fe 0f3e 099e 80be 63b5 c23e 428e d4be
000002a0: 54b8 323e 8ad4 b93e 0dc9 42be 445e 93be
000002b0: 4f7d aa3e 7c63 2dbe ac9f 81be 5ac9 583e
000002c0: 2f8c 443e 6cd8 433e 4dcd c1be 6e2c 31be
000002d0: d884 bb3e 3f2c cf3e 743f a8be 2d19 94be
000002e0: 61dc ccbe 7eda a73e 07c3 a63e d732 d53d
000002f0: 48b5 843e 2e42 c7bc 04aa b2be 7d2e 4bbd
00000300: 671a 433d adcf 803c 5c76 1ebd 7d51 6cbe
00000310: 6591 283d 3024 cc3e b438 ea3d 7869 ccbe
00000320: 3c42 8ebe af32 403c 6636 b8be 7a84 d63e
00000330: 96cd d1be 379c 8e3e be9e da3e 8c26 1abd
00000340: 9cb6 80be a77f bd3e a6e6 c43e 84af b73e
00000350: add6 babe d600 18be 4b12 8fbe 1d78 53be
00000360: 1d9d cfbe 6d18 99be 6ba4 1d3e e214 c7be
00000370: 6cb3 163e a8a3 403d 77ca 0fbe 71f7 433e
00000380: ad11 10be cfc1 c03c fc5d 90be d22a 443e
00000390: 11ff dbbd b302 83bd af8f a9bd 86d7 9fbe
000003a0: 7a2f a8be f497 c43d 229a bdbe e106 43be
000003b0: 239c 9abd 53a2 77be cde7 023e 4bb7 413e
000003c0: 6d69 4f3e f9f5 f13d 4a83 773e 0a68 563d
000003d0: d580 8b3c 092c 2ebe 5cea 9bbe c0fc 2c3d
000003e0: 8899 c7be cb9c b9be 4f5b 733e b0ac 933d
000003f0: f58c 363d 5045 b3be 2b5c 023e bdc1 893d
-0.15829363 0.427279 0.06333482 -0.02105173 0.12515633 0.27211973 -0.18088502 0.26162606
-0.36419097 -0.38916868 -0.2007526 -0.39345086 -0.21359684 0.010113324 0.413625 -0.317585
0.38134873 0.1026397 -0.024272453 0.043967526 -0.30623707 -0.37115005 0.0013897355 0.06977059
-0.22491695 -0.1433869 0.37462676 -0.3146059 0.36417118 0.050119173 -0.38435304 -0.051336143
-0.2320523 0.20813406 0.32712555 -0.2073202 -0.24351843 -0.023855738 -0.09120683 0.15066393
0.30928755 0.19491379 0.2626478 0.2017106 -0.249082 -0.3985482 -0.3940447 0.38442427
-0.015453073 -0.32736138 0.33886486 0.17073561 -0.20582 -0.088528335 0.00034212324 0.38814032
-0.2732626 0.21694519 -0.20914975 0.22951938 0.3984294 0.07952354 -0.11440091 -0.43017867
0.24250312 0.2660169 -0.039927453 -0.34249115 -0.08091939 0.27878752 -0.3699426 -0.38026744
-0.26354983 0.041891683 0.3357876 0.37413967 0.3586604 -0.13244693 0.092827514 0.26091605
-0.057575244 0.33732557 0.14258939 -0.31328034 -0.32185358 0.025849624 -0.4316548 -0.22344653
0.08235093 0.21254678 -0.28969997 -0.29375958 -0.10854594 0.41683054 -0.13706847 0.39904666
-0.24796878 -0.21209793 0.20692945 0.013089891 -0.19845736 0.07792564 -0.25561517 -0.012621085
-0.08181517 0.041574895 0.2389487 -0.35024095 0.059535027 0.14199331 -0.042804137 0.31327897
0.42011163 0.317436 0.17179948 0.09462582 -0.00920715 -0.17385353 0.41942036 -0.070603825
0.027140554 -0.3049566 -0.21730587 0.12151335 -0.3014888 -0.20034373 0.23494156 -0.3912025
-0.32844424 0.13504097 0.046605058 0.019717168 0.42271096 -0.19393195 -0.38875058 0.39971262
-0.09883521 -0.17136072 0.06757807 -0.39771557 -0.2839438 0.08247148 0.23494269 -0.11753218
-0.38767746 -0.351821 0.049304947 -0.38894054 0.3936031 0.40585044 -0.015501334 -0.14214568
0.25260207 -0.40631965 -0.1890713 0.08167918 0.11669752 -0.18689458 -0.019453961 0.13926275
-0.11746385 -0.12792903 0.004764601 -0.36528906 0.14061931 -0.2512057 0.38029012 -0.41514784
0.17453128 0.36294967 -0.19022007 -0.28782856 0.33298728 -0.16932482 -0.25317132 0.2117056
0.19194101 0.19125527 -0.37851945 -0.17302105 0.3662479 0.40463445 -0.3286091 -0.28925458
-0.40011886 0.32783884 0.3257067 0.104100876 0.25919557 -0.02432355 -0.34895337 -0.04960488
0.0476326 0.015724028 -0.038687095 -0.2307796 0.041154284 0.3987136 0.114365965 -0.39924216
-0.27784908 0.011730834 -0.35979003 0.41897947 -0.40977162 0.27853557 0.42699236 -0.037634417
-0.2513932 0.37011454 0.3845722 0.35876095 -0.3649191 -0.14844069 -0.27943644 -0.20651288
-0.40549555 -0.29901448 0.15394752 -0.3888312 0.14716882 0.047031075 -0.14042078 0.1913736
-0.14069243 0.023529915 -0.28196704 0.1915696 -0.107420094 -0.06396999 -0.082793586 -0.3121912
-0.32848722 0.09599295 -0.37031657 -0.19045593 -0.07549312 -0.24183016 0.12783737 0.18917577
0.2025506 0.11814494 0.24171177 0.052345313 0.017029205 -0.17008986 -0.3045224 0.04223323
-0.38984323 -0.36252436 0.237653 0.07210672 0.04456802 -0.3501382 0.12730472 0.06726406

bias f4 [16]
00000000: 0000 0000 5b95 0c3c a651 9ebb 4bbf 7dbb
00000010: 6742 313c f554 01bb a713 ad3a b056 9ebb
00000020: 0000 0000 ec93 0ebc 014b 8fbb 4b9f 3bb9
00000030: 5936 86bb 38a5 30bb 2437 b6ba fc0e eb3b
0.0 0.008580531 -0.0048315106 -0.0038718756 0.010819054 -0.0019734476 0.0013204709 -0.0048321113
0.0 -0.0087022595 -0.004372955 -0.00017893051 -0.004095834 -0.0026953947 -0.0013901931 0.007173417

weight f4 [16, 16]
00000000: f46a c23e bc47 023d f756 9c3e e4b5 d0be
00000010: 358b 883e d852 8ebd 6667 703e 4f41 a7be
00000020: a974 b13d 125b 683e 57de 643d 8fa5 d9bd
00000030: f891 8abb 9672 da3e 5c2e 23bd a012 d9bd
00000040: 72c9 bd3e 3a7f a73d 4a21 00be 99cf a0bd
00000050: f93c cfbe 9406 db3e cf80 94be 2823 8bbe
00000060: 8763 643e e61e 893e 80f5 36be 2eaa 943e
00000070: 5e3b 903e edb2 503e 5f2d 943e ef2c 903e
00000080: 1e8f 15be 23ef 903e 71da 953e a176 cbbe
00000090: a8ca a3be be2f 7abd 5e2a 0b3d ae94 9dbe
000000a0: 8858 ac3c c01c a23e 354e 5f3e 0c7d 5dbe
000000b0: fd4b 933d 52c5 373d 27d7 f7bc bef4 0f3e
000000c0: b1ea b63e a866 2fbe baba 0abe cbd3 04bd
000000d0: 3a86 9bbd 570a 2bbd a0fa c53c f31d a8be
000000e0: 2bef e33d 54f9 26be 0b67 be3e 8873 af3e
000000f0: ed01 9cbe c7b0 bb3d ea7c ed3c a8af 663e
00000100: b3df 83be aa3b a13d 66fc 453e c8c5 bd3e
00000110: 6a66 60be 0529 873e 419d ffbd d126 ac3e
00000120: aff8 64be 291a 81be 7a2d 533e 581f 063e
00000130: 9a6b 793e b34f b53e 9abf ae3d 1623 c8be
00000140: b597 0a3d 5587 2cbe fc97 0c3e 99bd c03e
00000150: cd05 26be ee37 9bbe c57c 553d e0cc aabe
00000160: c817 c7be 3b8a 983e 0488 563e 36fd afbe
00000170: 2e23 813e d26a 2bbe b488 9fbe 5a04 60be
00000180: cc86 a73d bcca c53e 54ed 00be 91f8 be3e
00000190: 2de2 d73e 383f c73e dcf9 8dbe 0d2b a83e
000001a0: d7a5 54be 9f9c 913d 03be cbbd 6eba c4bb
000001b0: 7cb4 673d e5c2 1e3d ec3a 003d 21e3 a63e
000001c0: 0dc7 b9be a336 56be 1d56 adbe e13b 113d
000001d0: c70e 45be cf89 02bd d9b2 76bd f552 4ebe
000001e0: 8264 5bbe 7e02 c3bd b47e a6be c078 943e
000001f0: 297d 9a3d 3c49 57be 7788 613e e3a6 983e
00000200: b80d 853e 0978 27be ce79 62bd d2e6 a93e
00000210: bff4 3bbe 8048 73bd c07c d73e 2166 923e
00000220: 2181 fdbd e3a3 b13e 42e8 08be b964 c63d
00000230: 5ba2 9a3e 790b 933e e452 3f3e 1f77 0ebd
00000240: 80d7 b73d c503 53be 7576 c83e 303c f3bb
00000250: ddb3 bdbe 41d3 6ebe 1c15 54be 4151 bf3e
00000260: 8689 c43e f429 bcbe 3b32 d23e 8d9a 3bbd
00000270: 242c b4be da22 c6bc 46b0 333d 5487 1cbd
00000280: ea41 943e 9a10 6a3e fb39 853e 8136 a8be
00000290: 442a a33e 5bab 5a3e ee37 28be 2421 d73e
000002a0: 9a0a d83e 7de1 1cbd b80b 063e e672 99bd
000002b0: e010 823e 118f af3e 16b2 7f3e 32b2 e9bd
000002c0: 6d53 aa3e 1c0f 88bc 7606 6dbe b791 fa3d
000002d0: d307 82bd 4414 aa3d 7f60 b33e 1974 d1bd
000002e0: c992 cebd db1d a33e dadc dabe 992c 9fbe
000002f0: c998 5cbe 5a92 c63e 4363 653e e510 8b3c
00000300: a9a5 af3d 9e17 ac3d bbfc 963e 034d 82be
00000310: 8af6 39bd 6033 06bd 9341 cfbc 3702 8d3d
00000320: c816 88be 7f26 b6bd 607a c63e aff3 e33d
00000330: 6e49 ae3d e959 533e ada7 e13d f593 7f3e
00000340: 49ae 303d 9806 033d c055 d9be e9ce f5bd
00000350: 9cca 4fbe 4369 c83e ba63 2f3e 6498 16be
00000360: 0a16 75be 5d26 18bd ea43 863e 8ecb a63d
00000370: be94 cd3d 0e8c 273e e25e eb3d 6cb8 97be
00000380: cb01 923e a4e4 4d3e da01 cc3d 7e0e cf3d
00000390: 826c be3d b220 d03e 3d95 dabe 93ea 55be
000003a0: da05 a8be 13ca b23e 40b1 583e 4ff6 8cbd
000003b0: 3906 a23b 31bf 1d3d df9c cebe fd5b d93e
000003c0: 8dae cb3d 446f 82be b01b 9c3e 6834 ca3e
000003d0: 8e45 79be 7550 a33d ed2f ce3e 2304 aa3e
000003e0: 3750 b13e f63d a23e c8f6 423e 6dee 80be
000003f0: 03c9 bf3e 3294 153e 24e9 7d3e c566 e63d
0.37972224 0.031806692 0.305351 -0.40763772 0.26668707 -0.06949395 0.23476943 -0.32667014
0.08664829 0.2269099 0.055876102 -0.10627281 -0.0042288266 0.42665547 -0.039839134 -0.105992556
0.37067753 0.081785634 -0.12512699 -0.07852096 -0.40476206 0.42778456 -0.29004523 -0.2717526
0.22303592 0.26781386 -0.17867088 0.29036087 0.28170294 0.20380755 0.28940865 0.28159282
-0.14605376 0.28307447 0.2926822 -0.39738944 -0.31990552 -0.061080687 0.03397595 -0.30777496
0.021038309 0.3166256 0.21807177 -0.21629733 0.07192228 0.044865914 -0.03025396 0.14058205
0.3572593 -0.17129004 -0.13547793 -0.032428544 -0.07593961 -0.041757908 0.024167359 -0.3283535
0.11129602 -0.16306049 0.3718799 0.3426783 -0.3047022 0.09164577 0.028990228 0.22527945
-0.25756606 0.07872708 0.19334564 0.37064958 -0.21914068 0.26398483 -0.12481166 0.33623365
-0.2236049 -0.2521527 0.20622817 0.13097894 0.24357453 0.35412368 0.08532639 -0.39089268
0.033836085 -0.168485 0.13729852 0.37644652 -0.1621315 -0.30316108 0.052120943 -0.33359432
-0.3888533 0.2979296 0.20950323 -0.34372872 0.25222152 -0.16739967 -0.31158984 -0.2187666
0.08180007 0.38631237 -0.12590533 0.37299016 0.42164746 0.3891542 -0.2772969 0.32845345
-0.20766388 0.07109951 -0.09948351 -0.0060036695 0.056568608 0.038760085 0.031306192 0.3259516
-0.36284676 -0.2091928 -0.33854762 0.035457496 -0.19243918 -0.031869706 -0.060229156 -0.20148833
-0.2142506 -0.0952196 -0.32518542 0.28998375 0.07543404 -0.2102403 0.22024713 0.29814824
0.2598703 -0.16354384 -0.055291943 0.33183914 -0.18355082 -0.059395313 0.42087364 0.28593543
-0.12378145 0.34695348 -0.1336985 0.0968718 0.30201992 0.2871969 0.18683964 -0.03478157
0.0897665 -0.20606907 0.39152876 -0.0074229464 -0.37051287 -0.23322774 -0.20711178 0.3736668
0.38386172 -0.36750758 0.41053948 -0.045801688 -0.35189927 -0.02418654 0.04386928 -0.038214996
0.28956538 0.22857895 0.26020798 -0.32854083 0.31868184 0.2135443 -0.16427585 0.42017472
0.42195588 -0.03830098 0.13090408 -0.07492618 0.254035 0.34288839 0.24970278 -0.11410941
0.33266774 -0.016608767 -0.23146996 0.12234824 -0.063491486 0.083046466 0.35034558 -0.10227222
-0.10086591 0.31858715 -0.4274662 -0.31088713 -0.21542658 0.38783532 0.22401147 0.01697583
0.08576519 0.08402942 0.29489693 -0.2544938 -0.045401134 -0.03276384 -0.025299823 0.06885188
-0.2657988 -0.08894061 0.3876524 0.11130463 0.08510099 0.20639767 0.1101831 0.24958785
0.04313496 0.03198871 -0.42448235 -0.120023556 -0.20292133 0.39142808 0.17127886 -0.1470657
-0.23934188 -0.03714596 0.2622369 0.08144294 0.10038136 0.1636202 0.11492707 -0.2963289
0.28516993 0.2010675 0.09961291 0.10110186 0.0929804 0.40649945 -0.42691985 -0.20890264
-0.32816964 0.34919795 0.21161366 -0.06882917 0.0049445895 0.038512412 -0.40354058 0.42452994
0.09945402 -0.25475514 0.30489874 0.39493108 -0.2434294 0.0797433 0.4027094 0.3320628
0.34631512 0.31687897 0.19039452 -0.25181904 0.37458047 0.14607313 0.24795967 0.112500705

bias f4 [16]
00000000: 386d 8bbb e755 9ebb 9a51 e8bb df69 f6ba
00000010: a618 a9bb 14c6 a4bb 2746 95ba 0000 0000
00000020: 2cbf 45bb 4df7 03bc ca42 493b 0000 0000
00000030: 7705 b43b 20fe 893b 2e7c 023c 6970 bcbb
-0.0042549632 -0.0048320177 -0.007089806 -0.0018799863 -0.005160409 -0.0050284956 -0.0011388705 0.0
-0.0030173762 -0.008054567 0.0030709975 0.0 0.0054938155 0.0042112023 0.007964177 -0.005750705
