ood/ENZYMES.pt (torch, 347085 bytes, 62 tensors)

weight f4 [16, 1]
000000 86 4e 30 be ed eb 0d 3f d9 1c e6 be 54 4d a7 bc
       -0.17217454 0.5543812 -0.44943884 -0.020422615
000010 31 e8 ee be 2e ec c8 3e 10 ac ef be c9 f3 11 bf
       -0.46661523 0.3924269 -0.4681096 -0.5701261
000020 95 9e 17 bf 21 14 0a 3f 88 3f 97 3e c9 60 8c 3e
       -0.5922635 0.53936964 0.29540658 0.2741759
000030 4a 84 ef be a6 ff 17 bf fe 91 12 bf 25 23 22 b9
       -0.46780616 -0.59374464 -0.57254016 -0.00015462616

bias f4 [16]
000000 00 00 00 00 37 3b 0b bb 00 00 00 00 00 00 00 00
       0.0 -0.0021245012 0.0 0.0
000010 00 00 00 00 9e 3c 00 ba 00 00 00 00 00 00 00 00
       0.0 -0.0004891845 0.0 0.0
000020 00 00 00 00 f2 80 78 bb bf e9 2e bb dc e6 68 3a
       0.0 -0.0037918654 -0.0026689616 0.00088844984
000030 00 00 00 00 00 00 00 00 00 00 00 00 41 c5 20 ba
       0.0 0.0 0.0 -0.0006132909

weight f4 [16, 16]
000000 21 87 b6 be e2 c0 49 bd 9e a5 8e 3e 28 e1 a0 3e
       -0.3564997 -0.049256213 0.2786073 0.3142178
000010 48 01 d2 be 58 5d 3e be 30 f7 36 3e 08 5c 19 be
       -0.41016603 -0.18590295 0.17867732 -0.14976513
000020 70 46 e5 bb 67 3c b2 3e 5d 9f 92 3e 2f 16 9b 3e
       -0.006996922 0.34811708 0.2863721 0.30290362
000030 83 6d 87 3e 79 e4 f4 3d ad f5 2a bc e9 1a b5 bd
       0.26450738 0.1195764 -0.01043455 -0.08843023
000040 9f dc 7e 3e db 86 c6 3e d3 57 8e 3e 6b 94 f7 bd
       0.24888848 0.38774762 0.2780138 -0.12088855
000050 8b cd dc 3e 60 d6 53 3e 7b 17 3e bd 79 57 9b 3e
       0.43125567 0.20687246 -0.04640911 0.30340174
000060 43 74 59 be 9b 74 a5 3e 34 5c 74 be 3a 5a db be
       -0.21235757 0.32315525 -0.23863298 -0.42842275
000070 a6 9b c9 3e 85 7b 8e 3e de e5 a7 3e 95 25 93 be
       0.39376563 0.27828613 0.32792562 -0.2873961
000080 e9 0c 4a 3e 87 f1 bc 3e 27 a0 cc 3e 69 19 c3 3e
       0.19731487 0.3690302 0.39965937 0.38105324
000090 f0 7e b5 bd 06 c3 b6 bb d0 f2 4d 3d f7 31 39 be
       -0.08862102 -0.005577448 0.050280392 -0.18085466
0000a0 61 09 5a be 3a 6b 14 be 15 85 1b be e9 f5 95 be
       -0.2129264 -0.14494029 -0.15187486 -0.29289177
0000b0 47 e3 61 3e a0 33 57 be d2 09 2a be a8 53 c7 be
       0.22059356 -0.21015787 -0.16605309 -0.38931012
0000c0 83 73 be 3e 47 9a a8 be 25 27 01 3e af 7e 96 3e
       0.37197503 -0.32930204 0.12612589 0.29393527
0000d0 c2 fb 82 3e 67 51 0f 3e 11 5f 60 3e 92 01 76 3e
       0.255827 0.13995896 0.21911265 0.24024037
0000e0 dc 3e fc bc 43 45 b3 3e 6e e1 b9 3e 86 90 8a 3c
       -0.030791692 0.3501378 0.36304802 0.016914617
0000f0 c1 18 cb bd 69 d0 82 3e db 17 9b bd a2 bd bf be
       -0.09916831 0.2554963 -0.075729094 -0.37449366
000100 f3 8e c9 be 21 0d a9 3d 38 45 8d 38 e0 46 d6 3e
       -0.39366874 0.08254457 6.736297e-05 0.41850948
000110 4e 00 d6 3d 3e fb 14 3e 26 74 96 be cb c7 bd be
       0.10449277 0.14548966 -0.2938549 -0.37066492
000120 25 82 44 3e d7 16 d4 be 5e 86 b4 3e bf 95 c6 bc
       0.19190271 -0.41423675 0.35258764 -0.024241326
000130 4d c5 3f 3e 73 04 13 3e 6b 72 44 bd 7d 12 80 be
       0.18727608 0.14357166 -0.04796068 -0.25014105
000140 d9 96 b7 3e 30 be 4e 3e e1 eb c4 bc 7a 1e 81 be
       0.35857275 0.20189738 -0.024038257 -0.25218564
000150 6b 7c cd 3e 6b 73 69 3e 61 2c 9e be 26 ab 14 be
       0.40133986 0.22797935 -0.30893233 -0.14518413
000160 8e d8 ce 3e 12 85 ab 3e 40 83 41 be 96 64 89 be
       0.40399593 0.33499962 -0.18897724 -0.26834553
000170 50 ab 1e 3e c8 e0 08 be 90 86 be 3e 76 76 24 3b
       0.15495038 -0.13366997 0.37212038 0.0025095022
000180 77 fa 9a 3d e5 e5 b0 be ef c4 c0 be 82 82 d9 3c
       0.07567304 -0.34550396 -0.37650248 0.026551489
000190 5e 34 23 bd 62 67 a2 be 4b 7d 58 bb 29 88 dc 3e
       -0.039844863 -0.317195 -0.0033033665 0.43072632
0001a0 dd 7a 97 be 76 3b d0 be 6e 44 8d 3e 06 55 85 be
       -0.29585925 -0.40670365 0.2759127 -0.2604143
0001b0 2d 72 59 be a3 e0 cc bd 65 73 ae be ea 3f 6a 3e
       -0.21234961 -0.100037836 -0.34072414 0.22875944
0001c0 73 c6 c1 3e 1b ff c2 be e0 56 99 3c c2 7f db 3d
       0.37846717 -0.38085255 0.018718183 0.10717727
0001d0 57 cb ab 3d f5 7f a9 bd 16 41 28 3e 87 8a 8e 3e
       0.08388393 -0.08276359 0.16431078 0.27840063
0001e0 02 85 2c be 70 7b 4d be eb ad e6 3d 18 7b d1 be
       -0.16847613 -0.20066619 0.11263641 -0.40914226
0001f0 65 0c 6c be ee 7e 94 3e 47 b0 a2 be a9 11 91 be
       -0.23051603 0.2900309 -0.31775114 -0.28333786
000200 64 69 bc bc 79 b0 91 3e 82 8b c4 3d f6 5e a0 3e
       -0.022999473 0.2845495 0.095969215 0.3132245
000210 c0 e0 82 be 9d 6a ac bc c6 d0 bc bd 29 ae 34 3e
       -0.25562096 -0.02104693 -0.09219508 0.17644562
000220 a6 f5 d6 3e 69 fc a4 bd 6a 73 26 bc 5c e2 9b 3e
       0.4198429 -0.08055956 -0.010159353 0.30446136
000230 56 e4 bc 3e 4a f4 48 3c 74 d8 af 3e 84 d9 9c 3e
       0.36892956 0.012265274 0.34344828 0.306347
000240 f7 8b 90 3d e1 34 01 be 2e 89 4c be aa 31 77 be
       0.07057946 -0.12617828 -0.19974205 -0.24140039
000250 be 71 a2 be 96 ad 86 be 75 9c 82 be 02 d6 ca 3e
       -0.31727403 -0.2630431 -0.25509992 0.396164
000260 44 1c ac be 01 13 92 bd 9f 7b 78 bd b6 54 77 3e
       -0.33615315 -0.07132531 -0.06066477 0.24153408
000270 f5 f8 c9 3e 6f 23 ab 3e 2f b7 39 be c0 3a 82 3e
       0.39447752 0.3342547 -0.18136285 0.25435448
000280 61 70 85 be 9f 10 b0 be 29 ed ea bd 5c 7c d0 3e
       -0.260623 -0.3438768 -0.11471016 0.4071988
000290 a7 77 b8 be 3f 75 c9 be 78 22 a1 bd aa 7f 91 be
       -0.36028787 -0.39347264 -0.078679025 -0.28417712
0002a0 58 07 49 3e 72 fc 4a 3d 45 c0 c2 3d d0 7e 63 3e
       0.19631708 0.049557157 0.09509329 0.22216344
0002b0 d4 4d 3c be 8b 97 1c be bd fd 05 3e 36 96 73 be
       -0.18389064 -0.15292184 0.13085075 -0.2378777
0002c0 e1 c5 db be 91 de 89 be 15 ca 2b be 97 5b bc 3d
       -0.42924407 -0.26927617 -0.16776307 0.09197157
0002d0 e7 54 34 be 6e c7 57 3d e3 ef a7 3e 7f 5f b1 be
       -0.17610513 0.052680425 0.32800207 -0.3464317
0002e0 a9 ff ab 3e a4 1c 18 3e 84 79 7e be 09 89 6e be
       0.3359349 0.14854676 -0.24851042 -0.23294462
0002f0 c9 40 dd be c2 20 20 be 1b be 38 be e4 68 00 be
       -0.4321349 -0.15637496 -0.1804127 -0.12540013
000300 5b 6e a3 be e3 31 b6 be 80 a8 cc be ed bd 8e be
       -0.31920132 -0.35584936 -0.39972305 -0.27879277
000310 63 11 59 bd 6f 69 5b be 08 87 4a be 7c 31 bc be
       -0.052995097 -0.21426938 -0.19778073 -0.36756504
000320 13 5e e7 bd 8f e5 98 3e 07 33 6c 3d 17 d1 64 bc
       -0.1129724 0.2986264 0.05766585 -0.0139658665
000330 60 93 4d 3e 31 eb d9 bd a1 9f 03 be 16 58 eb bc
       0.2007575 -0.10640562 -0.12853862 -0.028728526
000340 53 40 b4 3e 4c b0 ce be e8 a3 01 be a9 50 dc 3e
       0.35205325 -0.4036888 -0.12660182 0.4303029
000350 e9 c1 f1 3d 30 a3 ba bd 34 e2 c4 be b1 9f 84 be
       0.118045636 -0.09113157 -0.3845383 -0.25903085
000360 59 46 59 3e 7b 0b 50 3c 53 56 b8 3e ce b2 51 bd
       0.21218242 0.01269805 0.3600336 -0.051195912
000370 fb 4a 62 bd 24 6b da 3e 08 70 26 3e 2b 25 5e be
       -0.05524729 0.42659867 0.16253674 -0.21693866
000380 e3 5e a6 3d 93 25 9f be 9d 53 48 be d6 e7 04 be
       0.08123567 -0.31083354 -0.19563146 -0.12979063
000390 d0 93 bc 3e dc 7d 5f 3d 09 f5 58 be 94 dd 32 bc
       0.36831522 0.05456339 -0.21187223 -0.010917086
0003a0 75 2a a5 3e c5 14 dc bd fa ac 99 be 82 01 80 be
       0.32258955 -0.10746149 -0.30014783 -0.2500115
0003b0 7b 2e be be 98 d7 9a be aa 58 d9 be 45 66 d4 bb
       -0.37144837 -0.3024261 -0.42450458 -0.006481918
0003c0 3e b0 a7 be 3d 63 ac be 65 13 17 be 54 7d 9c be
       -0.3275165 -0.33669463 -0.14753492 -0.30564368
0003d0 d2 7c 77 be a4 02 51 3e 34 c0 be be c8 65 ba bd
       -0.24168709 0.20411164 -0.37256014 -0.091014445
0003e0 a1 dd 8f 3e a1 c0 80 3e c8 d9 6b be ab 56 7c 3e
       0.28098777 0.25146964 -0.23032296 0.24642436
0003f0 27 a0 93 3e 92 37 d6 3d fd 49 59 3e fc c5 d5 bd
       0.28833124 0.10459818 0.2121963 -0.10438153

bias f4 [16]
000000 2c 5c 77 bb e9 92 76 ba 00 00 00 00 6d 62 cb ba
       -0.0037744148 -0.00094060466 0.0 -0.0015517004
000010 00 00 00 00 cc 2c 22 bb 00 00 00 00 00 00 00 00
       0.0 -0.002474594 0.0 0.0
000020 33 35 30 bb 00 00 00 00 00 00 00 00 00 00 00 00
       -0.0026887178 0.0 0.0 0.0
000030 00 00 00 00 00 00 00 00 00 00 00 00 cc 13 2d 3b
       0.0 0.0 0.0 0.0026409505

weight f4 [16, 16]
000000 3a 99 9d bd 3a 50 1b 3e 87 b2 7f bd a0 76 1c 3e
       -0.07695241 0.15167323 -0.062426116 0.15279627
000010 26 b3 90 3e 3f 6c 09 3e f3 39 9f 3d dd d6 51 be
       0.2826168 0.13420199 0.07774725 -0.2049212
000020 76 ec 0c be d2 52 3c 3d 46 ef 60 bd 0d 4f 88 3e
       -0.13762078 0.04597742 -0.05491569 0.2662281
000030 7b 47 6a 3e 0d a8 d2 3e 39 e5 18 3e c0 e4 8f be
       0.2287883 0.41143838 0.14931192 -0.2810421
000040 57 34 c2 3e 51 e1 05 3d 58 8c c9 be 7b b1 99 3e
       0.37930557 0.03268558 -0.39364886 0.3001822
000050 78 34 8d be bf 12 94 3e 40 c6 84 3d 22 11 93 be
       -0.27579093 0.28920552 0.06483126 -0.2872401
000060 44 dd 90 3e 4a f9 8b bd eb 9d a5 be c7 48 89 3e
       0.28293812 -0.068346575 -0.32347044 0.26813337
000070 1e 47 86 be e8 3f fd 3d 1d 68 71 3e dd a8 33 3e
       -0.26226133 0.12365705 0.23574872 0.17544885
000080 3c d8 ef 3d 35 b1 4f 3e a9 2f ae be 5a 30 5a be
       0.11711165 0.20282443 -0.34020737 -0.21307507
000090 29 be 61 3e cd 19 a5 3e 98 48 a5 3d b5 1d 58 3d
       0.22045197 0.32246247 0.08070487 0.052762706
0000a0 02 b4 b0 be 11 92 ac bd 17 5f 5f be 88 49 d8 3e
       -0.34512335 -0.084262975 -0.21813618 0.422436
0000b0 ea 8c db 3e e2 2f a2 3d 44 bd b0 3e 16 ae 01 3d
       0.42880946 0.07919289 0.34519398 0.031660162
0000c0 88 eb fe bd 33 42 a0 be 36 92 bb 3e c6 6b fd 3d
       -0.12447268 -0.31300506 0.36634988 0.12374072
0000d0 a6 55 90 bd 52 96 8e be 3f 6c 9f 3e c3 15 43 3e
       -0.07047586 -0.2784906 0.31137273 0.1905127
0000e0 71 ec 7c be 21 ca cf 3e 8f 0e a4 be 9c a7 77 bd
       -0.2469957 0.405839 -0.32042357 -0.06046258
0000f0 28 35 e7 3c 6c 31 bb 3e 16 0d a1 3d 18 32 9f 3e
       0.028223589 0.36561143 0.07863824 0.31092906
000100 12 da 90 be da f9 62 3e c2 9e b5 3e 2d 44 81 be
       -0.28291374 0.22165623 0.35472685 -0.25247326
000110 2c ad e8 bd 55 7b 0f 3e e5 44 b1 3d 92 29 a6 3d
       -0.11361155 0.14011891 0.08655719 0.08113398
000120 92 5c 87 bd 73 d8 e1 bd b4 c3 8f 3e 19 5b cd bd
       -0.06609453 -0.110276125 0.28078997 -0.10027141
000130 18 92 05 3e e5 bf 81 be 49 e6 a1 be 9a 46 b5 be
       0.13044012 -0.25341716 -0.31621006 -0.35405427
000140 53 8a c6 3e fd 03 46 be fe 99 7e be 61 63 91 3d
       0.38777408 -0.19337459 -0.24863431 0.07099033
000150 82 b5 bd 3e 20 bb 65 3d c9 62 24 3e 97 22 f7 3d
       0.37052542 0.05608666 0.16053309 0.12067144
000160 1c fe b1 3e 4a 92 2b 3e 5d fa af be 79 78 4f 3b
       0.34764183 0.16755024 -0.343707 0.00316575
000170 dd 80 bc 3e 1d fc cc be 02 ea 05 be 3c b4 d2 be
       0.36817065 -0.40036097 -0.13077548 -0.41153133
000180 7d 92 c4 be fb 97 2a 3e 3d fc c0 3e f2 29 ca 3e
       -0.38393012 0.16659538 0.37692443 0.39485127
000190 8f c0 1f be fc 18 ab 3e 11 66 a4 be 18 cd c0 be
       -0.15600799 0.334175 -0.3210912 -0.37656474
0001a0 13 ba aa 3e 0b c2 42 3e c1 13 61 3d 7e 4d b2 be
       0.33345088 0.19019334 0.05495048 -0.34824747
0001b0 b7 6a 8f bc c1 d4 b6 3e 78 f6 3e be ac 1b 92 3e
       -0.01750694 0.35709193 -0.18648708 0.28536737
0001c0 15 44 53 be a9 a9 c2 be 35 5e c6 3e e7 3d cc be
       -0.2063144 -0.38020065 0.3874375 -0.39890978
0001d0 b6 18 4d be d5 d7 74 bd 71 23 ad 3e 14 71 3c 3a
       -0.20028958 -0.059776146 0.33816102 0.0007188481
0001e0 03 ae c4 bd 7f 93 82 3e 4a de b1 bd f7 6b 9c 3e
       -0.096035026 0.25503156 -0.086849764 0.3055112
0001f0 9c 11 c8 3e 8d 4c 38 3e c5 c0 3a 3d 04 77 a7 3e
       0.39075935 0.17997952 0.045593996 0.3270799
000200 6e b3 d3 be 92 48 dc be d2 c9 e3 3d 8b 03 92 be
       -0.4134783 -0.43024117 0.111224785 -0.28518328
000210 62 8c be be 2f 02 f2 bd 52 59 8e be 09 c7 9b 3d
       -0.3721648 -0.11816823 -0.2780252 0.07606322
000220 4b cc 7a be a3 a2 35 3a fd 8e 69 3e 51 f4 67 be
       -0.24491994 0.0006928837 0.22808452 -0.22651793
000230 45 12 b7 3e b3 24 2b be 62 a5 ad 3e 5b b3 7f be
       0.35756126 -0.16713218 0.3391524 -0.24970762
000240 28 bb 95 be ae 53 42 3e b4 77 d2 3e 20 05 6b be
       -0.2924435 0.18977234 0.4110695 -0.22951174
000250 e3 6d c8 be 72 5d 63 be 6b 78 80 3e 4b f4 b0 be
       -0.39146337 -0.22203615 0.25091872 -0.3456138
000260 97 64 01 be d9 e2 bf be 69 ad d5 bc 45 58 9c 3e
       -0.12636028 -0.3747776 -0.026083665 0.30536094
000270 67 04 1a 3c ea a1 83 bc 95 96 7e bd c6 83 cd 3e
       0.009400464 -0.016068418 -0.062155325 0.40139598
000280 31 02 a2 3d ce ca ec 3c 8d e7 a3 3d 49 87 23 3d
       0.07910574 0.028905299 0.08003149 0.03992394
000290 75 d4 a5 3e f4 a3 a9 3e 9f 5f ed 3d 33 63 69 3e
       0.32388654 0.331329 0.11590504 0.22791748
0002a0 90 92 b4 be 41 15 b6 be 69 34 ae 3b 3f 43 0b 3e
       -0.35268068 -0.3556309 0.0053163064 0.13599871
0002b0 c9 11 ac 3d d7 e8 5f 3e 14 f8 c8 3e b1 5f d1 be
       0.0840183 0.21866165 0.3925177 -0.4089332
0002c0 b6 a8 dc be 91 88 b6 3c 04 c8 8d be 99 ff 1e 3e
       -0.43097466 0.022281917 -0.27691662 0.1552719
0002d0 70 86 d2 3d 1a 0c c3 3c a0 90 47 3d 84 32 fc 3c
       0.10279548 0.023809481 0.04872191 0.030785806
0002e0 b7 48 cd be 0c b7 55 3e b9 2e 1b 3e 77 21 d3 3e
       -0.4009454 0.20870608 0.15154542 0.4123647
0002f0 4c b9 aa 3d d9 ec 0a 3d bb 08 c8 3c ac c7 89 bd
       0.08336124 0.03391728 0.024418226 -0.067275375
000300 cb 42 13 3e 10 1c 7c 3d 8c d0 d5 3e 97 c3 5e be
       0.14380948 0.0615502 0.4176067 -0.21754299
000310 bb 26 7c be cb 32 bc 3e b6 83 68 3e 5c 21 62 3d
       -0.2462415 0.36757502 0.22706494 0.055207595
000320 a5 14 bb 3e dd cc 41 bc f1 a0 10 3e de fd b8 3d
       0.36539188 -0.011828628 0.14123894 0.09032796
000330 1c 99 35 3c 9f d8 88 3e 7b 7b 74 be 33 32 16 be
       0.011083867 0.2672777 -0.23875229 -0.14667587
000340 b7 94 a6 3e 12 43 80 3e 0d d1 26 3e ef 54 4a 3e
       0.32535335 0.2505117 0.16290684 0.19758962
000350 b1 22 8e 3e 2f ef 26 bc 6b c4 db 3e a8 1a e1 3d
       0.27760842 -0.010188862 0.42923293 0.109914124
000360 3a d9 bf bd 1a 37 4f 3e d2 b8 1a 3e e2 9e a6 be
       -0.093676046 0.20235863 0.15109566 -0.32543093
000370 86 4d 91 3c c1 c5 cd 3d 7e 56 9f 3e fe 40 b5 be
       0.017737161 0.10047484 0.31120676 -0.35401148
000380 14 08 a2 be 19 be a8 be 9b f6 77 3e e9 a8 98 bc
       -0.31646788 -0.32957533 0.24215166 -0.01863523
000390 79 1f cf be 37 8d 91 be 1b c7 bc 3e 7f b8 5b 3e
       -0.404537 -0.2842805 0.36870655 0.21457098
0003a0 a5 78 a5 3e fc 95 db be e3 33 31 be e6 a0 ed 3d
       0.32318607 -0.42887866 -0.1730495 0.116029546
0003b0 a4 8e 4b 3e 96 23 bb 3e 94 31 cf be c3 62 70 3e
       0.19878632 0.36550587 -0.40467513 0.23475175
0003c0 ad dd 95 3d 7a 09 dd 3e d3 5b be be 35 64 c6 3c
       0.07317672 0.43171293 -0.3717943 0.024217704
0003d0 f6 bc d4 be 86 8a f4 bd 55 6c 69 3e d0 68 93 3e
       -0.41550416 -0.11940484 0.22795232 0.28790903
0003e0 ac 73 cb be 31 a8 1d 3d d8 ff b7 3e 4e d7 ae bd
       -0.39736688 0.038490478 0.3593738 -0.0853716
0003f0 51 c4 96 bd c0 58 66 3d a2 ed e2 bc ef 70 94 bc
       -0.07361663 0.056236982 -0.027701203 -0.018120257

bias f4 [16]
000000 ff a7 92 bb c6 b1 ae ba ee 16 b4 b9 00 00 00 00
       -0.004475593 -0.0013328127 -0.0003434936 0.0
000010 00 00 00 00 a2 59 86 bb 39 3e 94 35 00 00 00 00
       0.0 -0.0041000405 1.1044968e-06 0.0
000020 00 00 00 00 00 00 00 00 16 58 b2 3a 00 00 00 00
       0.0 0.0 0.0013606574 0.0
000030 70 78 ce ba b7 52 74 3b 00 00 00 00 f2 dd 90 3b
       -0.0015752446 0.0037280747 0.0 0.004420989

weight f4 [16, 16]
000000 ce 58 c7 3e ee 4c 1c be 12 7f c9 be 78 af b6 3e
       0.3893494 -0.15263721 -0.3935476 0.35680747
000010 e8 53 25 be 75 93 43 be 8c 73 19 be 5c 15 88 3e
       -0.16145289 -0.19099219 -0.14985484 0.26578796
000020 2a 3f c7 3c e5 7d 78 3e 3a 7b 90 be 06 93 2e be
       0.024322111 0.24266775 -0.28219014 -0.17048272
000030 71 05 99 be 54 64 a3 3e 52 26 ca be e5 b1 cf be
       -0.29886964 0.31912482 -0.3948236 -0.4056541
000040 1f 49 81 3e b6 28 80 be a4 55 ba 3e f7 36 b1 be
       0.252511 -0.2503106 0.36393464 -0.34612247
000050 11 29 4c bc 34 e1 42 3e fb 25 87 3e a5 9a 2c be
       -0.012460963 0.1903122 0.26396164 -0.16855867
000060 83 b0 dd bd 1b 79 20 3e b9 af 63 be 26 c4 7f be
       -0.108246826 0.15671198 -0.22235002 -0.24977168
000070 58 73 6d 3e 76 cc d7 3d 2b cd c4 be f1 0e a8 bc
       0.23188531 0.10537045 -0.3843778 -0.020514937
000080 a2 c2 27 3e a8 ae d5 be fc 54 4e be fb 23 c6 be
       0.1638284 -0.41734815 -0.20149606 -0.38699326
000090 ae 26 db be 22 8d 42 be d2 fd c4 3e 53 ec 56 ba
       -0.42802948 -0.1899915 0.384749 -0.0008198667
0000a0 df 55 d7 bc 57 cd a8 3d a4 5a af 3d 30 9d 05 bc
       -0.026286064 0.082422905 0.0856221 -0.008155152
0000b0 20 7c 38 3e b5 09 05 be fd 61 dc 3e d5 42 04 3d
       0.180161 -0.12991984 0.4304351 0.0322903
0000c0 46 23 20 be f6 ac 09 bd 05 ac 84 3e a3 e6 94 be
       -0.15638456 -0.033612214 0.2591249 -0.29082212
0000d0 ce 32 cb 3e 45 f4 44 bd 57 09 12 bd 48 59 38 be
       0.39687198 -0.048084516 -0.03565344 -0.18002808
0000e0 db 64 81 3e bb 50 14 3e a4 e5 20 3e f7 a7 1d be
       0.2527226 0.14483921 0.15712601 -0.15396105
0000f0 96 25 88 be 25 7a 22 be 2b 73 f9 3d 5a 01 a3 be
       -0.26591176 -0.15866907 0.1218017 -0.3183697
000100 01 56 e1 3d 4e 87 a2 be 66 38 c7 bd d3 b7 8b 3c
       0.11002732 -0.31743854 -0.09727554 0.017055428
000110 76 f8 58 be d4 44 cb be 01 32 6f 3e e8 af b4 bd
       -0.2118853 -0.3970095 0.23358919 -0.08822614
000120 4d 52 99 3d 04 79 c9 3e 00 81 7c bd 73 6e 98 be
       0.07486401 0.3935014 -0.06164646 -0.29771766
000130 39 82 2a be 87 ed c2 3e 1f 9e 8f 3e 0a 37 b0 be
       -0.16651239 0.38071844 0.28050324 -0.3441699
000140 95 e5 65 be a2 af 43 be 88 f7 5e 3e 1f c7 b7 3e
       -0.2245086 -0.19109967 0.21774113 0.35894105
000150 7c 6e 6e 3e f9 30 ef 3d de 91 f5 3c 99 3e 5f be
       0.23284334 0.11679263 0.029976781 -0.21801223
000160 47 cb 81 3e 44 1c d3 be 07 6a ab be 5f 11 b6 3e
       0.253504 -0.41232502 -0.3347933 0.35560128
000170 39 b2 d9 bd de 12 55 be 74 9e 42 3e 13 df 1f 3e
       -0.106296964 -0.20807979 0.19005758 0.1561244
000180 db 4c ca bc 2c dd 54 bd 6c 78 b0 3e 8c 5c 86 3e
       -0.02469485 -0.05196874 0.34466875 0.26242483
000190 df 3a ca 3e c6 eb 02 3e 81 42 25 3e b2 b8 7e 3e
       0.3949804 0.12785253 0.1613865 0.24875143
0001a0 80 16 9b be 63 7d d0 3d 92 5b 3b 3d cb 01 6d 3e
       -0.30290604 0.101801656 0.045741625 0.23145215
0001b0 fc ea 14 3e 4c 64 73 3a d0 d5 c2 3e 65 3d 3f bd
       0.14542764 0.000928466 0.3805375 -0.04668941
0001c0 6a 72 d1 3e a1 22 d6 be 8e 5f d2 3e db fa 96 be
       0.40907604 -0.41823295 0.41088527 -0.29488263
0001d0 31 65 cd 3d fa 38 b5 3e 58 77 80 3e 70 ba d3 be
       0.10029066 0.35395032 0.25091052 -0.41353178
0001e0 99 c1 2b 3e f1 32 93 be 8d 4a c2 3e af 3c d2 3e
       0.1677307 -0.28749803 0.37947503 0.41061923
0001f0 ee 75 95 3e 78 c5 a7 3e 43 60 8a be ff 25 2f bb
       0.29191536 0.32767844 -0.27026567 -0.0026725528
000200 e8 80 b3 bd c1 1b 82 3e 57 c1 c7 bd d5 2c a5 3e
       -0.08764821 0.254118 -0.097536735 0.32260767
000210 d8 f1 90 be 51 95 fc 3d 35 5a 44 be df b8 7e 3e
       -0.28309512 0.12333167 -0.19175036 0.2487521
000220 5c ec 38 3e 3d 7a 2a be 7f b3 2c be 6c 00 b3 3e
       0.18058914 -0.16648193 -0.16865347 0.3496126
000230 a9 b2 00 3e 30 67 14 be 26 98 a8 be dd 4a 6d 3e
       0.12568153 -0.14492488 -0.3292858 0.2317309
000240 6b af 98 3e f4 b3 4a 3e 4e b3 af be 01 e0 b8 3e
       0.29821333 0.19795209 -0.34316486 0.361084
000250 bd 13 56 3e a0 d6 4b 3e b9 fb a2 3e e6 61 7b be
       0.20905967 0.19906092 0.31832674 -0.24549064
000260 55 a8 9a be b0 63 04 3c 2c 6e 82 be 76 37 15 be
       -0.30206552 0.008080408 -0.2547468 -0.14571938
000270 92 f6 e4 bd 37 e2 99 be d2 8b a5 bd 5b 71 79 bd
       -0.11179842 -0.300554 -0.08083309 -0.06089912
000280 73 09 29 be 10 66 27 3e a1 93 71 3d 00 fe d1 3e
       -0.16507511 0.16347528 0.05897868 0.410141
000290 3d 91 9d be f4 c0 6f bd 5b 44 10 be 72 01 4c be
       -0.3077487 -0.058533624 -0.14088576 -0.19922426
0002a0 04 34 cf be cf a7 fc 3d 5a 5f f0 bd 25 b0 d5 be
       -0.40469372 0.123366944 -0.11736937 -0.4173595
0002b0 b4 5c 89 be 69 5b bf be 3a a2 8a be c5 74 8a bd
       -0.2682854 -0.37374428 -0.27076894 -0.06760553
0002c0 14 fe 26 be 94 1a 28 bd 0f b2 a4 3d 31 6d a7 be
       -0.1630786 -0.041040972 0.080417745 -0.32700494
0002d0 17 01 a3 be b8 8f 57 be 3d 44 d1 3e 44 f0 85 be
       -0.3183677 -0.21050918 0.40872374 -0.2615987
0002e0 5e 96 62 3e c2 b5 d1 3e 7a 30 d8 bd 36 a6 d2 3c
       0.22127673 0.40958983 -0.10556121 0.025714021
0002f0 92 c4 b9 be a9 58 c2 3e ea 2a d9 3e 7e 00 65 be
       -0.36282784 0.37958267 0.42415553 -0.22363469
000300 20 83 a6 bd 57 0b be bd 5a 1c af 3d 33 b2 b8 3e
       -0.08130479 -0.09279507 0.085503295 0.36073455
000310 f6 b9 93 3e ea ac 42 3e 6c 97 ad 3e a6 35 b8 3e
       0.28852814 0.19011274 0.33904588 0.3597843
000320 a7 73 bf 3e 6a b1 3b be 9f dd 8b 3d bd 74 69 3e
       0.37392923 -0.18329397 0.0682938 0.22798438
000330 dc 31 c4 3e 4d de 73 be 43 87 95 3e ab 31 f9 bd
       0.3831929 -0.2381527 0.2920476 -0.121676765
000340 9d 4e 2a 3e 53 60 ab be e3 14 c1 be 78 cf a6 3e
       0.16631551 -0.33471927 -0.37711248 0.3258016
000350 c9 6d a5 3e 10 55 db 3e 9d 9f 72 3e 04 e5 92 be
       0.32310322 0.42838335 0.236937 -0.2869035
000360 31 f8 1d bd 18 5d ae 3e e4 86 a1 be b0 28 25 be
       -0.038566772 0.340554 -0.31548226 -0.16128802
000370 e0 34 40 3b 91 84 af 3e b4 f5 83 3e c3 15 b5 bc
       0.002932839 0.34280828 0.25773394 -0.022105103
000380 11 d6 ae 3e d9 e5 40 3e b9 4e 05 be 50 e6 d5 be
       0.34147695 0.1883768 -0.13018312 -0.41777277
000390 cb 12 d9 3e 9c d7 ca 3e b7 ac 84 be 99 1b a8 be
       0.4239715 0.39617622 -0.2591302 -0.32833555
0003a0 e6 33 0a 3e ac 08 9a 3e a7 3f 21 3c f4 99 d0 be
       0.1349636 0.3008474 0.009841836 -0.40742457
0003b0 f8 a1 a0 bb f3 48 20 be e4 95 ec 3d 5a 97 c3 be
       -0.0049021207 -0.15652828 0.11552027 -0.3820141
0003c0 d6 66 8c bc 13 fb d3 3e 22 c4 b7 be 57 55 ae be
       -0.01713888 0.41402492 -0.35891825 -0.34049484
0003d0 56 d4 dc be 2f 55 40 be ed a3 15 be 45 ac 28 3e
       -0.4313075 -0.18782495 -0.14613314 0.16471966
0003e0 17 0f b8 3e 49 d2 b2 be 7d 77 42 be 66 c2 14 3e
       0.35949013 -0.3492606 -0.18990894 0.14527282
0003f0 d7 2f 77 be 8b 1d e4 3d 8f 49 cf be 91 c3 c4 be
       -0.24139343 0.111384474 -0.40485808 -0.38430455

bias f4 [16]
000000 00 00 00 00 63 13 49 bb 00 00 00 00 00 00 00 00
       0.0 -0.0030681721 0.0 0.0
000010 00 00 00 00 00 00 00 00 5f c0 c0 ba b4 79 82 bb
       0.0 0.0 -0.0014705769 -0.0039817933
000020 fa 1c 00 bb bd 4e 90 bb 00 00 00 00 ac 4e 4c 3b
       -0.0019548521 -0.0044039176 0.0 0.0031174822
000030 a1 92 12 3b 41 7e 17 3b d8 af 83 bb fb 2d b6 bb
       0.002236523 0.0023116025 -0.004018765 -0.0055596805

weight f4 [16, 16]
000000 6a fe 95 be 76 a0 5d 3d 76 48 b5 3d 8a 4e c5 3e
       -0.29295665 0.054108106 0.088517115 0.38536483
000010 ca 7c bd 3e 8d 7e 8a 3e 75 a1 c7 3c 43 33 c3 3d
       0.3700927 0.27049676 0.02436898 0.09531262
000020 e2 2c 91 3e fc e4 52 be 4f 64 d4 3e e0 60 79 3e
       0.28354555 -0.20595163 0.4148278 0.24353361
000030 06 58 c6 be 0d f5 c2 be 3a f9 3b 3e e6 f8 d1 bc
       -0.38739032 -0.38077584 0.18356791 -0.02563138
000040 b4 a7 e5 bd 49 38 8d 3e 82 3b 6b 3c 2c 5c 56 be
       -0.112136275 0.27582005 0.0143574495 -0.20933598
000050 21 39 ba 3d 62 1b 82 3e c6 1d 9f 3e a8 76 95 3e
       0.09092928 0.25411516 0.31077403 0.2919209
000060 09 dc 8e be a0 a0 4a 3d 8c 42 66 be 77 29 a6 be
       -0.27902249 0.04946959 -0.22486323 -0.3245351
000070 37 58 c8 be 6c f2 85 be 55 2a 3d 3e 72 47 51 3e
       -0.39129803 -0.26161516 0.1847318 0.2043741
000080 5b d2 00 bd fd ce a2 be 5a 04 c5 3e 93 dc 98 3d
       -0.03145061 -0.31798545 0.38479882 0.07463946
000090 02 05 c0 3d de 7e a1 be a0 22 84 bd b3 99 9d be
       0.09375955 -0.31542104 -0.06451917 -0.30781326
0000a0 b8 4e 85 3e 38 6e 02 be 61 76 b9 3e 3a aa ce be
       0.2603662 -0.12737358 0.36223128 -0.40364248
0000b0 6b 3a 48 bd ec 7c 32 be 6e 7a b7 3d c1 5d 9e 3e
       -0.048883837 -0.17430466 0.089588985 0.30930904
0000c0 99 9c 0e 3c d0 bf 38 3e 94 23 3e 3e 3d c1 b9 3d
       0.008704328 0.1804192 0.1856826 0.090700604
0000d0 a1 f6 91 3e 84 cd b7 3e e6 b3 a6 be 56 8a 45 3e
       0.28508475 0.35898983 -0.32559127 0.19291052
0000e0 c7 93 c6 be a8 c1 50 be 0e 8b 2c be b9 25 59 3e
       -0.3878462 -0.20386374 -0.1684992 0.21205796
0000f0 a3 78 0a 3d 48 bd 0c be 7d dd 07 be ec 2c ae 3e
       0.033806454 -0.1374408 -0.13268085 0.34018648
000100 c8 49 72 3e c4 08 93 be 21 89 ce be b7 73 24 be
       0.23660958 -0.28717625 -0.40338996 -0.16059767
000110 07 6b d4 be 50 39 dc 3e 18 da 50 3e 3f a7 58 3e
       -0.41487905 0.43012476 0.20395696 0.2115755
000120 c4 4a 73 3c 0b 39 c7 be f1 4b 86 be 69 c5 59 be
       0.0148493685 -0.38910708 -0.26229814 -0.21266712
000130 37 bd cc 3e d6 1d cd 3e 76 4a 62 be 46 b9 ef bd
       0.3998811 0.40061826 -0.22098717 -0.1170526
000140 d2 73 ad 3e e9 0e 2b 3e 96 97 c3 3e 1d 56 0e 3e
       0.33877426 0.16704907 0.38201588 0.13900037
000150 04 7d a1 be 43 88 01 3e 69 1b 06 3c 8d d5 eb bc
       -0.31540692 0.12649636 0.008185246 -0.028788352
000160 ea c7 2d be a6 24 9c 3d a6 b2 c7 be 07 3e dd be
       -0.16970792 0.07624178 -0.39003485 -0.43211386
000170 f0 7f 18 be 4a 98 48 be 40 a6 99 3d 63 28 75 3e
       -0.14892554 -0.19589344 0.07502413 0.23941188
000180 8b 9f d0 3d ab a6 ca be bd fd a7 3d b6 c8 d0 3e
       0.101866804 -0.39580283 0.082026936 0.4077813
000190 5c 36 df 3d 92 58 77 be c2 1c b1 bc d7 95 58 be
       0.1089904 -0.2415488 -0.021620158 -0.2115091
0001a0 d1 2a c0 bd 13 96 3c 3e 48 e7 a8 be b6 1f 27 3d
       -0.093831666 0.18416624 -0.32988954 0.040801726
0001b0 9f e7 96 3e 1a ff 50 3e 47 9c ab be b9 e7 80 3e
       0.29473588 0.20409814 -0.33517668 0.2517679
0001c0 0f 3d ac bd db 04 cf bd 23 10 bc be bb 28 d7 3e
       -0.084100835 -0.10108348 -0.3673106 0.42023262
0001d0 f8 b0 48 3e 55 2d 48 3e cd c2 45 3e b3 e4 b3 be
       0.19598758 0.19548543 0.19312592 -0.3513542
0001e0 a4 d4 5d be 37 71 ba be fe d1 6b 3e 62 62 b0 be
       -0.21663147 -0.364145 0.23029324 -0.3445006
0001f0 7c 23 77 3c a0 ec 32 3e ef 26 6a be 51 bb bf 3e
       0.015084144 0.17473078 -0.22866414 0.374476
000200 54 52 36 3e 17 70 b2 3e 07 7c b2 be 89 52 a4 be
       0.17804843 0.34851143 -0.3486025 -0.3209422
000210 ee 4c a4 3e 21 82 aa be 54 20 04 bd a3 a2 b4 bd
       0.32089943 -0.33302405 -0.032257393 -0.08820083
000220 1d 0d 89 3c 1b 4a 07 be 69 93 81 3e a9 3b 9c 3b
       0.016729886 -0.13211863 0.25307778 0.004767854
000230 b0 45 ef 3d d5 78 c9 be da 1e 17 be 5a a4 65 be
       0.11683214 -0.3935 -0.14757863 -0.22425976
000240 0e 96 17 3d 4f be be be 54 ff 28 3d 44 b2 d4 be
       0.037008338 -0.3725457 0.041259125 -0.41542256
000250 7a e2 2d be 83 6c 94 bd 80 9b 41 bb ea d7 c3 3d
       -0.16980925 -0.072472595 -0.0029542148 0.09562667
000260 f3 42 7d be d3 2c 90 3e 40 c7 d5 be 90 f1 db bd
       -0.2473257 0.28159198 -0.41753578 -0.10739434
000270 ff 66 63 be a4 28 43 be df e1 b0 be 68 8c c0 3e
       -0.22207259 -0.19058472 -0.34547326 0.3760712
000280 5f 36 c4 be 3a 16 b0 3e d1 e6 68 be 22 b8 c0 3e
       -0.38322732 0.34391958 -0.227443 0.37640482
000290 d5 05 c2 3d 5f ac 5d be 8d ca d6 be e0 52 a5 bd
       0.094737686 -0.21647786 -0.4195141 -0.08072448
0002a0 0d 96 b5 3e 0d 5e 31 3e 90 54 1f be 3c 86 84 be
       0.35466042 0.17321034 -0.15559602 -0.25883663
0002b0 d8 64 e5 3c f9 1f 05 be 68 2e 88 be 18 58 a7 be
       0.028002188 -0.13000478 -0.26597905 -0.32684398
0002c0 0a a0 91 be 60 38 95 be 63 f8 d6 3e 41 b3 52 3d
       -0.28442413 -0.29144573 0.4198638 0.05144048
0002d0 68 67 6e 3d dd 9a 94 3e d0 58 bb be 25 1f 93 3d
       0.058204085 0.290244 -0.36591196 0.07183675
0002e0 58 70 f4 bd 94 ef 45 3e 0d 6f 13 3e 0f 74 93 be
       -0.1193549 0.19329673 0.14397831 -0.28799483
0002f0 e0 54 c6 be 7c 3b ba bd 33 d1 a7 be e1 a1 f9 bd
       -0.3873663 -0.09093377 -0.32776794 -0.12189079
000300 3f 26 58 3e fa f7 1d bd b8 48 23 bd c7 5a 0d 3e
       0.2110834 -0.038566567 -0.039864272 0.1380416
000310 45 d9 85 be 32 e4 bb 3e c7 5b a2 be 57 65 1e 3e
       -0.26142326 0.36697537 -0.31710646 0.15468346
000320 e0 b0 86 3e 10 c3 0a bc 20 8f 38 be ea d2 3f 3e
       0.2630682 -0.008469358 -0.18023348 0.18732801
000330 b5 76 f0 bd 64 bb c7 be cd fe 5f 3e f2 2f 99 3e
       -0.117413916 -0.39010155 0.21874543 0.29919392
000340 fd b3 2c 3e 6f 8a a7 be 86 b5 8f be 52 50 13 3e
       0.16865535 -0.32722804 -0.2806818 0.14386109
000350 bd 14 63 3e 1b bf b2 3d 5b 08 a7 3e a3 ba bc 3d
       0.2217588 0.08727857 0.32623562 0.09215286
000360 61 a3 b0 be 23 8c 4d 3e 01 ef bb 3e 89 15 96 be
       -0.34499648 0.20072989 0.36705783 -0.29313305
000370 63 a6 ce be 5f 94 8e 3c bd 86 9c 3e 23 0a 52 3e
       -0.40361318 0.017404733 0.30571547 0.2051168
000380 49 fa 8f be 2c be 4c 3e 3b 3f fd bd 05 eb 8f bd
       -0.2812064 0.1999442 -0.12365576 -0.07027248
000390 db 1d f7 bc 3c d4 ae be de b7 38 be 5d ae 83 3c
       -0.030165603 -0.34146297 -0.1803889 0.016074354
0003a0 f7 94 87 3e 79 c4 83 be 8c fb 37 3e 74 d6 ac 3d
       0.2648084 -0.25735834 0.17967051 0.08439341
0003b0 d2 9f 1b bd 3e 8e e1 bd 16 ef b7 be 18 4b 12 3e
       -0.037994213 -0.11013459 -0.35924596 0.14286458
0003c0 43 00 72 be b8 5d d2 3e 6f dd 26 3e 03 f1 23 3e
       -0.23632912 0.41087127 0.16295408 0.16009907
0003d0 f6 fe d4 3e 9f 83 1e bd 53 f6 2e be 27 03 4e 3c
       0.4160077 -0.038699742 -0.17086153 0.012573994
0003e0 39 16 0a be 9d ac 12 3e eb cf dc be a4 20 91 3d
       -0.1348504 0.14323659 -0.4312738 0.07086304
0003f0 a4 ed 88 bd 9f b2 e1 bd c6 9e 7d 3e ea 58 ac be
       -0.06685951 -0.110203974 0.24767599 -0.33661586

bias f4 [16]
000000 00 00 00 00 41 63 85 bb 00 00 00 00 00 00 00 00
       0.0 -0.00407067 0.0 0.0
000010 ba 01 3d 3b 00 00 00 00 00 00 00 00 00 00 00 00
       0.002884014 0.0 0.0 0.0
000020 7e a7 d3 3b 00 00 00 00 fe b5 ea b9 00 00 00 00
       0.0064591756 0.0 -0.00044767553 0.0
000030 00 00 00 00 00 00 00 00 00 00 00 00 63 55 3d bb
       0.0 0.0 0.0 -0.0028890006

weight f4 [16, 16]
000000 75 5f d3 bd 4a a7 aa 3e 29 cd 90 3d 07 6f 90 be
       -0.10320941 0.33330756 0.07070381 -0.28209707
000010 46 19 85 3e 79 e3 b8 be 4f 20 90 3e 24 78 34 be
       0.25995845 -0.36111048 0.2814965 -0.17623955
000020 e0 30 1d 3e 4e 91 a6 3e a6 07 c5 3e 71 01 0b 3e
       0.15350676 0.32532734 0.38482398 0.13574769
000030 02 08 44 3e 47 2b da bd 44 b7 db bd 02 c5 c8 be
       0.1914368 -0.10652786 -0.107283145 -0.39212805
000040 0f 28 50 3e ca 81 b7 3d c4 ea 05 3e 9a 66 8d be
       0.20327781 0.08960302 0.13077837 -0.2761734
000050 9b 90 db be a7 49 69 3e a0 95 53 be 93 fc 10 be
       -0.42883763 0.22782002 -0.20662546 -0.1415885
000060 fd 3c 04 3e 9e ae 2c 3e a8 a8 d4 be 0a 8c df bd
       0.1291389 0.16863486 -0.41534925 -0.10915382
000070 a2 1e bf 3e 4e e5 a0 3d c3 52 81 be 45 04 b0 3e
       0.37328058 0.078562364 -0.25258455 0.34378257
000080 2b 79 ce be b9 10 2a 3d 28 46 c9 3d f8 90 31 3d
       -0.4032682 0.041519854 0.09827834 0.043351144
000090 ed 07 c9 3e a7 c5 a5 3d 88 74 8e be c7 a1 83 bd
       0.3926386 0.0809434 -0.2782328 -0.06427341
0000a0 42 8e 39 be a2 40 b8 3e 6c 02 68 3d a3 c8 c8 be
       -0.18120673 0.3598681 0.056642935 -0.39215574
0000b0 67 1a d5 3b 7a 91 9b 3b a4 f6 d2 3c 0d c2 cc 3d
       0.0065033915 0.0047475668 0.025752373 0.0999795
0000c0 85 75 6e 3e 0f bd ad be 52 68 08 3e a1 81 5e be
       0.23287018 -0.33933303 0.13321045 -0.21729137
0000d0 2d c2 93 3e 50 bd 72 be 89 43 9e be 96 fe 7e be
       0.28859082 -0.2370503 -0.309109 -0.24901804
0000e0 8f 3e 82 3e 0d e0 a7 bd ff 6a c1 3e 8d bb b8 be
       0.25438353 -0.08197031 0.37776944 -0.3608059
0000f0 ac 4c 0f 3e 69 da 1d be 1b 31 81 3d 2a c3 8f 3e
       0.13994092 -0.15415348 0.06308194 0.28078586
000100 5b a3 62 3e 44 e0 ce be a8 5c 80 bd 1f 19 39 3e
       0.22132628 -0.40405476 -0.06267673 0.18075989
000110 c2 98 db be e4 d7 a2 be d2 a3 db be 0f 97 72 3d
       -0.42889982 -0.31805336 -0.42898422 0.059226092
000120 8b c5 bf 3d 37 8d 38 be a9 e9 32 3e 66 33 85 3d
       0.0936385 -0.18022619 0.17471947 0.06503944
000130 30 ae 3c 3e cd 40 c2 3e e4 4d 94 be a2 22 ac be
       0.18425822 0.37940064 -0.28965676 -0.33620173
000140 69 8b d2 3e 46 a5 66 be 77 2b 9c 3e 77 dc 15 be
       0.41121987 -0.22523984 0.3050191 -0.14634882
000150 2b 24 bf bd 7c be 45 be 0a 96 07 3e 27 5d e4 bc
       -0.0933307 -0.19310945 0.13240829 -0.02787645
000160 ea 11 b1 3e 82 1c d9 be 03 07 26 bc 5c cd 82 3d
       0.3458398 -0.42404562 -0.010133508 0.063868254
000170 a0 79 0f 3e b7 22 ac 3e b3 39 19 3e 9a e0 bf be
       0.1401124 0.33620235 0.14963417 -0.37476045
000180 82 6b 73 3d 98 fa 3b be d0 29 88 3e 82 2a 41 be
       0.0594287 -0.18357313 0.265944 -0.18863872
000190 0b dd 55 bd 22 72 e3 3d 8c 74 91 3e ee b3 54 be
       -0.052212756 0.111057535 0.2840923 -0.20771763
0001a0 1b 1e a5 3e e3 27 9c be c2 0f d3 bd b7 02 8b be
       0.3224953 -0.3049918 -0.1030574 -0.2715051
0001b0 ac f6 bb 3d 6d a0 b3 be 3a 2d 8f bb cf 52 99 be
       0.09177908 -0.35083333 -0.004369405 -0.2994599
0001c0 0c b1 8e 3e 1f ef c8 be fc 77 42 be 4e 2d bc be
       0.2786945 -0.39244935 -0.18991083 -0.36753315
0001d0 14 b8 8b be e4 69 ff 3c 79 b5 52 3e da a7 5d 3e
       -0.27288878 0.031178422 0.20577039 0.21646062
0001e0 c0 0a af be 72 72 9d bd eb 88 b9 bd fa e2 3a 3e
       -0.3418789 -0.07687844 -0.09059318 0.18250647
0001f0 01 a9 34 bd 55 38 69 bd 2f 96 8a be 40 3d 9a be
       -0.044106487 -0.056938488 -0.27067706 -0.30124855
000200 67 a5 a7 bc 4c 6f 4d 3e 8b 0c 5c be c9 ec bc 3d
       -0.020464612 0.20061988 -0.2148916 0.09224851
000210 0e 99 55 3e c8 fd 20 be 92 93 c8 3e 17 83 c9 3e
       0.20859167 -0.1572181 0.39175087 0.39357826
000220 a8 60 83 3e 46 34 3d 3e 9b e7 af be ba 75 6c 3e
       0.2565968 0.18476972 -0.34356388 0.23091784
000230 82 b5 4e bd dd ad aa 3e ba 22 b6 be fa 1b 9b bc
       -0.050466068 0.33335772 -0.3557337 -0.018934239
000240 43 3f c9 3e 47 51 b2 3d 73 e5 10 3e 79 53 f3 ba
       0.39306077 0.08706909 0.14150028 -0.0018564306
000250 35 3f 50 be ae 1b 5b 3e 4a 2c af 3e b9 07 73 3e
       -0.20336612 0.21397278 0.34213477 0.23733415
000260 9f 6c 94 be 40 28 95 be 23 7d d6 3e 1a 63 5e bd
       -0.2898912 -0.2913227 0.41892347 -0.05429373
000270 17 c6 38 3e 2c d1 fb 3d 7f 07 8c be b9 5e bf 3e
       0.18044315 0.12295756 -0.2734947 0.37376955
000280 5a 90 9d 3d e6 b2 54 be 96 53 d1 3e 36 5c 12 3e
       0.076935485 -0.2077137 0.40884084 0.14292988
000290 b1 6f d7 3d 7d 18 98 be 3a 53 c2 3e 8f 9e 60 be
       0.1051935 -0.29706183 0.37954122 -0.21935485
0002a0 f8 63 1b be 2d 27 d7 be 2a ce f5 3d 09 59 7b be
       -0.15174854 -0.42022076 0.12002213 -0.24545683
0002b0 75 ac c4 be 39 d5 9b 3e 0c 40 ca be de b9 b7 bd
       -0.38412824 0.30436113 -0.3950199 -0.08970998
0002c0 2c 22 27 be ed 9e f5 3c 7b 0d 82 3d 55 d7 c3 3e
       -0.1632163 0.029983008 0.063502274 0.38250223
0002d0 ad 4e 05 3e 5d 74 0f be ac b0 83 be 17 6e eb bd
       0.13018294 -0.14009233 -0.25720727 -0.11495607
0002e0 b8 bd 73 3e e1 c7 d5 be 0c c6 28 3e 2f 28 e8 bc
       0.2380284 -0.41754058 0.16481799 -0.028339474
0002f0 c5 be 4f be c9 f7 91 3e 9a 84 60 3e cc 9b 5f 3c
       -0.20287617 0.28509358 0.21925583 0.013647985
000300 fd e6 5a be 79 eb 86 be 9d b1 ee bd 72 51 89 be
       -0.21377178 -0.26351526 -0.11654971 -0.2681995
000310 a1 84 9a bd 7f 20 15 3e 72 ed 41 bd 04 92 66 3d
       -0.07544828 0.14563178 -0.047345586 0.056291595
000320 84 c9 21 be 15 5d f3 bd b2 46 81 3e 98 69 58 bd
       -0.15799528 -0.11882988 0.2524925 -0.052835077
000330 67 9b dd 3d c2 f5 98 be 02 bd 80 be e5 3f a9 3e
       0.10820656 -0.29874998 -0.25144202 0.3305656
000340 37 3a 5a bc 46 1a d7 3e 2a b2 15 be d8 ed 6b 3e
       -0.013319544 0.42012233 -0.14618745 0.23039949
000350 3f 01 3f 3e 55 8f be be 89 d5 7a be 02 e6 ba 3e
       0.18652819 -0.3721873 -0.2449552 0.36503607
000360 66 3a 15 be 62 ab cc be 1b 4c a4 3e 05 c7 d2 3e
       -0.14573058 -0.39974505 0.32089314 0.41167465
000370 e7 f7 8f 3e 32 57 8d 3e ab 8a 06 be 16 2c ba 3e
       0.28118822 0.27605587 -0.13138835 0.3636176
000380 bd 27 44 be b9 00 36 3e 1c fe d4 be 8f 0b c3 3e
       -0.19155784 0.17773713 -0.4160012 0.38094756
000390 13 bb a1 be 79 41 ce be df 31 37 3e 20 b5 bf 3e
       -0.3158804 -0.40284327 0.17890118 0.37442875
0003a0 93 c7 b1 be cd e9 d6 3e 3f b3 97 3d 3e a7 60 3e
       -0.34722576 0.4197525 0.07407235 0.21938798
0003b0 8a 67 b4 3d 77 b5 dc be 44 5f bf 3e 0a 77 b4 3e
       0.08808811 -0.43107197 0.3737737 0.3524707
0003c0 35 67 69 3e b9 8b 3c 3b fa 6f 33 3e d2 f2 bf 3c
       0.22793277 0.0028769805 0.17523184 0.023431215
0003d0 e0 f2 08 3e f5 5a 54 bd 84 3a d0 3e 18 d9 12 be
       0.133739 -0.051844556 0.40669644 -0.14340627
0003e0 81 6e 90 bd 5b b6 02 3e 6f 7e c4 3e 46 c7 77 be
       -0.07052327 0.12764876 0.3837771 -0.2419711
0003f0 d1 a4 40 be 3a 42 c3 be d1 9c a7 3e 02 e5 cd 3e
       -0.18812872 -0.38136464 0.3273683 0.40213782

bias f4 [16]
000000 f1 f5 aa 3b 00 00 00 00 92 ff c0 bb 66 9e eb 3b
       0.005217307 0.0 -0.0058898414 0.0071905134
000010 00 00 00 00 00 00 00 00 00 00 00 00 00 00 00 00
       0.0 0.0 0.0 0.0
000020 39 5c 89 bb 17 8a a7 ba 00 00 00 00 3b d9 43 ba
       -0.004191902 -0.0012782243 0.0 -0.00074710295
000030 00 00 00 00 ec 83 a7 ba 52 e1 85 3b 19 ed da ba
       0.0 -0.0012780405 0.004085698 -0.0016702741

weight f4 [16, 16]
000000 e8 c7 b9 3d 65 3e b8 be 67 65 aa be 1c 4d b1 3e
       0.09071332 -0.35985103 -0.3328049 0.34629142
000010 a2 29 f0 3c 96 70 c3 3d 24 03 83 be 9e 6e b7 be
       0.029316727 0.095429584 -0.25588334 -0.35826582
000020 03 74 5b be 78 02 d2 be d5 8f 9a 3e ab 2d 24 3e
       -0.21430974 -0.41017509 0.3018786 0.16033046
000030 1b 24 b7 be 00 e2 de 3e d9 4e c0 bd 2e 3f 63 3e
       -0.35769734 0.435318 -0.09390039 0.2219207
000040 48 fb bd 3d 9c 04 1d 3e 21 ba 21 bd b5 5b 48 bd
       0.09276444 0.1533379 -0.039484147 -0.048915584
000050 c8 be 4c be d4 20 09 3e ca 06 37 3d 67 b8 9d 3e
       -0.19994652 0.13391429 0.04468421 0.3080475
000060 66 dd a6 be 7d 24 2f 3e 54 cc 0c 3e b5 3f 4d 3c
       -0.3259079 0.17103763 0.1374982 0.012527396
000070 7f 13 7b be 45 a9 5f be da bf a6 3e 85 af 98 3e
       -0.24519156 -0.21841915 0.32568246 0.2982141
000080 d9 97 32 3e bc 72 d2 be 2c 60 93 be d6 f7 12 3e
       0.17440738 -0.4110316 -0.2878431 0.14352354
000090 fe ae d7 3e 1e ed d2 be 43 2f d9 3d f7 6a d1 be
       0.42125696 -0.4119653 0.106047176 -0.4090192
0000a0 b8 d6 d4 be ba 8e a7 be 2c 37 5a be b1 9f 86 be
       -0.41570067 -0.3272608 -0.21310109 -0.2629371
0000b0 c8 64 80 be 4a ab 15 3d 18 e9 bd bd bc b6 82 3e
       -0.2507689 0.036540307 -0.09272975 0.2553004
0000c0 00 8e c7 3d a8 7f 30 be 7b d3 96 be 6a ab a7 3e
       0.09743881 -0.17236197 -0.29458222 0.32747966
0000d0 7e 68 c0 bb f1 8c ba 3d ac 54 50 3e 87 e7 b0 bd
       -0.0058718314 0.09108914 0.203448 -0.0863791
0000e0 4e 6d 63 be 96 f7 73 3c 89 a7 7e be ef 45 5a 3e
       -0.22209665 0.014890572 -0.24868597 0.2131574
0000f0 2c 09 23 3e b0 70 5b be d7 8a 0d be 09 57 b7 3d
       0.15921468 -0.21429706 -0.13822494 0.089521475
000100 41 fb 7b 3d 58 ce 84 3d 69 7e 5c be ae 62 af 3d
       0.06151891 0.064846694 -0.21532597 0.085637435
000110 f5 1d 3d be 1b d8 b9 3d 29 dd 96 3c a5 53 b1 3c
       -0.18468459 0.09074422 0.018416004 0.02164633
000120 cf e2 34 be 33 88 b2 be 52 01 9d be 49 ba c9 3d
       -0.17664646 -0.34869537 -0.3066507 0.09849984
000130 96 78 41 3e b1 0f d1 bd f2 34 99 3e 14 c0 2a be
       0.18893656 -0.10208071 0.29923207 -0.16674834
000140 77 92 6b 3e 8d 59 b0 3d 6b cf c4 3e 4b 86 a5 3e
       0.2300509 0.086108305 0.38439497 0.3232902
000150 5a 9e 02 be 44 ca 41 3c 7b b7 a7 be da 75 80 3e
       -0.12755719 0.011828009 -0.32757172 0.25089914
000160 a4 14 cd bd b7 cf af be 31 9f 36 be e8 72 c7 be
       -0.100137025 -0.3433816 -0.17834164 -0.38954854
000170 e6 21 f9 bd 86 aa 15 be 22 89 d7 be 25 10 f1 3d
       -0.12164669 -0.14615831 -0.42096812 0.117706574
000180 dd 2a a2 be a9 97 ba 3d 95 7a 54 be 10 57 26 3d
       -0.31673327 0.09110958 -0.20749886 0.040610373
000190 8a 2e 50 be e0 90 9f bd 0a b8 08 3d bc a7 3c 3e
       -0.20330253 -0.077913046 0.03337864 0.1842336
0001a0 dd ef 11 3e f6 af aa 3e 2c 4e cb 3e 98 4e d2 be
       0.14251657 0.33337373 0.39708078 -0.41075587
0001b0 f2 1f d9 bd b0 91 46 3e d1 65 2c be 16 0b 02 be
       -0.10601796 0.19391513 -0.16835715 -0.12699541
0001c0 79 a8 91 be 89 22 a6 3d 50 1b 05 be 68 77 89 bd
       -0.28448847 0.08112056 -0.129987 -0.06712228
0001d0 72 72 68 3e 55 50 9d 3e 70 45 95 be ce 65 b8 be
       0.22699907 0.3072535 -0.2915454 -0.3601517
0001e0 ca 72 33 3e 4c ab 9a be 09 d2 3a bd 36 4f 89 3d
       0.17524257 -0.30208814 -0.04561046 0.067045614
0001f0 21 dd db be 4c a9 ad 3e 49 b5 01 3e d1 e8 1d 3d
       -0.42942145 0.33918226 0.12666811 0.03855211
000200 8c e4 23 3d 82 2d b8 be 17 32 6f 3e 83 f3 1b be
       0.04001288 -0.3597222 0.23358952 -0.15229611
000210 22 80 98 be ea ac 92 bc c1 e7 ad 3e 8f e7 a0 be
       -0.29785258 -0.017904717 0.33965877 -0.31426665
000220 61 f9 95 bd 21 ab 31 3e c4 46 b3 be 62 9d ba 3e
       -0.07322956 0.17350437 -0.35014927 0.364482
000230 46 e7 8d 3c 52 d6 0b 39 57 24 10 3e 07 1a d2 bc
       0.017322194 0.00013335914 0.14076363 -0.025647176
000240 e3 98 5e 3e 12 5a 97 3e 4e 73 db be 33 5f be 3e
       0.21738009 0.29560906 -0.42861408 0.37182006
000250 b6 d3 d5 3e 19 ae b3 bd d7 80 d8 3d fe 36 89 3e
       0.41763085 -0.08773441 0.10571449 0.26799768
000260 d0 a7 d3 3e 2d 1d 09 3e fd 2b 6b 3e 1e d5 9b be
       0.41338968 0.13390036 0.22965999 -0.30436033
000270 f6 57 d7 be 2d 2c 06 3e 68 77 d9 3d 29 c5 00 be
       -0.42059296 0.13102789 0.10618478 -0.1257521
000280 10 b6 94 be 8b 72 bf bd 2d e0 82 be 7b 9a 5d be
       -0.29045153 -0.09348019 -0.25561658 -0.21640961
000290 8a 52 f8 3d 61 97 e9 bc a2 36 b1 bc 1f 40 af bd
       0.12125118 -0.028514566 -0.021632496 -0.08557152
0002a0 84 7d 85 be 6c 13 d5 3e 56 ff 83 3e 7a b8 09 be
       -0.26072323 0.4161638 0.25780743 -0.13449278
0002b0 9b 88 ef 3d 53 7d b4 3e b8 f4 88 be 1b e3 55 be
       0.11695977 0.35251865 -0.26749206 -0.20887415
0002c0 ed a2 a9 be 36 23 67 be 83 fc d9 bb 30 96 61 3e
       -0.33132115 -0.22572026 -0.006652416 0.22029948
0002d0 9b c9 c7 3e c2 b6 b9 3e 7c 49 7f 3e 49 5a 90 3e
       0.39021 0.36272246 0.24930376 0.28193882
0002e0 65 ae e1 bd d8 65 a9 3e c9 d8 98 bd bf 6d 85 bd
       -0.11019591 0.33085513 -0.074632235 -0.06515073
0002f0 3f 13 a9 3d fc 30 c0 3d b2 4e a5 be 02 92 71 bc
       0.08255624 0.09384343 -0.32286602 -0.014744284
000300 d4 a2 d4 be 44 1b a6 be e9 66 f4 3d 97 a8 b5 3e
       -0.41530478 -0.32442677 0.11933691 0.35480186
000310 c2 28 99 3d a8 c2 9b be d1 0b 85 3e 93 27 aa be
       0.07478477 -0.30421948 0.25985578 -0.33233318
000320 d6 1c ca 3d 4b 7d 95 3d d6 66 d0 3e be d3 b6 3c
       0.09868781 0.07299288 0.40703458 0.022317763
000330 ec d0 8d be 70 e9 ae 3e c9 46 a4 3d 2b 9a 25 be
       -0.27698457 0.34162474 0.08021314 -0.16172092
000340 7e 1f db be f4 41 40 be 2e c9 a0 3e 36 31 8e 3e
       -0.42797464 -0.18775159 0.31403488 0.2777192
000350 e3 b5 9d bc 38 8c 43 be 4b 93 79 bd 8c cb b1 3e
       -0.01925177 -0.19096458 -0.060931485 0.34725606
000360 19 1e 8f 3e eb 5a 38 bd c4 f1 22 3e b2 a9 df bb
       0.2795265 -0.04500858 0.15912539 -0.006825649
000370 cb 17 2c 3e 07 9b 0e 3e 95 e3 94 3e 2d 41 b7 be
       0.16805951 0.13926326 0.2907988 -0.35791913
000380 32 c5 81 3c 9e 32 25 bd 72 bc b8 bd ce 5d 90 be
       0.0158411 -0.040331475 -0.09020318 -0.28196567
000390 98 b0 12 3e 3c 79 80 3e 9b c1 c1 bc ab 0b 48 be
       0.14325178 0.25092494 -0.023651889 -0.19535701
0003a0 86 94 00 be b9 15 88 bd 5b 10 73 3d 0e fc be 3e
       -0.12556657 -0.06644768 0.05934177 0.37301677
0003b0 36 cf f9 bb 6c 50 88 bc d1 7a 8a be af d9 8f 3e
       -0.0076235784 -0.01663991 -0.27046826 0.28095767
0003c0 9c 6c ac 3d cf 0c c9 3e 66 ff 2e be 2b 64 60 3d
       0.08419153 0.39267585 -0.17089614 0.054783028
0003d0 8c 15 0a 3e 8b 7b af 3e c0 62 2a 3e a6 c6 72 3e
       0.13484782 0.34273943 0.16639233 0.23708591
0003e0 e0 03 f7 bb fd 48 54 be 21 3b d1 3d a9 a0 66 3e
       -0.0075383037 -0.20730968 0.10216356 0.22522224
0003f0 9d d2 95 be fb 34 a4 bd c3 47 9f be f9 ca 42 be
       -0.29262248 -0.08017918 -0.31109437 -0.1902274

bias f4 [16]
000000 c2 53 d5 3b 00 00 00 00 00 00 00 00 03 6d a2 ba
       0.006510229 0.0 0.0 -0.0012392107
000010 00 00 00 00 3e de 6b 3b 00 00 00 00 99 e5 8a bb
       0.0 0.003599062 0.0 -0.004238796
000020 44 62 b7 3b c3 e1 a1 3b 00 00 00 00 00 00 00 00
       0.005596431 0.004940243 0.0 0.0
000030 88 cf be bb 82 c3 37 bb 03 95 c1 bb 00 00 00 00
       -0.0058230795 -0.0028040116 -0.005907656 0.0
