ood/esol.pt (torch, 347597 bytes, 62 tensors)

weight f4 [16, 9]
0	0xbea77b72	-0.3271137
1	0x3d7abdfb	0.061216336
2	0x3dd54d84	0.104151756
3	0x3ee14dab	0.44004568
4	0x3ed89679	0.42302302
5	0x3e9cb03f	0.30603215
6	0x3d02573b	0.03182147
7	0x3de2ec25	0.11080197
8	0x3ea6300e	0.32458538
9	0xbe6e9990	-0.23300767
10	0x3ef04b3e	0.46932405
11	0x3e8d11da	0.27552682
12	0xbee06683	-0.4382821
13	0xbedc91a5	-0.43079868
14	0x3e54aaf4	0.20768338
15	0xbced8e76	-0.028998595
16	0xbe01e99c	-0.12686771
17	0x3ea182e1	0.31545165
18	0x3c6708c3	0.01410121
19	0xbe72854d	-0.23683663
20	0x3dce43bd	0.10071514
21	0x3e92191e	0.28534788
22	0x3eb4b4f8	0.35294318
23	0x3eaad2a8	0.33363843
24	0xbea0fa1e	-0.31440824
25	0x3d6c3d42	0.057675608
26	0xbe8357a2	-0.25652796
27	0xbeb9968c	-0.3624767
28	0xbee0e55d	-0.4392499
29	0xbe95b1e6	-0.29237288
30	0x3e5983b3	0.21241646
31	0x3e721779	0.23641767
32	0xbd11bec0	-0.035582304
33	0xbeb83264	-0.35975945
34	0x3edee638	0.43535018
35	0x3dacf174	0.08444491
36	0x3dce44b6	0.10071699
37	0xbeb6b61e	-0.3568582
38	0xbd9e9792	-0.077437535
39	0xbeb4b450	-0.35293818
40	0x3e9499e9	0.29023674
41	0xbe1390b8	-0.14410675
42	0x3ecf6842	0.4050923
43	0xbeeb822a	-0.45997745
44	0xbd711357	-0.058856335
45	0xbe473c5d	-0.1945662
46	0x3dcf94f9	0.10135836
47	0x3eb47ea1	0.3525286
48	0x3c4b9f8e	0.0124281775
49	0x3e53b8eb	0.2067601
50	0x3e571e22	0.21007589
51	0x3dd7ab2d	0.10530696
52	0x3ea6472e	0.3247618
53	0x3ed12e58	0.4085567
54	0xbebc9a44	-0.36836445
55	0x3e5f7dcd	0.21825333
56	0xbee0aa1e	-0.4387979
57	0xbe6c2e55	-0.2306455
58	0xbe4335d8	-0.19063509
59	0x3e75ac98	0.2399162
60	0x3d1ca98e	0.038247637
61	0xbe1f3a7a	-0.15549651
62	0xbe19b6c3	-0.15011124
63	0x3ec340dd	0.38135424
64	0x3e890f14	0.26769316
65	0xbea6f65d	-0.32609835
66	0xbeeb7803	-0.4599
67	0xbe3d734c	-0.18501014
68	0xbef052d8	-0.46938205
69	0x3ef767cd	0.4832138
70	0x3e6b4f89	0.22979559
71	0x3e73def6	0.23815522
72	0x3c9cf8fb	0.019161692
73	0xbee0327c	-0.43788517
74	0xbe97f077	-0.29675648
75	0xbe73f47f	-0.23823737
76	0x3ee8ce1f	0.45469758
77	0x3ee93f32	0.45556027
78	0xbe7da15c	-0.24768585
79	0xbe041510	-0.1289866
80	0x3ec43d30	0.38327932
81	0x3e3c2044	0.18371683
82	0x3edd4988	0.43220162
83	0x3e22cb93	0.1589797
84	0xbeb65489	-0.3561137
85	0x3e14e6c6	0.14541158
86	0x3c17b98f	0.009260549
87	0xbd00ce5a	-0.031446792
88	0xbe48d037	-0.19610678
89	0x3db50cb2	0.08840312
90	0xbee1eead	-0.44127408
91	0xbefa4e9d	-0.48888102
92	0xbe2c88a6	-0.16849002
93	0xbe62f27b	-0.22162811
94	0x3dadd5a0	0.08488011
95	0x3e8aaea3	0.27086362
96	0x3dec07bc	0.11524913
97	0xbee54603	-0.44779977
98	0x3dbe0f70	0.09280288
99	0x3eea635f	0.4577894
100	0x3dfc8933	0.12330856
101	0xbe8ce2a9	-0.27516678
102	0xbcd8d762	-0.02646989
103	0xbe76a0a3	-0.24084716
104	0xbdd96995	-0.10615841
105	0x3e51b91b	0.20480768
106	0xbebe5817	-0.37176582
107	0x3d3e6875	0.046486337
108	0x3eabedc7	0.33579847
109	0x3e6c73da	0.23091069
110	0xbec12719	-0.37725142
111	0x3e92a453	0.28640994
112	0xbdba1db6	-0.09087698
113	0xbdea3719	-0.1143629
114	0xbed2f9c7	-0.4120619
115	0x3ef2b9d6	0.47407407
116	0x3e62c107	0.22143947
117	0x3e5ee7c4	0.21768099
118	0x3e5fbdb0	0.21849704
119	0xbecd34e3	-0.40079412
120	0xbe7e9411	-0.2486117
121	0xbed05708	-0.406914
122	0x3e85666d	0.26054707
123	0xbec94376	-0.3930928
124	0x3c58c515	0.013230582
125	0x3e4680af	0.19385026
126	0xbe860a6e	-0.26179832
127	0x3ed8eb6e	0.4236712
128	0x3e4b3e46	0.19847974
129	0x3ec87671	0.39152864
130	0xbecb69ae	-0.39729065
131	0xbeb9e8da	-0.36310464
132	0x3eb850aa	0.35999042
133	0xbec227c5	-0.37920967
134	0xbd1f9e17	-0.038969126
135	0xbdc3bedc	-0.09557888
136	0x3c9d6969	0.019215303
137	0xbe14ce17	-0.14531742
138	0x3e94a62c	0.2903303
139	0x3c14e760	0.009088367
140	0x3e07919c	0.1323914
141	0xbee1df6e	-0.44115776
142	0xbe26d399	-0.16291656
143	0xbe7da29c	-0.24769062

bias f4 [16]
0	0x3b8b8df3	0.004258865
1	0x00000000	0.0
2	0xbb0a22f0	-0.0021077953
3	0x00000000	0.0
4	0xbb9b04a3	-0.0047307773
5	0x3b2932a8	0.0025817547
6	0x00000000	0.0
7	0xbb669eb6	-0.0035189814
8	0x00000000	0.0
9	0x39c0ca92	0.0003677202
10	0x00000000	0.0
11	0xbafe0692	-0.001938062
12	0x3ae5794f	0.0017507466
13	0xbb4d17bc	-0.0031294664
14	0xbb432e07	-0.0029782073
15	0x3b85820b	0.00407434

weight f4 [16, 16]
0	0x3d17960e	0.037008338
1	0xbebebe4f	-0.3725457
2	0x3d28ff54	0.041259125
3	0xbed4b244	-0.41542256
4	0xbe2de27a	-0.16980925
5	0xbd946c83	-0.072472595
6	0xbb419b80	-0.0029542148
7	0x3dc3d7ea	0.09562667
8	0xbe7d42f3	-0.2473257
9	0x3e902cd3	0.28159198
10	0xbed5c740	-0.41753578
11	0xbddbf190	-0.10739434
12	0xbe6366ff	-0.22207259
13	0xbe4328a4	-0.19058472
14	0xbeb0e1df	-0.34547326
15	0x3ec08c68	0.3760712
16	0xbec4365f	-0.38322732
17	0x3eb050a1	0.34436515
18	0xbe68e6d1	-0.227443
19	0x3ec0b822	0.37640482
20	0x3dc205d5	0.094737686
21	0xbe5dac5f	-0.21647786
22	0xbed69026	-0.41906852
23	0xbda468cf	-0.08027803
24	0x3eb5d057	0.35510513
25	0x3e31d28f	0.17365478
26	0xbe1f5490	-0.15559602
27	0xbe844cec	-0.25839937
28	0x3ce90bbb	0.028447976
29	0xbe04acaa	-0.12956491
30	0xbe87f499	-0.265538
31	0xbea72219	-0.32643202
32	0xbe94fb45	-0.29097953
33	0xbe953860	-0.29144573
34	0x3ed3a147	0.41333982
35	0x3d52b341	0.05144048
36	0x3d545b31	0.05184478
37	0x3e914005	0.28369156
38	0xbebb58d0	-0.36591196
39	0x3d931f25	0.07183675
40	0xbdf47058	-0.1193549
41	0x3e3f587b	0.18686096
42	0x3e136f0d	0.14397831
43	0xbe96befd	-0.29442587
44	0xbec9bd12	-0.39402062
45	0xbdba3b7c	-0.09093377
46	0xbeab20c4	-0.33423436
47	0xbdf9a1e1	-0.12189079
48	0x3e5af1cc	0.213813
49	0xbd1df7fa	-0.038566567
50	0xbd17787c	-0.036980137
51	0x3e0d5ac7	0.1380416
52	0xbe8361f9	-0.25660685
53	0x3ebd33cc	0.3695358
54	0xbea25bc7	-0.31710646
55	0x3e2065c4	0.1566382
56	0x3e86b0e0	0.2630682
57	0xbbb95015	-0.0056552985
58	0xbe388f20	-0.18023348
59	0x3e43cf73	0.19122104
60	0xbdea9ea3	-0.11456039
61	0xbec4a2f5	-0.38405576
62	0x3e62c3fe	0.22145078
63	0x3e9ce259	0.3064144
64	0x3e2cb3fd	0.16865535
65	0xbea78a6f	-0.32722804
66	0xbe8fb586	-0.2806818
67	0x3e135052	0.14386109
68	0x3e6314bd	0.2217588
69	0x3db2bf1b	0.08727857
70	0x3ea7085b	0.32623562
71	0x3dbcbaa3	0.09215286
72	0xbeb0a361	-0.34499648
73	0x3e4d8c23	0.20072989
74	0x3ebbef01	0.36705783
75	0xbe961589	-0.29313305
76	0xbecea663	-0.40361318
77	0x3c8e945f	0.017404733
78	0x3e9c86bd	0.30571547
79	0x3e520a23	0.2051168
80	0xbe8ffa49	-0.2812064
81	0x3e4cbe2c	0.1999442
82	0xbdfe7211	-0.124241
83	0xbd8feb05	-0.07027248
84	0xbcf71ddb	-0.030165603
85	0xbeaed43c	-0.34146297
86	0xbe38b7de	-0.1803889
87	0x3c7dc5d0	0.015489057
88	0x3e8794f7	0.2648084
89	0xbe84112f	-0.2579436
90	0x3e37fb8c	0.17967051
91	0x3daba39d	0.08380816
92	0xbd1e0585	-0.038579483
93	0xbde18e3e	-0.11013459
94	0xbeb7ef16	-0.35924596
95	0x3e124b18	0.14286458
96	0xbe751b54	-0.23936206
97	0x3ed27828	0.41107297
98	0x3e23841b	0.15968363
99	0x3e23f103	0.16009907
100	0x3ed2af13	0.41149196
101	0xbd2a9b2e	-0.041651897
102	0xbe2ebf68	-0.17065203
103	0x3c0aa12c	0.008461278
104	0xbe09d5b8	-0.13460433
105	0x3e0e4a02	0.13895419
106	0xbedccfeb	-0.4312738
107	0x3d898694	0.06715122
108	0xbd8f9316	-0.07010476
109	0xbde43c4f	-0.111443155
110	0x3e7a94cc	0.24470824
111	0xbeae9f4e	-0.34105915
112	0xbdd7dfd2	-0.10540737
113	0x3ea92786	0.33037966
114	0x3d8bb84d	0.06822262
115	0xbe906f07	-0.28209707
116	0x3e8100da	0.25195962
117	0xbeb9f652	-0.3632074
118	0x3e90204f	0.2814965
119	0xbe38a8d8	-0.18033159
120	0x3e1ab93a	0.15109721
121	0x3ea43b8c	0.3207668
122	0x3ec50c0b	0.3848575
123	0x3e0805fe	0.13283536
124	0x3e415995	0.18881829
125	0xbde48e87	-0.111599974
126	0xbde09bea	-0.10967238
127	0xbecbf23f	-0.39833257
128	0x3e5345c4	0.20632082
129	0x3db781ca	0.08960302
130	0x3e094473	0.13405018
131	0xbe8d669a	-0.2761734
132	0xbed89ca4	-0.42307007
133	0x3e6c501a	0.23077431
134	0xbe5395a0	-0.20662546
135	0xbe0c55da	-0.13704625
136	0x3e043cfd	0.1291389
137	0x3e31ad08	0.17351162
138	0xbed4a8a8	-0.41534925
139	0xbdd810a1	-0.10550047
140	0x3ec0e196	0.37672108
141	0x3dab5eb5	0.08367673
142	0xbe7f6627	-0.24941312
143	0x3eb35381	0.35024646
144	0xbece792b	-0.4032682
145	0x3d3507d5	0.044196922
146	0x3dc94628	0.09827834
147	0x3d3190f8	0.043351144
148	0x3eca76e7	0.3954384
149	0x3da5c5a7	0.0809434
150	0xbe8e7488	-0.2782328
151	0xbd83a1c7	-0.06427341
152	0xbe3755e5	-0.1790386
153	0x3eb840a2	0.3598681
154	0x3d6813b9	0.056659434
155	0xbec8c8a3	-0.39215574
156	0x3bd51a67	0.0065033915
157	0x3b9b917a	0.0047475668
158	0x3cd2f6a4	0.025752373
159	0x3dd2d7bc	0.10295054
160	0x3e6c8050	0.23095822
161	0xbeb07538	-0.3446443
162	0x3e06703e	0.13128754
163	0xbe5e81a1	-0.21729137
164	0x3e90917f	0.28236005
165	0xbe74b0bf	-0.23895548
166	0xbe9e4389	-0.309109
167	0xbe8051dc	-0.25062454
168	0x3e7f7ea6	0.24950656
169	0xbdab53ff	-0.0836563
170	0x3ec16765	0.37774196
171	0xbeb9bcd4	-0.36276877
172	0x3e0d4770	0.13796782
173	0xbe1dda69	-0.15415348
174	0x3d7a8d88	0.06117013
175	0x3e8acafb	0.27107987
176	0x3e604077	0.21899591
177	0xbecee044	-0.40405476
178	0xbd850895	-0.064957775
179	0x3e39191f	0.18075989
180	0xbed749bd	-0.42048445
181	0xbea40682	-0.32036215
182	0xbedba3d2	-0.42898422
183	0x3d6ee073	0.05831952
184	0x3dbfc58b	0.0936385
185	0xbe376fc9	-0.17913736
186	0x3e32e9a9	0.17471947
187	0x3d80e1de	0.06293081
188	0x3e3a6724	0.18203408
189	0x3ec71c77	0.38888904
190	0xbe95924f	-0.29213187
191	0xbeabaf46	-0.3353216
192	0x3ed13bc1	0.408659
193	0xbe66a546	-0.22523984
194	0x3e9ad147	0.3023779
195	0xbe15dc77	-0.14634882
196	0xbdbde60e	-0.09272395
197	0xbe4853af	-0.19563173
198	0x3e07960a	0.13240829
199	0xbcfb9ca6	-0.030714344
200	0x3eb111ea	0.3458398
201	0xbeda604c	-0.42651594
202	0xbc260703	-0.010133508
203	0x3d7a20ab	0.06106631
204	0x3e0cc8d8	0.13748491
205	0x3eae5762	0.34051043
206	0x3e167865	0.14694364
207	0xbec0df64	-0.37670434
208	0x3d808788	0.062758505
209	0xbe3bfa98	-0.18357313
210	0x3e89e945	0.26935783
211	0xbe412a82	-0.18863872
212	0xbd45ebe4	-0.048320666
213	0x3dea11b9	0.114291616
214	0x3e91748c	0.2840923
215	0xbe5185be	-0.20461175
216	0x3ea51e1b	0.3224953
217	0xbe9a40fc	-0.30127704
218	0xbdd30fc2	-0.1030574
219	0xbe894291	-0.268086
220	0x3dc370a6	0.0954297
221	0xbeb3a06d	-0.35083333
222	0xba8ff9d0	-0.0010984484
223	0xbe92fdd2	-0.28709275
224	0x3e8fd53c	0.28092372
225	0xbec8ef1f	-0.39244935
226	0xbe3fe127	-0.18738233
227	0xbebc2d4e	-0.36753315
228	0xbe8a12af	-0.2696738
229	0x3d089fe6	0.033355616
230	0x3e52b579	0.20577039
231	0x3e635cf8	0.22203434
232	0xbeaf0ac0	-0.3418789
233	0xbd8aa0b8	-0.06768936
234	0xbdb988eb	-0.09059318
235	0x3e3e34f0	0.18574882
236	0xbd2972ce	-0.041369252
237	0xbd568ea5	-0.05238213
238	0xbe895aa3	-0.26826963
239	0xbe9a3d40	-0.30124855
240	0xbcc49a5c	-0.023999386
241	0x3e50d1b4	0.20392495
242	0xbe5ff254	-0.21869785
243	0x3dbcecc9	0.09224851
244	0x3e53d8f3	0.20688228
245	0xbe249458	-0.16072214
246	0x3ec89392	0.39175087
247	0x3ec75631	0.38932946
248	0x3e84bdf0	0.2592616
249	0x3e3885e8	0.18019831
250	0xbeafea4f	-0.3435845
251	0x3e684d30	0.22685695
252	0xbd5f23c8	-0.054477483
253	0x3ea7f813	0.32806453
254	0xbeb7fe0e	-0.35936016
255	0xbc7dbab8	-0.015486412

bias f4 [16]
0	0x00000000	0.0
1	0x00000000	0.0
2	0xbbd60c1a	-0.0065322043
3	0x3b4b3896	0.003100907
4	0x00000000	0.0
5	0xba196ca8	-0.0005852678
6	0xbb5a5549	-0.0033314994
7	0xbb25b9f3	-0.0025287836
8	0x3b5af954	0.0033412771
9	0x00000000	0.0
10	0xbaff2836	-0.001946694
11	0xbb127acc	-0.0022351025
12	0xbb2d8c98	-0.0026481505
13	0x3b627ab7	0.0034558007
14	0x3b297f60	0.0025863275
15	0xbb7fbb81	-0.0039021673

weight f4 [16, 16]
0	0x3ec93f43	0.39306077
1	0x3daef5b9	0.085429616
2	0x3df554c2	0.11979057
3	0xbbd5326e	-0.006506256
4	0xbe51ea72	-0.2049959
5	0x3e5a8c9d	0.21342702
6	0x3eac9ac9	0.33711842
7	0x3e6d852d	0.23195334
8	0xbe978477	-0.2959325
9	0xbe952840	-0.2913227
10	0x3ed45a6a	0.4147523
11	0xbd73ae36	-0.059492312
12	0x3e341f55	0.17590077
13	0x3df33855	0.11875979
14	0xbe8ee3a8	-0.27908063
15	0x3ebbb50d	0.36661568
16	0x3d9d905a	0.076935485
17	0xbe54b2e6	-0.2077137
18	0x3ed15396	0.40884084
19	0x3e125c36	0.14292988
20	0x3dd76fb1	0.1051935
21	0xbe98187d	-0.29706183
22	0x3ec2533a	0.37954122
23	0xbe609e8f	-0.21935485
24	0xbe1b63f8	-0.15174854
25	0xbed7272d	-0.42022076
26	0x3df5ce2a	0.12002213
27	0xbe7b5909	-0.24545683
28	0xbec4ac75	-0.38412824
29	0x3e9bd539	0.30436113
30	0xbeca400c	-0.3950199
31	0xbdb7b9de	-0.08970998
32	0xbe27222c	-0.1632163
33	0x3cfff8e5	0.031246612
34	0x3dada6e5	0.08479098
35	0x3ec51647	0.3849356
36	0x3e06a039	0.13147058
37	0xbe0ee619	-0.13954963
38	0xbe82393b	-0.25434288
39	0xbde4be26	-0.111690804
40	0x3e77597b	0.24155228
41	0xbed5c7e1	-0.41754058
42	0x3e2ad5b9	0.16683091
43	0xbcd0160d	-0.02540114
44	0xbe4d4c30	-0.20048594
45	0x3e931753	0.28728732
46	0x3e64b213	0.22333555
47	0x3ca14813	0.019687688
48	0xbe5ae6fd	-0.21377178
49	0xbe86eb79	-0.26351526
50	0xbdeeb19d	-0.11654971
51	0xbe8b5c7e	-0.27219003
52	0xbd9a84a1	-0.07544828
53	0x3e149b17	0.14512287
54	0xbd504a34	-0.050852016
55	0x3d556660	0.052099586
56	0xbe267d33	-0.16258697
57	0xbdf35d15	-0.11882988
58	0x3e7eaea1	0.24871303
59	0xbd6c4fe0	-0.057693362
60	0x3dd521bf	0.10406827
61	0xbe9aeadb	-0.30257306
62	0xbe83371c	-0.25627983
63	0x3ea6d862	0.32586962
64	0xbc5a3a37	-0.013319544
65	0x3ed7a65c	0.4211911
66	0xbdfdeaf1	-0.12398327
67	0x3e69cefe	0.22832868
68	0x3e4011fc	0.1875686
69	0xbebeac9d	-0.37241068
70	0xbe7d1737	-0.24715887
71	0x3eb9b7e8	0.36273122
72	0xbe163b35	-0.14671023
73	0xbeccab62	-0.39974505
74	0x3ea35c4e	0.3190636
75	0x3ed1a5aa	0.40946704
76	0x3e8eec05	0.27914444
77	0x3e8c57f3	0.2741085
78	0xbe092327	-0.13392316
79	0x3eb95871	0.36200288
80	0xbe4427bd	-0.19155784
81	0x3e31a58d	0.17348309
82	0xbed4fe1c	-0.4160012
83	0x3ec18ccb	0.3780273
84	0xbea3ea2c	-0.32014596
85	0xbece18a1	-0.40253165
86	0x3e345282	0.17609599
87	0x3ebe4dcc	0.3716873
88	0xbeb58181	-0.35450366
89	0x3ed6e9cd	0.4197525
90	0x3d91a0f2	0.07110776
91	0x3e5df549	0.216756
92	0x3dae68fa	0.085161164
93	0xbede3e85	-0.43407074
94	0x3ebe0f40	0.3712101
95	0x3eb0f840	0.345644
96	0x3e696735	0.22793277
97	0x3bb14576	0.0054098917
98	0x3e336ffa	0.17523184
99	0x3c9e71ab	0.01934131
100	0x3e0b9416	0.13630709
101	0xbd52fd39	-0.051511023
102	0x3ece235d	0.40261355
103	0xbe16fc06	-0.14744577
104	0xbd93ffd5	-0.072265305
105	0x3e02b65b	0.12764876
106	0x3ec2b1e2	0.3802634
107	0xbe7b9d9f	-0.24571846
108	0xbe44a202	-0.19202426
109	0xbec525ca	-0.38505393
110	0x3ea58429	0.32327393
111	0x3ecd2841	0.40069774
112	0x3db0e90b	0.086381994
113	0xbeb83e65	-0.35985103
114	0xbea13fc4	-0.31493962
115	0x3eb25992	0.34833962
116	0x3cf029a2	0.029316727
117	0x3dc37096	0.095429584
118	0xbe7de1cf	-0.2479317
119	0xbeb76e9e	-0.35826582
120	0xbe589019	-0.21148719
121	0xbed4c5ad	-0.41557065
122	0x3e9ef6bb	0.31047615
123	0x3e1fb470	0.15596175
124	0xbeb35358	-0.35024524
125	0x3ee09209	0.43861416
126	0xbdc3ba79	-0.09557051
127	0x3e5e91e1	0.21735336
128	0x3dbdfb48	0.09276444
129	0x3e1d049c	0.1533379
130	0xbd21ba21	-0.039484147
131	0xbd5c81d0	-0.053834736
132	0xbe4cbec8	-0.19994652
133	0x3e089cd2	0.13341072
134	0x3d236889	0.039894614
135	0x3e9b2498	0.30301356
136	0xbea97bb0	-0.3310218
137	0x3e2f247d	0.17103763
138	0x3e07e196	0.13269648
139	0x3bf31f3b	0.0074194944
140	0xbe7ffb26	-0.2499815
141	0xbe64ae6e	-0.22332165
142	0x3ea403e0	0.32034206
143	0x3e95f356	0.29287213
144	0x3e3297d9	0.17440738
145	0xbed272bc	-0.4110316
146	0xbe93602c	-0.2878431
147	0x3e12f7d6	0.14352354
148	0x3ed7aefe	0.42125696
149	0xbed2ed1e	-0.4119653
150	0x3dd92f43	0.106047176
151	0xbed16af7	-0.4090192
152	0xbed4d6b8	-0.41570067
153	0xbea78eba	-0.3272608
154	0xbe5a372c	-0.21310109
155	0xbe869fb1	-0.2629371
156	0xbe8064c8	-0.2507689
157	0x3d15ab4a	0.036540307
158	0xbdbde918	-0.09272975
159	0x3e82b6bc	0.2553004
160	0x3dca18df	0.09868025
161	0xbe307fa8	-0.17236197
162	0xbe963101	-0.29334262
163	0x3ea70174	0.32618296
164	0xbbc0687e	-0.0058718314
165	0x3db9e8c0	0.09077597
166	0x3e4d7ece	0.20067903
167	0xbdb70a50	-0.08937514
168	0xbe649fe4	-0.22326618
169	0x3c73f796	0.014890572
170	0xbe8056e5	-0.25066295
171	0x3e58a159	0.21155299
172	0x3e207fe6	0.1567379
173	0xbe5c77f3	-0.21530132
174	0xbe110cfe	-0.14165112
175	0x3db3106d	0.08743367
176	0x3d7bfb41	0.06151891
177	0x3d84ce58	0.064846694
178	0xbe5c7e69	-0.21532597
179	0x3db293c3	0.087195896
180	0xbe3d1df5	-0.18468459
181	0x3db8e7b4	0.09028569
182	0x3ca02b9a	0.01955204
183	0x3cbbf0fd	0.02294206
184	0xbe33198f	-0.17490219
185	0xbeb28833	-0.34869537
186	0xbe9c1f06	-0.3049242
187	0x3dcd1b30	0.10014951
188	0x3e432a5f	0.19059132
189	0xbdcd9001	-0.10037232
190	0x3e9940c1	0.29932216
191	0xbe2bd979	-0.16782178
192	0x3e6c8e1c	0.23101085
193	0x3db0598d	0.086108305
194	0x3ec54904	0.3853227
195	0x3ea77f73	0.32714424
196	0xbe029e5a	-0.12755719
197	0x3c41ca44	0.011828009
198	0xbea60b9d	-0.32430735
199	0x3e82af95	0.25524583
200	0xbdc4628b	-0.09589108
201	0xbeaf6afa	-0.34261304
202	0xbe33a47f	-0.17543219
203	0xbec49c87	-0.3840067
204	0xbdf27762	-0.11839177
205	0xbe117c45	-0.14207561
206	0xbed54504	-0.41654217
207	0x3dfb3527	0.122659974
208	0xbea22add	-0.31673327
209	0x3dba97a9	0.09110958
210	0xbe3d6719	-0.1849636
211	0x3d1f7536	0.03893014
212	0xbe502e8a	-0.20330253
213	0xbd9f90e0	-0.077913046
214	0x3d00fa33	0.03148861
215	0x3e3aa30e	0.18226263
216	0x3e103efc	0.14086527
217	0x3eaaaff6	0.33337373
218	0x3eca93cb	0.39565882
219	0xbed33707	-0.4125292
220	0xbddc924f	-0.10770094
221	0x3e44fb2e	0.19236442
222	0xbe2e3d4c	-0.1701557
223	0xbe04086b	-0.12893836
224	0xbe901efb	-0.28148636
225	0x3da62289	0.08112056
226	0xbe01f7a0	-0.12692118
227	0xbd833c13	-0.064079426
228	0x3e687272	0.22699907
229	0x3e9d5055	0.3072535
230	0xbe954570	-0.2915454
231	0xbeb865ce	-0.3601517
232	0x3e36801f	0.17822312
233	0xbe98e25e	-0.29860204
234	0xbd3ad209	-0.04561046
235	0x3d8f5c43	0.070000194
236	0xbedbdd21	-0.42942145
237	0x3eaf364c	0.34221113
238	0x3e04bfb4	0.12963754
239	0x3d2a5d5d	0.041592944
240	0x3d12ca24	0.035837308
241	0xbeb82d82	-0.3597222
242	0x3e6abfd4	0.22924739
243	0xbe1ab45c	-0.15107864
244	0xbe988022	-0.29785258
245	0xbc92acea	-0.017904717
246	0x3eb0d182	0.34534842
247	0xbe9de7fd	-0.30841056
248	0xbd934c41	-0.07192279
249	0x3e2c3f86	0.16821107
250	0xbeb285fb	-0.34867844
251	0x3ebb7953	0.36616
252	0x3cb9002f	0.022583095
253	0xbb307978	-0.002692787
254	0x3e10ca16	0.1413959
255	0xbcc50bbc	-0.024053447

bias f4 [16]
0	0xbba06d0d	-0.0048958124
1	0x00000000	0.0
2	0x3b232d87	0.0024898963
3	0xbb565c28	-0.0032708738
4	0xbb040a29	-0.0020147657
5	0xbb40f867	-0.0029444934
6	0xbb8960ef	-0.0041924636
7	0x3c24769a	0.010038042
8	0xbba03589	-0.0048891944
9	0x00000000	0.0
10	0xbb244311	-0.0025064389
11	0x3ad10644	0.0015947302
12	0x3b573a0c	0.0032840995
13	0xbad2a09c	-0.0016069594
14	0x00000000	0.0
15	0x3bb82525	0.0056196623

weight f4 [16, 16]
0	0x3e5cdf2b	0.21569507
1	0x3e975a12	0.29560906
2	0xbedc0e65	-0.42979732
3	0x3ebb9702	0.36638647
4	0x3ed47bec	0.41500795
5	0xbdbb45a4	-0.09144142
6	0x3dcc6b1b	0.09981366
7	0x3e84f9be	0.25971788
8	0x3ed13e8d	0.40868035
9	0x3e0a4507	0.13502894
10	0x3e685d0f	0.22691749
11	0xbe9cc05d	-0.30615512
12	0xbed9108c	-0.42395437
13	0x3e052fd8	0.13006532
14	0x3dd9c16f	0.10632598
15	0xbe073977	-0.13205515
16	0xbe95d612	-0.29264885
17	0xbdbf728b	-0.09348019
18	0xbe83e996	-0.2576415
19	0xbe5d9a7b	-0.21640961
20	0x3df40123	0.11914279
21	0xbcfdd7b9	-0.030986654
22	0xbcb75084	-0.02237726
23	0xbdb702d0	-0.08936083
24	0xbe863abb	-0.26216683
25	0x3ed5136c	0.4161638
26	0x3e82d078	0.25549674
27	0xbe0c35af	-0.13692354
28	0x3de91413	0.11380782
29	0x3eb380ba	0.35059148
30	0xbe88f4b8	-0.26749206
31	0xbe55e31b	-0.20887415
32	0xbea704ee	-0.3262095
33	0xbe672336	-0.22572026
34	0xbb9b5885	-0.004740777
35	0x3e68e3a1	0.22743084
36	0x3eca3a00	0.39497375
37	0x3ebc4f5b	0.36779293
38	0x3e83309f	0.25623032
39	0x3e98e4eb	0.2986215
40	0xbdd3a7b9	-0.10334725
41	0x3ea965d8	0.33085513
42	0xbd8fbbcb	-0.070182405
43	0xbd78aebf	-0.060713526
44	0x3daea3a1	0.085273035
45	0x3dc0c27c	0.09412095
46	0xbea54eb2	-0.32286602
47	0xbc1b4c52	-0.009478645
48	0xbed42797	-0.41436455
49	0xbea61b44	-0.32442677
50	0x3df6e03b	0.12054487
51	0x3eb77f7f	0.3583946
52	0x3d94e57c	0.07270333
53	0xbe9d54fc	-0.307289
54	0x3e850bd1	0.25985578
55	0xbea248b7	-0.31696102
56	0x3dd0ba64	0.10191801
57	0x3d9dc15d	0.07702897
58	0x3ecef014	0.4041754
59	0x3cb94cca	0.022619624
60	0xbe8f73a8	-0.28017926
61	0x3eafd4e4	0.3434211
62	0x3dad09a9	0.08449108
63	0xbe222735	-0.15835269
64	0xbed85681	-0.42253497
65	0xbe4041f4	-0.18775159
66	0x3ea3b34a	0.31972724
67	0x3e903721	0.2816706
68	0xbc8ce47b	-0.017198792
69	0xbe414afb	-0.18876259
70	0xbd79934b	-0.060931485
71	0x3eb9b056	0.36267346
72	0x3e90e2bb	0.28297982
73	0xbd247973	-0.040154886
74	0x3e25178b	0.16122262
75	0xba96e97c	-0.0011513676
76	0x3e2e48a0	0.17019892
77	0x3e1450b8	0.14483917
78	0x3e982739	0.29717425
79	0xbeb55dcb	-0.3542312
80	0x3c980d02	0.01856089
81	0xbd25329e	-0.040331475
82	0xbdb4f981	-0.088366516
83	0xbe8b2bc8	-0.2718184
84	0x3e0fc1e2	0.14038804
85	0x3e7f8721	0.24953891
86	0xbc9bac04	-0.019002922
87	0xbe512843	-0.20425515
88	0xbdee57af	-0.11637818
89	0xbd7749c1	-0.06037307
90	0x3d68d406	0.056842826
91	0x3ec025d6	0.37528867
92	0xbc159f4c	-0.009132218
93	0xbc683c68	-0.014174558
94	0xbe875dc5	-0.26438728
95	0x3e945c84	0.28976834
96	0x3da5c770	0.0809468
97	0x3ec90ccf	0.39267585
98	0xbe31c73d	-0.1736116
99	0x3d48c3d7	0.049014892
100	0x3e06f76a	0.13180318
101	0x3ead8e3c	0.3389758
102	0x3e2495a4	0.16072708
103	0x3e693f63	0.22778086
104	0xbc57ebed	-0.013178808
105	0xbe5448fd	-0.20730968
106	0x3dcb1fd7	0.09918182
107	0x3e63814a	0.22217289
108	0xbe971a2a	-0.2951215
109	0xbda92720	-0.082594156
110	0xbe9f47c3	-0.31109437
111	0xbe4977e0	-0.19674635
112	0xbe42161c	-0.18953747
113	0x3d05021e	0.032472722
114	0x3e5ea27b	0.21741669
115	0x3e45b30e	0.19306585
116	0x3e9deb45	0.3084356
117	0x3e837f5c	0.25683105
118	0xbc98e042	-0.018661622
119	0xbead59f1	-0.33857682
120	0x3d366860	0.044533134
121	0xbe8e17c8	-0.2775252
122	0x3ea28076	0.31738633
123	0xbedaaece	-0.4271149
124	0xbe11fbc2	-0.14256194
125	0x3ca72d50	0.020407349
126	0xbe8530a5	-0.26013675
127	0xbe9e350f	-0.30899855
128	0xbdfad979	-0.12248511
129	0xbebf6425	-0.37381092
130	0x3dd004e8	0.10157186
131	0xbe9ef6d8	-0.31047702
132	0x3e7162e3	0.23572879
133	0xbe9551f6	-0.29164094
134	0xbeb078a9	-0.34467056
135	0x3e1a40d0	0.15063787
136	0xbec80728	-0.3906796
137	0x3eda5ed8	0.42650485
138	0x3e8ccf93	0.27502117
139	0xbe737764	-0.23776013
140	0x3e5e655b	0.21718352
141	0x3ed9e0f9	0.42554453
142	0xbe93fff8	-0.28906226
143	0x3e8ed32a	0.2789548
144	0x3deef052	0.11666931
145	0xbebface0	-0.3743658
146	0xbdc7ebd4	-0.097617775
147	0xbd5a5c19	-0.053310487
148	0xbe981b0d	-0.29708138
149	0xbdd381db	-0.10327502
150	0x3e80493a	0.25055867
151	0x3ea67db6	0.32517785
152	0x3d52fca6	0.051510476
153	0xbe1761bb	-0.14783375
154	0xbed3756f	-0.41300532
155	0xbe95bc1c	-0.2924508
156	0xbcb080fc	-0.02154588
157	0x3b9bca34	0.004754329
158	0x3e17eecf	0.14837192
159	0xbd1ddbfe	-0.03853988
160	0xbeca2b4c	-0.39486158
161	0xbe88d75f	-0.26726815
162	0xbdd8e517	-0.105905704
163	0x3e97e013	0.29663143
164	0x3dcf2eb8	0.10116333
165	0xbcb7774c	-0.022395752
166	0xbec8acbc	-0.39194286
167	0xbeb53aa8	-0.35396314
168	0x3cd4c760	0.025973976
169	0xbe997019	-0.29968336
170	0x3ec2cd18	0.380471
171	0xbeddf723	-0.43352613
172	0xbe6853e7	-0.22688256
173	0xbed3393f	-0.41254613
174	0x3eb1ff42	0.3476506
175	0x3ebfacc3	0.37436494
176	0x3e619641	0.22029974
177	0xbe840d33	-0.2579132
178	0xbebb9f36	-0.36644906
179	0xbece29f0	-0.4026637
180	0x3e6217de	0.22079417
181	0x3d9026ef	0.07038676
182	0x3e7707d5	0.24124081
183	0x3e2875e3	0.1645122
184	0x3ebe871a	0.3721245
185	0x3edc25d0	0.429976
186	0x3e83e9b7	0.25764248
187	0x3dc7159e	0.0972092
188	0xbe916ac6	-0.28401774
189	0xbed6c107	-0.41944143
190	0x3ec5939e	0.38589185
191	0x3e01a57e	0.12660787
192	0x3ecdd686	0.4020273
193	0xbe58b0da	-0.21161214
194	0xbd710671	-0.058844034
195	0xbeb1ce28	-0.34727597
196	0x3e28161f	0.16414689
197	0x3eabfe81	0.3359261
198	0x3ece9d12	0.4035421
199	0x3d311ec6	0.04324224
200	0xbe19819b	-0.14990847
201	0x3e95371a	0.29143602
202	0x3e4c82d7	0.19971786
203	0x3e7e9af5	0.24863799
204	0xbe4f4025	-0.20239313
205	0x3d4f5816	0.050621115
206	0xbde0e010	-0.109802365
207	0xbdb265eb	-0.087108456
208	0xbe1f0294	-0.15528327
209	0x3dcd33a3	0.100196145
210	0x3e174944	0.14774042
211	0x3d920a3c	0.07130858
212	0xbd3fec76	-0.046856366
213	0xbeb31aa5	-0.34981266
214	0xbe153386	-0.14570436
215	0x3eb5eac8	0.35530686
216	0xbe9785d8	-0.29594302
217	0xbed1d5cc	-0.40983427
218	0xbddc9d1f	-0.10772156
219	0x3e12635b	0.14295714
220	0xbea3cf90	-0.31994295
221	0x3e0957b3	0.13412361
222	0xbe71475a	-0.23562375
223	0xbe383efa	-0.17992774
224	0xbe84edc0	-0.2596264
225	0xbb0128d9	-0.0019708185
226	0xbeb1409e	-0.34619612
227	0xbdb9cffd	-0.09072874
228	0xbe4d6538	-0.20058143
229	0x3eb976ea	0.36223537
230	0xbe5c8727	-0.21535932
231	0x3dc77327	0.097387604
232	0xbe83db45	-0.25753227
233	0x3e5b4782	0.21413997
234	0xbec44c94	-0.38339674
235	0xbe435d89	-0.1907865
236	0x3e55fb84	0.20896727
237	0x3eafef85	0.34362426
238	0x3e255141	0.16144277
239	0xbe8930d9	-0.2679508
240	0x3d3b32f2	0.045702882
241	0xbc36364b	-0.011121343
242	0x3ea30829	0.31842163
243	0xbdfeed5d	-0.12447617
244	0xbe97ec0b	-0.29672274
245	0x3e873619	0.2640846
246	0x3e1c6905	0.15274437
247	0xbe4ecbcf	-0.20194934
248	0x3eb26e1a	0.34849626
249	0x3e789644	0.24276072
250	0xbece0c3b	-0.40243706
251	0x3e923d6d	0.2856249
252	0xbe4c9a4b	-0.19980733
253	0xbdd8897e	-0.105730996
254	0x3e8acb8a	0.27108413
255	0x3cfa5860	0.030559719

bias f4 [16]
0	0xbb263445	-0.0025360745
1	0xbb0cf73e	-0.0021509673
2	0x3b993d19	0.004676473
3	0xbadfcf52	-0.0017075336
4	0x3b0b6deb	0.0021275233
5	0xbb413a7b	-0.002948432
6	0xbb405d50	-0.0029352494
7	0xbb1abb8e	-0.0023610326
8	0x3b7b02de	0.003830127
9	0x00000000	0.0
10	0xbb06a164	-0.0020542974
11	0x3b162a72	0.0022913483
12	0xb9a2a7b6	-0.00031024002
13	0xbb010754	-0.0019688206
14	0x00000000	0.0
15	0xbb77b49f	-0.0037796868

weight f4 [16, 16]
0	0x3ed16f16	0.40905064
1	0xbec1ea06	-0.37873858
2	0x3e404472	0.1877611
3	0x3d6abaa8	0.057306916
4	0xbdef960d	-0.11698542
5	0xbe0f0ba9	-0.13969292
6	0x3e277a0c	0.16355151
7	0x3e9f21e7	0.31080553
8	0xbed8387a	-0.42230588
9	0x3e359cfe	0.17735669
10	0xbe9d36a0	-0.30705738
11	0x3b476bd9	0.0030429272
12	0xbe7ce915	-0.24698289
13	0x3d252767	0.04032078
14	0xbeca2f19	-0.39489058
15	0x3e4b5663	0.19857173
16	0xbe9b9a6d	-0.30391255
17	0x3e8d1b8e	0.27560085
18	0xbea88e51	-0.3292108
19	0x3ea5c44d	0.32376328
20	0x3e87d79f	0.26531693
21	0xbedce316	-0.43142003
22	0xbebdc4d3	-0.37064227
23	0xbe4a0161	-0.19727089
24	0xbe98757f	-0.29777142
25	0xbedc19c7	-0.42988417
26	0xbb696d7c	-0.0035618236
27	0xbe8e545e	-0.27798742
28	0x3e20f620	0.15718889
29	0xbec4b78a	-0.3842128
30	0xbe81708c	-0.2528118
31	0x3e3a7a41	0.18210699
32	0x3e1dc279	0.15406217
33	0x3ea8ca24	0.3296672
34	0xbeba8267	-0.36427614
35	0xbeabdd86	-0.33567446
36	0xbe399f29	-0.18127121
37	0x3d65dc07	0.056118038
38	0xbe1ccc30	-0.15312266
39	0x3df0a0e1	0.11749435
40	0x3ea63a28	0.32466245
41	0x3dea7e4f	0.11449873
42	0x3ea52f7d	0.32262793
43	0x3dd397f5	0.10331718
44	0x3e362c54	0.17790347
45	0xbeb50826	-0.3535778
46	0xbd9e0860	-0.07716441
47	0x3eb244e3	0.3481818
48	0xbe29f983	-0.16599087
49	0xbe1c3195	-0.15253289
50	0xbe3e7874	-0.18600637
51	0x3e2103cf	0.15724109
52	0x3ec70809	0.38873318
53	0x3e37d6f4	0.17953092
54	0x3ec7b67e	0.39006418
55	0x3e9d626a	0.30739146
56	0xbd6be733	-0.057593536
57	0xbe174939	-0.14774026
58	0xbe13d5be	-0.14437005
59	0x3e3f5b9c	0.1868729
60	0x3e950fc3	0.29113588
61	0xbed34208	-0.41261315
62	0xbe52e347	-0.20594512
63	0xbed17cf8	-0.40915656
64	0xbe82973f	-0.25506017
65	0x3eb2415b	0.34815487
66	0x3ecab037	0.39587566
67	0xbe8cbf23	-0.27489576
68	0xbe587f72	-0.21142367
69	0x3e15fc55	0.14647038
70	0x3e2b531e	0.16730925
71	0x3d4ab092	0.049484797
72	0xbd996ba5	-0.07491235
73	0xbe63cdd3	-0.22246484
74	0xbec78c39	-0.3897417
75	0xbdee5406	-0.1163712
76	0xbeb1317c	-0.34608066
77	0x3ec53c63	0.38522634
78	0x3ebfdd2c	0.37473428
79	0xbe9c1769	-0.3048661
80	0x3e3cc95c	0.18436188
81	0x3ea13eba	0.3149317
82	0x3eb724f4	0.3577038
83	0x3eb2f940	0.34955788
84	0xbe9e269b	-0.3088883
85	0x3eac5b6a	0.33663493
86	0x3ed0725a	0.40712243
87	0x3ccf7583	0.025324589
88	0x3e5462fb	0.20740883
89	0xbe30fa9b	-0.17283098
90	0x3edc1971	0.4298816
91	0xbec9cf25	-0.3941585
92	0xbe898e25	-0.2686626
93	0x3d95c8e7	0.0731371
94	0xbe41c627	-0.18923245
95	0xbe27d37f	-0.16389273
96	0x3e236c8d	0.15959378
97	0x3e802d5f	0.25034615
98	0x3e936aab	0.2879232
99	0x3ebf295b	0.3733624
100	0x3e613fbf	0.21996973
101	0xbe3f49d1	-0.18680502
102	0x3e1fdc04	0.15611273
103	0xbe8455f0	-0.25846815
104	0x3e836fcf	0.2567124
105	0x3e3cc122	0.1843305
106	0x3ebdc376	0.37063187
107	0x3e80d701	0.25164035
108	0x3ecb48f3	0.39704093
109	0xbdb8e1de	-0.09027456
110	0xbebed7ae	-0.37273926
111	0x3eb2bd52	0.34910065
112	0xbec82ca5	-0.3909656
113	0x3d71300a	0.058883704
114	0x3d8a8e8f	0.06765472
115	0x3d8e8c94	0.06960407
116	0x3e9aa6c3	0.30205354
117	0x3db7e6a8	0.08979541
118	0xbe1cbf27	-0.15307294
119	0xbcde7512	-0.027155433
120	0xbedab937	-0.42719433
121	0xbe95c0c0	-0.2924862
122	0xbce21f32	-0.027602766
123	0x3ecacbd4	0.39608634
124	0xbdd66517	-0.104685
125	0x3e6c6267	0.23084413
126	0xbe8f987c	-0.28046024
127	0xbeaf6565	-0.34257045
128	0x3e4b5ed8	0.19860399
129	0x3e7d2c94	0.24724036
130	0xbcde8c26	-0.027166437
131	0x3ea589e7	0.32331774
132	0x3e287229	0.16449799
133	0x3e5ae204	0.2137528
134	0x3da51b7d	0.080618836
135	0x3edbb27a	0.42909604
136	0xbead5895	-0.33856645
137	0xbdad26d5	-0.08454672
138	0xbe91b634	-0.28459322
139	0xbe88f108	-0.26746392
140	0x3daba7f2	0.083816424
141	0xbd4c4812	-0.04987342
142	0xbd2312f8	-0.039813012
143	0x3e271ef8	0.16320407
144	0x3ec9b61a	0.39396745
145	0xbec9e008	-0.39428735
146	0xbe095bb4	-0.13413888
147	0xbd293c1c	-0.04131709
148	0x3e7cadd1	0.2467568
149	0xbe3a4fb6	-0.1819447
150	0xbece4da5	-0.40293613
151	0xbe2e919e	-0.17047736
152	0xbe714f5a	-0.23565426
153	0xbed22126	-0.41040915
154	0xbe9d01cd	-0.30665436
155	0xbe2f0cd9	-0.17094745
156	0x3e1b62f4	0.15174466
157	0xbe74d4a4	-0.23909241
158	0xbe09480e	-0.13406393
159	0xbeb6be94	-0.35692275
160	0xbe81f839	-0.2538469
161	0xbd99c9f2	-0.07509221
162	0xbe489c48	-0.19590867
163	0xbd10e8bd	-0.035378207
164	0x3e00e9ed	0.12589236
165	0x3d6c85d8	0.05774483
166	0xbe7d97ba	-0.2476491
167	0xbc916b82	-0.017751459
168	0x3d136020	0.035980344
169	0x3d0d03ff	0.03442764
170	0x3e33e915	0.17569382
171	0xbdf7472e	-0.12074123
172	0xbec1f7bf	-0.37884328
173	0xbe11ce66	-0.14238891
174	0xbde6f49c	-0.11277124
175	0xbed191bf	-0.40931508
176	0x3cc08ee1	0.02350563
177	0xbe156909	-0.14590849
178	0x3ea0b49f	0.31387803
179	0x3e99f2e7	0.30068132
180	0x3e967800	0.29388428
181	0xbe4468e4	-0.19180638
182	0x3c8146af	0.015780775
183	0x3ecd260b	0.40068087
184	0xbec65bf5	-0.38742033
185	0x3e2b63c8	0.16737282
186	0xbe318bd2	-0.17338493
187	0xbe246ef4	-0.1605795
188	0x3e7994db	0.2437319
189	0xbccbfda5	-0.02490122
190	0xbdbc5a7b	-0.09196945
191	0x3e873e90	0.2641492
192	0xbe0b55c3	-0.13606934
193	0x3eb27fbf	0.34863088
194	0x3ccf9b7f	0.025342701
195	0x3e3264c3	0.1742125
196	0x3ec1d745	0.3785955
197	0xbe2a3ba0	-0.16624308
198	0x3e63c0cc	0.22241515
199	0x3da039c9	0.07823522
200	0xbebed6ce	-0.37273258
201	0x3edd5dfa	0.4323576
202	0x3e934bc7	0.2876875
203	0x3c087bfd	0.008330342
204	0x3e242811	0.16030909
205	0xbe09d679	-0.13460721
206	0xbd55e09d	-0.05221616
207	0xbc864973	-0.016392445
208	0x3dfda657	0.123852424
209	0x3db2ec81	0.08736516
210	0x3ed2c5ab	0.41166434
211	0x3eb54783	0.35406122
212	0x3e7bcfc7	0.2459098
213	0xbe34269e	-0.17592856
214	0xbe5c8f2b	-0.21538989
215	0xbeb3851a	-0.35062486
216	0x3e4c0f8e	0.19927809
217	0x3eadf505	0.33975998
218	0x3df36987	0.11885362
219	0x3eb106d6	0.34575528
220	0xbea210d5	-0.31653467
221	0xbed63d6e	-0.41843742
222	0x3e241a30	0.16025615
223	0xbe57f93d	-0.2109117
224	0x3eb03bff	0.34420773
225	0xbc806dd9	-0.01567738
226	0x3d648ff3	0.055801343
227	0x3e0d9ecd	0.13830109
228	0xbeb07921	-0.34467414
229	0xbdb638d0	-0.08897555
230	0x3e919cac	0.28439844
231	0xbe1477b7	-0.14498793
232	0x3dcc0ba0	0.09963155
233	0xbe698d9f	-0.2280793
234	0x3d93af41	0.072111614
235	0xbe60d56a	-0.21956411
236	0xbdd0b5b9	-0.10190911
237	0x3e6f07ac	0.2334277
238	0xbc370701	-0.011171103
239	0x3e832fd3	0.25622424
240	0x3e7d70ec	0.24750108
241	0x3eb1c1f4	0.34718287
242	0xbdf7ecda	-0.12105723
243	0x3db08bd5	0.08620421
244	0x3dcbee6b	0.09957584
245	0xbe834058	-0.25635028
246	0x3e61d434	0.22053605
247	0xbe8a5442	-0.2701741
248	0xbeb7beb1	-0.35887673
249	0x3ecf96ae	0.40544647
250	0x3d6f5ad5	0.058436234
251	0x3e91da99	0.2848709
252	0x3ebd6894	0.3699385
253	0xbebb40ef	-0.36572978
254	0xbeb2c90d	-0.34919015
255	0x3d9fc45e	0.07801126

bias f4 [16]
0	0xbb135093	-0.0022478446
1	0x00000000	0.0
2	0xbb08dd33	-0.0020883798
3	0x3af59f57	0.0018739504
4	0x3b964baa	0.0045866566
5	0xbb23e9fd	-0.0025011294
6	0x3b2a5914	0.0025993036
7	0x00000000	0.0
8	0xbb42e679	-0.0029739423
9	0x00000000	0.0
10	0x00000000	0.0
11	0x3b0f90b2	0.0021906313
12	0xbafb1094	-0.0019154721
13	0x3b3459f3	0.0027519434
14	0xbb13068e	-0.0022434327
15	0xbb4f27fa	-0.0031609521

weight f4 [16, 16]
0	0x3d868911	0.06569112
1	0xbcd76cd2	-0.026297007
2	0xbe8459aa	-0.25849658
3	0x3dd5961c	0.10429022
4	0x3e63cc0f	0.22245811
5	0xbe982200	-0.2971344
6	0x3e94f649	0.2909415
7	0xbccd697f	-0.025074719
8	0x3ebba55f	0.36649606
9	0xbb9b16ef	-0.0047329585
10	0x3dd68899	0.10475273
11	0xbe65879a	-0.22415009
12	0xbdf9fec6	-0.12206797
13	0x3d9a3f74	0.07531634
14	0x3d86980a	0.06571968
15	0x3e9be58f	0.30448577
16	0xbe84cba8	-0.25936627
17	0x3dc93bd1	0.09825862
18	0xbe669a34	-0.22519761
19	0xbdac74aa	-0.084206894
20	0xbe8e4e38	-0.2779405
21	0x3ea891ab	0.32923636
22	0x3e91dafa	0.28487378
23	0xbebdf4c3	-0.371008
24	0xbea8d607	-0.3297579
25	0x3e0fd250	0.14045072
26	0xbea5acc6	-0.32358378
27	0xbe3dc718	-0.1853298
28	0xbed9e915	-0.4256064
29	0xbe9c410f	-0.30518386
30	0x3ea3d1ce	0.31996006
31	0xbe81a8cb	-0.2532409
32	0x3e8f39ef	0.27973887
33	0x3df4f547	0.119608454
34	0xbe96bf40	-0.29442787
35	0xbdce1c38	-0.10063976
36	0xbcda73ea	-0.0266666
37	0x3e950a6f	0.29109523
38	0xbecf9780	-0.40545273
39	0x3eadda43	0.33955583
40	0xbed1faa6	-0.41011542
41	0xbea1b1e9	-0.31581047
42	0xbe91bef9	-0.28466013
43	0x3e182fbc	0.14861959
44	0xbe9a8bbc	-0.30184734
45	0xbeae7d1f	-0.34079835
46	0x3e23b965	0.15988691
47	0xbea3ee80	-0.320179
48	0xbe9d5d4a	-0.30735236
49	0x3ec4b12c	0.3841642
50	0x3e79e627	0.24404202
51	0xbea13005	-0.31481948
52	0x3dbb24d3	0.09137883
53	0x3d92c51b	0.07166501
54	0x3e6c2d8e	0.23064253
55	0x3e6d35a5	0.23164995
56	0x3ed94d9d	0.42442027
57	0x3de54d87	0.11196428
58	0x3d977039	0.07394452
59	0xbd4ca741	-0.049964193
60	0x3dc5f0d8	0.09665078
61	0xbdee92fb	-0.11649128
62	0x3eb73d77	0.3578908
63	0x3ecedec0	0.4040432
64	0xbd5a64c2	-0.053318746
65	0x3dcc0349	0.09961564
66	0xbea763d6	-0.32693356
67	0xbeaa6885	-0.33282867
68	0xbe9a08db	-0.3008488
69	0xbda9e626	-0.082958505
70	0x3e7d3788	0.24728215
71	0xbcdd0441	-0.026979567
72	0xbeb537ba	-0.35394078
73	0x3dec8331	0.1154846
74	0x3e81cf30	0.25353384
75	0xbebaa185	-0.36451355
76	0xbece8c24	-0.40341294
77	0xbe50214e	-0.20325205
78	0x3ddbafef	0.10726916
79	0x3e04fce4	0.12987095
80	0xbe77344b	-0.24141042
81	0x3da1dc34	0.079033285
82	0xbd957beb	-0.07299026
83	0xbd161238	-0.03663847
84	0x3ec7f232	0.39051968
85	0x3e2413df	0.16023205
86	0xbcb9bf99	-0.022674369
87	0x3d89d9e3	0.06731012
88	0xbe669392	-0.22517231
89	0x3e9f8d24	0.3116237
90	0xbcca4b21	-0.024694027
91	0x3e466261	0.19373466
92	0xbe1cb587	-0.15303622
93	0x3e062ebd	0.13103767
94	0x3e23cfa4	0.15997177
95	0x3e5b5879	0.21420468
96	0xbd8adb0e	-0.067800626
97	0xbe57dad5	-0.21079572
98	0x3e03e429	0.12880005
99	0x3ea9cf88	0.33166146
100	0xbe11baff	-0.1423149
101	0xbd4c2e36	-0.049848758
102	0x3d2423d7	0.040073242
103	0x3e6d1a00	0.2315445
104	0x3dfb24d3	0.12262883
105	0xbde77c24	-0.11302975
106	0x3e052047	0.13000594
107	0xbe1f0ce2	-0.15532258
108	0xbe142269	-0.14466251
109	0x3eb50484	0.35355008
110	0xbeb3bd4d	-0.35105363
111	0xbec7d602	-0.39030463
112	0xbc8adc3c	-0.016950719
113	0xbecae181	-0.3962517
114	0xbd0824db	-0.033238273
115	0x3e818698	0.25298
116	0xbd52c132	-0.051453777
117	0x3d2481ae	0.040162735
118	0x3eba9024	0.36438096
119	0xbe8ed9cf	-0.2790055
120	0x3e9c507f	0.30530164
121	0x3e9b5cf9	0.3034437
122	0x3e066904	0.13125998
123	0x3e8cccc6	0.2749998
124	0xbe9e624c	-0.3093437
125	0x3d918cc1	0.07106925
126	0xbd8049a6	-0.06264047
127	0xbe53c94b	-0.20682256
128	0x3dd71447	0.105019145
129	0xbed92c09	-0.4241641
130	0x3eb76d48	0.35825562
131	0xbed2cc13	-0.4117132
132	0x3ed773f2	0.42080647
133	0x3dfeea54	0.12447038
134	0x3ea0a0c6	0.3137266
135	0xbe770047	-0.241212
136	0xbe6f9ac1	-0.23398878
137	0x3d93cceb	0.072168194
138	0xbe95d307	-0.29262564
139	0xbe923226	-0.28553885
140	0xbed95e99	-0.42454985
141	0x3e7801fe	0.2421951
142	0xbc86a2b6	-0.016435008
143	0x3ea12ad5	0.3147799
144	0x3eb8ecc0	0.36118126
145	0x3df82c92	0.12117876
146	0x3e20d2a1	0.15705349
147	0xbe5e832c	-0.21729726
148	0x3dfd77d8	0.12376374
149	0xbd56ca02	-0.052438743
150	0xbed6dd53	-0.41965732
151	0x3da07e01	0.07836533
152	0xbed7ae88	-0.42125344
153	0xbed860e9	-0.42261437
154	0xbe9c2238	-0.30494857
155	0xbe32da20	-0.1746602
156	0xbec3cb26	-0.38240927
157	0x3de931d6	0.113864586
158	0xbec0c19f	-0.3764772
159	0x3d9dc944	0.07704404
160	0xbe993ba5	-0.29928318
161	0x3e5e3e75	0.21703513
162	0x3e84c975	0.2593495
163	0x3ce5f68a	0.02807166
164	0xbedbcdae	-0.4293036
165	0x3e71ad64	0.236013
166	0x3e49b57c	0.19698137
167	0xbecdc1d6	-0.40186948
168	0x3e04b5fa	0.12960044
169	0xbebea509	-0.37235287
170	0xbeab7528	-0.3348782
171	0xbda28de8	-0.07937223
172	0xbe86fece	-0.26366276
173	0xbe304172	-0.17212465
174	0x3e90e519	0.28299788
175	0xbe085309	-0.13312925
176	0x3db772a1	0.089574106
177	0xbeb9c701	-0.3628464
178	0x3c5e3865	0.01356325
179	0x3e1f43db	0.15553229
180	0xbecb349f	-0.39688584
181	0xbe3ca1a4	-0.18421036
182	0xbda318cb	-0.07963713
183	0xbec726f5	-0.3889691
184	0xbe324022	-0.17407277
185	0x3ebab47d	0.36465827
186	0x3ecfd44f	0.40591666
187	0x3ed8ab08	0.42317986
188	0x3ed87c7e	0.4228248
189	0x3ec4424b	0.38331828
190	0xbeac0e2a	-0.33604556
191	0x3e38c40d	0.18043537
192	0xbec22eda	-0.3792637
193	0x3e8260b0	0.25464392
194	0xbddeba7b	-0.10875412
195	0x3ebbcc8a	0.36679488
196	0xbc63c2d9	-0.013901436
197	0xbdc65f75	-0.09686176
198	0x3e861734	0.26189578
199	0x3ec35295	0.38148943
200	0x3e1c78e4	0.15280491
201	0x3d860893	0.06544604
202	0x3e6744b0	0.22584796
203	0xbe99f7f1	-0.30071977
204	0xbc6ff6cc	-0.014646243
205	0xbc466a6f	-0.012110337
206	0xbe9bf312	-0.30458885
207	0x3e024bec	0.12724274
208	0x3d72f662	0.059317
209	0xbdca75ba	-0.09885736
210	0x3d149cbf	0.036282297
211	0xbec3af41	-0.38219646
212	0x3eababd8	0.33529544
213	0xbdc7bbfa	-0.097526506
214	0x3e944f04	0.28966534
215	0xbeb4bb5e	-0.352992
216	0x3db1fd7f	0.08690929
217	0xbe5460fe	-0.20740125
218	0xbecf16ee	-0.4044718
219	0x3ec4cb53	0.38436374
220	0x3df4ee3d	0.11959503
221	0xbe10e398	-0.1414932
222	0x3e6538a9	0.22384895
223	0xbeb2d53f	-0.3492832
224	0x3ec6c7a0	0.38824177
225	0xbe98d5f5	-0.29850736
226	0xbd92142f	-0.07132756
227	0x3e0cd190	0.13751817
228	0xbedbd4a2	-0.42935663
229	0x3e7ee56b	0.24892204
230	0x3c979cf3	0.018507456
231	0xbe158c69	-0.14604343
232	0x3e46b114	0.19403487
233	0xbe64b06a	-0.22332922
234	0xbdcd7475	-0.10031978
235	0xbe866f1b	-0.26256642
236	0xbdd5666b	-0.10419925
237	0xbe3ec2d7	-0.18629013
238	0xbe3ac45f	-0.18238972
239	0x3e201df0	0.1563642
240	0x3e1a9d98	0.1509918
241	0xbeb6a03f	-0.35669133
242	0xbb082cc2	-0.002077863
243	0x3e99a302	0.30007178
244	0xbe4c2de2	-0.19939378
245	0x3e0d6f7f	0.13812064
246	0xbe9fdef8	-0.312248
247	0x3ec0055c	0.3750409
248	0x3dd34625	0.103161134
249	0xbe4388a2	-0.1909509
250	0x3ea00d45	0.31260124
251	0xb8b4c617	-8.619966e-05
252	0x3e0453d4	0.12922603
253	0xbe76cd5b	-0.24101774
254	0x3bc47b0b	0.005996113
255	0xbe80af90	-0.25133944

bias f4 [16]
0	0x3af6c2e0	0.0018826388
1	0x3a63c83f	0.0008689202
2	0x00000000	0.0
3	0xbb167e17	-0.002296334
4	0x00000000	0.0
5	0xbb01062d	-0.001968752
6	0xb9ff1fcc	-0.0004866108
7	0x3b41ce24	0.0029572332
8	0x3a0bd6e9	0.00053344533
9	0x00000000	0.0
10	0xbb22bd63	-0.0024832122
11	0xbacc5105	-0.001558811
12	0x3aefff15	0.0018310273
13	0x3b1ddf85	0.0024089527
14	0xbb2bdbed	-0.0026223615
15	0xbb91dfad	-0.004451713

weight f4 [16, 16]
0	0x3e99adf8	0.3001554
1	0x3e96e099	0.2946823
2	0xbe562180	-0.20911217
3	0xbc872548	-0.01649727
4	0x3dc28ea3	0.09499862
5	0x3e1e82fa	0.15479651
6	0xbe699ccb	-0.22813718
7	0x3d3887a2	0.045051225
8	0x3e5cf6ea	0.21578565
9	0xbed2ecb9	-0.4119623
10	0xbdabf0be	-0.08395527
11	0x3e133a3b	0.14377682
12	0x3e95d478	0.29263663
13	0xbdc0ee3c	-0.094204396
14	0xbe886e89	-0.26646832
15	0x3da779e0	0.08177543
16	0x3d821e10	0.0635339
17	0x3ed790cd	0.42102662
18	0x3e9a7291	0.30165532
19	0xbd39ef1c	-0.045394048
20	0xbd60812e	-0.054810695
21	0x3dae8537	0.085215025
22	0xbed4b68e	-0.41545528
23	0x3ea1b8cf	0.3158631
24	0x3e5cbb5d	0.21555848
25	0x3e4d4665	0.20046385
26	0xbe948df3	-0.2901455
27	0x3cb03f10	0.021514446
28	0x3e99e80f	0.3005986
29	0x3e6e0543	0.23244195
30	0xbe3802bd	-0.17969795
31	0xbde7daa2	-0.11320998
32	0xbe8fbc0e	-0.28073162
33	0x3d079663	0.033102404
34	0xbed49703	-0.41521463
35	0x3e97dd4f	0.29661033
36	0xbdf5f4d6	-0.120095894
37	0x3e755926	0.23959789
38	0xbe07f938	-0.13278663
39	0x3ed806a4	0.42192566
40	0xbe97d2a8	-0.29652905
41	0x3e87019b	0.26368412
42	0xbc2269b0	-0.009912893
43	0x3dcadb3c	0.09905097
44	0x3d666bf7	0.056255307
45	0xbe97c77c	-0.29644382
46	0x3ed2a82f	0.4114394
47	0x3e83f264	0.25770867
48	0x3e45cb43	0.1931582
49	0x3eb95dde	0.36204427
50	0xbdd117d0	-0.1020962
51	0x3e2149be	0.15750787
52	0xbe2bff27	-0.16796552
53	0x3e12c491	0.14332797
54	0xbea3c435	-0.31985632
55	0x3e9c4218	0.30519176
56	0x3e32f38a	0.17475715
57	0xbd38fc45	-0.045162458
58	0xbdbf84c6	-0.093514964
59	0x3e9d7d7a	0.30759794
60	0x3e9445a9	0.28959396
61	0xbed3e228	-0.4138348
62	0xbe61de79	-0.22057523
63	0x3d9bc88d	0.076066114
64	0xbc2ea2d4	-0.010658938
65	0x3eaf9793	0.3429533
66	0xbea3d3e6	-0.31997603
67	0xbe9f6c47	-0.31137297
68	0xbe02572c	-0.12728566
69	0x3e7ad7b4	0.24496347
70	0x3e6d82af	0.23194383
71	0xbe605b5f	-0.21909855
72	0xbe0472f0	-0.1293447
73	0x3eb5e2ba	0.3552454
74	0xbe5c8a44	-0.21537119
75	0x3ed2e49d	0.41190043
76	0xbe715c6f	-0.23570417
77	0xbd4b2e15	-0.049604494
78	0xbea7b9ad	-0.32758847
79	0xbea9bfae	-0.33154052
80	0x3e43e48b	0.19130151
81	0x3e711aa9	0.23545326
82	0x3ec3da6e	0.38252586
83	0x3ecce712	0.40020043
84	0x3eb10e0f	0.34581038
85	0xbe278dce	-0.16362688
86	0xbdcba4b7	-0.09943526
87	0x3cfaf3bd	0.030633802
88	0xbeb2b7e4	-0.34905922
89	0xbed3d7f9	-0.41375712
90	0x3e84cf50	0.25939417
91	0x3ea82df2	0.32847553
92	0xbe8246cb	-0.25444636
93	0xbec434fb	-0.3832167
94	0x3ea67ede	0.32518667
95	0xbd3c8d66	-0.046033286
96	0xbeb50a4d	-0.3535942
97	0x3dd17576	0.10227482
98	0x3d7337d1	0.059379403
99	0x3d2438ad	0.040093113
100	0x3e44024f	0.19141506
101	0x3e977237	0.29579327
102	0xbedd50ba	-0.43225652
103	0x3ed4a01a	0.41528398
104	0xbe0e3c2c	-0.13890141
105	0xbe8ba862	-0.27276903
106	0x3daf25e3	0.08552148
107	0xbe8c5f5b	-0.274165
108	0xbe0f417d	-0.13989826
109	0x3ea22aad	0.31673184
110	0xbd07353d	-0.033009756
111	0xbe429cb1	-0.19005086
112	0xbe5b4ba3	-0.21415572
113	0x3e3f8595	0.18703301
114	0xbdef300e	-0.116790876
115	0xbeae6588	-0.34061837
116	0x3edc3127	0.4300625
117	0x3e8f68e6	0.2800972
118	0xbebfbbd6	-0.37447995
119	0x3d3e26db	0.046423774
120	0xbd09f468	-0.03368035
121	0x3ecf99cd	0.40547028
122	0xbc04a7ac	-0.008096617
123	0xbb57249e	-0.0032828222
124	0x3dbc2ab7	0.09187835
125	0xbe6f51e6	-0.23371086
126	0x3c13e972	0.009027826
127	0xbea1c853	-0.31598148
128	0xbe964edd	-0.29357043
129	0xbed30ba0	-0.41219807
130	0xbe8c4ffc	-0.27404773
131	0xbe552839	-0.20816125
132	0x3d6f8e05	0.05848505
133	0x3e97143c	0.29507625
134	0xbdaff303	-0.08591273
135	0x3e9dc3fb	0.30813584
136	0x3eaece94	0.34141982
137	0xbea9ac48	-0.33139253
138	0xbe522d2c	-0.20525044
139	0xbdf62243	-0.12018254
140	0x3ea20ba5	0.3164951
141	0x3ecc8e20	0.39952183
142	0xbea2b44f	-0.3177819
143	0xbc92d031	-0.017921539
144	0x3eb2a53d	0.34891692
145	0x3e6b88bc	0.23001379
146	0xbdab8c80	-0.083764076
147	0x3e29a9cb	0.16568677
148	0x3e7a7211	0.24457575
149	0xbe8f7df7	-0.2802579
150	0xbebcf7f3	-0.3690792
151	0xbdd5c132	-0.1043724
152	0x3da62052	0.08111633
153	0xbeab539d	-0.3346223
154	0x3e950ae1	0.29109862
155	0x3e83dc43	0.25753984
156	0xbdce3a6f	-0.10069739
157	0xbebeab13	-0.37239894
158	0xbec7175d	-0.38885012
159	0x3e93ac75	0.28842512
160	0x3dcb91a5	0.09939889
161	0xbec9838e	-0.3935818
162	0x3d16a26f	0.036776002
163	0x3d35ba6d	0.044367243
164	0x3e2d01a9	0.16895165
165	0x3d59c949	0.053170476
166	0xbedac2fa	-0.4272688
167	0x3ed3fa81	0.41402057
168	0x3d0626b9	0.032751773
169	0x3e8c208d	0.27368584
170	0x3e27dec7	0.16393577
171	0xbe1fc441	-0.15602209
172	0xbe12d587	-0.14339267
173	0x3e27d32b	0.16389148
174	0xbe8cdf8e	-0.2751431
175	0xbdaa4354	-0.08313623
176	0x3e7724a9	0.24135078
177	0x3d508249	0.0509055
178	0xbec9cf49	-0.3941596
179	0x3e2feee4	0.17180973
180	0xbe47d5b7	-0.1951512
181	0xbea5f588	-0.32413888
182	0x3e37afce	0.17938158
183	0xbe5cabfa	-0.21549979
184	0xbec4e8cb	-0.38458857
185	0x3e9f4eb6	0.3111474
186	0xbea47249	-0.32118443
187	0x3ead8d33	0.3389679
188	0xbed03fb1	-0.40673593
189	0x3e1f25df	0.1554179
190	0xbea66395	-0.3249785
191	0x3ea743f9	0.32669047
192	0xbdfe9b41	-0.12431956
193	0x3e6fadd5	0.23406155
194	0xbeb0da2d	-0.34541455
195	0x3ec80e25	0.3907329
196	0x3e9460dd	0.2898015
197	0x3e7bbc13	0.24583463
198	0xbe5bfd63	-0.21483378
199	0x3dc96f4e	0.09835683
200	0x3d5c68aa	0.053810753
201	0x3ec8778c	0.39153707
202	0xbe87f9bc	-0.2655772
203	0x3e98f264	0.2987243
204	0xbd73c9cd	-0.059518624
205	0x3e14cf0f	0.14532112
206	0xbe9a5cf4	-0.30149043
207	0xbeb6333e	-0.3558597
208	0xbd4120e0	-0.047150493
209	0x3e11e32b	0.14246814
210	0xbeb60724	-0.35552323
211	0x3e03b31a	0.1286129
212	0xbec40ff3	-0.38293418
213	0x3e75e0de	0.24011561
214	0xbe1a541b	-0.15071146
215	0xbec159d2	-0.3776384
216	0x3e8bb2e3	0.27284917
217	0x3e322daa	0.17400232
218	0x3d650572	0.055913396
219	0x3eda6864	0.4265777
220	0xbe97ac51	-0.29623654
221	0x3e8aa75d	0.27080813
222	0xbe2d1ddd	-0.16905923
223	0xbdce0a2b	-0.10060533
224	0x3e48c397	0.19605862
225	0xbcd54bda	-0.026037145
226	0x3e8e9cab	0.27853903
227	0xbd646c2c	-0.055767223
228	0xbe32b63e	-0.17452332
229	0xbe82ed5a	-0.2557171
230	0xbe78ac9f	-0.242846
231	0x3dd18d49	0.10232026
232	0x3e71a835	0.23599322
233	0x3d29cd9a	0.041455843
234	0xbe9a013b	-0.30079064
235	0x3cd5be9f	0.026091872
236	0x3e734bb7	0.23759352
237	0x3e9fe641	0.31230357
238	0xbea5b075	-0.3236119
239	0x3e3d4eb2	0.18487051
240	0xbe8dbf48	-0.27685
241	0x3ec71c9e	0.3888902
242	0x3ec416b9	0.38298586
243	0x3e741f11	0.23839976
244	0xbe8f4725	-0.27983966
245	0xbd914650	-0.07093489
246	0xbbd05bbe	-0.006358593
247	0x3d265e83	0.040617477
248	0x3d3ffcdd	0.04687201
249	0x3e8fe1a5	0.2810184
250	0x3dfaece8	0.122522175
251	0x3ecb2ff8	0.39685035
252	0xbe1c42b6	-0.15259823
253	0x3d50d3fe	0.05098342
254	0xbe9a363f	-0.3011951
255	0x3e912b25	0.2835323

bias f4 [16]
0	0x3b24a894	0.0025124894
1	0x3b00f23f	0.001967564
2	0xbb33cea2	-0.0027436395
3	0x3b1dedff	0.0024098156
4	0x00000000	0.0
5	0xbb1775c1	-0.0023110958
6	0x3ac13c3a	0.001474268
7	0x00000000	0.0
8	0x3b386dea	0.0028141686
9	0x3b450646	0.0030063554
10	0x3b142783	0.0022606559
11	0x3b520b8a	0.0032050335
12	0xbb0e8588	-0.0021747071
13	0xbaadfc39	-0.0013274021
14	0x3b357ef1	0.0027694071
15	0xbae23643	-0.0017258603
