ood/freesolv.pt (torch, 347597 bytes, 62 tensors)

weight f4 [16, 9]
000000 c4 5f bb be c7 51 9b 3e 02 eb 97 be 77 42 0f 3e
       -0.365965 0.3033583 -0.29671484 0.13990198
000010 6c 8f 88 3e a7 98 4a 3e fb 05 0a 3e 1f 50 6d 3e
       0.26671922 0.19784795 0.13478844 0.23175095
000020 b4 11 c5 be df ce 76 be 28 56 7b 3e 1d ca ba 3e
       -0.3849007 -0.24102353 0.24544585 0.36482325
000030 48 63 b6 3d 1a 56 6b 3d b9 bd c6 be 9c 04 c8 bd
       0.08905655 0.05745516 -0.38816622 -0.09766504
000040 3c f3 7e be 82 49 f3 3e 81 d0 fa 3e 40 b4 c3 3d
       -0.24897474 0.4751702 0.489872 0.09555864
000050 a3 50 ca 3e 25 13 2f 3d d8 55 0b be d9 4f b5 be
       0.39514646 0.042742867 -0.13606966 -0.3541248
000060 75 a6 d6 3e f3 67 13 3e 6e 23 9a bd a9 51 a1 be
       0.41923872 0.14395122 -0.07526289 -0.31507614
000070 c9 5d b4 3e a7 b6 5c 3e 40 13 8f be 49 16 eb 3e
       0.35227802 0.21554051 -0.27944374 0.4591544
000080 f2 9b b9 be 3c 18 8c bd 71 ca 02 3d e6 c8 d3 3e
       -0.3625179 -0.0684056 0.031931344 0.4136421
000090 41 38 ac 3d fd 43 b4 3e 95 63 a6 be de ce 7b 3e
       0.08409167 0.3520812 -0.3249785 0.24590632
0000a0 c4 d2 ca 3e 86 3f 92 be 59 c1 08 be 17 11 1e 3e
       0.39613926 -0.2856409 -0.13355006 0.15436207
0000b0 7a ce bf 3d d9 77 bb 3d f6 a3 a0 bd 46 37 00 be
       0.09365554 0.091537185 -0.07843773 -0.12521085
0000c0 1c 7d a2 3e 4f 1b e9 bd 33 1e 17 3e 8e 09 93 be
       0.31736076 -0.11382162 0.14757614 -0.28718227
0000d0 ba ee b7 be 03 3c ce be 42 04 e1 3e 29 a7 60 be
       -0.3592432 -0.4028016 0.4394856 -0.21938767
0000e0 7e 50 91 be ce 77 a6 3d ce 6f d5 3e 29 03 89 3d
       -0.28381723 0.0812832 0.41686863 0.06690056
0000f0 5f 45 37 3e 66 7e 09 3e c0 a7 c9 3e 4b 43 46 3e
       0.17897557 0.13427123 0.39385796 0.19361608
000100 7b 4f c4 be f5 39 f7 3b 21 44 d7 3e d3 b0 e5 be
       -0.3834189 0.007544751 0.42044166 -0.4486147
000110 aa 81 17 be 31 5d ea be e4 39 dd be 07 e6 43 3e
       -0.14795557 -0.45774224 -0.4320823 0.19130717
000120 08 56 d8 3e 55 33 e2 3e de ae 38 be f0 52 bf 3e
       0.42253137 0.44179788 -0.18035457 0.37367964
000130 8d 11 bc be 2d 21 da be f0 d3 be 3e fb ee 58 3e
       -0.3673214 -0.42603436 0.3727107 0.21184914
000140 83 30 70 3d fb b9 c9 be f5 41 a2 bc 89 d9 ce 3e
       0.058640014 -0.39399704 -0.019806841 0.4040034
000150 ba 0c 58 be 55 f2 a4 3e 28 05 6f be 59 3c dc be
       -0.21098605 0.32216135 -0.2334181 -0.43014792
000160 82 6d e0 3e bf 12 e7 be d6 73 6d be 08 14 97 bd
       0.43833548 -0.4513149 -0.23188719 -0.073768675
000170 72 1f c1 3e d9 f0 92 bb 25 46 ea bd e5 ba 93 3e
       0.37719303 -0.0044842777 -0.1143916 0.28853527
000180 e5 84 d4 bd c4 73 ae 3e ab 98 df 3e ae 0f 4d 3e
       -0.1037691 0.34072697 0.43671164 0.20025513
000190 97 e0 47 3d 2a ba bb 3e e7 40 f1 be f5 b8 fa be
       0.04879817 0.3666547 -0.4711983 -0.48969236
0001a0 47 db 00 3e d3 ed a6 be 12 d1 d8 be 87 75 0b be
       0.12583648 -0.3260332 -0.42347008 -0.13619052
0001b0 a6 0c a1 be fa 3d b0 3d 6f df 8d be 33 7f 4d 3a
       -0.31454962 0.08605571 -0.2770953 0.00078390836
0001c0 e4 1e 84 3e 94 36 83 be 22 1f cf 3e 69 a0 41 be
       0.25804818 -0.25627577 0.4045344 -0.18908848
0001d0 42 75 c4 3e 02 d6 8e be a9 81 a5 be 69 37 5f 3e
       0.3837071 -0.2789765 -0.32325485 0.21798481
0001e0 54 79 ef 3e 86 be 81 be 82 c2 e2 be de 4a 7b be
       0.46772254 -0.2534067 -0.44289023 -0.24540278
0001f0 c8 ca 8f 3e 5e 42 c9 be bd 38 0f be 0f bc d6 be
       0.28084397 -0.39308447 -0.13986488 -0.41940352
000200 ff 13 d9 bc 92 68 b2 3e f7 dd 5d 3c d6 ec 94 bc
       -0.026498793 0.34845406 0.01354169 -0.018179338
000210 ca b6 89 bd 95 1f ea 3e 8f eb c2 3d 99 01 f0 3c
       -0.06724317 0.4572722 0.095175855 0.029297637
000220 b6 04 b6 3d 65 18 2e 3d c2 31 b9 3e f1 e3 bd 3e
       0.08887617 0.042503733 0.36170775 0.37087968
000230 5c 47 06 3e e9 6d 81 3e 7c fe cc be 38 c4 cf be
       0.13113159 0.25279167 -0.40037906 -0.4057939

bias f4 [16]
000000 00 00 00 00 ad 27 10 bb d4 9f 97 3b 00 00 00 00
       0.0 -0.0021996305 0.0046272073 0.0
000010 47 c0 a0 bb 7b 5c 6a b9 04 b8 1f bb 9c d0 81 3b
       -0.0049057337 -0.0002235043 -0.0024371156 0.0039616358
000020 27 04 7d bb 00 00 00 00 12 db ad bb 3b c2 5b bb
       -0.0038607211 0.0 -0.005305656 -0.0033532518
000030 00 00 00 00 28 23 3b 3b 2c d2 3f 3b 2f 60 aa bb
       0.0 0.002855489 0.002926956 -0.0051994543

weight f4 [16, 16]
000000 69 34 ae 3b 3f 43 0b 3e c9 11 ac 3d d7 e8 5f 3e
       0.0053163064 0.13599871 0.0840183 0.21866165
000010 14 f8 c8 3e a4 6e d0 be b6 a8 dc be 91 88 b6 3c
       0.3925177 -0.40709412 -0.43097466 0.022281917
000020 04 c8 8d be 99 ff 1e 3e 70 86 d2 3d 1a 0c c3 3c
       -0.27691662 0.1552719 0.10279548 0.023809481
000030 a0 90 47 3d 84 32 fc 3c b7 48 cd be 0c b7 55 3e
       0.04872191 0.030785806 -0.4009454 0.20870608
000040 b9 2e 1b 3e 21 ec d1 3e 27 1b a6 3d d9 ec 0a 3d
       0.15154542 0.41000465 0.08110648 0.03391728
000050 8a a1 b5 3c 3f 23 8e bd c0 1f 14 3e 5e f2 7f 3d
       0.022171754 -0.069403164 0.14465237 0.062487
000060 76 ac d4 3e 0d 8e 5b be e9 49 7e be 19 36 bd 3e
       0.41537827 -0.21440907 -0.24832882 0.36955336
000070 b6 83 68 3e 88 55 5a 3d a0 9d bb 3e 61 10 67 bc
       0.22706494 0.053304225 0.36643696 -0.014103026
000080 f1 a0 10 3e f6 05 ae 3d aa 1c b7 3b 9f d8 88 3e
       0.14123894 0.08497231 0.005588134 0.2672777
000090 a7 04 7a be 43 6c 18 be 37 b4 a3 3e 0e bb 7a 3e
       -0.24415837 -0.14885049 0.3197343 0.24485418
0000a0 d6 36 21 3e 71 2e 4a 3e 95 87 8b 3e b2 13 75 bc
       0.15743575 0.19744278 0.27251878 -0.014958309
0000b0 6b c4 db 3e 4f 21 d6 3d 0a 3e cb bd 99 a5 49 3e
       0.42923293 0.10455572 -0.099239424 0.19692077
0000c0 d2 b8 1a 3e e2 9e a6 be 86 4d 91 3c c1 c5 cd 3d
       0.15109566 -0.32543093 0.017737161 0.10047484
0000d0 7e 56 9f 3e cf 59 b5 be 14 08 a2 be 19 be a8 be
       0.31120676 -0.3542008 -0.31646788 -0.32957533
0000e0 9b f6 77 3e e9 a8 98 bc 79 1f cf be 37 8d 91 be
       0.24215166 -0.01863523 -0.404537 -0.2842805
0000f0 1b c7 bc 3e 7f b8 5b 3e a5 78 a5 3e fc 95 db be
       0.36870655 0.21457098 0.32318607 -0.42887866
000100 e3 33 31 be 20 1d fa 3d a5 39 51 3e 96 23 bb 3e
       -0.1730495 0.122125864 0.20432146 0.36550587
000110 8a 61 cc be 4a da 75 3e 34 69 9f 3d 9e 63 df 3e
       -0.39918166 0.24009052 0.07783738 0.4363069
000120 3b 8f bb be aa 3f bf 3c a6 b4 d1 be f0 e3 ec bd
       -0.36632714 0.023345787 -0.40958136 -0.11566913
000130 55 6c 69 3e 94 28 96 3e 18 11 c9 be f0 59 34 3d
       0.22795232 0.29327834 -0.39270854 0.044031084
000140 d8 ff b7 3e 6c 9c a7 bd 2c d5 8e bd c0 58 66 3d
       0.3593738 -0.08184132 -0.06974253 0.056236982
000150 76 e0 c1 bc 6c b6 76 bc 30 5f c9 3e f4 48 18 be
       -0.023666602 -0.015058141 0.39330435 -0.1487158
000160 cd 82 c7 be 78 af b6 3e bb dc 25 be 75 93 43 be
       -0.3896698 0.35680747 -0.16197483 -0.19099219
000170 8c 73 19 be 1b 07 8a 3e f8 45 e7 3c 96 76 7c 3e
       -0.14985484 0.26958546 0.028231606 0.24654612
000180 3a 7b 90 be fd d5 29 be 17 a8 96 be 54 64 a3 3e
       -0.28219014 -0.16585536 -0.29425117 0.31912482
000190 01 be c7 be 3f 6b cd be f5 a7 84 3e 1c a0 79 be
       -0.3901215 -0.40120885 0.2590939 -0.24377483
0001a0 6a b0 bd 3e f7 36 b1 be 28 38 12 bc 49 93 41 3e
       0.37048656 -0.34612247 -0.0089245215 0.18903841
0001b0 41 34 88 3e d6 dd 25 be 73 8d d2 bd 29 75 25 3e
       0.26602367 -0.16197905 -0.102808855 0.16157974
0001c0 33 a1 61 be 38 27 80 be 68 ea 6e 3e 20 02 dc 3d
       -0.22034149 -0.25029922 0.23331606 0.10742593
0001d0 2a 22 c5 be 69 40 9c bc 79 18 27 3e 6c fb d5 be
       -0.38502628 -0.019073682 0.1631793 -0.41793382
0001e0 41 e6 4e be fb 23 c6 be b5 2f da be 22 8d 42 be
       -0.20205022 -0.38699326 -0.42614523 -0.1899915
0001f0 d2 fd c4 3e 93 21 cc ba 2a 05 de bc cc 7d a7 3d
       0.384749 -0.0015573971 -0.027102072 0.08178291
000200 a4 5a af 3d 0e d6 b8 bb d5 e6 3a 3e b5 09 05 be
       0.0856221 -0.0056407517 0.18252118 -0.12991984
000210 db 8d dd 3e 3e f3 0c 3d 28 b4 1d be a4 50 00 bd
       0.4327229 0.03441166 -0.15400755 -0.031326905
000220 17 e2 85 3e a3 e6 94 be 95 4e cc 3e 3c 2d 51 bd
       0.26149055 -0.29082212 0.39903703 -0.05106853
000230 57 09 12 bd 43 af 36 be 48 68 82 3e fe 9d 16 3e
       -0.03565344 -0.17840295 0.25470185 0.14708707
000240 a4 e5 20 3e af fe 17 be 19 47 85 be 25 7a 22 be
       0.15712601 -0.14843248 -0.26030806 -0.15866907
000250 b6 57 02 3e 77 18 a0 be 5d b8 ec 3d b0 85 9f be
       0.12728772 -0.31268665 0.11558602 -0.31156683
000260 8c e4 bb bd d3 b7 8b 3c 76 f8 58 be d4 44 cb be
       -0.09174451 0.017055428 -0.2118853 -0.3970095
000270 01 32 6f 3e f3 ad a7 bd 5f e5 a4 3d 58 4c cc 3e
       0.23358919 -0.08187475 0.080515616 0.39901996
000280 00 81 7c bd 73 6e 98 be 39 82 2a be 87 ed c2 3e
       -0.06164646 -0.29771766 -0.16651239 0.38071844
000290 1f 9e 8f 3e 0a 37 b0 be 95 e5 65 be a2 af 43 be
       0.28050324 -0.3441699 -0.2245086 -0.19109967
0002a0 88 f7 5e 3e 1f c7 b7 3e 7c 6e 6e 3e f9 30 ef 3d
       0.21774113 0.35894105 0.23284334 0.11679263
0002b0 de 91 f5 3c 99 3e 5f be 47 cb 81 3e 44 1c d3 be
       0.029976781 -0.21801223 0.253504 -0.41232502
0002c0 07 6a ab be cc 3d b4 3e b9 ff e0 bd de 12 55 be
       -0.3347933 0.35203397 -0.10986275 -0.20807979
0002d0 f9 0e 3f 3e 0d 5f 1c 3e 6b 7d cf bc 09 ce 56 bd
       0.18658055 0.15270634 -0.025328359 -0.052442584
0002e0 81 28 b0 3e 8c 5c 86 3e df 88 c8 3e ab ac 01 3e
       0.34405902 0.26242483 0.39166924 0.12663524
0002f0 16 61 28 3e 7a 88 7b 3e a4 ca 9c be 88 5c c9 3d
       0.16443285 0.2456378 -0.30623353 0.09832102
000300 94 1e 47 3d 59 93 6c 3e 9f fe 17 3e ee ea 80 3b
       0.048613146 0.23103084 0.14843224 0.003934256
000310 10 cf c2 3e 66 ee 31 bd ad 53 d3 3e 71 3b d4 be
       0.380486 -0.043440245 0.41274777 -0.414516
000320 4f 34 d4 3e db fa 96 be 1f cf cb 3d 84 0c ba 3e
       0.41446158 -0.29488263 0.099516146 0.36337674
000330 1d 67 82 3e 55 b3 d3 be a5 9b 2b 3e 21 23 93 be
       0.25469294 -0.41347757 0.16758592 -0.2873774
000340 75 20 c4 3e 7f a5 d4 3e fa d9 99 3e 46 af a9 3e
       0.38306013 0.41532513 0.30049115 0.33141536
000350 f9 f3 87 be 13 ee bf 3b 32 e3 a2 bd 4a 49 86 3e
       -0.26553324 0.005857238 -0.0795349 0.2622779
000360 62 39 b7 bd d5 2c a5 3e 56 d7 8e be d0 d9 06 3e
       -0.08946492 0.32260767 -0.27898663 0.13169026
000370 c6 df 40 be ac 9d 81 3e d2 91 3d 3e 04 89 25 be
       -0.18835363 0.25315607 0.18512657 -0.16165549
000380 5d 6b 29 be 03 ad b0 3e b0 b4 ff 3d 0b f9 10 be
       -0.16544862 0.34506997 0.12485635 -0.14157502
000390 47 ae aa be c1 cc 6c 3e ff 18 96 3e 91 92 45 3e
       -0.33336088 0.23124982 0.29315946 0.19294192
0003a0 aa 43 b2 be 01 e0 b8 3e e2 b0 50 3e 3f 87 46 3e
       -0.3481725 0.361084 0.20379975 0.1938753
0003b0 63 88 a2 3e b3 be 7e be 36 a7 9c be f3 c0 85 3b
       0.3174468 -0.24877433 -0.30596322 0.004081839
0003c0 30 e0 82 be 76 37 15 be 1d c5 e6 bd 72 55 9a be
       -0.25561666 -0.14571938 -0.11268065 -0.30143315
0003d0 d2 8b a5 bd 4b f6 7c bd 73 09 29 be 10 66 27 3e
       -0.08083309 -0.06175832 -0.16507511 0.16347528
0003e0 a1 93 71 3d 00 fe d1 3e 3d 91 9d be f4 c0 6f bd
       0.05897868 0.410141 -0.3077487 -0.058533624
0003f0 5b 44 10 be 72 01 4c be 04 34 cf be cf a7 fc 3d
       -0.14088576 -0.19922426 -0.40469372 0.123366944

bias f4 [16]
000000 00 00 00 00 5d 54 15 bb 1c a2 b2 bb 00 00 00 00
       0.0 -0.002278588 -0.005451454 0.0
000010 71 b0 b6 3b 6d 0b 91 3b dc 64 a3 3b be 09 7d ba
       0.0055752327 0.004426411 0.0049863886 -0.0009652636
000020 35 03 0f 3b 12 96 b6 3b 00 00 00 00 8b f8 62 bb
       0.002182198 0.005572089 0.0 -0.0034633006
000030 e5 bb 23 39 e9 ab 9d 3b f3 6f 83 bb 00 00 00 00
       0.00015614888 0.004811753 -0.004011148 0.0

weight f4 [16, 16]
000000 5a 5f f0 bd 25 b0 d5 be b4 5c 89 be 69 5b bf be
       -0.11736937 -0.4173595 -0.2682854 -0.37374428
000010 3a a2 8a be c5 74 8a bd d8 81 2a be a2 a7 36 bd
       -0.27076894 -0.06760553 -0.16651094 -0.04459346
000020 1e ac 9d 3d 31 6d a7 be 17 01 a3 be aa 24 5b be
       0.076988444 -0.32700494 -0.3183677 -0.21400705
000030 41 72 cf 3e 44 f0 85 be 5e 96 62 3e c2 b5 d1 3e
       0.40516856 -0.2615987 0.22127673 0.40958983
000040 11 13 df bd be 75 c7 3c 8b 41 bc be 79 8c c0 3e
       -0.108923085 0.024348136 -0.36768755 0.37607172
000050 ac 2a d9 3e bb e3 67 be 6d 0b a8 bd 6f 58 ba bd
       0.4241537 -0.22645466 -0.08205304 -0.090988986
000060 b5 53 af 3d 28 70 be 3e f6 b9 93 3e 60 cf 42 3e
       0.08560888 0.37194943 0.28852814 0.1902442
000070 88 97 ad 3e d8 90 b7 3e d7 48 be 3e 6a b1 3b be
       0.33904672 0.35852695 0.37164947 -0.18329397
000080 7a ce 8e 3d b1 a2 66 3e 8f 8b c3 3e 5d 55 72 be
       0.06972976 0.22523 0.38192412 -0.23665376
000090 30 f9 93 3e 99 cb fc bd cf 45 25 3e 63 1c ae be
       0.28901052 -0.12343521 0.16139911 -0.34006032
0000a0 52 65 c3 be a5 85 a3 3e c9 6d a5 3e 81 07 d9 3e
       -0.3816324 0.319379 0.32310322 0.42388538
0000b0 dd f7 6d 3e 1a 50 94 be 5f 7e 29 bd 18 5d ae 3e
       0.23239084 -0.28967363 -0.041380282 0.340554
0000c0 db 67 a2 be b0 28 25 be 3a 7b 98 3a 4b 9c ae 3e
       -0.3171986 -0.16128802 0.0011633404 0.34103617
0000d0 b4 f5 83 3e f1 72 c3 bc 18 eb ae 3e 14 0e 41 3e
       0.25773394 -0.02385852 0.34163737 0.18853027
0000e0 80 23 05 be 50 e6 d5 be cb 12 d9 3e 6d ec ca 3e
       -0.13001823 -0.41777277 0.4239715 0.39633504
0000f0 d3 98 84 be 99 1b a8 be e6 33 0a 3e ac 08 9a 3e
       -0.25897846 -0.32833555 0.1349636 0.3008474
000100 d2 0c 24 3c f4 99 d0 be 45 6f 9b bb a2 1f 20 be
       0.010012822 -0.40742457 -0.004743489 -0.15637067
000110 e4 95 ec 3d 2a 83 c3 be ae a0 46 bc 4a 9a d6 3e
       0.11552027 -0.38186008 -0.01212327 0.41914588
000120 db 32 b5 be 57 55 ae be 56 d4 dc be 22 24 3b be
       -0.35390362 -0.34049484 -0.4313075 -0.18275502
000130 a1 63 10 be 45 ac 28 3e 17 0f b8 3e 49 d2 b2 be
       -0.14100505 0.16471966 0.35949013 -0.3492606
000140 ad 66 3d be 77 15 10 3e 88 a6 76 be 5e 87 ee 3d
       -0.18496199 0.14070688 -0.24086964 0.11646913
000150 84 db d1 be 23 b5 c4 be 9f cf 98 be 04 92 49 3d
       -0.4098779 -0.38419446 -0.29845902 0.049211517
000160 25 dd ab 3d 47 2c c0 3e ca 7c bd 3e 55 32 88 3e
       0.08391789 0.3753378 0.3700927 0.266009
000170 04 ec a1 3c 1e 94 b9 3d 9f ab 8e 3e fc e4 52 be
       0.019765861 0.09061454 0.27865312 -0.20595163
000180 4f 64 d4 3e 1a 19 7e 3e 85 fd c3 be 0d f5 c2 be
       0.4148278 0.24814263 -0.38279358 -0.38077584
000190 fe 26 41 3e 83 80 ae bc d8 c2 d8 bd 47 07 91 3e
       0.1886253 -0.021301514 -0.105840385 0.28325865
0001a0 d6 99 9b 3c ab dc 4a be 21 39 ba 3d 17 6c 84 3e
       0.018994253 -0.1981074 0.09092928 0.25863716
0001b0 36 11 a3 3e ef 67 99 3e 0a 87 8a be 1f e6 57 3d
       0.31849068 0.29962108 -0.27056152 0.052709695
0001c0 8c 42 66 be ca 09 a4 be 25 c8 c6 be 18 50 84 be
       -0.22486323 -0.32038718 -0.38824573 -0.25842357
0001d0 e7 41 40 3e 19 fb 55 3e 5b d2 00 bd fd ce a2 be
       0.1877514 0.20896567 -0.03145061 -0.31798545
0001e0 5a 04 c5 3e 93 dc 98 3d 02 05 c0 3d de 7e a1 be
       0.38479882 0.07463946 0.09375955 -0.31542104
0001f0 a0 22 84 bd b3 99 9d be b8 4e 85 3e 38 6e 02 be
       -0.06451917 -0.30781326 0.2603662 -0.12737358
000200 61 76 b9 3e 3a aa ce be 6b 3a 48 bd ec 7c 32 be
       0.36223128 -0.40364248 -0.048883837 -0.17430466
000210 6e 7a b7 3d c1 5d 9e 3e 99 9c 0e 3c d0 bf 38 3e
       0.089588985 0.30930904 0.008704328 0.1804192
000220 94 23 3e 3e 3d c1 b9 3d a1 f6 91 3e 84 cd b7 3e
       0.1856826 0.090700604 0.28508475 0.35898983
000230 e6 b3 a6 be 56 8a 45 3e c7 93 c6 be a8 c1 50 be
       -0.32559127 0.19291052 -0.3878462 -0.20386374
000240 0e 8b 2c be ac 29 55 3e 65 24 f5 3c 48 bd 0c be
       -0.1684992 0.20816678 0.02992458 -0.1374408
000250 b7 27 0c be 28 69 ac 3e 93 7d 6c 3e d9 e3 93 be
       -0.13687025 0.33673978 0.23094778 -0.2888477
000260 3a 8a d0 be d4 69 29 be 07 6b d4 be 5a 45 da 3e
       -0.40730458 -0.16544276 -0.41487905 0.42631036
000270 d4 d4 4e 3e f7 a0 56 3e 01 ab 49 3c 09 2a c6 be
       0.20198375 0.2095984 0.012308837 -0.38703945
000280 f1 4b 86 be aa 15 5e be f0 8e ca 3e bd 29 ce 3e
       -0.26229814 -0.21687952 0.39562178 0.4026622
000290 0f 8d 66 be 76 fc f5 bd 7f c9 aa 3e 4d fa 24 3e
       -0.22514747 -0.12011044 0.33356854 0.16111107
0002a0 76 5a c0 3e cd 32 1a 3e 04 7d a1 be 57 3b f6 3d
       0.37569016 0.15058441 -0.31540692 0.12023037
0002b0 bf c1 f8 3a 5b 2f 10 bd c8 a2 33 be a6 24 9c 3d
       0.0018978639 -0.03520141 -0.17542565 0.07624178
0002c0 a6 b2 c7 be 07 3e dd be f0 7f 18 be 4a 98 48 be
       -0.39003485 -0.43211386 -0.14892554 -0.19589344
0002d0 40 a6 99 3d 63 28 75 3e 8b 9f d0 3d ab a6 ca be
       0.07502413 0.23941188 0.101866804 -0.39580283
0002e0 bd fd a7 3d b6 c8 d0 3e 5c 36 df 3d 92 58 77 be
       0.082026936 0.4077813 0.1089904 -0.2415488
0002f0 c2 1c b1 bc d7 95 58 be d1 2a c0 bd 13 96 3c 3e
       -0.021620158 -0.2115091 -0.093831666 0.18416624
000300 48 e7 a8 be a9 67 1d 3d 01 af 95 3e 1a ff 50 3e
       -0.32988954 0.038428936 0.2923508 0.20409814
000310 ca e1 ac be fe 83 80 3e 15 cc b6 bd 2b 29 d1 bd
       -0.33766013 0.25100702 -0.08925644 -0.1021293
000320 91 47 bd be 6c 53 dd 3e f8 b0 48 3e ea c4 45 3e
       -0.36968663 0.43227708 0.19598758 0.19313398
000330 88 32 43 3e e5 15 b5 be 78 55 61 be 37 71 ba be
       0.19062245 -0.35368267 -0.2200526 -0.364145
000340 fe d1 6b 3e 62 62 b0 be 7c 23 77 3c a0 ec 32 3e
       0.23029324 -0.3445006 0.015084144 0.17473078
000350 ef 26 6a be 51 bb bf 3e 54 52 36 3e b5 88 b2 3e
       -0.22866414 0.374476 0.17804843 0.34869924
000360 07 7c b2 be 89 52 a4 be ee 4c a4 3e 21 82 aa be
       -0.3486025 -0.3209422 0.32089943 -0.33302405
000370 3d 50 03 bd e8 37 b4 bd 38 22 8b 3c a1 22 07 be
       -0.032058943 -0.08799726 0.01698409 -0.13196804
000380 69 93 81 3e ff f4 07 3c 77 55 f7 3d 31 6b c9 be
       0.25307778 0.008298158 0.12076848 -0.39339593
000390 b5 c0 12 be 31 44 61 be 4c 6f 2e 3d 6a e6 bc be
       -0.14331324 -0.21998669 0.04258661 -0.36894542
0003a0 66 7c 38 3d 44 b2 d4 be 7a e2 2d be fa de 8c bd
       0.04504051 -0.41542256 -0.16980925 -0.06878467
0003b0 e7 8a 6b 3a 81 ad cb 3d 11 9b 78 be d3 2c 90 3e
       0.00089852366 0.099452026 -0.24277903 0.28159198
0003c0 40 c7 d5 be 90 f1 db bd ff 66 63 be a4 28 43 be
       -0.41753578 -0.10739434 -0.22207259 -0.19058472
0003d0 df e1 b0 be 68 8c c0 3e 5f 36 c4 be a1 50 b0 3e
       -0.34547326 0.3760712 -0.38322732 0.34436515
0003e0 d1 e6 68 be 22 b8 c0 3e d5 05 c2 3d 5f ac 5d be
       -0.227443 0.37640482 0.094737686 -0.21647786
0003f0 26 90 d6 be cf 68 a4 bd 57 d0 b5 3e 8f d2 31 3e
       -0.41906852 -0.08027803 0.35510513 0.17365478

bias f4 [16]
000000 00 00 00 00 31 2b 7d ba 9d ee 3c bb 00 00 00 00
       0.0 -0.000965762 -0.0028828748 0.0
000010 00 00 00 00 a1 67 98 bb 6a e2 96 3b 00 00 00 00
       0.0 -0.0046510254 0.0046046274 0.0
000020 00 00 00 00 8a 0f 7d bb b3 14 ce bb 00 00 00 00
       0.0 -0.0038613998 -0.0062890886 0.0
000030 57 7c 09 bb 00 00 00 00 31 d8 74 3b 00 00 00 00
       -0.0020978653 0.0 0.0037360305 0.0

weight f4 [16, 16]
000000 90 54 1f be ec 4c 84 be bb 0b e9 3c aa ac 04 be
       -0.15559602 -0.25839937 0.028447976 -0.12956491
000010 99 f4 87 be 19 22 a7 be 0a a0 91 be 60 38 95 be
       -0.265538 -0.32643202 -0.28442413 -0.29144573
000020 63 f8 d6 3e 41 b3 52 3d 68 67 6e 3d dd 9a 94 3e
       0.4198638 0.05144048 0.058204085 0.290244
000030 d0 58 bb be 25 1f 93 3d 58 70 f4 bd 94 ef 45 3e
       -0.36591196 0.07183675 -0.1193549 0.19329673
000040 0d 6f 13 3e 0f 74 93 be e0 54 c6 be 7c 3b ba bd
       0.14397831 -0.28799483 -0.3873663 -0.09093377
000050 33 d1 a7 be e1 a1 f9 bd 3f 26 58 3e fa f7 1d bd
       -0.32776794 -0.12189079 0.2110834 -0.038566567
000060 b8 48 23 bd c7 5a 0d 3e 45 d9 85 be 32 e4 bb 3e
       -0.039864272 0.1380416 -0.26142326 0.36697537
000070 c7 5b a2 be 57 65 1e 3e e0 b0 86 3e 10 c3 0a bc
       -0.31710646 0.15468346 0.2630682 -0.008469358
000080 20 8f 38 be 01 ac 3b 3e 81 6f f8 bd 64 bb c7 be
       -0.18023348 0.18327333 -0.12130643 -0.39010155
000090 cd fe 5f 3e 39 1a 97 3e ed 85 28 3e 6f 8a a7 be
       0.21874543 0.29512194 0.16457339 -0.32722804
0000a0 86 b5 8f be b7 3c 0f 3e aa 10 5f 3e 1b bf b2 3d
       -0.2806818 0.13988005 0.217837 0.08727857
0000b0 7c 45 a5 3e a3 ba bc 3d a3 d2 b2 be 23 8c 4d 3e
       0.32279575 0.09215286 -0.34926328 0.20072989
0000c0 01 ef bb 3e 89 15 96 be 63 a6 ce be 5f 94 8e 3c
       0.36705783 -0.29313305 -0.40361318 0.017404733
0000d0 bd 86 9c 3e 23 0a 52 3e 49 fa 8f be 2c be 4c 3e
       0.30571547 0.2051168 -0.2812064 0.1999442
0000e0 3b 3f fd bd 05 eb 8f bd db 1d f7 bc 3c d4 ae be
       -0.12365576 -0.07027248 -0.030165603 -0.34146297
0000f0 de b7 38 be 5d ae 83 3c f7 94 87 3e 79 c4 83 be
       -0.1803889 0.016074354 0.2648084 -0.25735834
000100 8c fb 37 3e e7 80 a9 3d f0 70 22 bd 3e 8e e1 bd
       0.17967051 0.08276539 -0.039658487 -0.11013459
000110 16 ef b7 be 9e cc 10 3e 50 0d 74 be 28 78 d2 3e
       -0.35924596 0.14140555 -0.23833203 0.41107297
000120 6f dd 26 3e 16 47 22 3e 89 f5 d3 3e 9f 83 1e bd
       0.16295408 0.1584743 0.41398266 -0.038699742
000130 9f da 2d be bc 80 51 3c c2 21 0c be d2 d5 12 3e
       -0.16977929 0.01278704 -0.13684753 0.14339378
000140 eb cf dc be 89 d1 b4 3d ce 67 4b bd 3a 5a e1 bd
       -0.4312738 0.08829028 -0.049659543 -0.110035375
000150 ce db 7d 3e 0f 34 a3 be 24 0e af bd 86 27 a9 3e
       0.2479088 -0.31875655 -0.08547619 0.33037966
000160 29 cd 90 3d 1f 80 87 be 24 50 8c 3e 79 e3 b8 be
       0.07070381 -0.26464936 0.27404892 -0.36111048
000170 ca b1 98 3e 24 78 34 be ce 65 25 3e 4e 91 a6 3e
       0.29823142 -0.17623955 0.16152117 0.32532734
000180 0b 0c c5 3e 71 01 0b 3e 02 08 44 3e 47 2b da bd
       0.3848575 0.13574769 0.1914368 -0.10652786
000190 44 b7 db bd 67 59 ca be 0f 28 50 3e ca 81 b7 3d
       -0.107283145 -0.39521334 0.20327781 0.08960302
0001a0 c4 ea 05 3e 9a 66 8d be 9b 90 db be a7 49 69 3e
       0.13077837 -0.2761734 -0.42883763 0.22782002
0001b0 a0 95 53 be 93 fc 10 be fd 3c 04 3e 9e ae 2c 3e
       -0.20662546 -0.1415885 0.1291389 0.16863486
0001c0 a8 a8 d4 be 41 ae e7 bd 37 2a bd 3e 4e e5 a0 3d
       -0.41534925 -0.11312533 0.3694627 0.078562364
0001d0 c3 52 81 be ea 12 ae 3e e1 7c d0 be d5 07 35 3d
       -0.25258455 0.33998805 -0.40720275 0.044196922
0001e0 28 46 c9 3d 68 e8 21 3d 5f 85 c8 3e a7 c5 a5 3d
       0.09827834 0.03952828 0.39164254 0.0809434
0001f0 3b 31 90 be c7 a1 83 bd 79 6a 3b be a2 40 b8 3e
       -0.2816256 -0.06427341 -0.18302335 0.3598681
000200 b9 13 68 3d 8a 39 c7 be 88 8d 1a 3c 7a 91 9b 3b
       0.056659434 -0.38911086 0.009433158 0.0047475668
000210 a4 f6 d2 3c 55 dc d8 3d 34 81 71 3e 38 75 b0 be
       0.025752373 0.105889 0.23584443 -0.3446443
000220 52 68 08 3e 89 82 5b be 6b 77 92 3e 50 bd 72 be
       0.13321045 -0.21436514 0.28606734 -0.2370503
000230 c5 cb 9c be 96 fe 7e be 78 43 81 3e 0d e0 a7 bd
       -0.30624214 -0.24901804 0.25246787 -0.08197031
000240 65 67 c1 3e cc 7d b9 be 7d c8 0d 3e 69 da 1d be
       0.37774196 -0.36228788 0.13846011 -0.15415348
000250 1b 31 81 3d 87 1c 8c 3e 6a 1e 61 3e 44 e0 ce be
       0.06308194 0.27365515 0.21984258 -0.40405476
000260 a8 5c 80 bd 41 94 37 3e 77 5b dc be e4 d7 a2 be
       -0.06267673 0.17927648 -0.43038532 -0.31805336
000270 1b 3d dc be 0f 97 72 3d a6 ba bc 3d 37 8d 38 be
       -0.4301537 0.059226092 0.09215288 -0.18022619
000280 a9 e9 32 3e bf 47 92 3d c7 07 43 3e cd 40 c2 3e
       0.17471947 0.07142591 0.19045936 0.37940064
000290 e4 4d 94 be 1b 26 a9 be 46 b8 d5 3e 46 a5 66 be
       -0.28965676 -0.33036885 0.41742152 -0.22523984
0002a0 77 2b 9c 3e 6c a2 0f be c3 bc b2 bd 7c be 45 be
       0.3050191 -0.14026803 -0.0872741 -0.19310945
0002b0 81 fb 0c 3e 27 5d e4 bc e5 12 b4 3e 82 1c d9 be
       0.13767816 -0.02787645 0.35170665 -0.42404562
0002c0 03 07 26 bc cf a2 8b 3d aa b4 13 3e b7 22 ac 3e
       -0.010133508 0.06818163 0.14424387 0.33620235
0002d0 b3 39 19 3e fc ca bd be e5 74 82 3d 98 fa 3b be
       0.14963417 -0.37068927 0.06369952 -0.18357313
0002e0 d0 29 88 3e f6 f0 3c be df 01 45 bd 22 72 e3 3d
       0.265944 -0.18451294 -0.048097488 0.111057535
0002f0 58 47 93 3e ee b3 54 be 54 4f a7 3e e3 27 9c be
       0.28765368 -0.20771763 0.3267771 -0.3049918
000300 c2 0f d3 bd b7 02 8b be ac f6 bb 3d 6d a0 b3 be
       -0.1030574 -0.2715051 0.09177908 -0.35083333
000310 3a 2d 8f bb cf 52 99 be 0c b1 8e 3e 1f ef c8 be
       -0.004369405 -0.2994599 0.2786945 -0.39244935
000320 fc 77 42 be 4e 2d bc be 14 b8 8b be e4 69 ff 3c
       -0.18991083 -0.36753315 -0.27288878 0.031178422
000330 79 b5 52 3e da a7 5d 3e c0 0a af be 72 72 9d bd
       0.20577039 0.21646062 -0.3418789 -0.07687844
000340 eb 88 b9 bd 79 49 36 3e 33 18 46 bd 55 38 69 bd
       -0.09059318 0.17801465 -0.048362922 -0.056938488
000350 2f 96 8a be 91 62 9c be 85 6a cb bc b4 d1 50 3e
       -0.27067706 -0.3054395 -0.024831066 0.20392495
000360 8b 0c 5c be 74 37 b4 3d 69 ce 54 3e c8 fd 20 be
       -0.2148916 0.08799639 0.20781864 -0.1572181
000370 a5 a1 c6 3e 17 83 c9 3e 9d 83 82 3e 46 34 3d 3e
       0.387952 0.39357826 0.25491038 0.18476972
000380 4f ea af be 7e f2 71 3e 6c 96 39 bd dd ad aa 3e
       -0.3435845 0.2362766 -0.04530947 0.33335772
000390 ba 22 b6 be 22 bb 2a bc dd fa cb 3e b9 f5 ae 3d
       -0.3557337 -0.0104205925 0.3983983 0.085429616
0003a0 73 e5 10 3e 41 dd 57 3b 28 a5 4c be ae 1b 5b 3e
       0.14150028 0.0032938274 -0.19984877 0.21397278
0003b0 72 5c b1 3e b9 07 73 3e 25 75 92 be 40 28 95 be
       0.34640843 0.23733415 -0.28605 -0.2913227
0003c0 d8 7b d6 3e 39 6d 6f bd c9 b0 34 3e 2c d1 fb 3d
       0.4189136 -0.058453772 0.17645563 0.12295756
0003d0 7f 07 8c be 77 96 bc 3e 12 1c 95 3d e6 b2 54 be
       -0.2734947 0.36833546 0.072807446 -0.2077137
0003e0 96 53 d1 3e c4 4c 0e 3e 6e 4e cf 3d 7d 18 98 be
       0.40884084 0.13896471 0.10122381 -0.29706183
0003f0 e4 94 c0 3e 8f 9e 60 be 38 9e 1f be 2d 27 d7 be
       0.37613595 -0.21935485 -0.155877 -0.42022076

bias f4 [16]
000000 00 00 00 00 00 00 00 00 9f 56 5b bb 00 00 00 00
       0.0 0.0 -0.0033468378 0.0
000010 eb 7f 54 bb 0d ac 8a 3c 00 00 00 00 b1 68 74 bb
       -0.0032424878 0.016927743 0.0 -0.0037293846
000020 59 8c 36 3b ce 57 c6 ba dd 76 d0 3b 72 dd 89 3b
       0.002785465 -0.0015132369 0.006361826 0.0042073065
000030 00 00 00 00 3e 0e 7c bb 92 f8 ad 3b 3a 97 87 bb
       0.0 -0.0038460637 0.005309173 -0.0041379007

weight f4 [16, 16]
000000 2a ce f5 3d 09 59 7b be 75 ac c4 be 39 d5 9b 3e
       0.12002213 -0.24545683 -0.38412824 0.30436113
000010 0c 40 ca be de b9 b7 bd 2c 22 27 be e5 f8 ff 3c
       -0.3950199 -0.08970998 -0.1632163 0.031246612
000020 7b 0d 82 3d 55 d7 c3 3e 39 a0 06 3e 5d 74 0f be
       0.063502274 0.38250223 0.13147058 -0.14009233
000030 ac b0 83 be 17 6e eb bd ea f5 74 3e e1 c7 d5 be
       -0.25720727 -0.11495607 0.23921934 -0.41754058
000040 e2 b9 28 3e 2f 28 e8 bc c5 be 4f be c9 f7 91 3e
       0.16477159 -0.028339474 -0.20287617 0.28509358
000050 9a 84 60 3e 11 d6 75 3c fd e6 5a be 79 eb 86 be
       0.21925583 0.015004651 -0.21377178 -0.26351526
000060 9d b1 ee bd 72 51 89 be a1 84 9a bd 7f 20 15 3e
       -0.11654971 -0.2681995 -0.07544828 0.14563178
000070 72 ed 41 bd 04 92 66 3d 84 c9 21 be 15 5d f3 bd
       -0.047345586 0.056291595 -0.15799528 -0.11882988
000080 b2 46 81 3e 98 69 58 bd 66 58 d5 3d c2 f5 98 be
       0.2524925 -0.052835077 0.10417251 -0.29874998
000090 f5 c7 82 be df bb ad 3e 37 3a 5a bc 76 a9 d5 3e
       -0.2554318 0.33932397 -0.013319544 0.4173085
0000a0 59 2f 1a be af f2 69 3e 27 a5 3b 3e 87 f7 c0 be
       -0.15057124 0.22846483 0.1832472 -0.37688848
0000b0 89 d5 7a be fc d5 b8 3e 3f 93 18 be c1 b4 ce be
       -0.2449552 0.36100757 -0.1489992 -0.4037228
0000c0 1b 4c a4 3e 05 c7 d2 3e 0a fc 8d 3e 32 57 8d 3e
       0.32089314 0.41167465 0.27731353 0.27605587
0000d0 d3 6f 0a be 7c b1 c0 3e bd 27 44 be 2b d8 2d 3e
       -0.1351922 0.3763541 -0.19155784 0.16976993
0000e0 ad 0c d7 be f0 03 c4 3e 32 0b a6 be 1d ab d0 be
       -0.42001858 0.38284254 -0.32430416 -0.4075555
0000f0 df 31 37 3e ef b9 bd 3e 29 24 b6 be 65 f5 d4 3e
       0.17890118 0.3705592 -0.35574463 0.4159347
000100 e8 b3 97 3d 3e a7 60 3e 6b dc af 3d 77 b5 dc be
       0.07407361 0.21938798 0.08586963 -0.43107197
000110 02 f1 bd 3e ed e5 a8 3e 35 67 69 3e 7a 0c 39 3b
       0.37097937 0.3298792 0.22793277 0.0028236196
000120 86 b0 2e 3e 52 37 b0 3c b1 c6 08 3e be 25 5b bd
       0.17059526 0.021510754 0.13357045 -0.05350279
000130 84 3a d0 3e 8a 37 15 be fe 53 8f bd 84 8a 00 3e
       0.40669644 -0.14571968 -0.06998442 0.1255284
000140 26 80 c4 3e 46 c7 77 be d1 a4 40 be 3a 42 c3 be
       0.3837902 -0.2419711 -0.18812872 -0.38136464
000150 d1 9c a7 3e ce 3c cf 3e 0b e9 b0 3d 65 3e b8 be
       0.3273683 0.40476078 0.086381994 -0.35985103
000160 04 b4 ac be 6d c2 ae 3e a2 29 f0 3c 96 70 c3 3d
       -0.3373109 0.3413271 0.029316727 0.095429584
000170 24 03 83 be 9e 6e b7 be 13 ec 5f be ad c5 d4 be
       -0.25588334 -0.35826582 -0.21867399 -0.41557065
000180 d5 8f 9a 3e 70 b4 1f 3e 1b 24 b7 be 0c 97 dc 3e
       0.3018786 0.15596175 -0.35769734 0.4308399
000190 0c 06 cc bd e1 91 5e 3e 48 fb bd 3d 9c 04 1d 3e
       -0.09962091 0.21735336 0.09276444 0.1533379
0001a0 21 ba 21 bd b5 5b 48 bd c8 be 4c be d4 20 09 3e
       -0.039484147 -0.048915584 -0.19994652 0.13391429
0001b0 ca 06 37 3d 67 b8 9d 3e 66 dd a6 be 7d 24 2f 3e
       0.04468421 0.3080475 -0.3259079 0.17103763
0001c0 54 cc 0c 3e b5 3f 4d 3c 7f 13 7b be 45 a9 5f be
       0.1374982 0.012527396 -0.24519156 -0.21841915
0001d0 da bf a6 3e 85 af 98 3e d9 97 32 3e bc 72 d2 be
       0.32568246 0.2982141 0.17440738 -0.4110316
0001e0 2c 60 93 be d6 f7 12 3e fe ae d7 3e 1e ed d2 be
       -0.2878431 0.14352354 0.42125696 -0.4119653
0001f0 43 2f d9 3d f7 6a d1 be b8 d6 d4 be ba 8e a7 be
       0.106047176 -0.4090192 -0.41570067 -0.3272608
000200 2c 37 5a be b1 9f 86 be c8 64 80 be 4a ab 15 3d
       -0.21310109 -0.2629371 -0.2507689 0.036540307
000210 18 e9 bd bd bc b6 82 3e df 18 ca 3d a8 7f 30 be
       -0.09272975 0.2553004 0.09868025 -0.17236197
000220 01 31 96 be 9a 4e a8 3e 7e 68 c0 bb f1 8c ba 3d
       -0.29334262 0.32872468 -0.0058718314 0.09108914
000230 ac 54 50 3e 87 e7 b0 bd 34 27 62 be 96 f7 73 3c
       0.203448 -0.0863791 -0.22085267 0.014890572
000240 89 a7 7e be 81 8b 5b 3e 2c 09 23 3e 66 2b 5a be
       -0.24868597 0.21439935 0.15921468 -0.21305618
000250 d7 8a 0d be a9 e1 b9 3d 41 fb 7b 3d 58 ce 84 3d
       -0.13822494 0.090762444 0.06151891 0.064846694
000260 69 7e 5c be ae 62 af 3d f5 1d 3d be 1b d8 b9 3d
       -0.21532597 0.085637435 -0.18468459 0.09074422
000270 29 dd 96 3c a5 53 b1 3c cf e2 34 be 33 88 b2 be
       0.018416004 0.02164633 -0.17664646 -0.34869537
000280 52 01 9d be 49 ba c9 3d 76 68 44 3e b1 0f d1 bd
       -0.3066507 0.09849984 0.19180474 -0.10208071
000290 7a a8 9a 3e a7 d6 17 be 1c 8e 6c 3e 73 12 b6 3d
       0.30206662 -0.14827977 0.23101085 0.08890238
0002a0 aa b7 c6 3e 29 dd a4 3e 40 25 ff bd 77 9a 78 3c
       0.38812 0.32199982 -0.12458277 0.015173546
0002b0 7b b7 a7 be 21 ed 81 3e 78 f9 c4 bd 51 f6 ad be
       -0.32757172 0.25376227 -0.09617895 -0.33976987
0002c0 31 9f 36 be 4e fd c6 be 3f a0 f3 bd c2 bd 14 be
       -0.17834164 -0.3886513 -0.11895799 -0.14525512
0002d0 59 0d d6 be 88 ae e9 3d dd 2a a2 be 2d 02 c0 3d
       -0.41807058 0.11410242 -0.31673327 0.09375415
0002e0 1f b9 51 be e5 56 26 3d fb 59 4d be a1 75 99 bd
       -0.20480774 0.040610213 -0.20053856 -0.07493139
0002f0 0a b8 08 3d 7e 65 3f 3e ea cd 14 3e 89 0d ac 3e
       0.03337864 0.1869106 0.14531675 0.33604077
000300 2c 4e cb 3e 98 4e d2 be f2 1f d9 bd b0 91 46 3e
       0.39708078 -0.41075587 -0.10601796 0.19391513
000310 d1 65 2c be 16 0b 02 be fb 1e 90 be 89 22 a6 3d
       -0.16835715 -0.12699541 -0.28148636 0.08112056
000320 a0 f7 01 be 13 3c 83 bd 72 72 68 3e 55 50 9d 3e
       -0.12692118 -0.064079426 0.22699907 0.3072535
000330 70 45 95 be ce 65 b8 be 1f 80 36 3e 5e e2 98 be
       -0.2915454 -0.3601517 0.17822312 -0.29860204
000340 09 d2 3a bd 43 5c 8f 3d 21 dd db be 4c 36 af 3e
       -0.04561046 0.070000194 -0.42942145 0.34221113
000350 b4 bf 04 3e 5d 5d 2a 3d 24 ca 12 3d 82 2d b8 be
       0.12963754 0.041592944 0.035837308 -0.3597222
000360 d4 bf 6a 3e bf ae 20 be 22 80 98 be ea ac 92 bc
       0.22924739 -0.1569166 -0.29785258 -0.017904717
000370 c1 e7 ad 3e 8f e7 a0 be 80 8d 9e bd 86 3f 2c 3e
       0.33965877 -0.31426665 -0.07741833 0.16821107
000380 c4 46 b3 be af 7a b8 3e 05 03 83 3c 45 9c 88 bb
       -0.35014927 0.360311 0.01599265 -0.0041690194
000390 54 21 09 3e da f1 3a bc 8c cc 5f 3e 74 a9 96 3e
       0.1339162 -0.011410201 0.21855372 0.29426157
0003a0 d1 32 db be 5c b9 bf 3e 40 47 d5 3e 8a 80 b5 bd
       -0.42812207 0.37446105 0.41655922 -0.088624075
0003b0 d7 80 d8 3d ee 8a 88 3e 0f 9c d3 3e 3d dd 08 3e
       0.10571449 0.26668495 0.4133 0.13365646
0003c0 fd 2b 6b 3e 6b 47 9b be f6 57 d7 be 01 53 07 3e
       0.22965999 -0.30327925 -0.42059296 0.13215257
0003d0 6f c1 d9 3d 22 55 ff bd 10 b6 94 be 8b 72 bf bd
       0.10632598 -0.1246741 -0.29045153 -0.09348019
0003e0 2d e0 82 be 7b 9a 5d be 8a 52 f8 3d 61 97 e9 bc
       -0.25561658 -0.21640961 0.12125118 -0.028514566
0003f0 a2 36 b1 bc 1f 40 af bd 84 7d 85 be 6c 13 d5 3e
       -0.021632496 -0.08557152 -0.26072323 0.4161638

bias f4 [16]
000000 00 00 00 00 00 00 00 00 80 8f 7e bb 22 cb 7f bb
       0.0 0.0 -0.0038842857 -0.0039030989
000010 c5 3c 70 bb 00 00 00 00 00 00 00 00 00 00 00 00
       -0.0036657315 0.0 0.0 0.0
000020 00 00 00 00 00 00 00 00 23 da 3b 3b 73 aa 2d 3b
       0.0 0.0 0.0028663955 0.00264993
000030 00 00 00 00 00 00 00 00 f1 60 65 ba 00 00 00 00
       0.0 0.0 -0.0008750102 0.0

weight f4 [16, 16]
000000 56 ff 83 3e 7a b8 09 be 78 75 f4 3d a9 cb b5 3e
       0.25780743 -0.13449278 0.11936468 0.35506943
000010 8a 92 87 be 1b e3 55 be ed a2 a9 be 36 23 67 be
       -0.26478988 -0.20887415 -0.33132115 -0.22572026
000020 83 fc d9 bb 30 96 61 3e 92 3f c9 3e 04 ef ba 3e
       -0.006652416 0.22029948 0.39306313 0.3651048
000030 7c 49 7f 3e 49 5a 90 3e 46 36 dc bd d8 65 a9 3e
       0.24930376 0.28193882 -0.10752539 0.33085513
000040 c9 d8 98 bd bf 6d 85 bd 87 0f b4 3d 28 86 cc 3d
       -0.074632235 -0.06515073 0.08792024 0.09986526
000050 35 21 a2 be 02 92 71 bc be fb d2 be 44 1b a6 be
       -0.3166596 -0.014744284 -0.4120769 -0.32442677
000060 3a 44 fb 3d 7f 7f b7 3e da ef a4 3d 1a d9 98 be
       0.122688726 0.3583946 0.080535606 -0.29853135
000070 d1 0b 85 3e 93 27 aa be 6c d9 dd 3d 5d c1 9d 3d
       0.25985578 -0.33233318 0.108324856 0.07702897
000080 d6 66 d0 3e a9 33 d1 3c 02 68 8f be 82 e9 ae 3e
       0.40703458 0.025537329 -0.2800904 0.34162527
000090 05 5e a5 3d 35 27 22 be bd 5e d9 be f4 41 40 be
       0.080745734 -0.15835269 -0.42455092 -0.18775159
0000a0 15 a8 a2 3e 21 37 90 3e b5 a0 bc bc fe bf 46 be
       0.3176886 0.2816706 -0.02302585 -0.19409177
0000b0 4b 93 79 bd 8c cb b1 3e a6 ee 8e 3e 73 79 24 bd
       -0.060931485 0.34725606 0.2791645 -0.040154886
0000c0 c4 f1 22 3e f8 c8 5e bb 91 79 27 3e 01 95 0d 3e
       0.15912539 -0.0033994298 0.16354968 0.13826372
0000d0 09 72 95 3e cb 5d b5 be 6d fe a9 3c 9e 32 25 bd
       0.29188564 -0.3542312 0.020751202 -0.040331475
0000e0 30 58 ae bd a2 95 8d be 26 06 0d 3e 64 93 7d 3e
       -0.08512914 -0.27653223 0.13771877 0.24763256
0000f0 9b c1 c1 bc ab 0b 48 be b4 e7 00 be c1 49 77 bd
       -0.023651889 -0.19535701 -0.12588388 -0.06037307
000100 5b 10 73 3d 32 82 c1 3e 36 cf f9 bb 36 da 3d bc
       0.05934177 0.37794644 -0.0076235784 -0.01158767
000110 c5 5d 87 be 09 7a 92 3e 9c 6c ac 3d cf 0c c9 3e
       -0.26438728 0.2860873 0.08419153 0.39267585
000120 66 ff 2e be 2b 64 60 3d 8c 15 0a 3e 8b 7b af 3e
       -0.17089614 0.054783028 0.13484782 0.34273943
000130 c0 62 2a 3e a6 c6 72 3e e0 03 f7 bb fd 48 54 be
       0.16639233 0.23708591 -0.0075383037 -0.20730968
000140 21 3b d1 3d a9 a0 66 3e 9d d2 95 be fb 34 a4 bd
       0.10216356 0.22522224 -0.29262248 -0.08017918
000150 c3 47 9f be f9 ca 42 be c0 7b 40 be 1e 02 05 3d
       -0.31109437 -0.1902274 -0.18797207 0.032472722
000160 1e 25 61 3e b6 88 40 3e ca 0d 9f 3e ce 92 83 3e
       0.21986815 0.18802151 0.31065208 0.2569794
000170 96 0b d0 bc 45 ce a8 be 6d 20 1c 3d c8 17 8e be
       -0.02539615 -0.3296987 0.03811686 -0.2775252
000180 1d 96 a3 3e f5 7d d9 be 37 bd 0f be 87 13 bb 3c
       0.31950465 -0.4247891 -0.14037023 0.02283646
000190 a5 30 85 be 03 e5 9d be e6 4c 01 be 25 64 bf be
       -0.26013675 -0.30838785 -0.1262699 -0.37381092
0001a0 ad 81 c8 3d d8 f6 9e be 1e 85 6d 3e 14 56 97 be
       0.09790359 -0.31047702 0.23195311 -0.2955786
0001b0 a9 39 b2 be 15 c4 03 3e 49 b9 c8 be d8 5e da 3e
       -0.34809616 0.12867768 -0.3920386 0.42650485
0001c0 e6 d9 8a 3e 5c 7a 77 be a5 6d 57 3e 1b 6a d6 3e
       0.27119368 -0.2416777 0.2103792 0.41877827
0001d0 46 e4 95 be 2a d3 8e 3e 52 f0 ee 3d e0 ac bf be
       -0.2927572 0.2789548 0.11666931 -0.3743658
0001e0 d4 eb c7 bd 19 5c 5a bd 33 07 9a be fc c7 d9 bd
       -0.097617775 -0.053310487 -0.30083618 -0.10633847
0001f0 3a 49 80 3e b6 7d a6 3e 3a ac 43 3d bb 61 17 be
       0.25055867 0.32517785 0.04777167 -0.14783375
000200 6f 75 d3 be 1c bc 95 be 57 1e 86 bc 1d 16 23 3c
       -0.41300532 -0.2924508 -0.016371889 0.009954003
000210 44 e7 1d 3e fe db 1d bd 90 28 c9 be 5f d7 88 be
       0.15420252 -0.03853988 -0.3928876 -0.26726815
000220 65 85 d4 bd 13 e0 97 3e e0 4c df 3d c8 ef 80 bc
       -0.103770055 0.29663143 0.109033346 -0.015739337
000230 bc ac c8 be a8 3a b5 be cd a7 02 3d 19 70 99 be
       -0.39194286 -0.35396314 0.03189831 -0.29968336
000240 58 d5 c3 3e 62 e7 dc be 8c 84 63 be 5e b8 d0 be
       0.38248706 -0.4314528 -0.22218531 -0.4076566
000250 69 96 b3 3e c3 ac bf 3e 50 ff 5e 3e 33 0d 84 be
       0.3507569 0.37436494 0.21777081 -0.2579132
000260 ea bb bc be 67 e7 d0 be a2 29 62 3e bd fb 90 3d
       -0.36862117 -0.40801546 0.22086194 0.07079265
000270 7d cd 70 3e 54 b6 1c 3e 74 24 bd 3e d0 25 dc 3e
       0.23515888 0.15303928 0.36941874 0.429976
000280 81 c0 82 3e 35 7d c2 3d 50 54 92 be 39 ce d7 be
       0.25537494 0.094965376 -0.2857995 -0.42149523
000290 9e 93 c5 3e ca 8e f7 3d 5b 5a cf 3e da b0 58 be
       0.38589185 0.12087782 0.40498623 -0.21161214
0002a0 fb 08 75 bd 69 8b af be dd 65 28 3e 1a 4e ae 3e
       -0.059823018 -0.3428605 0.16445108 0.34043962
0002b0 2a f9 d0 3e 5a 05 27 3d 53 f9 14 be 1a 37 95 3e
       0.40815097 0.040776588 -0.14548235 0.29143602
0002c0 b1 0b 4f 3e ce 12 81 3e 30 74 4b be c1 ae 49 3d
       0.20219304 0.2520966 -0.19868541 0.049238924
0002d0 10 e0 e0 bd 74 b7 b1 bd 2d 23 1d be a3 33 cd 3d
       -0.109802365 -0.08677569 -0.1534545 0.100196145
0002e0 84 52 19 3e 3c 0a 92 3d 45 e0 37 bd a8 4a b2 be
       0.14972883 0.07130858 -0.044891614 -0.34822583
0002f0 86 33 15 be a1 fa b7 3e d8 85 97 be cc d5 d1 be
       -0.14570436 0.35933402 -0.29594302 -0.40983427
000300 03 b0 d8 bd d2 7d 14 3e 21 71 a4 be 99 56 0b 3e
       -0.105804466 0.14501122 -0.3211756 0.13607253
000310 5a 47 71 be fa 3e 38 be c0 ed 84 be d9 28 01 bb
       -0.23562375 -0.17992774 -0.2596264 -0.0019708185
000320 9e 40 b1 be fd cf b9 bd 38 65 4d be ea 76 b9 3e
       -0.34619612 -0.09072874 -0.20058143 0.36223537
000330 27 87 5c be 27 73 c7 3d 45 db 83 be 82 47 5b 3e
       -0.21535932 0.097387604 -0.25753227 0.21413997
000340 94 4c c4 be 89 5d 43 be 56 69 55 3e 57 74 af 3e
       -0.38339674 -0.1907865 0.20840964 0.34268448
000350 5d 4f 25 3e d9 30 89 be ee 3c 4c 3d 4b 36 36 bc
       0.16143556 -0.2679508 0.049862795 -0.011121343
000360 dd 88 a5 3e 0e 7d f5 bd a3 39 95 be 10 23 88 3e
       0.3233098 -0.11986743 -0.29145536 0.2658925
000370 e6 16 21 3e cf cb 4e be 25 87 b4 3e 44 96 78 3e
       0.15731391 -0.20194934 0.35259357 0.24276072
000380 54 0e cc be 4b 09 94 3e 9c e3 4e be a1 ea d5 bd
       -0.39854681 0.2891334 -0.20204014 -0.104451425
000390 8a cb 8a 3e 69 9f 0b 3d cb 8d d2 3e e7 bf c0 be
       0.27108413 0.034087572 0.41123804 -0.3764641
0003a0 54 ae 42 3e 74 20 74 3d f3 dd ea bd ac da 0c be
       0.19011813 0.059601262 -0.11468115 -0.13755292
0003b0 1d 7b 29 3e 67 4c a0 3e 8d 08 d7 be fe 9c 35 3e
       0.1655087 0.3130829 -0.4199871 0.17735669
0003c0 35 7b 9c be af 90 9f 3b fb c8 7a be 60 55 2e 3d
       -0.3056275 0.0048695426 -0.2449073 0.04256189
0003d0 19 2f ca be d1 e4 49 3e 6d 9a 9b be 8e 1b 8d 3e
       -0.39489058 0.19716193 -0.30391255 0.27560085
0003e0 51 8e a8 be 4d c4 a5 3e 9f d7 87 3e 16 e3 dc be
       -0.3292108 0.32376328 0.26531693 -0.43142003
0003f0 d3 c4 bd be 61 01 4a be 7f 75 98 be c7 19 dc be
       -0.37064227 -0.19727089 -0.29777142 -0.42988417

bias f4 [16]
000000 48 a1 33 3b 1c b7 db 3b 64 ae 81 bb 6b e5 b2 bb
       0.0027409364 0.006705178 -0.0039575566 -0.0054594777
000010 00 00 00 00 00 00 00 00 00 00 00 00 73 f3 74 bb
       0.0 0.0 0.0 -0.0037376552
000020 4a ae cd 3b e5 a8 58 3b 00 00 00 00 00 00 00 00
       0.0062768804 0.0033059653 0.0 0.0
000030 00 00 00 00 08 26 c2 38 00 00 00 00 00 00 00 00
       0.0 9.257725e-05 0.0 0.0

weight f4 [16, 16]
000000 e3 d7 a5 bb 38 45 8f be 24 39 1f 3e af 8d c5 be
       -0.005061136 -0.27982497 0.15549141 -0.38584659
000010 8c 70 81 be 41 7a 3a 3e 05 2e 20 3e 98 e4 a8 3e
       -0.2528118 0.18210699 0.15642555 0.32986903
000020 a8 31 ba be a7 d7 ab be d7 c4 37 be 5c 72 6f 3d
       -0.3636601 -0.33562967 -0.17946182 0.05845867
000030 e8 10 1a be 7d 93 f1 3d a7 2a a7 3e 4f 7e ea 3d
       -0.15045512 0.11795709 0.3264973 0.11449873
000040 c1 39 a6 3e 2e 52 d4 3d bf 93 36 3e 91 ff b4 be
       0.32465938 0.10367237 0.17829798 -0.35351232
000050 60 08 9e bd 1f 19 b5 3e de 6b 2c be b3 e8 1d be
       -0.07716441 0.35370728 -0.16838023 -0.15420799
000060 62 57 43 be 06 78 1c 3e f5 1b c6 3e 70 88 35 3e
       -0.19076303 0.1528016 0.38693205 0.17727828
000070 74 20 c6 3e c3 64 9b 3e d2 d6 72 bd 39 49 17 be
       0.38696635 0.30350313 -0.0592869 -0.14774026
000080 23 1b 15 be dd 25 38 3e fe 8d 92 3e d7 68 d5 be
       -0.14561133 0.17983194 0.28623956 -0.4168155
000090 47 e3 52 be 98 81 d5 be 48 18 85 be 71 63 ae 3e
       -0.20594512 -0.41700435 -0.25995088 0.34060243
0000a0 33 ef c6 3e fa 86 90 be 1b b9 5d be 28 f2 10 3e
       0.3885437 -0.2822798 -0.21652643 0.14154875
0000b0 f8 43 26 3e 52 08 2c 3d b2 5f a3 bd d3 cd 63 be
       0.16236866 0.042000122 -0.07977237 -0.22246484
0000c0 56 b1 c9 be ea ba 00 be d2 0b b6 be 61 ae c0 3e
       -0.3939311 -0.12571302 -0.35555893 0.3763304
0000d0 2c dd bf 3e 8a ef 9e be a0 93 3f 3e a7 cd a0 3e
       0.37473428 -0.3104213 0.18708658 0.314069
0000e0 06 16 b6 3e 94 82 b1 3e 5e 13 9d be 9e c9 ad 3e
       0.35563678 0.34669936 -0.30678838 0.33942884
0000f0 22 08 d2 3e d2 c1 bf 3c b3 98 56 3e 9b fa 30 be
       0.4102183 0.02340785 0.20956688 -0.17283098
000100 54 f6 dc 3e 12 fd c9 be f1 2e 89 be 09 c9 99 3d
       0.43156683 -0.3945089 -0.26793626 0.075090475
000110 27 c6 41 be 19 57 22 be 47 b3 20 3e 19 0b 7e 3e
       -0.18923245 -0.15853538 0.15693389 0.24808921
000120 15 16 91 3e 86 d9 bc 3e 16 16 5f 3e 52 e0 41 be
       0.2833716 0.36884707 0.21785769 -0.18933228
000130 b2 07 1d 3e 6a a6 86 be a9 48 82 3e 22 c1 3c 3e
       0.15334967 -0.2629884 0.2544606 0.1843305
000140 64 67 be 3e 24 13 83 3e a1 25 cc 3e 3c 39 b6 bd
       0.37188256 0.2560054 0.3987246 -0.08897635
000150 ae d7 be be fe 73 b0 3e a5 2c c8 be ab ec 7d 3d
       -0.37273926 0.34463495 -0.3909656 0.061993282
000160 ba 85 93 3d f3 71 98 3d c3 a6 9a 3e a8 e6 b7 3d
       0.07203241 0.07443609 0.30205354 0.08979541
000170 27 bf 1c be c1 67 bb bc 37 b9 da be c0 c0 95 be
       -0.15307294 -0.022876622 -0.42719433 -0.2924862
000180 4e 3f f1 bc b5 9a c8 3e 66 6e dd bd db 2f 69 3e
       -0.029449131 0.39180532 -0.108120725 0.22772162
000190 7c 98 8f be 65 65 af be a3 a7 4e 3e bd 2f 7d 3e
       -0.28046024 -0.34257045 0.20181136 0.24725242
0001a0 65 18 e1 bc ef f3 a4 3e f2 5a 2b 3e a7 4c 5e 3e
       -0.027477453 0.32217357 0.16733912 0.21708928
0001b0 d8 51 ac 3d e2 97 db 3e 2c f4 ab be d5 26 ad bd
       0.08414048 0.42889315 -0.33584726 -0.08454672
0001c0 79 c8 90 be b7 1a 87 be ef 7d b2 3d ec 8c 43 bd
       -0.28277948 -0.2638757 0.08715426 -0.047741815
0001d0 f8 12 23 bd 09 bd 2d 3e 1a b6 c9 3e 08 e0 c9 be
       -0.039813012 0.16966642 0.39396745 -0.39428735
0001e0 b4 5b 09 be 1c 3c 29 bd d1 ad 7c 3e b6 4f 3a be
       -0.13413888 -0.04131709 0.2467568 -0.1819447
0001f0 a5 4d ce be 9e 91 2e be 5a 4f 71 be 26 21 d2 be
       -0.40293613 -0.17047736 -0.23565426 -0.41040915
000200 77 93 9c be e2 16 29 be 70 04 1c 3e 80 4f 75 be
       -0.30581257 -0.16512635 0.15236068 -0.23956108
000210 0e 48 09 be 94 be b6 be 39 f8 81 be 31 1a 93 bd
       -0.13406393 -0.35692275 -0.2538469 -0.0718273
000220 51 66 48 be 2c 39 0f bd ed e9 00 3e d8 85 6c 3d
       -0.1957028 -0.034966633 0.12589236 0.05774483
000230 ba 97 7d be cd 14 8a bc 20 60 13 3d ff 03 0d 3d
       -0.2476491 -0.016855622 0.035980344 0.03442764
000240 49 f3 35 3e aa 90 eb bd 7f b7 bf be 00 d6 0d be
       0.17768587 -0.11502202 -0.37444684 -0.13851166
000250 9c f4 e6 bd bf 91 d1 be db 52 9e 3c 0f 5d 12 be
       -0.11277124 -0.40931508 0.019326618 -0.14293312
000260 dc 7f a1 3e aa e5 9c 3e 71 32 97 3e 08 6b 49 be
       0.3154286 0.3064397 0.2953067 -0.19669735
000270 e7 2d 33 3c 84 fd cd 3e c0 15 c6 be c8 63 2b 3e
       0.010936237 0.4023248 -0.3868847 0.16737282
000280 d5 77 35 be 64 32 2f be 52 d4 6f 3e f1 ca de bc
       -0.17721494 -0.17109066 0.23420838 -0.02719638
000290 7b 5a bc bd 3a b1 83 3e 4a 36 09 be 6d e5 b1 3e
       -0.09196945 0.2572115 -0.13399616 0.3474535
0002a0 91 3b b8 3c c6 05 2f 3e 36 cb c2 3e 3d 2f 28 be
       0.022489341 0.17092046 0.38045663 -0.1642427
0002b0 f0 0f 66 3e 77 f5 9a 3d b9 e7 bd be fa 5d dd 3e
       0.22467017 0.0756635 -0.37090853 0.4323576
0002c0 1d 1e 93 3e 96 d2 90 3c d8 a4 2b 3e a6 26 03 be
       0.28733912 0.01767854 0.16762102 -0.12807712
0002d0 9d e0 55 bd fb 59 51 bc 8d 6f f8 3d 58 40 b5 3d
       -0.05221616 -0.012777801 0.121306516 0.08850163
0002e0 54 34 d4 3e 8e d9 b6 3e 5a 1c 79 3e a5 ec 36 be
       0.41446173 0.35712856 0.24327222 -0.1786371
0002f0 50 6e 5f be 6b 2d b2 be 12 6a 49 3e 05 f5 ad 3e
       -0.21819425 -0.34800276 0.19669369 0.33975998
000300 f3 14 f1 3d c5 90 af 3e c5 6e a3 be c5 8b d7 be
       0.11771574 0.34290138 -0.31920448 -0.42098823
000310 30 1a 24 3e 3d f9 57 be eb a0 b1 3e 04 f0 62 bc
       0.16025615 -0.2109117 0.34693083 -0.0138511695
000320 9c 25 6f 3d 44 73 0f 3e 91 8f af be 32 93 b0 bd
       0.058385476 0.14008814 -0.3428922 -0.08621825
000330 04 68 93 3e 71 0e 12 be d1 c4 cf 3d 9f 8d 69 be
       0.28790295 -0.14263321 0.101449616 -0.2280793
000340 e7 51 95 3d 50 cc 5c be 0b ea ca bd 52 cb 70 3e
       0.07291012 -0.21562314 -0.099079214 0.2351506
000350 01 07 37 bc 4d 07 87 3e 22 68 80 3e 5e 1b b3 3e
       -0.011171103 0.26372758 0.25079447 0.34981817
000360 8a d7 f0 bd 77 53 b6 3d d3 12 d2 3d 12 88 81 be
       -0.11759861 0.089026384 0.10257497 -0.25299126
000370 0d 67 65 3e 52 a3 88 be de 4b b6 be ae 96 cf 3e
       0.22402592 -0.26687104 -0.35604757 0.40544647
000380 3c 16 7f 3d 3d 8c 96 3e b7 8e c1 3e 3d e9 b7 be
       0.062277064 0.29403868 0.37804195 -0.35920134
000390 0d c9 b2 be 67 87 a9 3d 88 2e 81 3d 2a 3b be bc
       -0.34919015 0.08277779 0.06307703 -0.023221571
0003a0 71 cd 82 be 3f 9a dc 3d 1d 92 66 3e 10 10 99 be
       -0.25547364 0.107716076 0.22516675 -0.29895067
0003b0 1a f1 93 3e 95 58 a7 bc 67 b0 ba 3e ef 16 9b bb
       0.28894883 -0.020427981 0.3646271 -0.0047329585
0003c0 99 88 d6 3d 86 87 67 be 99 2a fe bd 18 34 96 3d
       0.10475273 -0.22610292 -0.124104686 0.07334155
0003d0 e3 a9 81 3d 94 78 9a 3e d9 8a 84 be d1 3b c9 3d
       0.063312314 0.3017012 -0.25887182 0.09825862
0003e0 2f 4f 66 be 1b 35 ac bd 4d e4 8f be 01 a6 a8 3e
       -0.22491144 -0.084085666 -0.28103867 0.3293915
0003f0 ed e7 91 3e c3 f4 bd be 68 c1 a8 be 50 d2 0f 3e
       0.28497258 -0.371008 -0.32960057 0.14045072

bias f4 [16]
000000 4c 3f d3 ba e7 b9 7d bb 35 7f e5 ba a7 0e 98 bb
       -0.0016116886 -0.0038715543 -0.0017509224 -0.0046404186
000010 df 8d 8a bb a8 40 b9 3b 7a 0f 78 bb 00 00 00 00
       -0.004228338 0.0056534596 -0.0037851022 0.0
000020 9a 85 a8 3b d8 0a a2 3b e5 e3 a4 bb ea c0 b4 3b
       0.0051428797 0.0049451403 -0.00503205 0.005516161
000030 00 00 00 00 00 00 00 00 36 9e a9 3b 00 00 00 00
       0.0 0.0 0.005176331 0.0
