ood/IMDB.pt (torch, 347085 bytes, 62 tensors)

weight f4 [16, 1]
0.26437217 0.26109698 0.26967227 -0.48205402 -0.29721594 -0.49960288 0.31189033 -0.47265095
0.026114581 0.24404341 -0.31372464 0.5088147 0.24000922 0.4833015 -0.47827873 -0.44032907
00000000: ca5b 873e 81ae 853e 7c12 8a3e c9cf f6be
00000010: b02c 98be f3cb ffbe 17b0 9f3e 4eff f1be
00000020: 3fee d53c 84e6 793e 84a0 a0be ae41 023f
00000030: fac4 753e 4b73 f73e f3e0 f4be d072 e1be

bias f4 [16]
-0.004682375 -0.007341645 0.0048517156 0.0 0.0 0.0 -0.0042473096 0.0
0.0055552186 0.0044318503 0.0 -0.00509216 -0.0044687204 0.0050487816 0.0 0.0
00000000: 9c6e 99bb 2f92 f0bb 24fb 9e3b 0000 0000
00000010: 0000 0000 0000 0000 042d 8bbb 0000 0000
00000020: 8d08 b63b 0e39 913b 0000 0000 22dc a6bb
00000030: 586e 92bb 4070 a53b 0000 0000 0000 0000

weight f4 [16, 16]
0.32089943 -0.33302405 -0.032058943 -0.08799726 0.01698409 -0.13196804 0.25307778 0.0045408322
0.117018566 -0.39339593 -0.14730646 -0.22343513 0.037008338 -0.3725457 0.041259125 -0.41542256
-0.16659439 -0.069258116 0.00027630586 0.09562667 -0.2473257 0.28159198 -0.41431943 -0.10739434
-0.21874782 -0.18735436 -0.34547326 0.37929 -0.3800133 0.3475927 -0.227443 0.37640482
0.094737686 -0.21647786 -0.41906852 -0.08027803 0.35510513 0.17365478 -0.15559602 -0.25839937
0.028447976 -0.12956491 -0.265538 -0.32643202 -0.28442413 -0.29144573 0.4198638 0.05144048
0.058204085 0.290244 -0.36591196 0.07183675 -0.1193549 0.19329673 0.14397831 -0.28799483
-0.3873663 -0.09093377 -0.32776794 -0.12189079 0.2110834 -0.038566567 -0.039864272 0.1380416
-0.26142326 0.36697537 -0.31710646 0.15468346 0.2630682 -0.008469358 -0.18023348 0.18732801
-0.117413916 -0.39010155 0.21874543 0.29919392 0.16865535 -0.32722804 -0.2806818 0.14386109
0.2171257 0.08265055 0.32156283 0.09215286 -0.34499648 0.20072989 0.3624212 -0.29313305
-0.40852156 0.012731111 0.30571547 0.20047459 -0.2858375 0.19527988 -0.12365576 -0.07027248
-0.028140526 -0.33944187 -0.17833544 0.016074354 0.2648084 -0.25735834 0.1816985 0.08439341
-0.0357836 -0.108080275 -0.35924596 0.14489605 -0.2343052 0.41312015 0.16295408 0.16009907
0.4160077 -0.038699742 -0.17065203 0.01278704 -0.13460433 0.14339378 -0.4312738 0.07079482
-0.066654705 -0.110035375 0.2479088 -0.33543968 -0.10320941 0.33037966 0.07070381 -0.28209707
0.2623084 -0.35576338 0.2868965 -0.17623955 0.15109721 0.32532734 0.39021543 0.13574769
0.19710572 -0.101126604 -0.107283145 -0.38984942 0.20862903 0.094993174 0.13077837 -0.2761734
-0.42883763 0.22782002 -0.20662546 -0.1415885 0.1291389 0.16863486 -0.41534925 -0.10915382
0.37328058 0.078562364 -0.25258455 0.34378257 -0.4032682 0.044196922 0.09827834 0.043351144
0.39065135 0.07616044 -0.28305826 -0.06427341 -0.1790386 0.3598681 0.051868737 -0.39215574
0.0014515386 -7.8960824e-05 0.025752373 0.09815449 0.2280851 -0.34946197 0.13321045 -0.21729137
0.278556 -0.2416639 -0.31376463 -0.24901804 0.24950656 -0.08197031 0.37312117 -0.3608059
0.13505836 -0.15881005 0.06308194 0.27052075 0.21671094 -0.40870246 -0.06267673 0.18075989
-0.42889982 -0.31805336 -0.42898422 0.059226092 0.0936385 -0.18022619 0.17471947 0.06503944
0.18425822 0.37940064 -0.28965676 -0.33620173 0.41121987 -0.22523984 0.3050191 -0.14634882
-0.0933307 -0.19310945 0.13240829 -0.02787645 0.3458398 -0.42404562 -0.010133508 0.063868254
0.1401124 0.33620235 0.14963417 -0.37476045 0.0594287 -0.18357313 0.265944 -0.18863872
-0.052212756 0.111057535 0.2840923 -0.20771763 0.3224953 -0.3049918 -0.1030574 -0.2715051
0.09177908 -0.35083333 -0.004369405 -0.2994599 0.2786945 -0.39244935 -0.18991083 -0.36753315
-0.27288878 0.031178422 0.20577039 0.21646062 -0.3418789 -0.07687844 -0.09059318 0.18250647
-0.044106487 -0.056938488 -0.27067706 -0.30124855 -0.020464612 0.20392495 -0.2148916 0.09224851
00000000: ee4c a43e 2182 aabe 3d50 03bd e837 b4bd
00000010: 3822 8b3c a122 07be 6993 813e 43cb 943b
00000020: 6ea7 ef3d 316b c9be 81d7 16be 2ecc 64be
00000030: 0e96 173d 4fbe bebe 54ff 283d 44b2 d4be
00000040: b897 2abe 33d7 8dbd 25dd 9039 ead7 c33d
00000050: f342 7dbe d32c 903e ad21 d4be 90f1 dbbd
00000060: 6eff 5fbe d2d9 3fbe dfe1 b0be 4d32 c23e
00000070: 1a91 c2be acf7 b13e d1e6 68be 22b8 c03e
00000080: d505 c23d 5fac 5dbe 2690 d6be cf68 a4bd
00000090: 57d0 b53e 8fd2 313e 9054 1fbe ec4c 84be
000000a0: bb0b e93c aaac 04be 99f4 87be 1922 a7be
000000b0: 0aa0 91be 6038 95be 63f8 d63e 41b3 523d
000000c0: 6867 6e3d dd9a 943e d058 bbbe 251f 933d
000000d0: 5870 f4bd 94ef 453e 0d6f 133e 0f74 93be
000000e0: e054 c6be 7c3b babd 33d1 a7be e1a1 f9bd
000000f0: 3f26 583e faf7 1dbd b848 23bd c75a 0d3e
00000100: 45d9 85be 32e4 bb3e c75b a2be 5765 1e3e
00000110: e0b0 863e 10c3 0abc 208f 38be ead2 3f3e
00000120: b576 f0bd 64bb c7be cdfe 5f3e f22f 993e
00000130: fdb3 2c3e 6f8a a7be 86b5 8fbe 5250 133e
00000140: 3356 5e3e b144 a93d e2a3 a43e a3ba bc3d
00000150: 61a3 b0be 238c 4d3e 468f b93e 8915 96be
00000160: bd29 d1be 2696 503c bd86 9c3e 3649 4d3e
00000170: 4b59 92be 73f7 473e 3b3f fdbd 05eb 8fbd
00000180: f686 e6bc 53cb adbe 919d 36be 5dae 833c
00000190: f794 873e 79c4 83be 2c0f 3a3e 74d6 ac3d
000001a0: d391 12bd 3159 ddbd 16ef b7be a15f 143e
000001b0: b4ed 6fbe 7c84 d33e 6fdd 263e 03f1 233e
000001c0: f6fe d43e 9f83 1ebd 68bf 2ebe bc80 513c
000001d0: b8d5 09be d2d5 123e ebcf dcbe e0fc 903d
000001e0: 4382 88bd 3a5a e1bd cedb 7d3e c0be abbe
000001f0: 755f d3bd 8627 a93e 29cd 903d 076f 90be
00000200: 494d 863e 9e26 b6be 19e4 923e 2478 34be
00000210: 3ab9 1a3e 4e91 a63e 51ca c73e 7101 0b3e
00000220: 15d6 493e 771b cfbd 44b7 dbbd 589a c7be
00000230: d9a2 553e c88b c23d c4ea 053e 9a66 8dbe
00000240: 9b90 dbbe a749 693e a095 53be 93fc 10be
00000250: fd3c 043e 9eae 2c3e a8a8 d4be 0a8c dfbd
00000260: a21e bf3e 4ee5 a03d c352 81be 4504 b03e
00000270: 2b79 cebe d507 353d 2846 c93d f890 313d
00000280: 7403 c83e 01fa 9b3d 03ed 90be c7a1 83bd
00000290: e555 37be a240 b83e 5074 543d a3c8 c8be
000002a0: 8e41 be3a c597 a5b8 a4f6 d23c 3905 c93d
000002b0: 248f 693e aeec b2be 5268 083e a181 5ebe
000002c0: e49e 8e3e be76 77be c2a5 a0be 96fe 7ebe
000002d0: a67e 7f3e 0de0 a7bd bd09 bf3e 8dbb b8be
000002e0: bd4c 0a3e 1a9f 22be 1b31 813d b281 8a3e
000002f0: 79e9 5d3e 7341 d1be a85c 80bd 1f19 393e
00000300: c298 dbbe e4d7 a2be d2a3 dbbe 0f97 723d
00000310: 8bc5 bf3d 378d 38be a9e9 323e 6633 853d
00000320: 30ae 3c3e cd40 c23e e44d 94be a222 acbe
00000330: 698b d23e 46a5 66be 772b 9c3e 77dc 15be
00000340: 2b24 bfbd 7cbe 45be 0a96 073e 275d e4bc
00000350: ea11 b13e 821c d9be 0307 26bc 5ccd 823d
00000360: a079 0f3e b722 ac3e b339 193e 9ae0 bfbe
00000370: 826b 733d 98fa 3bbe d029 883e 822a 41be
00000380: 0bdd 55bd 2272 e33d 8c74 913e eeb3 54be
00000390: 1b1e a53e e327 9cbe c20f d3bd b702 8bbe
000003a0: acf6 bb3d 6da0 b3be 3a2d 8fbb cf52 99be
000003b0: 0cb1 8e3e 1fef c8be fc77 42be 4e2d bcbe
000003c0: 14b8 8bbe e469 ff3c 79b5 523e daa7 5d3e
000003d0: c00a afbe 7272 9dbd eb88 b9bd fae2 3a3e
000003e0: 01a9 34bd 5538 69bd 2f96 8abe 403d 9abe
000003f0: 67a5 a7bc b4d1 503e 8b0c 5cbe c9ec bc3d

bias f4 [16]
0.0 0.0034560075 0.0 0.0 0.0 -0.004815297 0.0021373807 0.0
0.0055089286 0.0 -0.0049536694 -0.0047892365 0.0 0.0 0.0 0.0
00000000: 0000 0000 2f7e 623b 0000 0000 0000 0000
00000010: 0000 0000 a4c9 9dbb 4c13 0c3b 0000 0000
00000020: 3e84 b43b 0000 0000 6452 a2bb 07ef 9cbb
00000030: 0000 0000 0000 0000 0000 0000 0000 0000

weight f4 [16, 16]
0.21196453 -0.16268703 0.39175087 0.39357826 0.2592616 0.18006317 -0.34836397 0.23091784
-0.055635158 0.33335772 -0.35859418 -0.018290522 0.39306077 0.085429616 0.14150028 -0.0018564306
-0.2049959 0.21397278 0.34213477 0.23733415 -0.29141748 -0.2913227 0.4189136 -0.05429373
0.18044315 0.12295756 -0.2734947 0.37221155 0.076935485 -0.2077137 0.40884084 0.14292988
0.1051935 -0.29706183 0.37954122 -0.21935485 -0.15174854 -0.42022076 0.12002213 -0.24545683
-0.38412824 0.30436113 -0.3950199 -0.08970998 -0.1632163 0.031246612 0.063502274 0.38250223
0.13147058 -0.14009233 -0.25720727 -0.11495607 0.23921934 -0.41754058 0.16477159 -0.028339474
-0.20287617 0.28509358 0.21925583 0.015004651 -0.21377178 -0.26351526 -0.11654971 -0.2681995
-0.07544828 0.14563178 -0.047345586 0.056291595 -0.15799528 -0.11882988 0.2524925 -0.052835077
0.10820656 -0.29874998 -0.25144202 0.3305656 -0.013319544 0.4211911 -0.14618745 0.23039949
0.1875686 -0.3721873 -0.2449552 0.36503607 -0.14468735 -0.39974505 0.32089314 0.41167465
0.28118822 0.27605587 -0.13138835 0.36450553 -0.19155784 0.17348309 -0.4160012 0.38094756
-0.32014596 -0.40814984 0.17890118 0.37442875 -0.35154566 0.41514322 0.06938122 0.21938798
0.08303469 -0.43107197 0.37079352 0.34512705 0.22793277 0.0054098917 0.17523184 0.023431215
0.13630709 -0.051477104 0.40669644 -0.14340627 -0.06827049 0.1276773 0.38388383 -0.2419711
-0.18783812 -0.38136464 0.32637382 0.40376 0.086381994 -0.35985103 -0.3373109 0.3413271
0.029316727 0.095429584 -0.25588334 -0.35826582 -0.21867399 -0.41557065 0.3018786 0.15596175
-0.35769734 0.4308399 -0.09962091 0.21735336 0.09276444 0.1533379 -0.039484147 -0.048915584
-0.19994652 0.12727332 0.04468421 0.3080475 -0.3259079 0.16516033 0.13150752 0.012527396
-0.2515961 -0.21841915 0.32231617 0.29491973 0.17440738 -0.4110316 -0.2878431 0.14352354
0.42125696 -0.4119653 0.106047176 -0.4090192 -0.41570067 -0.3272608 -0.21310109 -0.2629371
-0.2507689 0.036540307 -0.09272975 0.2553004 0.09868025 -0.17236197 -0.29334262 0.32872468
-0.0058718314 0.09108914 0.203448 -0.0863791 -0.22085267 0.014890572 -0.24868597 0.21439935
0.15921468 -0.21305618 -0.13822494 0.090762444 0.06151891 0.064846694 -0.21532597 0.085637435
-0.18468459 0.09074422 0.018416004 0.02164633 -0.17664646 -0.34869537 -0.3066507 0.09849984
0.18893656 -0.10208071 0.29923207 -0.16674834 0.23101085 0.086108305 0.3853227 0.32389367
-0.12755719 0.011828009 -0.32757172 0.25089914 -0.09920816 -0.34261304 -0.17834164 -0.3886513
-0.12164669 -0.14525512 -0.4207509 0.118570186 -0.31673327 0.09110958 -0.20749886 0.040610373
-0.20330253 -0.071014814 0.03337864 0.1842336 0.14251657 0.33952373 0.4033272 -0.41075587
-0.099379934 0.19391513 -0.16510393 -0.123831116 -0.28148636 0.08112056 -0.12692118 -0.064079426
0.22699907 0.3072535 -0.2915454 -0.3601517 0.17822312 -0.29860204 -0.04561046 0.070000194
-0.42942145 0.34221113 0.12963754 0.041592944 0.035837308 -0.3597222 0.22924739 -0.1569166
00000000: 3b0d 593e 6e97 26be 9293 c83e 1783 c93e
00000010: f0bd 843e 7b62 383e c35c b2be ba75 6c3e
00000020: b1e1 63bd ddad aa3e a899 b7be 01d6 95bc
00000030: 433f c93e b9f5 ae3d 73e5 103e 7953 f3ba
00000040: 72ea 51be ae1b 5b3e 4a2c af3e b907 733e
00000050: ac34 95be 4028 95be d87b d63e 1a63 5ebd
00000060: 17c6 383e 2cd1 fb3d 7f07 8cbe 8392 be3e
00000070: 5a90 9d3d e6b2 54be 9653 d13e 365c 123e
00000080: b16f d73d 7d18 98be 3a53 c23e 8f9e 60be
00000090: f863 1bbe 2d27 d7be 2ace f53d 0959 7bbe
000000a0: 75ac c4be 39d5 9b3e 0c40 cabe deb9 b7bd
000000b0: 2c22 27be e5f8 ff3c 7b0d 823d 55d7 c33e
000000c0: 39a0 063e 5d74 0fbe acb0 83be 176e ebbd
000000d0: eaf5 743e e1c7 d5be e2b9 283e 2f28 e8bc
000000e0: c5be 4fbe c9f7 913e 9a84 603e 11d6 753c
000000f0: fde6 5abe 79eb 86be 9db1 eebd 7251 89be
00000100: a184 9abd 7f20 153e 72ed 41bd 0492 663d
00000110: 84c9 21be 155d f3bd b246 813e 9869 58bd
00000120: 679b dd3d c2f5 98be 02bd 80be e53f a93e
00000130: 373a 5abc 5ca6 d73e 2ab2 15be d8ed 6b3e
00000140: fc11 403e 558f bebe 89d5 7abe 02e6 ba3e
00000150: ec28 14be 62ab ccbe 1b4c a43e 05c7 d23e
00000160: e7f7 8f3e 3257 8d3e ab8a 06be 78a0 ba3e
00000170: bd27 44be 8da5 313e 1cfe d4be 8f0b c33e
00000180: 2cea a3be 04f9 d0be df31 373e 20b5 bf3e
00000190: cbfd b3be a78d d43e be17 8e3d 3ea7 603e
000001a0: 170e aa3d 77b5 dcbe a6d8 bd3e 7eb4 b03e
000001b0: 3567 693e 7645 b13b fa6f 333e d2f2 bf3c
000001c0: 1694 0b3e a8d9 52bd 843a d03e 18d9 12be
000001d0: 66d1 8bbd d7bd 023e 6c8c c43e 46c7 77be
000001e0: a358 40be 3a42 c3be 781a a73e a1b9 ce3e
000001f0: 0be9 b03d 653e b8be 04b4 acbe 6dc2 ae3e
00000200: a229 f03c 9670 c33d 2403 83be 9e6e b7be
00000210: 13ec 5fbe adc5 d4be d58f 9a3e 70b4 1f3e
00000220: 1b24 b7be 0c97 dc3e 0c06 ccbd e191 5e3e
00000230: 48fb bd3d 9c04 1d3e 21ba 21bd b55b 48bd
00000240: c8be 4cbe f053 023e ca06 373d 67b8 9d3e
00000250: 66dd a6be ca1f 293e e8a9 063e b53f 4d3c
00000260: 34d1 80be 45a9 5fbe a006 a53e b8ff 963e
00000270: d997 323e bc72 d2be 2c60 93be d6f7 123e
00000280: feae d73e 1eed d2be 432f d93d f76a d1be
00000290: b8d6 d4be ba8e a7be 2c37 5abe b19f 86be
000002a0: c864 80be 4aab 153d 18e9 bdbd bcb6 823e
000002b0: df18 ca3d a87f 30be 0131 96be 9a4e a83e
000002c0: 7e68 c0bb f18c ba3d ac54 503e 87e7 b0bd
000002d0: 3427 62be 96f7 733c 89a7 7ebe 818b 5b3e
000002e0: 2c09 233e 662b 5abe d78a 0dbe a9e1 b93d
000002f0: 41fb 7b3d 58ce 843d 697e 5cbe ae62 af3d
00000300: f51d 3dbe 1bd8 b93d 29dd 963c a553 b13c
00000310: cfe2 34be 3388 b2be 5201 9dbe 49ba c93d
00000320: 9678 413e b10f d1bd f234 993e 14c0 2abe
00000330: 1c8e 6c3e 8d59 b03d 0449 c53e 64d5 a53e
00000340: 5a9e 02be 44ca 413c 7bb7 a7be da75 803e
00000350: a62d cbbd fa6a afbe 319f 36be 4efd c6be
00000360: e621 f9bd c2bd 14be a96c d7be edd4 f23d
00000370: dd2a a2be a997 ba3d 957a 54be 1057 263d
00000380: 8a2e 50be 3770 91bd 0ab8 083d bca7 3c3e
00000390: ddef 113e 0ed6 ad3e e780 ce3e 984e d2be
000003a0: b587 cbbd b091 463e 0111 29be 2b9b fdbd
000003b0: fb1e 90be 8922 a63d a0f7 01be 133c 83bd
000003c0: 7272 683e 5550 9d3e 7045 95be ce65 b8be
000003d0: 1f80 363e 5ee2 98be 09d2 3abd 435c 8f3d
000003e0: 21dd dbbe 4c36 af3e b4bf 043e 5d5d 2a3d
000003f0: 24ca 123d 822d b8be d4bf 6a3e bfae 20be

bias f4 [16]
-0.005002544 0.0 0.0 0.0 0.0 0.0 -0.005197434 -0.0010114976
0.0 -0.0062103905 0.0 0.0 0.0 0.0 0.0068157855 0.0
00000000: 61ec a3bb 0000 0000 0000 0000 0000 0000
00000010: 0000 0000 0000 0000 3d4f aabb 3a94 84ba
00000020: 0000 0000 8880 cbbb 0000 0000 0000 0000
00000030: 0000 0000 0000 0000 f456 df3b 0000 0000

weight f4 [16, 16]
-0.29785258 -0.017904717 0.33965877 -0.31426665 -0.07741833 0.16821107 -0.35014927 0.360311
0.017322194 -0.0041690194 0.13520482 -0.030019986 0.21855372 0.29560906 -0.4274579 0.3725111
0.41763085 -0.08773441 0.10571449 0.26799768 0.4145255 0.13502894 0.22965999 -0.30327925
-0.42059296 0.13215257 0.10632598 -0.1246741 -0.29045153 -0.09348019 -0.25561658 -0.21640961
0.11597843 -0.028514566 -0.021632496 -0.08557152 -0.26072323 0.4161638 0.2526366 -0.13957171
0.11695977 0.34747055 -0.26749206 -0.20887415 -0.33132115 -0.22572026 -0.01204083 0.22029948
0.3921406 0.36272246 0.24930376 0.28193882 -0.11019591 0.33085513 -0.072702095 -0.06323133
0.08255624 0.09575454 -0.32286602 -0.014744284 -0.4120769 -0.32442677 0.1246603 0.3583946
0.07601704 -0.30421948 0.25985578 -0.33233318 0.10191801 0.07702897 0.40825942 0.02673037
-0.27698457 0.34609282 0.08449108 -0.15835269 -0.42455092 -0.18775159 0.31901562 0.2816706
-0.01392587 -0.19096458 -0.060931485 0.34725606 0.28297982 -0.040154886 0.16434012 0.0017196303
0.16805951 0.14794998 0.29717425 -0.3542312 0.020751202 -0.040331475 -0.07969458 -0.27653223
0.14257753 0.25092494 -0.023651889 -0.19535701 -0.12062834 -0.06037307 0.058692984 0.3772853
-0.0076235784 -0.012283112 -0.26438728 0.2860873 0.08419153 0.39267585 -0.17147265 0.054783028
0.1400533 0.34273943 0.16639233 0.23708591 -0.0075383037 -0.20730968 0.10725254 0.23021427
-0.29262248 -0.0752133 -0.31109437 -0.1902274 -0.18797207 0.032472722 0.22517596 0.18802151
0.31568336 0.2569794 -0.02539615 -0.3296987 0.03811686 -0.2775252 0.32443228 -0.4199547
-0.14037023 0.027642418 -0.26013675 -0.30838785 -0.1262699 -0.37381092 0.103045516 -0.31047702
0.2258595 -0.2955786 -0.34809616 0.12867768 -0.3920386 0.42650485 0.26518738 -0.24759433
0.21340945 0.4161792 -0.28906226 0.2789548 0.11666931 -0.3743658 -0.10384768 -0.053310487
-0.29708138 -0.10327502 0.25055867 0.32517785 0.051510476 -0.14783375 -0.41300532 -0.2924508
-0.02154588 0.004754329 0.14837192 -0.03853988 -0.3928876 -0.26726815 -0.103770055 0.29663143
0.10319956 -0.02039152 -0.39194286 -0.35396314 0.025973976 -0.29968336 0.38248706 -0.4314528
-0.2246584 -0.41066357 0.3476506 0.37436494 0.21777081 -0.2579132 -0.36862117 -0.40801546
0.21711138 0.067270935 0.23515888 0.15303928 0.3660366 0.429976 0.2540419 0.09362597
-0.2857995 -0.42284817 0.38589185 0.12087782 0.40498623 -0.21161214 -0.061131258 -0.3428605
0.1591791 0.34043962 0.40815097 0.040776588 -0.14548235 0.29143602 0.19702983 0.24702828
-0.19868541 0.044199042 -0.109802365 -0.08677569 -0.1534545 0.100196145 0.14434649 0.07130858
-0.044891614 -0.34822583 -0.14570436 0.35933402 -0.29594302 -0.40983427 -0.105804466 0.14501122
-0.3211756 0.13607253 -0.23562375 -0.17992774 -0.2596264 -0.0019708185 -0.34619612 -0.09072874
-0.20058143 0.36223537 -0.21535932 0.097387604 -0.25753227 0.21413997 -0.38339674 -0.1907865
0.20896727 0.34362426 0.16144277 -0.2679508 0.049862795 -0.011121343 0.3233098 -0.11986743
00000000: 2280 98be eaac 92bc c1e7 ad3e 8fe7 a0be
00000010: 808d 9ebd 863f 2c3e c446 b3be af7a b83e
00000020: 46e7 8d3c 459c 88bb 2273 0a3e 79ec f5bc
00000030: 8ccc 5f3e 125a 973e c3db dabe c6b9 be3e
00000040: b6d3 d53e 19ae b3bd d780 d83d fe36 893e
00000050: b03c d43e 0745 0a3e fd2b 6b3e 6b47 9bbe
00000060: f657 d7be 0153 073e 6fc1 d93d 2255 ffbd
00000070: 10b6 94be 8b72 bfbd 2de0 82be 7b9a 5dbe
00000080: 1986 ed3d 6197 e9bc a236 b1bc 1f40 afbd
00000090: 847d 85be 6c13 d53e 9659 813e e3eb 0ebe
000000a0: 9b88 ef3d a9e7 b13e b8f4 88be 1be3 55be
000000b0: eda2 a9be 3623 67be e746 45bc 3096 613e
000000c0: a7c6 c83e c2b6 b93e 7c49 7f3e 495a 903e
000000d0: 65ae e1bd d865 a93e d6e4 94bd 6d7f 81bd
000000e0: 3f13 a93d f51a c43d b24e a5be 0292 71bc
000000f0: befb d2be 441b a6be e64d ff3d 7f7f b73e
00000100: d2ae 9b3d a8c2 9bbe d10b 853e 9327 aabe
00000110: 64ba d03d 5dc1 9d3d 6107 d13e a6f9 da3c
00000120: ecd0 8dbe 1433 b13e a909 ad3d 3527 22be
00000130: bd5e d9be f441 40be 0456 a33e 2137 903e
00000140: 5529 64bc 388c 43be 4b93 79bd 8ccb b13e
00000150: bbe2 903e 7379 24bd c748 283e 3865 e13a
00000160: cb17 2c3e 3380 173e 3927 983e cb5d b5be
00000170: 6dfe a93c 9e32 25bd e936 a3bd a295 8dbe
00000180: d8ff 113e 3c79 803e 9bc1 c1bc ab0b 48be
00000190: fe0b f7bd c149 77bd 0e68 703d 8a2b c13e
000001a0: 36cf f9bb 1b3f 49bc c55d 87be 097a 923e
000001b0: 9c6c ac3d cf0c c93e 8796 2fbe 2b64 603d
000001c0: 226a 0f3e 8b7b af3e c062 2a3e a6c6 723e
000001d0: e003 f7bb fd48 54be 38a7 db3d 4abd 6b3e
000001e0: 9dd2 95be 6e09 9abd c347 9fbe f9ca 42be
000001f0: c07b 40be 1e02 053d 8794 663e b688 403e
00000200: 40a1 a13e ce92 833e 960b d0bc 45ce a8be
00000210: 6d20 1c3d c817 8ebe fd1b a63e 4d04 d7be
00000220: 37bd 0fbe 5a72 e23c a530 85be 03e5 9dbe
00000230: e64c 01be 2564 bfbe 8709 d33d d8f6 9ebe
00000240: b647 673e 1456 97be a939 b2be 15c4 033e
00000250: 49b9 c8be d85e da3e a4c6 873e 5e89 7dbe
00000260: 0288 5a3e 7115 d53e f8ff 93be 2ad3 8e3e
00000270: 52f0 ee3d e0ac bfbe 18ae d4bd 195c 5abd
00000280: 0d1b 98be db81 d3bd 3a49 803e b67d a63e
00000290: a6fc 523d bb61 17be 6f75 d3be 1cbc 95be
000002a0: fc80 b0bc 34ca 9b3b cfee 173e fedb 1dbd
000002b0: 9028 c9be 5fd7 88be 6585 d4bd 13e0 973e
000002c0: 4a5a d33d 1e0c a7bc bcac c8be a83a b5be
000002d0: 60c7 d43c 1970 99be 58d5 c33e 62e7 dcbe
000002e0: da0c 66be 7f42 d2be 42ff b13e c3ac bf3e
000002f0: 50ff 5e3e 330d 84be eabb bcbe 67e7 d0be
00000300: 7252 5e3e 58c5 893d 7dcd 703e 54b6 1c3e
00000310: 2669 bb3e d025 dc3e c811 823e f9be bf3d
00000320: 5054 92be 8e7f d8be 9e93 c53e ca8e f73d
00000330: 5b5a cf3e dab0 58be c564 7abd 698b afbe
00000340: d9ff 223e 1a4e ae3e 2af9 d03e 5a05 273d
00000350: 53f9 14be 1a37 953e 30c2 493e fbf4 7c3e
00000360: 3074 4bbe 0e0a 353d 10e0 e0bd 74b7 b1bd
00000370: 2d23 1dbe a333 cd3d 91cf 133e 3c0a 923d
00000380: 45e0 37bd a84a b2be 8633 15be a1fa b73e
00000390: d885 97be ccd5 d1be 03b0 d8bd d27d 143e
000003a0: 2171 a4be 9956 0b3e 5a47 71be fa3e 38be
000003b0: c0ed 84be d928 01bb 9e40 b1be fdcf b9bd
000003c0: 3865 4dbe ea76 b93e 2787 5cbe 2773 c73d
000003d0: 45db 83be 8247 5b3e 944c c4be 895d 43be
000003e0: 84fb 553e 85ef af3e 4151 253e d930 89be
000003f0: ee3c 4c3d 4b36 36bc dd88 a53e 0e7d f5bd

bias f4 [16]
0.0 0.0 -0.0056500062 0.0034364802 0.0039101364 0.005740574 -0.0019868172 0.005722531
0.0055795107 -0.0065866313 0.0 0.0 -0.0021857459 -0.0056858207 0.0 0.0
00000000: 0000 0000 0000 0000 b023 b9bb 9236 613b
00000010: 9a20 803b 6d1b bc3b 4335 02bb 1284 bb3b
00000020: 54d4 b63b abd4 d7bb 0000 0000 0000 0000
00000030: bb3e 0fbb 1f50 babb 0000 0000 0000 0000

weight f4 [16, 16]
-0.29248235 0.26832616 0.16243504 -0.19644932 0.3581395 0.2479176 -0.39387602 0.29445693
-0.19663967 -0.09939888 0.27108413 0.034087572 0.41645384 -0.37126827 0.19011813 0.059601262
-0.11468115 -0.13755292 0.1655087 0.3130829 -0.4199871 0.17735669 -0.3056275 0.0048695426
-0.2449073 0.04256189 -0.39489058 0.19716193 -0.30391255 0.27560085 -0.3292108 0.32376328
0.26531693 -0.43142003 -0.37064227 -0.19727089 -0.29777142 -0.42988417 -0.0035618236 -0.27798742
0.15718889 -0.3842128 -0.2528118 0.18210699 0.15642555 0.33151993 -0.36194983 -0.3338702
-0.17946182 0.05845867 -0.14323543 0.12722757 0.33386147 0.12177451 0.33084035 0.11364046
0.18777524 -0.34466806 -0.07716441 0.35370728 -0.16101232 -0.14690793 -0.18828416 0.15552934
0.38693205 0.17727828 0.38790682 0.3063722 -0.058299515 -0.14678213 -0.14292517 0.18425754
0.289769 -0.41357717 -0.20594512 -0.41700435 -0.25896046 0.34432378 0.39088398 -0.27992076
-0.21652643 0.14154875 0.15661561 0.03838569 -0.08566487 -0.2282695 -0.39702055 -0.1272809
-0.3570782 0.37481177 0.37473428 -0.3104213 0.18120818 0.3112361 0.3604183 0.3516821
-0.30678838 0.33942884 0.40527865 0.022518225 0.20449448 -0.17781642 0.4270954 -0.3960636
-0.2711115 0.070266604 -0.18923245 -0.15853538 0.15188304 0.24306302 0.28536922 0.37118557
0.21785769 -0.18933228 0.14670691 -0.2678909 0.24767153 0.17763257 0.3639685 0.24176756
0.38757494 -0.098827295 -0.37273926 0.34463495 -0.39775574 0.052144315 0.06765472 0.06960407
0.30205354 0.08979541 -0.15307294 -0.027155433 -0.42719433 -0.2924862 -0.027602766 0.39608634
-0.104685 0.23084413 -0.28046024 -0.34257045 0.20181136 0.24980146 -0.023800964 0.3260529
0.16733912 0.21708928 0.08414048 0.43228632 -0.33584726 -0.08454672 -0.28277948 -0.2638757
0.08715426 -0.047741815 -0.039813012 0.16966642 0.39396745 -0.39428735 -0.13413888 -0.04131709
0.2467568 -0.1819447 -0.40293613 -0.17047736 -0.23565426 -0.41040915 -0.30665436 -0.17094745
0.15174466 -0.23909241 -0.13406393 -0.35692275 -0.2538469 -0.07509221 -0.19590867 -0.035378207
0.12589236 0.05774483 -0.2476491 -0.017751459 0.035980344 0.03442764 0.17569382 -0.12074123
-0.37884328 -0.14238891 -0.11277124 -0.40931508 0.019326618 -0.14591946 0.31074715 0.30147955
0.2953067 -0.19669735 0.010936237 0.39798218 -0.3868847 0.16737282 -0.1752016 -0.1655423
0.23877066 -0.023120314 -0.09196945 0.2572115 -0.13399616 0.3504114 0.027350193 0.17603809
0.38045663 -0.1642427 0.22467017 0.08016199 -0.37090853 0.4323576 0.28643763 0.010752833
0.1623623 -0.13274223 -0.05221616 -0.012777801 0.121306516 0.08498461 0.40900567 0.35147443
0.24327222 -0.1786371 -0.2139235 -0.34861428 0.20108372 0.34407252 0.12159553 0.34737468
-0.31467745 -0.4167931 0.16025615 -0.2109117 0.3513089 -0.009501052 0.058385476 0.14008814
-0.3428922 -0.08621825 0.28778023 -0.14263971 0.10139531 -0.22817326 0.07263605 -0.21564364
-0.09909794 0.23498186 -0.011171103 0.26372758 0.2507556 0.34974015 -0.11759861 0.089026384
00000000: 3fc0 95be 0c62 893e 5f55 263e 032a 49be
00000010: 0f5e b73e 1dde 7d3e 1eaa c9be 0fc3 963e
00000020: e95b 49be a491 cbbd 8acb 8a3e 699f 0b3d
00000030: 7039 d53e e016 bebe 54ae 423e 7420 743d
00000040: f3dd eabd acda 0cbe 1d7b 293e 674c a03e
00000050: 8d08 d7be fe9c 353e 357b 9cbe af90 9f3b
00000060: fbc8 7abe 6055 2e3d 192f cabe d1e4 493e
00000070: 6d9a 9bbe 8e1b 8d3e 518e a8be 4dc4 a53e
00000080: 9fd7 873e 16e3 dcbe d3c4 bdbe 6101 4abe
00000090: 7f75 98be c719 dcbe 7c6d 69bb 5e54 8ebe
000000a0: 20f6 203e 8ab7 c4be 8c70 81be 417a 3a3e
000000b0: 052e 203e fbbc a93e 7d51 b9be 09f1 aabe
000000c0: d7c4 37be 5c72 6f3d 4fac 12be f247 023e
000000d0: e4ef aa3e ea64 f93d e863 a93e 54bc e83d
000000e0: 2748 403e 5578 b0be 6008 9ebd 1f19 b53e
000000f0: 6ae0 24be 086f 16be 90cd 40be 1543 1f3e
00000100: f51b c63e 7088 353e b99b c63e d1dc 9c3e
00000110: 79cb 6ebd 0e4e 16be fa5a 12be 02ae 3c3e
00000120: 9a5c 943e 63c0 d3be 47e3 52be 9881 d5be
00000130: 7796 84be 354b b03e f221 c83e c651 8fbe
00000140: 1bb9 5dbe 28f2 103e d85f 203e 503a 1d3d
00000150: 1071 afbd 7bbf 69be 4746 cbbe ed55 02be
00000160: f4d2 b6be 54e7 bf3e 2cdd bf3e 8aef 9ebe
00000170: a38e 393e 575a 9f3e bf88 b83e ad0f b43e
00000180: 5e13 9dbe 9ec9 ad3e af80 cf3e 2478 b83c
00000190: 0067 513e 8215 36be 40ac da3e d9c8 cabe
000001a0: 20cf 8abe f0e7 8f3d 27c6 41be 1957 22be
000001b0: 3a87 1b3e 83e5 783e ea1b 923e 090c be3e
000001c0: 1616 5f3e 52e0 41be 563a 163e ff28 89be
000001d0: 9b9d 7d3e 50e5 353e 145a ba3e ea91 773e
000001e0: 3970 c63e f765 cabd aed7 bebe fe73 b03e
000001f0: a4a6 cbbe 4795 553d 8f8e 8a3d 948c 8e3d
00000200: c3a6 9a3e a8e6 b73d 27bf 1cbe 1275 debc
00000210: 37b9 dabe c0c0 95be 321f e2bc d4cb ca3e
00000220: 1765 d6bd 6762 6c3e 7c98 8fbe 6565 afbe
00000230: a3a7 4e3e f4cb 7f3e 3dfa c2bc 68f0 a63e
00000240: f25a 2b3e a74c 5e3e d851 ac3d a254 dd3e
00000250: 2cf4 abbe d526 adbd 79c8 90be b71a 87be
00000260: ef7d b23d ec8c 43bd f812 23bd 09bd 2d3e
00000270: 1ab6 c93e 08e0 c9be b45b 09be 1c3c 29bd
00000280: d1ad 7c3e b64f 3abe a54d cebe 9e91 2ebe
00000290: 5a4f 71be 2621 d2be cd01 9dbe d90c 2fbe
000002a0: f462 1b3e a4d4 74be 0e48 09be 94be b6be
000002b0: 39f8 81be f2c9 99bd 489c 48be bde8 10bd
000002c0: ede9 003e d885 6c3d ba97 7dbe 826b 91bc
000002d0: 2060 133d ff03 0d3d 15e9 333e 2e47 f7bd
000002e0: bff7 c1be 66ce 11be 9cf4 e6bd bf91 d1be
000002f0: db52 9e3c e96b 15be 401a 9f3e 875b 9a3e
00000300: 7132 973e 086b 49be e72d 333c 52c4 cb3e
00000310: c015 c6be c863 2b3e 0c68 33be ec83 29be
00000320: 4c80 743e d066 bdbc 7b5a bcbd 3ab1 833e
00000330: 4a36 09be 1f69 b33e 830d e03c 5443 343e
00000340: 36cb c23e 3d2f 28be f00f 663e f82b a43d
00000350: b9e7 bdbe fa5d dd3e f4a7 923e a72c 303c
00000360: 4e42 263e 94ed 07be 9de0 55bd fb59 51bc
00000370: 8d6f f83d 690c ae3d 3169 d13e 75f4 b33e
00000380: 5a1c 793e a5ec 36be c30e 5bbe 927d b2be
00000390: e4e8 4d3e 462a b03e 1407 f93d 18db b13e
000003a0: 671d a1be e865 d5be 301a 243e 3df9 57be
000003b0: c3de b33e 4daa 1bbc 9c25 6f3d 4473 0f3e
000003c0: 918f afbe 3293 b0bd ee57 933e 2510 12be
000003d0: 58a8 cf3d 40a6 69be 36c2 943d b0d1 5cbe
000003e0: dcf3 cabd 169f 703e 0107 37bc 4d07 873e
000003f0: 0a63 803e 2411 b33e 8ad7 f0bd 7753 b63d

bias f4 [16]
0.005969518 0.0 0.0 0.0070717083 0.0046942774 -0.006244846 -0.0055632154 -0.0072288457
0.0 0.0 0.0 0.0 0.0 0.0 0.0026421098 0.00015538408
00000000: f29b c33b 0000 0000 0000 0000 cab9 e73b
00000010: 74d2 993b 91a1 ccbb a24b b6bb f4df ecbb
00000020: 0000 0000 0000 0000 0000 0000 0000 0000
00000030: 0000 0000 0000 0000 3f27 2d3b 99ee 2239

weight f4 [16, 16]
0.09610871 -0.25299126 0.22402592 -0.27340272 -0.36243406 0.40035334 0.05428845 0.28220972
0.37333086 -0.36341378 -0.34919015 0.08277779 0.06307703 -0.026297007 -0.26730728 0.09638496
0.2219912 -0.29895067 0.28894883 -0.028313745 0.36145425 -0.007299792 0.10191389 -0.22912347
-0.124104686 0.07334155 0.063312314 0.3017012 -0.25887182 0.09825862 -0.22813848 -0.087004915
-0.28103867 0.3293915 0.28497258 -0.371008 -0.32960057 0.14045072 -0.32358378 -0.18526955
-0.42534947 -0.30534923 0.3203148 -0.2532427 0.27973887 0.119608454 -0.29442787 -0.10063976
-0.0266666 0.29109523 -0.40545273 0.33955583 -0.41011542 -0.31581047 -0.28466013 0.14861959
-0.30184734 -0.34079835 0.15988691 -0.320179 -0.3041415 0.3841642 0.24656391 -0.3121266
0.09055984 0.07398096 0.23323254 0.22489752 0.42026037 0.106229305 0.06765866 -0.053879846
0.09993588 -0.11462865 0.36044893 0.40755627 -0.053318746 0.09961564 -0.33386824 -0.33923227
-0.3008488 -0.082958505 0.24728215 -0.026979567 -0.35394078 0.1154846 0.25353384 -0.36451355
-0.40341294 -0.20325205 0.10726916 0.12987095 -0.23799297 0.079033285 -0.07022892 -0.03316927
0.39005515 0.16148634 -0.019659767 0.06336978 -0.22646613 0.30840358 -0.028218009 0.1928241
-0.14972043 0.13133462 0.16254644 0.21739171 -0.06631386 -0.21079572 0.1253139 0.32850185
-0.13417791 -0.048900202 0.04081561 0.23403196 0.1258115 -0.11106819 0.13228497 -0.15216665
-0.14460486 0.35535908 -0.34941494 -0.3896072 -0.021966007 -0.3962517 -0.033930272 0.25203973
-0.06434406 0.037412003 0.36097747 -0.2855886 0.29574332 0.29812828 0.12527859 0.265381
-0.31380185 0.06890509 -0.06679258 -0.2127603 0.10409412 -0.4241641 0.35012165 -0.41927662
0.42080647 0.122656666 0.31245348 -0.241212 -0.23537092 0.072168194 -0.29262564 -0.28671905
-0.42503774 0.24874012 -0.017595466 0.3139879 0.36118126 0.12117876 0.15705349 -0.21729726
0.12376374 -0.052438743 -0.41965732 0.07836533 -0.42125344 -0.42261437 -0.30494857 -0.1746602
-0.38240927 0.113864586 -0.3764772 0.07704404 -0.29612508 0.21703513 0.26186237 0.030861326
-0.4236353 0.2384625 0.1996653 -0.40186948 0.13220435 -0.37235287 -0.3348782 -0.076668665
-0.26024374 -0.17010044 0.2855206 -0.12947938 0.09085087 -0.3628464 0.015003567 0.1571812
-0.3974786 -0.18252465 -0.078042716 -0.39410412 -0.17746402 0.36063552 0.40138632 0.41999012
0.42432725 0.38507482 -0.33473098 0.18156381 -0.381672 0.25464392 -0.115803055 0.36011505
-0.01908442 -0.09880414 0.25987938 0.38148943 0.15081882 0.06544604 0.22584796 -0.3027703
-0.017011551 -0.013996942 -0.30662483 0.12480996 0.05684103 -0.09885736 0.033892557 -0.38483986
0.33386627 -0.099952355 0.28716633 -0.34842923 0.088893555 -0.203863 -0.40043503 0.38614002
0.11683387 -0.14218523 0.22175473 -0.35183883 0.39157945 -0.29850736 -0.064054914 0.14450002
-0.423383 0.25152192 0.021317568 -0.14604343 0.19674608 -0.22332922 -0.10031978 -0.25973886
-0.10104007 -0.18411575 -0.17953487 0.15971415 0.15460593 -0.35669133 0.0020053517 0.30422878
00000000: a5d4 c43d 1288 81be 0d67 653e 71fb 8bbe
00000010: f590 b9be 1dfb cc3e 915d 5e3d cb7d 903e
00000020: 3925 bf3e 5f11 babe 0dc9 b2be 6787 a93d
00000030: 882e 813d d26c d7bc 80dc 88be 7a65 c53d
00000040: a951 633e 1010 99be 1af1 933e 3af2 e7bc
00000050: 8810 b93e 1833 efbb 3bb8 d03d 589f 6abe
00000060: 992a febd 1834 963d e3a9 813d 9478 9a3e
00000070: d98a 84be d13b c93d 229d 69be a22f b2bd
00000080: 4de4 8fbe 01a6 a83e ede7 913e c3f4 bdbe
00000090: 68c1 a8be 50d2 0f3e c6ac a5be 4db7 3dbe
000000a0: 68c7 d9be bc56 9cbe 4d00 a43e 07a9 81be
000000b0: ef39 8f3e 47f5 f43d 40bf 96be 381c cebd
000000c0: ea73 dabc 6f0a 953e 8097 cfbe 43da ad3e
000000d0: a6fa d1be e9b1 a1be f9be 91be bc2f 183e
000000e0: bc8b 9abe 1f7d aebe 65b9 233e 80ee a3be
000000f0: 6fb8 9bbe 2cb1 c43e 407b 7c3e 0fcf 9fbe
00000100: 7077 b93d 5483 973d 83d4 6e3e 894b 663e
00000110: 5e2c d73e c08e d93d a090 8a3d 1db1 5cbd
00000120: 2fab cc3d 6dc2 eabd c38c b83e 37ab d03e
00000130: c264 5abd 4903 cc3d c7f0 aabe daaf adbe
00000140: db08 9abe 26e6 a9bd 8837 7d3e 4104 ddbc
00000150: ba37 b5be 3183 ec3d 30cf 813e 85a1 babe
00000160: 248c cebe 4e21 50be efaf db3d e4fc 043e
00000170: 6eb4 73be 34dc a13d 2ed4 8fbd 80dc 07bd
00000180: 4fb5 c73e ad5c 253e 850d a1bc 04c8 813d
00000190: bde6 67be 13e7 9d3e 7429 e7bc ae73 453e
000001a0: 5050 19be 957c 063e 9372 263e ef9b 5e3e
000001b0: 90cf 87bd d5da 57be 4952 003e 6531 a83e
000001c0: ef65 09be 944b 48bd 452e 273d 13a6 6f3e
000001d0: bbd4 003e b877 e3bd b675 073e 93d1 1bbe
000001e0: 4c13 14be a0f1 b53e 84e6 b2be 987a c7be
000001f0: 0ef2 b3bc 81e1 cabe 78fa 0abd 5a0b 813e
00000200: d2c6 83bd 543d 193d 0ad2 b83e ab38 92be
00000210: ab6b 973e 45a4 983e 0849 003e 05e0 873e
00000220: a3aa a0be 1d1e 8d3d 8cca 88bd d6dd 59be
00000230: 4c2f d53d 092c d9be 2543 b33e 6dab d6be
00000240: f273 d73e 6b33 fb3d e7f9 9f3e 4700 77be
00000250: 1305 71be ebcc 933d 07d3 95be d7cc 92be
00000260: 8c9e d9be bbb5 7e3e 5e24 90bc 06c3 a03e
00000270: c0ec b83e 922c f83d a1d2 203e 2c83 5ebe
00000280: d877 fd3d 02ca 56bd 53dd d6be 017e a03d
00000290: 88ae d7be e960 d8be 3822 9cbe 20da 32be
000002a0: 26cb c3be d631 e93d 9fc1 c0be 44c9 9d3d
000002b0: b59d 97be 753e 5e3e d312 863e e4d0 fc3c
000002c0: bae6 d8be 832f 743e 0f75 4c3e d6c1 cdbe
000002d0: 9460 073e 09a5 bebe 2875 abbe 7604 9dbd
000002e0: ab3e 85be cf2e 2ebe c22f 923e 3e96 04be
000002f0: 0510 ba3d 01c7 b9be 85d1 753c 1cf4 203e
00000300: 5182 cbbe bee7 3abe dcd4 9fbd 04c8 c9be
00000310: 21b9 35be 38a5 b83e 8282 cd3e f208 d73e
00000320: 6c41 d93e 8728 c53e dc61 abbe ddeb 393e
00000330: 836a c3be b060 823e 272a edbd 0061 b83e
00000340: ee56 9cbc d359 cabd e90e 853e 9552 c33e
00000350: 4070 1a3e 9308 863d b044 673e b504 9bbe
00000360: cf5b 8bbc 6e53 65bc eefd 9cbe 5d9c ff3d
00000370: 24d2 683d ba75 cabd ecd2 0a3d bb09 c5be
00000380: 85f0 aa3e d2b3 ccbd 7707 933e 5165 b2be
00000390: d30d b63d 76c1 50be d205 cdbe 25b4 c53e
000003a0: 9946 ef3d 0199 11be ac13 633e 3824 b4be
000003b0: 1a7d c83e f5d5 98be 392f 83bd d0f7 133e
000003c0: a8c5 d8be 7bc7 803e 2ea2 ae3c 698c 15be
000003d0: ce77 493e 6ab0 64be 7574 cdbd 7efc 84be
000003e0: 19ee cebd d788 3cbe fdd7 37be 1b8c 233e
000003f0: 0451 1e3e 3fa0 b6be 386c 033b e0c3 9b3e

bias f4 [16]
-0.00852548 -0.0038665223 0.0 0.0 -0.0056949104 0.0 -0.0042352574 0.0038954732
-0.0063494593 0.0 0.0 0.0 -0.0055652163 0.0 0.0049319593 0.0
00000000: 74ae 0bbc 7b65 7dbb 0000 0000 0000 0000
00000010: 5f9c babb 0000 0000 eac7 8abb 324b 7f3b
00000020: 200f d0bb 0000 0000 0000 0000 0000 0000
00000030: 6b5c b6bb 0000 0000 469c a13b 0000 0000

weight f4 [16, 16]
-0.19653718 0.1373357 -0.3081969 0.3750409 0.1026131 -0.1909509 0.3084605 -0.00027042607
0.12901178 -0.24202082 0.009351994 -0.24793 0.29356143 0.29247826 -0.21368375 -0.019128658
0.09131618 0.14760295 -0.23032443 0.042493388 0.20695892 -0.4119623 -0.09076953 0.13626036
0.28559217 -0.09671877 -0.26923105 0.07944278 0.05684717 0.41920534 0.2968468 -0.047532346
-0.054810695 0.0833997 -0.41748923 0.31368098 0.21027933 0.20046385 -0.29206297 0.018669661
0.29831776 0.2303397 -0.18200277 -0.11549761 -0.27745208 0.035158414 -0.41521463 0.29951704
-0.11749425 0.24726692 -0.13034049 0.4247769 -0.28602466 0.26368412 -0.0025019401 0.10737949
0.06394088 -0.2936748 0.41449434 0.26039138 0.19430147 0.36000124 -0.09675356 0.15492095
-0.16796552 0.14126775 -0.32189047 0.30281276 0.169089 -0.045162458 -0.09565078 0.30469143
0.28730953 -0.41627714 -0.22317751 0.07427803 -0.010658938 0.3429533 -0.31997603 -0.31137297
-0.13028377 0.24114671 0.23194383 -0.21909855 -0.13307899 0.3552454 -0.21898654 0.40825787
-0.23929308 -0.049604494 -0.32758847 -0.33154052 0.19076495 0.2372038 0.37875885 0.40265653
0.34235656 -0.16557254 -0.097088985 0.033189915 -0.35092646 -0.41375712 0.25781754 0.32766414
-0.25548446 -0.38091516 0.3278599 -0.043334007 -0.36145696 0.10370078 0.05553673 0.03749299
0.19141506 0.29655555 -0.43293402 0.41308486 -0.14123558 -0.27276903 0.0842796 -0.2785274
-0.14364412 0.31606945 -0.036418334 -0.19306274 -0.21415572 0.18703301 -0.116790876 -0.34061837
0.4300625 0.2800972 -0.37447995 0.046423774 -0.03368035 0.40547028 -0.008096617 -0.0032828222
0.09187835 -0.23371086 0.009027826 -0.31598148 -0.29667515 -0.4143407 -0.27404773 -0.21086767
0.056522116 0.28910798 -0.08881588 0.30523118 0.33347535 -0.33139253 -0.21156135 -0.12730168
0.30975696 0.3968478 -0.32071066 -0.021053536 0.34212592 0.22830865 -0.087632835 0.16243531
0.24308433 -0.28576082 -0.37190405 -0.10799513 0.075189 -0.3346223 0.2857372 0.25098234
-0.10648013 -0.37690502 -0.39244324 0.2848341 0.0947022 -0.39547366 0.033828914 0.041982412
0.16560994 0.046245232 -0.42804506 0.41199127 0.024909059 0.27368584 0.1580781 -0.16273236
-0.14904907 0.16155618 -0.27757126 -0.083936535 0.23572524 0.0509055 -0.3987763 0.1699942
-0.1951512 -0.32577163 0.17685397 -0.21701969 -0.38636303 0.3111474 -0.32280475 0.33735907
-0.4084621 0.15385047 -0.32652742 0.32867634 -0.121502414 0.23583488 -0.34541455 0.39314368
0.2898015 0.24776725 -0.21280117 0.100700155 0.05736667 0.39153707 -0.26350757 0.30161098
-0.057024796 0.14753415 -0.2989071 -0.35357043 -0.046125982 0.14246814 -0.35552323 0.12962319
-0.37718418 0.24920933 -0.15071146 -0.3766082 0.28185633 0.17400232 0.06451572 0.43534642
-0.28743458 0.2718595 -0.16806014 -0.10060533 0.20016144 -0.029309552 0.2865723 -0.058464196
-0.17452332 -0.25756425 -0.24428256 0.09989325 0.23496546 0.041455843 -0.30295637 0.023495791
0.23545733 0.3097083 -0.32627383 0.18332985 -0.27492946 0.39057398 0.38298586 0.24021466
00000000: 0b41 49be bba1 0c3e fccb 9dbe 5c05 c03e
00000010: d126 d23d a288 43be 89ee 9d3e f9c7 8db9
00000020: aa1b 043e 4ed4 77be 1b39 193c 5de1 7dbe
00000030: af4d 963e b6bf 953e eacf 5abe b4b3 9cbc
00000040: fa03 bb3d 3a25 173e 2bda 6bbe 8c0d 2e3d
00000050: 0aed 533e b9ec d2be 60e5 b9bd d687 0b3e
00000060: 2339 923e 7e14 c6bd a7d8 89be e5b2 a23d
00000070: 94d8 683d 15a2 d63e 4efc 973e 47b1 42bd
00000080: 2e81 60bd 76cd aa3d 26c1 d5be cb9a a03e
00000090: 7753 573e 6546 4d3e 4789 95be 1ef1 983c
000000a0: 1bbd 983e 2cde 6b3e ef5e 3abe 038a ecbd
000000b0: 330e 8ebe 4502 103d 0397 d4be 4c5a 993e
000000c0: d3a0 f0bd 8a33 7d3e fa77 05be 5c7c d93e
000000d0: d371 92be 9b01 873e 97f7 23bb c7e9 db3d
000000e0: 70f3 823d 8b5c 96be 9a38 d43e 0552 853e
000000f0: f7f6 463e 1552 b83e bb26 c6bd 99a3 1e3e
00000100: 27ff 2bbe 7ea8 103e d4ce a4be 460a 9b3e
00000110: ab25 2d3e 45fc 38bd 8ee4 c3bd 8400 9c3e
00000120: 3c1a 933e 4722 d5be a588 64be 141f 983d
00000130: d4a2 2ebc 9397 af3e e6d3 a3be 476c 9fbe
00000140: 1c69 05be 2aef 763e af82 6d3e 5f5b 60be
00000150: dc45 08be bae2 b53e 023e 60be 2d07 d13e
00000160: 3f09 75be 152e 4bbd adb9 a7be aebf a9be
00000170: e357 433e 8ee5 723e aeec c13e ff28 ce3e
00000180: 5c49 af3e d98b 29be 97d6 c6bd 26f2 073d
00000190: a2ac b3be f9d7 d3be a900 843e 98c3 a73e
000001a0: dcce 82be 5007 c3be 41dd a73e 007f 31bd
000001b0: e310 b9be 1361 d43d 7b7a 633d 4092 193d
000001c0: 4f02 443e 21d6 973e 87a9 ddbe dc7f d33e
000001d0: 0fa0 10be 62a8 8bbe c89a ac3d 259b 8ebe
000001e0: 7217 13be dbd3 a13e 642b 15bd 3db2 45be
000001f0: a34b 5bbe 9585 3f3e 0e30 efbd 8865 aebe
00000200: 2731 dc3e e668 8f3e d6bb bfbe db26 3e3d
00000210: 68f4 09bd cd99 cf3e aca7 04bc 9e24 57bb
00000220: b72a bc3d e651 6fbe 72e9 133c 53c8 a1be
00000230: cee5 97be 7724 d4be fc4f 8cbe b2ed 57be
00000240: bc83 673d f605 943e 1ae5 b5bd 4347 9c3e
00000250: 48bd aa3e 48ac a9be 8aa3 58be 5f5b 02be
00000260: 7798 9e3e a32f cb3e 3034 a4be 7778 acbc
00000270: 212b af3e bec9 693e d878 b3bd 7155 263e
00000280: 19eb 783e 3e4f 92be 356a bebe 8d2c ddbd
00000290: b1fc 993d 9d53 abbe 254c 923e c280 803e
000002a0: 4112 dabd b2f9 c0be 52ee c8be c6d5 913e
000002b0: 3af3 c13d 867b cabe 3090 0a3d c0f5 2b3d
000002c0: a795 293e a46b 3d3d b928 dbbe 85f0 d23e
000002d0: 150e cc3c 8d20 8c3e 3adf 213e 50a3 26be
000002e0: 52a0 18be fc6e 253e d21d 8ebe ebe6 abbd
000002f0: f561 713e 4982 503d 682c ccbe f612 2e3e
00000300: b7d5 47be 8acb a6be 3519 353e 693a 5ebe
00000310: 60d1 c5be b64e 9f3e aa46 a5be 54ba ac3e
00000320: f221 d1be fa8a 1d3e 9a2e a7be 4448 a83e
00000330: 42d6 f8bd b37e 713e 2dda b0be 214a c93e
00000340: dd60 943e b3b6 7d3e 8de8 59be e23b ce3d
00000350: 50f9 6a3d 8c77 c83e 77ea 86be c16c 9a3e
00000360: d592 69bd 3113 173e 5a0a 99be 2f07 b5be
00000370: 99ee 3cbd 2be3 113e 2407 b6be f1bb 043e
00000380: 491e c1be bb30 7f3e 1b54 1abe cad2 c0be
00000390: 794f 903e aa2d 323e d120 843d bae5 de3e
000003a0: a02a 93be 2b31 8b3e f517 2cbe 2b0a cebd
000003b0: 1ff7 4c3e 961a f0bc 9bb9 923e 2778 6fbd
000003c0: 3eb6 32be 76df 83be 3525 7abe d594 cc3d
000003d0: c99a 703e 9acd 293d 191d 9bbe 3f7a c03c
000003e0: ba1b 713e 1692 9e3e 5d0d a7be d2ba 3b3e
000003f0: 8ec3 8cbe 50f9 c73e b916 c43e d5fa 753e

bias f4 [16]
-0.0051912894 -0.0048860083 0.0 -0.0003207675 0.0 -0.006910856 -0.0047161444 0.0
0.0 -0.008584517 -0.003663872 -0.004476102 0.0 0.0 0.0068334145 0.0
00000000: b11b aabb cf1a a0bb 0000 0000 af2c a8b9
00000010: 0000 0000 7674 e2bb e389 9abb 0000 0000
00000020: 0000 0000 13a6 0cbc 921d 70bb 44ac 92bb
00000030: 0000 0000 0000 0000 d6ea df3b 0000 0000

weight f4 [16, 16]
-0.27983966 -0.06911472 -0.0045182747 0.042459425 0.049224317 0.2810184 0.12429222 0.39882565
-0.15071353 0.052822996 -0.29936653 0.28531048 -0.4239984 0.068211176 0.010039148 -0.2581361
0.13443956 -0.24380776 -0.2923455 0.3766906 0.101836346 -0.052816443 -0.34644905 0.33753473
0.06040626 -0.27542752 -0.4325175 0.39432922 -0.04666246 0.3724041 0.10739309 0.18160386
0.40278822 0.055204768 -0.22393698 0.14730376 0.36205336 0.27306658 0.03704876 -0.034186527
-0.012732789 -0.3036833 0.10073637 0.009392495 -0.23685166 0.25021008 -0.42900333 -0.36320406
0.36174664 -0.07096096 -0.4094884 -0.1342954 -0.30475467 0.27822626 0.24761598 0.33684355
0.39690825 0.14343083 0.09156464 0.19686437 -0.2265042 -0.06721586 0.008494152 -0.21544202
-0.04569605 -0.011340866 -0.0026518814 0.065502025 -0.20227036 0.4216528 0.15371944 -0.08869969
-0.27831644 -0.26100585 0.19952215 -0.33265218 -0.13865906 -0.20180501 -0.066309795 -0.33657482
-0.13630694 -0.18298142 0.03550901 0.025120039 -0.18685105 0.08319714 -0.24699849 -0.085710324
-0.18069372 -0.3464886 -0.040500477 0.006415639 0.30971012 -0.17825033 -0.10255215 0.39662057
-0.091242656 0.2719866 -0.008142609 0.21878059 -0.3852348 -0.40443996 0.39980048 0.29115462
0.16175759 -0.1625386 0.42296317 0.059723318 -0.02105173 0.12515633 0.26747215 -0.18088502
0.26162606 -0.36419097 -0.38916868 -0.2007526 -0.39345086 -0.21359684 0.010113324 0.413625
-0.317585 0.37339124 0.094486766 -0.024272453 0.043967526 -0.30623707 -0.37115005 -0.006558418
0.07736708 -0.22385499 -0.1480472 0.38152486 -0.3146059 0.36099535 0.04845835 -0.38435304
-0.05964648 -0.21920906 0.22106323 0.33182353 -0.20667394 -0.24351843 -0.013736537 -0.08725936
0.14758463 0.31010652 0.1981241 0.2599119 0.2017106 -0.24373968 -0.39324856 -0.3940447
0.3888967 -0.014116408 -0.32635832 0.33635172 0.17118806 -0.20582 -0.08928292 0.0038551234
0.39000887 -0.26762617 0.22039317 -0.20762733 0.22951938 0.4017642 0.08482555 -0.11440091
-0.42649347 0.23480868 0.25667605 -0.03958491 -0.34249115 -0.08091939 0.28096417 -0.38231197
-0.38026744 -0.2732617 0.036584288 0.3357876 0.37413967 0.3445071 -0.13710801 0.092827514
0.25007093 -0.054981142 0.33919817 0.14258939 -0.31328034 -0.32185358 0.025849624 -0.43033025
-0.22344653 0.082169145 0.21571188 -0.28969997 -0.29375958 -0.10803436 0.42061087 -0.13706847
0.40167367 -0.24965978 -0.21397546 0.20692945 0.013089891 -0.19845736 0.07792564 -0.25789058
-0.009590008 -0.07761838 0.039780132 0.24184638 -0.35024095 0.060786907 0.14054252 -0.042804137
0.3115954 0.4277572 0.32439977 0.17478213 0.09522079 -0.00920715 -0.16839352 0.42332935
-0.070603825 0.030616807 -0.3020411 -0.21730587 0.12151335 -0.2961759 -0.19724049 0.23494156
-0.38716927 -0.32844424 0.13504097 0.046605058 0.019717168 0.42271096 -0.19393195 -0.38875058
0.40486747 -0.09345488 -0.17136072 0.07215134 -0.39771557 -0.2783562 0.08470671 0.23494269
-0.11753218 -0.3676289 -0.3349659 0.052561644 -0.38894054 0.3936031 0.41163793 -0.006910615
00000000: 2547 8fbe 058c 8dbd 090e 94bb efe9 2d3d
00000010: 709f 493d a5e1 8f3e eb8c fe3d e032 cc3e
00000020: a654 1abe ed5c 583d 9246 99be 3714 923e
00000030: 5116 d9be 4db2 8b3d 3d7b 243c 6a2a 84be
00000040: 86aa 093e bea8 79be 4fae 95be 97dd c03e
00000050: 938f d03d 0e56 58bd c561 b1be 5ad1 ac3e
00000060: 8e6c 773d d604 8dbe ef72 ddbe 85e5 c93e
00000070: 2321 3fbd c0ab be3e e9f0 db3d 5df6 393e
00000080: 423a ce3e 651e 623d bc4f 65be ccd6 163e
00000090: 0f5f b93e 62cf 8b3e 71c0 173d 2c07 0cbd
000000a0: 309d 50bc 617c 9bbe df4e ce3d fbe2 193c
000000b0: 3e89 72be 891b 803e 53a6 dbbe e2f5 b9be
000000c0: db36 b93e fb53 91bd 77a8 d1be bc84 09be
000000d0: ce08 9cbe ac73 8e3e 0b8f 7d3e c276 ac3e
000000e0: 8f37 cb3e 88df 123e 3e86 bb3d d096 493e
000000f0: b8f0 67be 78a8 89bd 0e2b 0b3c d59c 5cbe
00000100: c82b 3bbd 0acf 39bc 30cb 2dbb ed25 863d
00000110: f61f 4fbe e0e2 d73e a168 1d3e 2fa8 b5bd
00000120: 7e7f 8ebe 8fa2 85be 894f 4c3e 6351 aabe
00000130: a4fc 0dbe f9a5 4ebe 6ecd 87bd 8953 acbe
00000140: 0c94 0bbe 7b5f 3bbe e571 113d 8ac8 cd3c
00000150: e255 3fbe 4363 aa3d 2ced 7cbe e588 afbd
00000160: c607 39be f466 b1be d4e3 25bd 483a d23b
00000170: 5392 9e3e 4187 36be dd06 d2bd da11 cb3e
00000180: 6edd babd d441 8b3e 9468 05bc 0508 603e
00000190: 7f3d c5be c112 cfbe a6b2 cc3e 3812 953e
000001a0: c8a3 253e 8570 26be a18e d83e 70a0 743d
000001b0: ad74 acbc fb28 003e 1cf2 883e ec39 39be
000001c0: daf3 853e 3d77 babe 1e41 c7be 1792 4dbe
000001d0: 6472 c9be 21b9 5abe 5bb2 253c a8c6 d33e
000001e0: 809a a2be 232d bf3e 4782 c13d 06d7 c6bc
000001f0: 4b17 343d 1bcb 9cbe 6107 bebe ffe7 d6bb
00000200: a272 9e3d 3e3a 65be af99 17be 3a57 c33e
00000210: 0614 a1be 62d4 b83e 437c 463d ecc9 c4be
00000220: de4f 74bd 5778 60be 665e 623e c6e4 a93e
00000230: 55a2 53be e55c 79be 360f 61bc 09b5 b2bd
00000240: 6d20 173e 48c6 9e3e 0be1 4a3e 2c13 853e
00000250: 398d 4e3e e596 79be e057 c9be 3ac0 c9be
00000260: 781d c73e 8248 67bc 7018 a7be 4b36 ac3e
00000270: ec4b 2f3e 7ac2 52be f7d9 b6bd 3da6 7c3b
00000280: 3eaf c73e 4c06 89be bfae 613e 429c 54be
00000290: 2107 6b3e 0ab4 cd3e 05b9 ad3d 064b eabd
000002a0: 5a5d dabe b071 703e 0b6b 833e c923 22bd
000002b0: 005b afbe 11b9 a5bd 89da 8f3e 65be c3be
000002c0: 6ab2 c2be f5e8 8bbe 68d9 153d 5aec ab3e
000002d0: 3c8f bf3e 3c63 b03e 0b66 0cbe 5a1c be3d
000002e0: 4c09 803e e833 61bd 62ab ad3e f402 123e
000002f0: 4866 a0be fec9 a4be 97c2 d33c 3f54 dcbe
00000300: 2bcf 64be 4c48 a83d 93e3 5c3e 8e53 94be
00000310: a867 96be 1e41 ddbd 4f5a d73e ad5b 0cbe
00000320: 2ca8 cd3e d0a6 7fbe 621c 5bbe 50e5 533e
00000330: fb76 563c 6838 4bbe 7a97 9f3d 3c0a 84be
00000340: 691f 1dbc 63f6 9ebd 7ef0 223d 94a6 773e
00000350: c852 b3be b1fb 783d 61ea 0f3e 6453 2fbd
00000360: 6f89 9f3e fe02 db3e ba17 a63e 16fa 323e
00000370: 1e03 c33d 96d9 16bc 5a6f 2cbe a0be d83e
00000380: bd98 90bd 19d0 fa3c 22a5 9abe 6e85 5ebe
00000390: fedb f83d 5ea4 97be 69f9 49be 8594 703e
000003a0: 0d3b c6be d829 a8be 2e48 0a3e f2e4 3e3d
000003b0: e685 a13c 926d d83e 1996 46be 510a c7be
000003c0: ca4a cf3e 4665 bfbd 2f79 2fbe 15c4 933d
000003d0: 60a1 cbbe b484 8ebe b67a ad3d d194 703e
000003e0: b6b4 f0bd db39 bcbe a780 abbe e14a 573d
000003f0: 3723 c7be 5886 c93e 35c2 d23e 7172 e2bb

bias f4 [16]
0.0 0.0 -0.0064437934 -0.0060156966 0.0041713305 0.0 -0.002126787 0.0
0.007041465 -0.004130565 -0.0037949998 0.0 0.0 -0.001326623 0.0 0.0077586058
00000000: 0000 0000 0000 0000 7526 d3bb 521f c5bb
00000010: a8af 883b 0000 0000 9161 0bbb 0000 0000
00000020: 17bc e63b b159 87bb 88b5 78bb 0000 0000
00000030: 0000 0000 15e2 adba 0000 0000 e73b fe3b
