ood/PTC_MR.pt (torch, 347085 bytes, 62 tensors)

weight f4 [16, 1]
0	0xbeaa0131	-0.33204034
1	0xbe4363d8	-0.19081056
2	0xbf180109	-0.5937658
3	0x3d813a30	0.063099265
4	0xbe1f615f	-0.15564488
5	0x3e50994b	0.20370977
6	0x3f0d81a8	0.55275965
7	0x3e2ff970	0.17184997
8	0xbc1cbd56	-0.009566626
9	0xbc20c7f1	-0.009813295
10	0xbe9b13b3	-0.30288467
11	0xbd706c64	-0.05869712
12	0xbd5ca51f	-0.05386841
13	0x3d463a0a	0.048395194
14	0x3dea4ede	0.11440824
15	0xbed80bc7	-0.42196485

bias f4 [16]
0	0x00000000	0.0
1	0x00000000	0.0
2	0x00000000	0.0
3	0xbaa8df33	-0.0012883901
4	0x00000000	0.0
5	0xba15fbc4	-0.0005721415
6	0xbbb45146	-0.0055028526
7	0xbb035382	-0.0020038788
8	0x00000000	0.0
9	0x00000000	0.0
10	0x00000000	0.0
11	0x00000000	0.0
12	0x00000000	0.0
13	0x3bc4ee46	0.0060098497
14	0xbb593778	-0.0033144634
15	0x00000000	0.0

weight f4 [16, 16]
0	0xbd712c93	-0.0588804
1	0xbead0b87	-0.33797857
2	0xbd95724c	-0.07297191
3	0xbea1add8	-0.31577945
4	0xbec056af	-0.37566134
5	0x3e1d0b06	0.15336236
6	0xbe52e962	-0.20596841
7	0x3e7d5808	0.24740613
8	0xbece5447	-0.40298674
9	0x3d66bbf7	0.0563316
10	0xbe4bfd40	-0.19920826
11	0x3ed5c033	0.417482
12	0xbdc2be52	-0.09508957
13	0x3ed41946	0.41425532
14	0xbe0b38b5	-0.13595851
15	0x3e17baac	0.14817303
16	0x3d41800f	0.047241267
17	0xbe97362a	-0.2953351
18	0x3dd32608	0.10309988
19	0xbe8aea35	-0.2713181
20	0x3e9442e9	0.28957298
21	0x3e11ca99	0.14237441
22	0x3babb40a	0.005239968
23	0x3dc6ea89	0.09712703
24	0x3e690de2	0.22759202
25	0x3ed9f29b	0.42567906
26	0x3eca2c46	0.39486903
27	0x3e44359c	0.19161075
28	0x3e1da43e	0.15394685
29	0xbce3663d	-0.027758712
30	0x3cffb482	0.031214003
31	0xbea082d7	-0.31349823
32	0xbe27be12	-0.163811
33	0x3e9d5ba7	0.30733988
34	0xbe90fa2d	-0.2831587
35	0x3e1c7e1c	0.15282482
36	0xbe463eb6	-0.1935986
37	0x3e29f949	0.16599001
38	0x3d37fa03	0.044916164
39	0x3b0cb6e9	0.0021471328
40	0x3e577ef1	0.21044518
41	0x3e57bbd2	0.21067742
42	0xbea49ce4	-0.32150948
43	0xbe7f5fe4	-0.24938923
44	0x3e20c1dd	0.15698953
45	0x3e99d110	0.30042315
46	0x3e7fd4a7	0.24983464
47	0xbe723e63	-0.23656611
48	0xbd0a4f20	-0.033766866
49	0xbed5b740	-0.4174137
50	0x3dc735cd	0.097270586
51	0xbebb339b	-0.3656281
52	0xbecf3302	-0.40468603
53	0xbe00e1c5	-0.12586124
54	0xbe251210	-0.16120172
55	0xbe43cc90	-0.19121003
56	0x3ecbd24b	0.39808878
57	0xbd4a8596	-0.049443804
58	0x3ea08289	0.3134959
59	0x3eb8355d	0.35978213
60	0xbd082bcc	-0.033244893
61	0x3ea5a0ad	0.32349148
62	0x3db44f35	0.0880417
63	0xbeb03ff5	-0.34423795
64	0xbe581789	-0.21102728
65	0xbe4b20d5	-0.19836743
66	0xbe6adcc9	-0.22935785
67	0xbe85c091	-0.2612348
68	0x3d9c6efd	0.07638357
69	0x3e648e00	0.22319794
70	0xbe9f01b9	-0.31056002
71	0xbec5089d	-0.38483134
72	0x3e637543	0.222127
73	0xbe82672e	-0.25469345
74	0x3e069050	0.13140988
75	0x3ebea145	0.37232414
76	0x3ed1506a	0.40881664
77	0xbe8dfff0	-0.27734327
78	0xbe097f6d	-0.13427515
79	0x3e33f4f0	0.17573905
80	0xbde1ba38	-0.110218465
81	0xbec437cb	-0.38323817
82	0x3eb59db0	0.3547187
83	0xbe72fedc	-0.23730034
84	0x3ea74f7c	0.3267783
85	0x3db2f356	0.08737819
86	0xbe9379a0	-0.2880373
87	0x3db998dc	0.09062359
88	0x3e6d5ec8	0.23180687
89	0x3e0eb7eb	0.13937347
90	0xbead7f5f	-0.3388624
91	0x3e137bd3	0.14402704
92	0xbed329dc	-0.41242874
93	0xbe1ea0d3	-0.15491037
94	0x3e9a1fb9	0.30102327
95	0xbe4cb857	-0.19992195
96	0x3da3817f	0.07983684
97	0x3ec51f8b	0.38500628
98	0x3d5c6f76	0.053817235
99	0xbe1adc7e	-0.15123174
100	0xbea6bbd5	-0.3256518
101	0xbda6e3c4	-0.081489116
102	0x3c02f47e	0.007992862
103	0xbe786a12	-0.24259213
104	0xbe11160b	-0.14168565
105	0x3e835c1b	0.25656208
106	0x3ec1b598	0.37833858
107	0xbe65adb3	-0.22429542
108	0xbea06394	-0.31325972
109	0x3e866cbb	0.2625483
110	0xbe751d16	-0.23936877
111	0x3de147ef	0.11000048
112	0xbed88b54	-0.422938
113	0x3ea183a9	0.3154576
114	0xbec3eb39	-0.38265398
115	0x3edb0f84	0.42785275
116	0xbe4bbeb1	-0.19896962
117	0x3ea337a8	0.318784
118	0xbdafc230	-0.0858196
119	0x3ea2d29b	0.31801304
120	0xbda6e7cc	-0.081496805
121	0x3e489e0d	0.19591542
122	0xbe9e818f	-0.3095822
123	0x3d088e33	0.033338737
124	0x3e9fc39b	0.31203923
125	0x3ed33dd4	0.4125811
126	0x3e1c7a0f	0.15280937
127	0xbd945814	-0.07243362
128	0xbebd4957	-0.36970016
129	0xbcbfe914	-0.02342657
130	0xbec4a2b1	-0.38405374
131	0x3ec34a12	0.3814245
132	0x3eaaa993	0.333325
133	0xbe9217d4	-0.28533804
134	0xbece4caa	-0.40292865
135	0x3e7155cb	0.23567884
136	0x3e0bcef6	0.13653168
137	0xbeb5fee1	-0.3554602
138	0xbcbddd75	-0.023176888
139	0xbe2d4c16	-0.16923556
140	0x3e44ebb7	0.19230543
141	0xbe9a3d95	-0.30125108
142	0x3e8d78f4	0.27631342
143	0x3e54df5d	0.20788331
144	0x3e72be08	0.23705304
145	0xbea66090	-0.32495546
146	0x3e329dbc	0.17442983
147	0xbed37a17	-0.41304085
148	0xbdd1955c	-0.10233566
149	0xbd912f82	-0.070891395
150	0x3c9cf6d2	0.019160662
151	0xbe3e677f	-0.18594168
152	0xbe815772	-0.25262028
153	0xbea0d113	-0.3140951
154	0x3eb4963c	0.3527087
155	0xbea8a5cf	-0.32939002
156	0x3ea50c96	0.32236165
157	0x3eb3eb45	0.35140434
158	0xbe3072f3	-0.1723135
159	0xbc4feac9	-0.0126902545
160	0x3d6ee987	0.058328178
161	0xbea3dca9	-0.32004288
162	0xbe931436	-0.28726357
163	0xbda30caa	-0.079614
164	0xbddd6bc5	-0.10811571
165	0x3e505e1e	0.20348403
166	0xbea6e21c	-0.32594383
167	0x3e55dcfa	0.20885077
168	0x3d0058a0	0.03133452
169	0x3df5efd4	0.12008634
170	0x3e8ed1f8	0.27894568
171	0x3e21e3dd	0.15809579
172	0xbed11bc3	-0.40841493
173	0x3e36bf7d	0.17846484
174	0xbe8b4f87	-0.27209112
175	0x3ddf7478	0.109108865
176	0xbe720367	-0.2363411
177	0xbe981bf7	-0.29708835
178	0x3e5e033b	0.2168092
179	0xbdf7c199	-0.12097473
180	0x3ea21432	0.31656033
181	0x3dcf53c9	0.101234026
182	0xbd8ec63e	-0.069714054
183	0x3ed1753f	0.40909764
184	0x3dcb10b7	0.099152975
185	0xbe6179ef	-0.2201917
186	0xbd2bdfe2	-0.04196156
187	0xbce841d7	-0.028351707
188	0xbea71f9c	-0.32641304
189	0x3d9c4bab	0.0763162
190	0xbedbafa1	-0.42907432
191	0xbda08d98	-0.07839507
192	0x3eb34275	0.3501164
193	0x3d98a526	0.074533746
194	0x3e56cde1	0.20976974
195	0xbe9a94aa	-0.30191547
196	0xbe236c4b	-0.15959279
197	0xbec688be	-0.387762
198	0x3d276aad	0.04087322
199	0xbebf5ebf	-0.37376973
200	0x3d640de9	0.05567733
201	0x3e19ff40	0.15038776
202	0x3d53966d	0.05165713
203	0xbec809e7	-0.39070055
204	0xbec74f02	-0.38927466
205	0xbe9d7f7d	-0.30761328
206	0x3ec3d483	0.3824807
207	0x3ecf850b	0.4053119
208	0x3e500101	0.20312883
209	0x3eb422ce	0.35182804
210	0xbe5f7d89	-0.21825232
211	0x3e89b946	0.26899165
212	0x3def8123	0.11694553
213	0x3d5ecf59	0.05439696
214	0x3e0db37b	0.13837998
215	0x3ec2dd7e	0.3805961
216	0xbe9b0d36	-0.30283517
217	0x3e80b271	0.2513614
218	0xbe9a8d8a	-0.3018611
219	0x3ed3c898	0.41363978
220	0x3d7dec4c	0.06199293
221	0xbe603f1e	-0.21899077
222	0x3ecff0cc	0.406134
223	0x3e8241bc	0.25440776
224	0x3e2de1fd	0.16980739
225	0x3dada6a7	0.08479052
226	0x3d0f1200	0.034929276
227	0xbe84d9df	-0.25947472
228	0xbe7e1e0a	-0.24816146
229	0x3e9ef5d8	0.3104694
230	0xbe7d4879	-0.24734677
231	0xbe50bc18	-0.20384252
232	0x3df607ff	0.12013244
233	0x3ea49f90	0.32152987
234	0xbea0740d	-0.3133854
235	0x3e4f43fb	0.20240776
236	0xbdda2abc	-0.10652682
237	0x3d707376	0.058703862
238	0x3e5263e8	0.20545924
239	0x3e533324	0.20624977
240	0xbe008127	-0.12549268
241	0x3ecfd7f5	0.4059445
242	0xbea7b8d4	-0.327582
243	0xbc73e1ef	-0.01488541
244	0xbeae21c4	-0.34010136
245	0x3e92e92f	0.2869353
246	0xbeaeb088	-0.34119058
247	0xbed4c29a	-0.4155472
248	0xbedd057c	-0.43168247
249	0x3ecabc1e	0.39596647
250	0x3e5ca886	0.21548662
251	0x3e4b4e4d	0.19854088
252	0xbeae938a	-0.34096938
253	0xbedd92fc	-0.43276203
254	0xbed5a93b	-0.41730675
255	0x3960845f	0.00021411617

bias f4 [16]
0	0x00000000	0.0
1	0x3a48edd8	0.0007664836
2	0xbb6c7224	-0.0036078775
3	0x00000000	0.0
4	0x00000000	0.0
5	0x00000000	0.0
6	0x00000000	0.0
7	0x3b1e53d0	0.0024158843
8	0x00000000	0.0
9	0x00000000	0.0
10	0x00000000	0.0
11	0xba20fff0	-0.0006141653
12	0x00000000	0.0
13	0xbb569faf	-0.0032748987
14	0x00000000	0.0
15	0x00000000	0.0

weight f4 [16, 16]
0	0xbeb68721	-0.3564997
1	0xbd3bbdd2	-0.045835324
2	0x3e8e7465	0.27823177
3	0x3ea0e128	0.3142178
4	0xbed20148	-0.41016603
5	0xbe3a6aab	-0.18204753
6	0x3e36f730	0.17867732
7	0xbe19d833	-0.1502388
8	0xbbe54670	-0.006996922
9	0x3eb43565	0.35196987
10	0x3e9499c3	0.2902356
11	0x3e9cc636	0.30619973
12	0x3e876d83	0.26450738
13	0x3df42a9a	0.11922188
14	0xbc2af5ad	-0.01043455
15	0xbdb2cb72	-0.0873021
16	0x3e7edc9f	0.24888848
17	0x3ec66095	0.3874556
18	0x3e8d292e	0.2757048
19	0xbdf7946b	-0.12088855
20	0x3edccd8b	0.43125567
21	0x3e55f3b9	0.20893754
22	0xbd3e177b	-0.04640911
23	0x3e9a3546	0.3011877
24	0xbe597443	-0.21235757
25	0x3ea68352	0.32522064
26	0xbe723e10	-0.23656487
27	0xbeda0195	-0.42579332
28	0x3ec99ba6	0.39376563
29	0x3e8d4e23	0.27598676
30	0x3ea7e5de	0.32792562
31	0xbe929198	-0.28626704
32	0x3e4a0ce9	0.19731487
33	0x3ebcf187	0.3690302
34	0x3ecca027	0.39965937
35	0x3ec31969	0.38105324
36	0xbdb57ef0	-0.08862102
37	0xbbb6c306	-0.005577448
38	0x3d4df2d0	0.050280392
39	0xbe3931f7	-0.18085466
40	0xbe5a0961	-0.2129264
41	0xbe146b3a	-0.14494029
42	0xbe1b8515	-0.15187486
43	0xbe95f5e9	-0.29289177
44	0x3e61e347	0.22059356
45	0xbe5733a0	-0.21015787
46	0xbe2a09d2	-0.16605309
47	0xbec753a8	-0.38931012
48	0x3ebe7383	0.37197503
49	0xbea85cde	-0.32883352
50	0x3e0220e6	0.12707862
51	0x3e967eaf	0.29393527
52	0x3e82fbc2	0.255827
53	0x3e0eb1c3	0.13934998
54	0x3e605f11	0.21911265
55	0x3e771d89	0.2413236
56	0xbcfc3edc	-0.030791692
57	0x3eb2f52f	0.34952685
58	0x3eb991a6	0.36243933
59	0x3c8a5c9e	0.016889866
60	0xbdcb18c1	-0.09916831
61	0x3e8349ab	0.25642142
62	0xbd9b17db	-0.075729094
63	0xbec03587	-0.37540838
64	0xbec98ef3	-0.39366874
65	0x3da90d21	0.08254457
66	0x388d4538	6.736297e-05
67	0x3ed646e0	0.41850948
68	0x3dd6004e	0.10449277
69	0x3e14fb3e	0.14548966
70	0xbe967426	-0.2938549
71	0xbebdc7cb	-0.37066492
72	0x3e448225	0.19190271
73	0xbed416d7	-0.41423675
74	0x3eb4865e	0.35258764
75	0xbcc695bf	-0.024241326
76	0x3e3fc54d	0.18727608
77	0x3e130473	0.14357166
78	0xbd44726b	-0.04796068
79	0xbe80127d	-0.25014105
80	0x3eb796d9	0.35857275
81	0x3e519bc6	0.20469579
82	0xbcc4ebe1	-0.024038257
83	0xbe811e7a	-0.25218564
84	0x3ecd7c6b	0.40133986
85	0x3e6c5131	0.23077847
86	0xbe9e2c61	-0.30893233
87	0xbe14ab26	-0.14518413
88	0x3eced88e	0.40399593
89	0x3eacf3e8	0.33779836
90	0xbe3ea406	-0.18617257
91	0xbe87f4a2	-0.26553828
92	0x3e1eab50	0.15495038
93	0xbe08e0c8	-0.13366997
94	0x3ebe8690	0.37212038
95	0x3b75aba1	0.0037486332
96	0x3d9afa77	0.07567304
97	0xbeb0e5e5	-0.34550396
98	0xbec0c4ef	-0.37650248
99	0x3cd98282	0.026551489
100	0xbd23345e	-0.039844863
101	0xbea26762	-0.317195
102	0xbb587d4b	-0.0033033665
103	0x3edc8829	0.43072632
104	0xbe977add	-0.29585925
105	0xbed03b76	-0.40670365
106	0x3e8d446e	0.2759127
107	0xbe855506	-0.2604143
108	0xbe59722d	-0.21234961
109	0xbdcce0a3	-0.100037836
110	0xbeae7365	-0.34072414
111	0x3e6a3fea	0.22875944
112	0x3ec1c673	0.37846717
113	0xbec52af9	-0.38509348
114	0x3c6f8624	0.014619384
115	0x3ddb7fc2	0.10717727
116	0x3dabcb57	0.08388393
117	0xbda97ff5	-0.08276359
118	0x3e284116	0.16431078
119	0x3e8c70cd	0.2742981
120	0xbe2c8502	-0.16847613
121	0xbe4d7b70	-0.20066619
122	0x3de6adeb	0.11263641
123	0xbed1c8d2	-0.40973526
124	0xbe6c0c65	-0.23051603
125	0x3e9269fd	0.28596488
126	0xbea2b047	-0.31775114
127	0xbe9111a9	-0.28333786
128	0xbcbc6964	-0.022999473
129	0x3e95e72e	0.2927794
130	0x3dd33b8d	0.10314093
131	0x3ea05ef6	0.3132245
132	0xbe82e0c0	-0.25562096
133	0xbca5d98b	-0.020245334
134	0xbdbcd0c6	-0.09219508
135	0x3e3c1cc4	0.18370348
136	0x3ed6f5a6	0.4198429
137	0xbda35933	-0.07975998
138	0xbc19398a	-0.009352097
139	0x3e9c9c05	0.30587783
140	0x3ebce456	0.36892956
141	0x3c9ec337	0.019380195
142	0x3eafd874	0.34344828
143	0x3e9caa9c	0.30598915
144	0x3d908bf7	0.07057946
145	0xbe0130f1	-0.12616326
146	0xbe4c9a82	-0.19980815
147	0xbe7731aa	-0.24140039
148	0xbea271be	-0.31727403
149	0xbe86ad96	-0.2630431
150	0xbe829c75	-0.25509992
151	0x3ecada2e	0.39619583
152	0xbeac1c44	-0.33615315
153	0xbd921301	-0.07132531
154	0xbd787b9f	-0.06066477
155	0x3e77edd6	0.24211821
156	0x3ec9f8f5	0.39447752
157	0x3eab186a	0.33417064
158	0xbe39b72f	-0.18136285
159	0x3e823ac0	0.25435448
160	0xbe857061	-0.260623
161	0xbeb0109f	-0.3438768
162	0xbdeaed29	-0.11471016
163	0x3ed07c5c	0.4071988
164	0xbeb877a7	-0.36028787
165	0xbec9753f	-0.39347264
166	0xbda12278	-0.078679025
167	0xbe917faa	-0.28417712
168	0x3e490758	0.19631708
169	0x3d4afc72	0.049557157
170	0x3dc2c045	0.09509329
171	0x3e637ed0	0.22216344
172	0xbe3c4dd4	-0.18389064
173	0xbe1c978b	-0.15292184
174	0x3e05fdbd	0.13085075
175	0xbe739636	-0.2378777
176	0xbedbc5e1	-0.42924407
177	0xbe89de91	-0.26927617
178	0xbe2bca15	-0.16776307
179	0x3dbc5b97	0.09197157
180	0xbe3454e7	-0.17610513
181	0x3d57c76e	0.052680425
182	0x3ea7efe3	0.32800207
183	0xbeb15f7f	-0.3464317
184	0x3eabffa9	0.3359349
185	0x3e181ca4	0.14854676
186	0xbe7e7984	-0.24851042
187	0xbe6e8909	-0.23294462
188	0xbedd40c9	-0.4321349
189	0xbe2020c2	-0.15637496
190	0xbe38be1b	-0.1804127
191	0xbe0068e4	-0.12540013
192	0xbea36e5b	-0.31920132
193	0xbeb631e3	-0.35584936
194	0xbecca880	-0.39972305
195	0xbe8ebded	-0.27879277
196	0xbd591163	-0.052995097
197	0xbe5b696f	-0.21426938
198	0xbe4a8708	-0.19778073
199	0xbebc317c	-0.36756504
200	0xbde75e13	-0.1129724
201	0x3e98e58f	0.2986264
202	0x3d6c3307	0.05766585
203	0xbc64d117	-0.0139658665
204	0x3e4d9360	0.2007575
205	0xbdd9eb31	-0.10640562
206	0xbe039fa1	-0.12853862
207	0xbceb5816	-0.028728526
208	0x3eb44053	0.35205325
209	0xbed00a79	-0.4063299
210	0xbe04502d	-0.1292121
211	0x3edc50a9	0.4303029
212	0x3df1c1e9	0.118045636
213	0xbdbaa330	-0.09113157
214	0xbec4e234	-0.3845383
215	0xbe85ddff	-0.26145932
216	0x3e594659	0.21218242
217	0x3c500b7b	0.01269805
218	0x3eb85653	0.3600336
219	0xbd4f642d	-0.050632644
220	0xbd624afb	-0.05524729
221	0x3ed916bb	0.42400154
222	0x3e267008	0.16253674
223	0xbe5e252b	-0.21693866
224	0x3da65ee3	0.08123567
225	0xbe9f2593	-0.31083354
226	0xbe48539d	-0.19563146
227	0xbe04e7d6	-0.12979063
228	0x3ebc93d0	0.36831522
229	0x3d5f7ddc	0.05456339
230	0xbe58f509	-0.21187223
231	0xbc32dd94	-0.010917086
232	0x3ea52a75	0.32258955
233	0xbddc14c5	-0.10746149
234	0xbe99acfa	-0.30014783
235	0xbe800182	-0.2500115
236	0xbebe2e7b	-0.37144837
237	0xbe9ad798	-0.3024261
238	0xbed958aa	-0.42450458
239	0xbbd46645	-0.006481918
240	0xbea7b03e	-0.3275165
241	0xbeadbdad	-0.33933774
242	0xbe171365	-0.14753492
243	0xbe9c7d54	-0.30564368
244	0xbe777cd2	-0.24168709
245	0x3e4e4daa	0.20146814
246	0xbebec034	-0.37256014
247	0xbdba65c8	-0.091014445
248	0x3e8fdda1	0.28098777
249	0x3e7ecc6c	0.24882668
250	0xbe6e8fbb	-0.23297016
251	0x3e79a00e	0.24377462
252	0x3e93a027	0.28833124
253	0x3dd63792	0.10459818
254	0x3e5949fd	0.2121963
255	0xbdd85529	-0.10563118

bias f4 [16]
0	0xbb272e47	-0.0025509761
1	0xbb45a2c2	-0.0030156826
2	0x00000000	0.0
3	0x3b02410d	0.00198752
4	0x00000000	0.0
5	0x00000000	0.0
6	0x00000000	0.0
7	0xbb88b873	-0.0041723787
8	0x3bf89b5e	0.0075868806
9	0x3a59dd81	0.00083109
10	0x00000000	0.0
11	0x00000000	0.0
12	0x00000000	0.0
13	0xbb249761	-0.0025114643
14	0x00000000	0.0
15	0x00000000	0.0

weight f4 [16, 16]
0	0xbd802d98	-0.06258696
1	0x3e2a23db	0.1661524
2	0xbd7fb287	-0.062426116
3	0x3e2b4d84	0.16728789
4	0x3e90b326	0.2826168
5	0x3e0be75c	0.13662475
6	0x3d9f39f3	0.07774725
7	0xbe459a06	-0.19297037
8	0xbdfb545c	-0.1227195
9	0x3d6dc6f8	0.05805108
10	0xbd60ef46	-0.05491569
11	0x3e884f0d	0.2662281
12	0x3e6a477b	0.2287883
13	0x3ed8586f	0.4225497
14	0x3e18e539	0.14931192
15	0xbe8e93c7	-0.2784712
16	0x3ec0e930	0.37677908
17	0x3cf56533	0.029955482
18	0xbec98c58	-0.39364886
19	0x3e984691	0.29741338
20	0xbe8d3478	-0.27579093
21	0x3e93b629	0.28849915
22	0x3d84c640	0.06483126
23	0xbe94183a	-0.28924733
24	0x3e8f4f75	0.27990308
25	0xbd904ddd	-0.07046101
26	0xbea59deb	-0.32347044
27	0x3e8948c7	0.26813337
28	0xbe86471e	-0.26226133
29	0x3dfa8511	0.12232412
30	0x3e71681d	0.23574872
31	0x3e33124f	0.17487453
32	0x3df3fe3e	0.11913727
33	0x3e51c1cc	0.20484084
34	0xbeae2fa9	-0.34020737
35	0xbe581b3f	-0.21104144
36	0x3e61be29	0.22045197
37	0x3ea6224c	0.3244804
38	0x3da54898	0.08070487
39	0x3d581db5	0.052762706
40	0xbeafa9fb	-0.34309372
41	0xbdac9211	-0.084262975
42	0xbe5f5f17	-0.21813618
43	0x3ed84988	0.422436
44	0x3edb8cea	0.42880946
45	0x3da22fe2	0.07919289
46	0x3eb0bd44	0.34519398
47	0x3d0a245d	0.033726085
48	0xbe021e8b	-0.12706964
49	0xbea199b0	-0.31562567
50	0x3ebb9236	0.36634988
51	0x3df8104c	0.121124834
52	0xbd9055a6	-0.07047586
53	0xbe8e9652	-0.2784906
54	0x3e9f6c3f	0.31137273
55	0x3e406f3b	0.18792431
56	0xbe7fbfb2	-0.2497547
57	0x3ece71e8	0.4032128
58	0xbea40e8f	-0.32042357
59	0xbd77a79c	-0.06046258
60	0x3ce73528	0.028223589
61	0x3eb9fead	0.36327115
62	0x3da10d16	0.07863824
63	0x3e9f3218	0.31092906
64	0xbe90da12	-0.28291374
65	0x3e62f9da	0.22165623
66	0x3eb59ec2	0.35472685
67	0xbe81442d	-0.25247326
68	0xbde8ad2c	-0.11361155
69	0x3e0f7b55	0.14011891
70	0x3db144e5	0.08655719
71	0x3da62992	0.08113398
72	0xbd875c92	-0.06609453
73	0xbde1d873	-0.110276125
74	0x3e8fc3b4	0.28078997
75	0xbdcd5b19	-0.10027141
76	0x3e059218	0.13044012
77	0xbe81bfe5	-0.25341716
78	0xbea1e649	-0.31621006
79	0xbeb5469a	-0.35405427
80	0x3ece2af5	0.4026715
81	0xbe369467	-0.17830049
82	0xbe7e99fe	-0.24863431
83	0x3db0622b	0.08612474
84	0x3ebdb582	0.37052542
85	0x3d7234b6	0.0591323
86	0x3e2462c9	0.16053309
87	0x3e07d4ca	0.13264766
88	0x3eb9e259	0.36305502
89	0x3e37f227	0.17963468
90	0xbeaffa5d	-0.343707
91	0x3b4f7879	0.00316575
92	0x3ebc80dd	0.36817065
93	0xbec73434	-0.38907015
94	0xbe05ea02	-0.13077548
95	0xbed10c27	-0.40829584
96	0xbec3675f	-0.38164803
97	0x3e2d3185	0.16913421
98	0x3ec0fc3d	0.37692443
99	0x3ecb7e92	0.39745003
100	0xbe1fc08f	-0.15600799
101	0x3eaad6df	0.3336706
102	0xbea46611	-0.3210912
103	0xbebf3eb2	-0.3735252
104	0x3eac2f52	0.33629853
105	0x3e45fcc9	0.19334711
106	0x3d6113c1	0.05495048
107	0xbeb24d7e	-0.34824747
108	0xbc8f6ab7	-0.01750694
109	0x3eb808c7	0.35944197
110	0xbe3ef678	-0.18648708
111	0x3e91cb28	0.28475308
112	0xbe534415	-0.2063144
113	0xbec2a9a9	-0.38020065
114	0x3ec65e35	0.3874375
115	0xbecc3de7	-0.39890978
116	0xbe4d18b6	-0.20028958
117	0xbd74d7d5	-0.059776146
118	0x3ead2371	0.33816102
119	0x3a3c7114	0.0007188481
120	0xbdc4ae03	-0.096035026
121	0x3e82937f	0.25503156
122	0xbdb1de4a	-0.086849764
123	0x3e9c6bf7	0.3055112
124	0x3ec8119c	0.39075935
125	0x3e384c8d	0.17997952
126	0x3d3ac0c5	0.045593996
127	0x3ea77704	0.3270799
128	0xbed3b36e	-0.4134783
129	0xbedc4892	-0.43024117
130	0x3de3c9d2	0.111224785
131	0xbe92038b	-0.28518328
132	0xbebe8c62	-0.3721648
133	0xbdf2022f	-0.11816823
134	0xbe8e5952	-0.2780252
135	0x3d9bc709	0.07606322
136	0xbe7acc4b	-0.24491994
137	0x3a35a2a3	0.0006928837
138	0x3e698efd	0.22808452
139	0xbe67f451	-0.22651793
140	0x3eb71245	0.35756126
141	0xbe2b24b3	-0.16713218
142	0x3eada562	0.3391524
143	0xbe7fb35b	-0.24970762
144	0xbe95bb28	-0.2924435
145	0x3e4253ae	0.18977234
146	0x3ed277b4	0.4110695
147	0xbe6b0520	-0.22951174
148	0xbec86de3	-0.39146337
149	0xbe635d72	-0.22203615
150	0x3e80786b	0.25091872
151	0xbeb0f44b	-0.3456138
152	0xbe016497	-0.12636028
153	0xbebfe2d9	-0.3747776
154	0xbcd5ad69	-0.026083665
155	0x3e9c5845	0.30536094
156	0x3c1a0467	0.009400464
157	0xbc83a1ea	-0.016068418
158	0xbd7e9695	-0.062155325
159	0x3ecd83c6	0.40139598
160	0x3da5a94a	0.0808893
161	0x3cfb5de9	0.030684428
162	0x3da3e78d	0.08003149
163	0x3d2adff9	0.041717503
164	0x3ea5d475	0.32388654
165	0x3eaa8d26	0.33310813
166	0x3ded5f9f	0.11590504
167	0x3e696333	0.22791748
168	0xbeb3a804	-0.35089123
169	0xbeb61541	-0.3556309
170	0x3bae3469	0.0053163064
171	0x3e0b433f	0.13599871
172	0x3dac11c9	0.0840183
173	0x3e5fe8d7	0.21866165
174	0x3ec8f814	0.3925177
175	0xbed06ea4	-0.40709412
176	0xbedc56f1	-0.4303508
177	0x3cbbcca9	0.022924738
178	0xbe8dc804	-0.27691662
179	0x3e1fa6e7	0.15591012
180	0x3dd28670	0.10279548
181	0x3cc30c1a	0.023809481
182	0x3d4790a0	0.04872191
183	0x3d009088	0.031387836
184	0xbeccdb6e	-0.40011162
185	0x3e5661c7	0.20935737
186	0x3e1b2eb9	0.15154542
187	0x3ed32177	0.4123647
188	0x3daab94c	0.08336124
189	0x3d0be216	0.03415116
190	0x3cc808bb	0.024418226
191	0xbd89c7ac	-0.067275375
192	0x3e18b127	0.14911328
193	0x3d896f3a	0.06710668
194	0x3ed5d08c	0.4176067
195	0xbe58f8d5	-0.21188672
196	0xbe7c26bb	-0.2462415
197	0x3ebdc87a	0.37067014
198	0x3e6883b6	0.22706494
199	0x3d6c1fe3	0.057647597
200	0x3ebe1a35	0.3712937
201	0xbc17e354	-0.009270508
202	0x3e10a0f1	0.14123894
203	0x3db8fdde	0.09032796
204	0x3c35991c	0.011083867
205	0x3e89bb00	0.26900482
206	0xbe747b7b	-0.23875229
207	0xbe12d6dc	-0.14339775
208	0x3ea3598b	0.31904253
209	0x3e7a1a99	0.24424209
210	0x3e26d10d	0.16290684
211	0x3e43f081	0.19134714
212	0x3e8e22b1	0.27760842
213	0xbc29640e	-0.010338796
214	0x3edbc46b	0.42923293
215	0x3dd4ac34	0.10384408
216	0xbdcd0205	-0.10010151
217	0x3e48f6ae	0.19625351
218	0x3e1ab8d2	0.15109566
219	0xbea69ee2	-0.32543093
220	0x3c914d86	0.017737161
221	0x3dc1fa3c	0.094715565
222	0x3e9f567e	0.31120676
223	0xbeb559cf	-0.3542008
224	0xbea20814	-0.31646788
225	0xbea8be19	-0.32957533
226	0x3e77f69b	0.24215166
227	0xbc98a8e9	-0.01863523
228	0xbecf1f79	-0.404537
229	0xbe918d37	-0.2842805
230	0x3ebcc71b	0.36870655
231	0x3e5bb87f	0.21457098
232	0x3ea578a5	0.32318607
233	0xbedb95fc	-0.42887866
234	0xbe3133e3	-0.1730495
235	0x3deda0e6	0.116029546
236	0x3e4b8ea4	0.19878632
237	0x3ebb2396	0.36550587
238	0xbecf3194	-0.40467513
239	0x3e7062c3	0.23475175
240	0x3d8c4fae	0.06851135
241	0x3edab5e7	0.42716905
242	0xbebe5bd3	-0.3717943
243	0x3ca14a68	0.0196888
244	0xbed4bcf6	-0.41550416
245	0xbdf64598	-0.12024993
246	0x3e696c55	0.22795232
247	0x3e91892e	0.28424972
248	0xbecdcd7a	-0.4019583
249	0x3d0eb1c4	0.0348375
250	0x3eb7ffd8	0.3593738
251	0xbdaed74e	-0.0853716
252	0xbd96c451	-0.07361663
253	0x3d5788d7	0.052620735
254	0xbce2eda2	-0.027701203
255	0xbc9c73f1	-0.019098254

bias f4 [16]
0	0x3c50ff31	0.012756155
1	0xbb1b5242	-0.0023700153
2	0x00000000	0.0
3	0xbb0ba9a3	-0.0021310828
4	0x00000000	0.0
5	0x3c4d9aad	0.012549085
6	0x3b7b83a5	0.0038378027
7	0x00000000	0.0
8	0x00000000	0.0
9	0x00000000	0.0
10	0x00000000	0.0
11	0x3ac7c711	0.0015241822
12	0x3b387e2e	0.002815138
13	0xbbd256c4	-0.0064190347
14	0x00000000	0.0
15	0xbb80ae6c	-0.0039270427

weight f4 [16, 16]
0	0x3ec758ce	0.3893494
1	0xbe1c4cee	-0.15263721
2	0xbec97f12	-0.3935476
3	0x3eb6af78	0.35680747
4	0xbe2553e8	-0.16145289
5	0xbe439375	-0.19099219
6	0xbe19738c	-0.14985484
7	0x3e88155c	0.26578796
8	0x3cc73f2a	0.024322111
9	0x3e787de5	0.24266775
10	0xbe907b3a	-0.28219014
11	0xbe2e9306	-0.17048272
12	0xbe990571	-0.29886964
13	0x3ea36454	0.31912482
14	0xbeca2652	-0.3948236
15	0xbecfb1e5	-0.4056541
16	0x3e8655d1	0.26237348
17	0xbe7657a8	-0.24056876
18	0x3ebb5ed3	0.36595783
19	0xbeae11ba	-0.339979
20	0xbc4c2911	-0.012460963
21	0x3e4e02fd	0.20118327
22	0x3e8c065d	0.27348605
23	0xbe2c9aa5	-0.16855867
24	0xbdddb083	-0.108246826
25	0x3e20791b	0.15671198
26	0xbe61a133	-0.22034149
27	0xbe79bb21	-0.2438779
28	0x3e7711ed	0.24127932
29	0x3dead3d0	0.11466181
30	0xbec4cd2b	-0.3843778
31	0xbc396eef	-0.011317953
32	0x3e25a129	0.16174759
33	0xbed6be37	-0.41941997
34	0xbe4e54fc	-0.20149606
35	0xbec733bd	-0.3890666
36	0xbedb26ae	-0.42802948
37	0xbe44ae3c	-0.1920709
38	0x3ec3ed12	0.38266808
39	0xba56ec53	-0.0008198667
40	0xbcd755df	-0.026286064
41	0x3da8cd57	0.082422905
42	0x3daf5aa4	0.0856221
43	0xbc27be2c	-0.010238212
44	0x3e365a5c	0.17807907
45	0xbe072a1b	-0.13199656
46	0x3edc61fd	0.4304351
47	0x3cf782b7	0.030213697
48	0xbe202346	-0.15638456
49	0xbd09acf6	-0.033612214
50	0x3e84ac05	0.2591249
51	0xbe94e6a3	-0.29082212
52	0x3ecb32ce	0.39687198
53	0xbd44f445	-0.048084516
54	0xbd120957	-0.03565344
55	0xbe385948	-0.18002808
56	0x3e8164db	0.2527226
57	0x3e1450bb	0.14483921
58	0x3e20e5a4	0.15712601
59	0xbe1da7f7	-0.15396105
60	0xbe882596	-0.26591176
61	0xbe227a25	-0.15866907
62	0x3df9732b	0.1218017
63	0xbea3015a	-0.3183697
64	0x3de15601	0.11002732
65	0xbea2874e	-0.31743854
66	0xbdc73866	-0.09727554
67	0x3c8bb7d3	0.017055428
68	0xbe58f876	-0.2118853
69	0xbecb44d4	-0.3970095
70	0x3e6f3201	0.23358919
71	0xbdb4afe8	-0.08822614
72	0x3d99524d	0.07486401
73	0x3ec97904	0.3935014
74	0xbd7c8100	-0.06164646
75	0xbe986e73	-0.29771766
76	0xbe2a8239	-0.16651239
77	0x3ec2ed87	0.38071844
78	0x3e8f9e1f	0.28050324
79	0xbeb0370a	-0.3441699
80	0xbe65e595	-0.2245086
81	0xbe43afa2	-0.19109967
82	0x3e5ef788	0.21774113
83	0x3eb7c71f	0.35894105
84	0x3e6e6e7c	0.23284334
85	0x3def30f9	0.11679263
86	0x3cf591de	0.029976781
87	0xbe5f3e99	-0.21801223
88	0x3e81cb47	0.253504
89	0xbed31c44	-0.41232502
90	0xbeab6a07	-0.3347933
91	0x3eb6115f	0.35560128
92	0xbdd9b239	-0.106296964
93	0xbe5512de	-0.20807979
94	0x3e429e74	0.19005758
95	0x3e1fdf13	0.1561244
96	0xbc44caf4	-0.012011278
97	0xbd217b63	-0.03942431
98	0x3eb1f8e4	0.347602
99	0x3e8ab07d	0.27087775
100	0x3eca3adf	0.3949804
101	0x3e10ec8b	0.14152734
102	0x3e32020c	0.17383593
103	0x3e7eb8b2	0.24875143
104	0xbe9b1680	-0.30290604
105	0x3dd07d63	0.101801656
106	0x3d471e94	0.048613146
107	0x3e75b27c	0.23993868
108	0x3e218012	0.15771511
109	0x3c573eb1	0.013137505
110	0x3ec2d5d0	0.3805375
111	0xbd0d7e41	-0.034544233
112	0x3eda443e	0.4263019
113	0xbecd79ae	-0.40131897
114	0x3ed43e74	0.41453898
115	0xbe90cbce	-0.2828049
116	0x3dcd6531	0.10029066
117	0x3ebe7007	0.37194845
118	0x3e892fad	0.26794186
119	0xbed3ba70	-0.41353178
120	0x3e2bc199	0.1677307
121	0xbe9332f1	-0.28749803
122	0x3ec42075	0.38306013
123	0x3ed892ae	0.42299408
124	0x3e9e199d	0.30878916
125	0x3eb05009	0.34436062
126	0xbe8a6043	-0.27026567
127	0x3c649bb7	0.013953141
128	0xbdbd2cc5	-0.09237055
129	0x3e7fa30b	0.2496454
130	0xbdc10ba8	-0.094260514
131	0x3ea1dc0a	0.3161319
132	0xbe90f1d8	-0.28309512
133	0x3df12463	0.11774518
134	0xbe48b89f	-0.19601677
135	0x3e7eb8df	0.2487521
136	0x3e38ec5c	0.18058914
137	0xbe2a7a3d	-0.16648193
138	0xbe296b5d	-0.16544862
139	0x3eafd54e	0.34342426
140	0x3df8c1e5	0.121463574
141	0xbe189f1c	-0.14904445
142	0xbea89826	-0.3292858
143	0x3e69299b	0.22769777
144	0x3e99a96f	0.3001208
145	0x3e4ca4ab	0.19984691
146	0xbeb02531	-0.34403375
147	0x3eba3d77	0.3637502
148	0x3e5613bd	0.20905967
149	0x3e4dd087	0.20099078
150	0x3ea3f265	0.3202087
151	0xbe7b61e6	-0.24549064
152	0xbe9aa855	-0.30206552
153	0x3c0463b0	0.008080408
154	0xbe82e030	-0.25561666
155	0xbe12917c	-0.1431331
156	0xbde12022	-0.10992457
157	0xbe98ed83	-0.29868707
158	0xbda58bd2	-0.08083309
159	0xbd71ba5f	-0.059015628
160	0xbe290973	-0.16507511
161	0x3e276610	0.16347528
162	0x3d7193a1	0.05897868
163	0x3ed1fe00	0.410141
164	0xbe9d913d	-0.3077487
165	0xbd6fc0f4	-0.058533624
166	0xbe10445b	-0.14088576
167	0xbe4c0172	-0.19922426
168	0xbecf3404	-0.40469372
169	0x3dfca7cf	0.123366944
170	0xbdf05f5a	-0.11736937
171	0xbed5b025	-0.4173595
172	0xbe895cb4	-0.2682854
173	0xbebf5b69	-0.37374428
174	0xbe8aa23a	-0.27076894
175	0xbd8a74c5	-0.06760553
176	0xbe360f94	-0.1777938
177	0xbd63a552	-0.055577584
178	0x3d9dac1e	0.076988444
179	0xbeac78c1	-0.33685878
180	0xbea30117	-0.3183677
181	0xbe67a66c	-0.22622079
182	0x3ec9dae4	0.39424813
183	0xbe85f044	-0.2615987
184	0x3e62965e	0.22127673
185	0x3ed1b5c2	0.40958983
186	0xbddf1311	-0.108923085
187	0x3c813e14	0.015776671
188	0xbec1178a	-0.3771327
189	0x3ebb13a2	0.36538416
190	0x3ed92aea	0.42415553
191	0xbe7377eb	-0.23776214
192	0xbdb0e097	-0.08636587
193	0xbdc833a8	-0.09775478
194	0x3db21887	0.086960845
195	0x3eb5e270	0.3552432
196	0x3e93b9f6	0.28852814
197	0x3e3cd21f	0.1843953
198	0x3eab24bd	0.33426467
199	0x3eb835a6	0.3597843
200	0x3ebf73a7	0.37392923
201	0xbe3bb16a	-0.18329397
202	0x3d8ece7a	0.06972976
203	0x3e642848	0.22280991
204	0x3ec1c725	0.37847248
205	0xbe78a9b0	-0.2428348
206	0x3e958743	0.2920476
207	0xbe015f33	-0.12633972
208	0x3e23a318	0.15980184
209	0xbeaebf3f	-0.34130284
210	0xbec1f8de	-0.37885183
211	0x3ea4beef	0.3217692
212	0x3ea56dc9	0.32310322
213	0x3ed7bf9f	0.42138383
214	0x3e6c12be	0.23054025
215	0xbe92e504	-0.2869035
216	0xbd1df831	-0.038566772
217	0x3eae5d18	0.340554
218	0xbea267db	-0.3171986
219	0xbe28ecb4	-0.16496545
220	0xbb5ecc08	-0.0033996124
221	0x3eac47d4	0.3364855
222	0x3e83f5b4	0.25773394
223	0xbce87b9f	-0.02837926
224	0x3eaeeb18	0.34163737
225	0x3e410e14	0.18853027
226	0xbe052380	-0.13001823
227	0xbed5e650	-0.41777277
228	0x3ed912cb	0.4239715
229	0x3ecaec6d	0.39633504
230	0xbe8498d3	-0.25897846
231	0xbea81b99	-0.32833555
232	0x3e0a33e6	0.1349636
233	0x3e9a08ac	0.3008474
234	0x3c240cd2	0.010012822
235	0xbed099f4	-0.40742457
236	0xbb9b6f45	-0.004743489
237	0xbe201fa2	-0.15637067
238	0x3dec95e4	0.11552027
239	0xbec3832a	-0.38186008
240	0xbc46a0ae	-0.01212327
241	0x3ed69a4a	0.41914588
242	0xbeb532db	-0.35390362
243	0xbeae5557	-0.34049484
244	0xbedcd456	-0.4313075
245	0xbe3b2422	-0.18275502
246	0xbe1063a1	-0.14100505
247	0x3e28ac45	0.16471966
248	0x3eb80f17	0.35949013
249	0xbeb2d249	-0.3492606
250	0xbe3d66ad	-0.18496199
251	0x3e14c266	0.14527282
252	0xbe71fe08	-0.23632061
253	0x3dee875e	0.11646913
254	0xbecf498f	-0.40485808
255	0xbec22714	-0.3792044

bias f4 [16]
0	0x00000000	0.0
1	0x3c07b9c2	0.008284034
2	0xbb07fda0	-0.0020750538
3	0x00000000	0.0
4	0x00000000	0.0
5	0x00000000	0.0
6	0x3c1e6376	0.009667268
7	0x3c62ef02	0.013850929
8	0xbc073300	-0.008251905
9	0x3b09acd1	0.0021007548
10	0x00000000	0.0
11	0xbc386612	-0.011254804
12	0xbbd5ca45	-0.0065243565
13	0xbb931205	-0.004488232
14	0x00000000	0.0
15	0x00000000	0.0

weight f4 [16, 16]
0	0xbe95fe6a	-0.29295665
1	0x3d5da076	0.054108106
2	0x3db54876	0.088517115
3	0x3ec54e8a	0.38536483
4	0x3ebd7cca	0.3700927
5	0x3e8a7e8d	0.27049676
6	0x3cc7a175	0.02436898
7	0x3dc33343	0.09531262
8	0x3e912ce2	0.28354555
9	0xbe52e4fc	-0.20595163
10	0x3ed4644f	0.4148278
11	0x3e7960e0	0.24353361
12	0xbec65806	-0.38739032
13	0xbec2f50d	-0.38077584
14	0x3e3bf93a	0.18356791
15	0xbcd1f8e6	-0.02563138
16	0xbde5a7b4	-0.112136275
17	0x3e94419e	0.28956312
18	0x3c7e5eeb	0.01552556
19	0xbe565c2c	-0.20933598
20	0x3dba3921	0.09092928
21	0x3e821b62	0.25411516
22	0x3ea60d5c	0.32432067
23	0x3e9c519d	0.30531016
24	0xbe88afde	-0.26696676
25	0x3d851308	0.064977705
26	0xbe66428c	-0.22486323
27	0xbe9f955d	-0.31168643
28	0xbec252a1	-0.37953666
29	0xbe7e6530	-0.24843287
30	0x3e4041e7	0.1877514
31	0x3e55fb19	0.20896567
32	0xbd00d25b	-0.03145061
33	0xbea2cefd	-0.31798545
34	0x3ec5045a	0.38479882
35	0x3d98dc93	0.07463946
36	0x3dc00502	0.09375955
37	0xbea17ede	-0.31542104
38	0xbd8422a0	-0.06451917
39	0xbe9d99b3	-0.30781326
40	0x3e854eb8	0.2603662
41	0xbe026e38	-0.12737358
42	0x3eb97661	0.36223128
43	0xbeceaa3a	-0.40364248
44	0xbd483a6b	-0.048883837
45	0xbe327cec	-0.17430466
46	0x3db77a6e	0.089588985
47	0x3e9e5dc1	0.30930904
48	0x3c0e9c99	0.008704328
49	0x3e339bfd	0.17539974
50	0x3e3dbd57	0.18529259
51	0x3db9c13d	0.090700604
52	0x3e91f6a1	0.28508475
53	0x3eb7cd84	0.35898983
54	0xbea940bd	-0.33057204
55	0x3e408bbd	0.18803306
56	0xbec8b52a	-0.39200717
57	0xbe56ef2e	-0.20989677
58	0xbe2c8b0e	-0.1684992
59	0x3e55199c	0.2081055
60	0x3ceea146	0.029129636
61	0xbe11819b	-0.14209597
62	0xbe07dd7d	-0.13268085
63	0x3eae2cec	0.34018648
64	0x3e7249c8	0.23660958
65	0xbe8fe705	-0.2810594
66	0xbecdf15e	-0.4022321
67	0xbe2473b7	-0.16059767
68	0xbed46b07	-0.41487905
69	0x3edc3950	0.43012476
70	0x3e56ff29	0.20995773
71	0x3e5ea637	0.21743093
72	0x3c9f2c05	0.01943017
73	0xbec35e03	-0.38157663
74	0xbe864bf1	-0.26229814
75	0xbe5563b9	-0.20838822
76	0x3ecf6bd8	0.40511966
77	0x3ecfee12	0.4061132
78	0xbe602dfd	-0.21892543
79	0xbde97d9d	-0.11400912
80	0x3ead73d2	0.33877426
81	0x3e2b0ee9	0.16704907
82	0x3ec39796	0.38201588
83	0x3e0e561d	0.13900037
84	0xbea17d04	-0.31540692
85	0x3e018843	0.12649636
86	0x3c061b69	0.008185246
87	0xbcebd58d	-0.028788352
88	0xbe2dc7ea	-0.16970792
89	0x3d9c24a6	0.07624178
90	0xbec7b2a6	-0.39003485
91	0xbedd3e07	-0.43211386
92	0xbe187ff0	-0.14892554
93	0xbe48984a	-0.19589344
94	0x3d99a640	0.07502413
95	0x3e752863	0.23941188
96	0x3dd09f8b	0.101866804
97	0xbecaa6ab	-0.39580283
98	0x3da7fdbd	0.082026936
99	0x3ed0c8b6	0.4077813
100	0x3ddf365c	0.1089904
101	0xbe775892	-0.2415488
102	0xbcb11cc2	-0.021620158
103	0xbe5895d7	-0.2115091
104	0xbdc02ad1	-0.093831666
105	0x3e3c9613	0.18416624
106	0xbea8e748	-0.32988954
107	0x3d271fb6	0.040801726
108	0x3e96e79f	0.29473588
109	0x3e50ff1a	0.20409814
110	0xbeab9c47	-0.33517668
111	0x3e80e7b9	0.2517679
112	0xbdac3d0f	-0.084100835
113	0xbdcf04db	-0.10108348
114	0xbebc1023	-0.3673106
115	0x3ed728bb	0.42023262
116	0x3e48b0f8	0.19598758
117	0x3e482d55	0.19548543
118	0x3e45c2cd	0.19312592
119	0xbeb3e4b3	-0.3513542
120	0xbe5dd4a4	-0.21663147
121	0xbeba7137	-0.364145
122	0x3e6bd1fe	0.23029324
123	0xbeb06262	-0.3445006
124	0x3c77237c	0.015084144
125	0x3e32eca0	0.17473078
126	0xbe6a26ef	-0.22866414
127	0x3ebfbb51	0.374476
128	0x3e365254	0.17804843
129	0x3eb288b5	0.34869924
130	0xbeb27c07	-0.3486025
131	0xbea45289	-0.3209422
132	0x3ea44cee	0.32089943
133	0xbeaa8221	-0.33302405
134	0xbd03503d	-0.032058943
135	0xbdb437e8	-0.08799726
136	0x3c8b2238	0.01698409
137	0xbe0722a1	-0.13196804
138	0x3e819369	0.25307778
139	0x3b94cb43	0.0045408322
140	0x3defa76e	0.117018566
141	0xbec96b31	-0.39339593
142	0xbe16d781	-0.14730646
143	0xbe64cc2e	-0.22343513
144	0x3d17960e	0.037008338
145	0xbebebe4f	-0.3725457
146	0x3d28ff54	0.041259125
147	0xbed4b244	-0.41542256
148	0xbe2de27a	-0.16980925
149	0xbd946c83	-0.072472595
150	0xbb419b80	-0.0029542148
151	0x3dc3d7ea	0.09562667
152	0xbe7d42f3	-0.2473257
153	0x3e902cd3	0.28159198
154	0xbed5c740	-0.41753578
155	0xbddbf190	-0.10739434
156	0xbe6366ff	-0.22207259
157	0xbe4328a4	-0.19058472
158	0xbeb0e1df	-0.34547326
159	0x3ec08c68	0.3760712
160	0xbec4365f	-0.38322732
161	0x3eb050a1	0.34436515
162	0xbe68e6d1	-0.227443
163	0x3ec0b822	0.37640482
164	0x3dc205d5	0.094737686
165	0xbe5dac5f	-0.21647786
166	0xbed69026	-0.41906852
167	0xbda468cf	-0.08027803
168	0x3eb5d057	0.35510513
169	0x3e31d28f	0.17365478
170	0xbe1f5490	-0.15559602
171	0xbe844cec	-0.25839937
172	0x3ce90bbb	0.028447976
173	0xbe04acaa	-0.12956491
174	0xbe87f499	-0.265538
175	0xbea72219	-0.32643202
176	0xbe91a00a	-0.28442413
177	0xbe953860	-0.29144573
178	0x3ed6f863	0.4198638
179	0x3d52b341	0.05144048
180	0x3d6e6768	0.058204085
181	0x3e949add	0.290244
182	0xbebb58d0	-0.36591196
183	0x3d931f25	0.07183675
184	0xbdf47058	-0.1193549
185	0x3e45ef94	0.19329673
186	0x3e136f0d	0.14397831
187	0xbe93740f	-0.28799483
188	0xbec654e0	-0.3873663
189	0xbdba3b7c	-0.09093377
190	0xbea7d133	-0.32776794
191	0xbdf9a1e1	-0.12189079
192	0x3e58263f	0.2110834
193	0xbd1df7fa	-0.038566567
194	0xbd2348b8	-0.039864272
195	0x3e0d5ac7	0.1380416
196	0xbe85d945	-0.26142326
197	0x3ebbe432	0.36697537
198	0xbea25bc7	-0.31710646
199	0x3e1e6557	0.15468346
200	0x3e86b0e0	0.2630682
201	0xbc0ac310	-0.008469358
202	0xbe388f20	-0.18023348
203	0x3e3fd2ea	0.18732801
204	0xbdf076b5	-0.117413916
205	0xbec7bb64	-0.39010155
206	0x3e5ffecd	0.21874543
207	0x3e992ff2	0.29919392
208	0x3e2cb3fd	0.16865535
209	0xbea78a6f	-0.32722804
210	0xbe8fb586	-0.2806818
211	0x3e135052	0.14386109
212	0x3e6314bd	0.2217588
213	0x3db2bf1b	0.08727857
214	0x3ea7085b	0.32623562
215	0x3dbcbaa3	0.09215286
216	0xbeb0a361	-0.34499648
217	0x3e4d8c23	0.20072989
218	0x3ebbef01	0.36705783
219	0xbe961589	-0.29313305
220	0xbecea663	-0.40361318
221	0x3c8e945f	0.017404733
222	0x3e9c86bd	0.30571547
223	0x3e520a23	0.2051168
224	0xbe8ffa49	-0.2812064
225	0x3e4a5f1a	0.19762841
226	0xbdfd3f3b	-0.12365576
227	0xbd8feb05	-0.07027248
228	0xbcf71ddb	-0.030165603
229	0xbeaed43c	-0.34146297
230	0xbe3b1532	-0.18269804
231	0x3c618fae	0.013767166
232	0x3e866873	0.26251563
233	0xbe84f9e4	-0.259719
234	0x3e37fb8c	0.17967051
235	0x3da8212e	0.082094535
236	0xbd24ae4b	-0.04020528
237	0xbde646d2	-0.11243977
238	0xbeb7ef16	-0.35924596
239	0x3e124b18	0.14286458
240	0xbe720043	-0.23632912
241	0x3ed6ee09	0.4197848
242	0x3e2803ea	0.16407743
243	0x3e23f103	0.16009907
244	0x3ed4fef6	0.4160077
245	0xbd1e839f	-0.038699742
246	0xbe2613e2	-0.16218522
247	0x3cad0486	0.021120321
248	0xbe031dd1	-0.12804343
249	0x3e1d58e7	0.15365945
250	0xbedccfeb	-0.4312738
251	0x3d9e0a2d	0.077167846
252	0xbd73291d	-0.05936538
253	0xbdd14cb1	-0.10219706
254	0x3e7ddbce	0.2479088
255	0xbeabbec0	-0.33543968

bias f4 [16]
0	0x00000000	0.0
1	0x3c2e454e	0.010636641
2	0x00000000	0.0
3	0xbb9c115d	-0.004762812
4	0x3bbbff96	0.0057372553
5	0x00000000	0.0
6	0x00000000	0.0
7	0x00000000	0.0
8	0x00000000	0.0
9	0x00000000	0.0
10	0x00000000	0.0
11	0x00000000	0.0
12	0x00000000	0.0
13	0x00000000	0.0
14	0xbb1cc217	-0.0023919397
15	0x3c0fb063	0.008770081

weight f4 [16, 16]
0	0xbdd35f75	-0.10320941
1	0x3eaf4a6e	0.34236473
2	0x3d90cd29	0.07070381
3	0xbe8f5ded	-0.28001347
4	0x3e889666	0.26677245
5	0xbeb8e379	-0.36111048
6	0x3e90204f	0.2814965
7	0xbe347824	-0.17623955
8	0x3e1ab93a	0.15109721
9	0x3ea6914e	0.32532734
10	0x3ec50c0b	0.3848575
11	0x3e0b0171	0.13574769
12	0x3e440802	0.1914368
13	0xbdda2b47	-0.10652786
14	0xbdd99b9d	-0.10625384
15	0xbec4602e	-0.3835463
16	0x3e50280f	0.20327781
17	0x3db781ca	0.08960302
18	0x3e05eac4	0.13077837
19	0xbe8d669a	-0.2761734
20	0xbedb909b	-0.42883763
21	0x3e6949a7	0.22782002
22	0xbe5395a0	-0.20662546
23	0xbe10fc93	-0.1415885
24	0x3e043cfd	0.1291389
25	0x3e2cae9e	0.16863486
26	0xbed4a8a8	-0.41534925
27	0xbddf8c0a	-0.10915382
28	0x3ebf1ea2	0.37328058
29	0x3da0e54e	0.078562364
30	0xbe8152c3	-0.25258455
31	0x3eb00445	0.34378257
32	0xbece792b	-0.4032682
33	0x3d02673c	0.031836733
34	0x3dc94628	0.09827834
35	0x3d288080	0.041138172
36	0x3ec5bef4	0.38622248
37	0x3da5c5a7	0.0809434
38	0xbe8e7488	-0.2782328
39	0xbd83a1c7	-0.06427341
40	0xbe3755e5	-0.1790386
41	0x3eb840a2	0.3598681
42	0x3d6813b9	0.056659434
43	0xbec8c8a3	-0.39215574
44	0x3bd51a67	0.0065033915
45	0x3b9b917a	0.0047475668
46	0x3cc42e48	0.02394785
47	0x3dba0a96	0.0908405
48	0x3e6e7585	0.23287018
49	0xbeabe38e	-0.33572048
50	0x3e086852	0.13321045
51	0xbe5eb758	-0.21749628
52	0x3e940ace	0.28914493
53	0xbe72bd50	-0.2370503
54	0xbe9e4389	-0.309109
55	0xbe7efe96	-0.24901804
56	0x3e7f7ea6	0.24950656
57	0xbda7e00d	-0.08197031
58	0x3ec16765	0.37774196
59	0xbeb8bb8d	-0.3608059
60	0x3e0f4cac	0.13994092
61	0xbe1dda69	-0.15415348
62	0x3d7c4fb2	0.06159944
63	0x3e9160df	0.2839422
64	0x3e62a35b	0.22132628
65	0xbecee044	-0.40405476
66	0xbd805ca8	-0.06267673
67	0x3e39191f	0.18075989
68	0xbedb98c2	-0.42889982
69	0xbea2d7e4	-0.31805336
70	0xbedba3d2	-0.42898422
71	0x3d72970f	0.059226092
72	0x3dbfc58b	0.0936385
73	0xbe388d37	-0.18022619
74	0x3e32e9a9	0.17471947
75	0x3d853366	0.06503944
76	0x3e3cae30	0.18425822
77	0x3ec240cd	0.37940064
78	0xbe944de4	-0.28965676
79	0xbeac22a2	-0.33620173
80	0x3ed28b69	0.41121987
81	0xbe66a546	-0.22523984
82	0x3e9c2b77	0.3050191
83	0xbe15dc77	-0.14634882
84	0xbdbf242b	-0.0933307
85	0xbe45be7c	-0.19310945
86	0x3e07960a	0.13240829
87	0xbce45d27	-0.02787645
88	0x3eb111ea	0.3458398
89	0xbed91c82	-0.42404562
90	0xbc260703	-0.010133508
91	0x3d82cd5c	0.063868254
92	0x3e0f79a0	0.1401124
93	0x3eac22b7	0.33620235
94	0x3e1939b3	0.14963417
95	0xbebfe09a	-0.37476045
96	0x3d736b82	0.0594287
97	0xbe3bfa98	-0.18357313
98	0x3e8829d0	0.265944
99	0xbe412a82	-0.18863872
100	0xbd55dd0b	-0.052212756
101	0x3de37222	0.111057535
102	0x3e91748c	0.2840923
103	0xbe54b3ee	-0.20771763
104	0x3ea51e1b	0.3224953
105	0xbe9c27e3	-0.3049918
106	0xbdd30fc2	-0.1030574
107	0xbe8b02b7	-0.2715051
108	0x3dbbf6ac	0.09177908
109	0xbeb3a06d	-0.35083333
110	0xbb8f2d3a	-0.004369405
111	0xbe9952cf	-0.2994599
112	0x3e8eb10c	0.2786945
113	0xbec8ef1f	-0.39244935
114	0xbe4277fc	-0.18991083
115	0xbebc2d4e	-0.36753315
116	0xbe8bb814	-0.27288878
117	0x3cff69e4	0.031178422
118	0x3e52b579	0.20577039
119	0x3e5da7da	0.21646062
120	0xbeaf0ac0	-0.3418789
121	0xbd9d7272	-0.07687844
122	0xbdb988eb	-0.09059318
123	0x3e3ae2fa	0.18250647
124	0xbd34a901	-0.044106487
125	0xbd693855	-0.056938488
126	0xbe8a962f	-0.27067706
127	0xbe9a3d40	-0.30124855
128	0xbca7a567	-0.020464612
129	0x3e529555	0.20564778
130	0xbe5c0c8b	-0.2148916
131	0x3dbb1f15	0.09136788
132	0x3e58f9aa	0.2118899
133	0xbe20fdc8	-0.1572181
134	0x3ec89392	0.39175087
135	0x3ec98317	0.39357826
136	0x3e84bdf0	0.2592616
137	0x3e3d3446	0.18476972
138	0xbeafea4f	-0.3435845
139	0x3e6c75ba	0.23091784
140	0xbd4eb582	-0.050466068
141	0x3eaaaddd	0.33335772
142	0xbeb70658	-0.35747027
143	0xbc633d4f	-0.013869598
144	0x3ec93f43	0.39306077
145	0x3daef5b9	0.085429616
146	0x3e10e573	0.14150028
147	0xbaf35379	-0.0018564306
148	0xbe51ea72	-0.2049959
149	0x3e5b1bae	0.21397278
150	0x3eaf2c4a	0.34213477
151	0x3e7307b9	0.23733415
152	0xbe9534ac	-0.29141748
153	0xbe952840	-0.2913227
154	0x3ed67bd8	0.4189136
155	0xbd5e631a	-0.05429373
156	0x3e38c617	0.18044315
157	0x3dfbd12c	0.12295756
158	0xbe8c077f	-0.2734947
159	0x3ebe9283	0.37221155
160	0x3d9d905a	0.076935485
161	0xbe547d54	-0.20750934
162	0x3ed15396	0.40884084
163	0x3e117791	0.14205767
164	0x3dd78100	0.10522652
165	0xbe98187d	-0.29706183
166	0x3ec2533a	0.37954122
167	0xbe609e8f	-0.21935485
168	0xbe1b63f8	-0.15174854
169	0xbed7272d	-0.42022076
170	0x3df5ce2a	0.12002213
171	0xbe7b5909	-0.24545683
172	0xbec4ac75	-0.38412824
173	0x3e9bd539	0.30436113
174	0xbecadd5c	-0.3962201
175	0xbdb754c5	-0.089517154
176	0xbe27222c	-0.1632163
177	0x3caa3e84	0.020781763
178	0x3d820d7b	0.063502274
179	0x3ec30627	0.3809063
180	0x3dfb16d8	0.122602165
181	0xbe0f745d	-0.14009233
182	0xbe83b0ac	-0.25720727
183	0xbdeb6e17	-0.11495607
184	0x3e74f5ea	0.23921934
185	0xbed5c7e1	-0.41754058
186	0x3e28b9e2	0.16477159
187	0xbce8282f	-0.028339474
188	0xbe4fbec5	-0.20287617
189	0x3e91f7c9	0.28509358
190	0x3e5f1173	0.21784
191	0x3b9d9d0d	0.0048099817
192	0xbe5ae6fd	-0.21377178
193	0xbe86eb79	-0.26351526
194	0xbdeeb19d	-0.11654971
195	0xbe895172	-0.2681995
196	0xbd9a84a1	-0.07544828
197	0x3e15207f	0.14563178
198	0xbd41ed72	-0.047345586
199	0x3d669204	0.056291595
200	0xbe21c984	-0.15799528
201	0xbdf35d15	-0.11882988
202	0x3e8146b2	0.2524925
203	0xbd586998	-0.052835077
204	0x3ddd9b67	0.10820656
205	0xbe98f5c2	-0.29874998
206	0xbe80bd02	-0.25144202
207	0x3ea93fe5	0.3305656
208	0xbc5a3a37	-0.013319544
209	0x3edf47a7	0.43609354
210	0xbe15b22a	-0.14618745
211	0x3e6fcbbc	0.23417562
212	0x3e4afe4a	0.19823566
213	0xbebe8f55	-0.3721873
214	0xbe7ad589	-0.2449552
215	0x3ebae602	0.36503607
216	0xbe1428ec	-0.14468735
217	0xbeccab62	-0.39974505
218	0x3ea44c1b	0.32089314
219	0x3ed2c705	0.41167465
220	0x3e8ff7e7	0.28118822
221	0x3e8d5732	0.27605587
222	0xbe053531	-0.13008572
223	0x3ec252e4	0.37953866
224	0xbe4427bd	-0.19155784
225	0x3e31a58d	0.17348309
226	0xbed4fe1c	-0.4160012
227	0x3ec30b8f	0.38094756
228	0xbea3ea2c	-0.32014596
229	0xbece4179	-0.40284327
230	0x3e3731df	0.17890118
231	0x3ebfb520	0.37442875
232	0xbeb3fdcb	-0.35154566
233	0x3ed6e9cd	0.4197525
234	0x3d97b3e8	0.07407361
235	0x3e60a73e	0.21938798
236	0x3db4678a	0.08808811
237	0xbedcb577	-0.43107197
238	0x3ebf5f44	0.3737737
239	0x3eb23536	0.34806222
240	0x3e696735	0.22793277
241	0x3c82cb7f	0.015966175
242	0x3e336ffa	0.17523184
243	0x3ccf2fb0	0.025291294
244	0x3e13845d	0.14405961
245	0xbd545af5	-0.051844556
246	0x3ed03a84	0.40669644
247	0xbe12d918	-0.14340627
248	0xbd8bd166	-0.06827049
249	0x3e02b65b	0.12764876
250	0x3ec48026	0.3837902
251	0xbe77c746	-0.2419711
252	0xbe40a4d1	-0.18812872
253	0xbec3423a	-0.38136464
254	0x3ea88baa	0.32919055
255	0x3ed48550	0.4150796

bias f4 [16]
0	0x3c2a5f8d	0.010398758
1	0x00000000	0.0
2	0xbc218124	-0.00985745
3	0x3bf49584	0.0074641127
4	0x00000000	0.0
5	0x00000000	0.0
6	0x00000000	0.0
7	0x00000000	0.0
8	0x3a49e771	0.0007702029
9	0x00000000	0.0
10	0xb924b768	-0.00015708583
11	0xbc1b103d	-0.009464321
12	0x00000000	0.0
13	0x3c44e9b9	0.012018614
14	0x00000000	0.0
15	0x3c0b3ac4	0.008497898

weight f4 [16, 16]
0	0x3dc8c18a	0.0980254
1	0xbeb83e65	-0.35985103
2	0xbea72368	-0.326442
3	0x3eb3a38f	0.35085723
4	0x3cf029a2	0.029316727
5	0x3dc37096	0.095429584
6	0xbe830324	-0.25588334
7	0xbeb76e9e	-0.35826582
8	0xbe53fdf3	-0.20702343
9	0xbed4c5ad	-0.41557065
10	0x3e9bbb97	0.30416557
11	0x3e2a662b	0.16640536
12	0xbeb7241b	-0.35769734
13	0x3ee2feb8	0.4433496
14	0xbdcc060c	-0.09962091
15	0x3e6ab464	0.22920376
16	0x3dbdfb48	0.09276444
17	0x3e1d049c	0.1533379
18	0xbd21ba21	-0.039484147
19	0xbd485bb5	-0.048915584
20	0xbe4cbec8	-0.19994652
21	0x3e0920d4	0.13391429
22	0x3d3706ca	0.04468421
23	0x3e9db867	0.3080475
24	0xbea6dd66	-0.3259079
25	0x3e2f247d	0.17103763
26	0x3e0ccc54	0.1374982
27	0x3c4d3fb5	0.012527396
28	0xbe7b137f	-0.24519156
29	0xbe5fa945	-0.21841915
30	0x3ea6bfda	0.32568246
31	0x3e98af85	0.2982141
32	0x3e3297d9	0.17440738
33	0xbed272bc	-0.4110316
34	0xbe93602c	-0.2878431
35	0x3e12f7d6	0.14352354
36	0x3ed7aefe	0.42125696
37	0xbed2ed1e	-0.4119653
38	0x3dd92f43	0.106047176
39	0xbed16af7	-0.4090192
40	0xbed4d6b8	-0.41570067
41	0xbea78eba	-0.3272608
42	0xbe5a372c	-0.21310109
43	0xbe869fb1	-0.2629371
44	0xbe8064c8	-0.2507689
45	0x3d15ab4a	0.036540307
46	0xbdbde918	-0.09272975
47	0x3e82b6bc	0.2553004
48	0x3dca18df	0.09868025
49	0xbe307fa8	-0.17236197
50	0xbe963101	-0.29334262
51	0x3ea84e9a	0.32872468
52	0xbbc0687e	-0.0058718314
53	0x3dba8cf1	0.09108914
54	0x3e5054ac	0.203448
55	0xbdb0e787	-0.0863791
56	0xbe622734	-0.22085267
57	0x3c73f796	0.014890572
58	0xbe7ea789	-0.24868597
59	0x3e5b8b81	0.21439935
60	0x3e23092c	0.15921468
61	0xbe5a2b66	-0.21305618
62	0xbe0d8ad7	-0.13822494
63	0x3db9e1a9	0.090762444
64	0x3d7bfb41	0.06151891
65	0x3d84ce58	0.064846694
66	0xbe5c7e69	-0.21532597
67	0x3daf62ae	0.085637435
68	0xbe3d1df5	-0.18468459
69	0x3db9d81b	0.09074422
70	0x3c96dd29	0.018416004
71	0x3cb153a5	0.02164633
72	0xbe34e2cf	-0.17664646
73	0xbeb28833	-0.34869537
74	0xbe9d0152	-0.3066507
75	0x3dc9ba49	0.09849984
76	0x3e417896	0.18893656
77	0xbdd10fb1	-0.10208071
78	0x3e9934f2	0.29923207
79	0xbe2ac014	-0.16674834
80	0x3e77d0dd	0.24200769
81	0x3db0598d	0.086108305
82	0x3ecaa145	0.39576164
83	0x3eaab9f7	0.33345005
84	0xbe029e5a	-0.12755719
85	0x3c41ca44	0.011828009
86	0xbea7b77b	-0.32757172
87	0x3e8075da	0.25089914
88	0xbdb4cb44	-0.08827832
89	0xbeaf6afa	-0.34261304
90	0xbe3472d7	-0.17621933
91	0xbec1d189	-0.37855175
92	0xbdf921e6	-0.12164669
93	0xbe090773	-0.13381748
94	0xbed76ca9	-0.4207509
95	0x3e04b638	0.12960136
96	0xbea22add	-0.31673327
97	0x3dba97a9	0.09110958
98	0xbe547a95	-0.20749886
99	0x3d265710	0.040610373
100	0xbe502e8a	-0.20330253
101	0xbd9f90e0	-0.077913046
102	0x3d08b80a	0.03337864
103	0x3e3ca7bc	0.1842336
104	0x3e11efdd	0.14251657
105	0x3eaaaff6	0.33337373
106	0x3ecb4e2c	0.39708078
107	0xbed24e98	-0.41075587
108	0xbdd91ff2	-0.10601796
109	0x3e4691b0	0.19391513
110	0xbe2c65d1	-0.16835715
111	0xbe020b16	-0.12699541
112	0xbe8b8f17	-0.27257606
113	0x3da62289	0.08112056
114	0xbdf36103	-0.11883738
115	0xbd6ae8df	-0.05735099
116	0x3e687272	0.22699907
117	0x3e9d5055	0.3072535
118	0xbe954570	-0.2915454
119	0xbeb865ce	-0.3601517
120	0x3e3fad0f	0.1871836
121	0xbe98e25e	-0.29860204
122	0xbd32cc88	-0.043652087
123	0x3d9f0166	0.077639386
124	0xbedbdd21	-0.42942145
125	0x3eb457e4	0.35223305
126	0x3e04bfb4	0.12963754
127	0x3d4ffe20	0.05077946
128	0x3ce9099d	0.028446967
129	0xbeb82d82	-0.3597222
130	0x3e639f76	0.22228798
131	0xbe270cd3	-0.16313486
132	0xbe988022	-0.29785258
133	0xbc92acea	-0.017904717
134	0x3eade7c1	0.33965877
135	0xbea0e78f	-0.31426665
136	0xbdadb05d	-0.08480904
137	0x3e2c3f86	0.16821107
138	0xbeb48533	-0.35257873
139	0x3eb50d06	0.353615
140	0x3c8de746	0.017322194
141	0xbc454e8d	-0.012042654
142	0x3e0a7322	0.13520482
143	0xbd1971e7	-0.03746214
144	0x3e650d5d	0.22368379
145	0x3e975a12	0.29560906
146	0xbed8b719	-0.42327192
147	0x3ec01c24	0.3752147
148	0x3ed5d3b6	0.41763085
149	0xbdb3ae19	-0.08773441
150	0x3dd880d7	0.10571449
151	0x3e8936fe	0.26799768
152	0x3ed6e27c	0.4196967
153	0x3e0a4507	0.13502894
154	0x3e6995f2	0.22811106
155	0xbe99628b	-0.29957995
156	0xbed757f6	-0.42059296
157	0x3e0dd111	0.13849284
158	0x3dd9c16f	0.10632598
159	0xbdf42734	-0.1192154
160	0xbe94b610	-0.29045153
161	0xbdbf728b	-0.09348019
162	0xbe82e02d	-0.25561658
163	0xbe5d9a7b	-0.21640961
164	0x3df8528a	0.12125118
165	0xbce99761	-0.028514566
166	0xbcb136a2	-0.021632496
167	0xbdaf401f	-0.08557152
168	0xbe857d84	-0.26072323
169	0x3ed5136c	0.4161638
170	0x3e83ff56	0.25780743
171	0xbe09b87a	-0.13449278
172	0x3def889b	0.11695977
173	0x3eb47d53	0.35251865
174	0xbe88f4b8	-0.26749206
175	0xbe55e31b	-0.20887415
176	0xbea9a2ed	-0.33132115
177	0xbe672336	-0.22572026
178	0xbbd9fc83	-0.006652416
179	0x3e619630	0.22029948
180	0x3ec7c99b	0.39021
181	0x3eb9b6c2	0.36272246
182	0x3e7f497c	0.24930376
183	0x3e905a49	0.28193882
184	0xbde1ae65	-0.11019591
185	0x3ea965d8	0.33085513
186	0xbd98d8c9	-0.074632235
187	0xbd856dbf	-0.06515073
188	0x3da9133f	0.08255624
189	0x3dc030fc	0.09384343
190	0xbea54eb2	-0.32286602
191	0xbc719202	-0.014744284
192	0xbed83a3a	-0.42231923
193	0xbea61b44	-0.32442677
194	0x3de7a61d	0.113109805
195	0x3eb323be	0.34988207
196	0x3d9928c2	0.07478477
197	0xbe9bc2a8	-0.30421948
198	0x3e850bd1	0.25985578
199	0xbeaa2793	-0.33233318
200	0x3dbbd060	0.09170604
201	0x3d9dc15d	0.07702897
202	0x3ecf1183	0.40443048
203	0x3c85cb49	0.016332285
204	0xbe8dd0ec	-0.27698457
205	0x3eab06e9	0.3340371
206	0x3dad09a9	0.08449108
207	0xbe2cbeab	-0.16869609
208	0xbed98e7e	-0.42491525
209	0xbe4041f4	-0.18775159
210	0x3ea25aea	0.31709987
211	0x3e8fc04c	0.28076398
212	0xbc9db5e3	-0.01925177
213	0xbe438c38	-0.19096458
214	0xbd79934b	-0.060931485
215	0x3eb1cb8c	0.34725606
216	0x3e90af1c	0.28258598
217	0xbd247973	-0.040154886
218	0x3e20d3d8	0.15705812
219	0xbb866627	-0.004101533
220	0x3e2c17cb	0.16805951
221	0x3e12203d	0.1427011
222	0x3e982739	0.29717425
223	0xbeb58d2f	-0.35459277
224	0x3c7b9601	0.015355588
225	0xbd25329e	-0.040331475
226	0xbdb93a14	-0.09044281
227	0xbe904039	-0.28173998
228	0x3e12b098	0.14325178
229	0x3e80793c	0.25092494
230	0xbcc1c19b	-0.023651889
231	0xbe480bab	-0.19535701
232	0xbe011090	-0.12603974
233	0xbd7749c1	-0.06037307
234	0x3d73105b	0.05934177
235	0x3ebece2d	0.37266675
236	0xbbf9cf36	-0.0076235784
237	0xbc8bbece	-0.017058756
238	0xbe875dc5	-0.26438728
239	0x3e8fb439	0.28067186
240	0x3dac6c9c	0.08419153
241	0x3ec90ccf	0.39267585
242	0xbe2eff66	-0.17089614
243	0x3d60642b	0.054783028
244	0x3e0a158c	0.13484782
245	0x3eaf7b8b	0.34273943
246	0x3e2a62c0	0.16639233
247	0x3e72c6a6	0.23708591
248	0xbbf703e0	-0.0075383037
249	0xbe5448fd	-0.20730968
250	0x3dd13b21	0.10216356
251	0x3e66a0a9	0.22522224
252	0xbe95d29d	-0.29262248
253	0xbda434fb	-0.08017918
254	0xbe9f47c3	-0.31109437
255	0xbe42caf9	-0.1902274

bias f4 [16]
0	0x3c384f94	0.011249442
1	0x00000000	0.0
2	0x00000000	0.0
3	0x00000000	0.0
4	0x00000000	0.0
5	0x3c36609b	0.011131431
6	0x00000000	0.0
7	0x3c1576fa	0.0091226045
8	0xbbf05399	-0.0073341844
9	0x3bcc357f	0.006231963
10	0x00000000	0.0
11	0x00000000	0.0
12	0xbc23e568	-0.010003425
13	0xb8dd6cdb	-0.00010558377
14	0xbb7334d2	-0.003711034
15	0x00000000	0.0
