ood/tox21.pt (torch, 347597 bytes, 62 tensors)

weight f4 [16, 9]
0	0x3e582e0c	0.21111315
1	0xbee2b609	-0.44279507
2	0x3c2e4ca3	0.010638389
3	0xbee1bd77	-0.44089863
4	0x3e20b52a	0.15694109
5	0xbea9951e	-0.3312158
6	0xbed5e32a	-0.41774875
7	0x3e162b6b	0.14665
8	0x3ea8584c	0.32879865
9	0xbec9dbbb	-0.39425454
10	0xbe9edcc5	-0.3102781
11	0x3c896402	0.01677132
12	0x3edb2f6c	0.42809618
13	0x3d600d4d	0.054700185
14	0xbecb031d	-0.39650813
15	0xbec6ac4e	-0.38803333
16	0xbd951e7a	-0.072812036
17	0x3e17dced	0.1483037
18	0x3e23c8db	0.15994589
19	0x3ddcc2cf	0.10779344
20	0xbd77e5da	-0.060521938
21	0xbdeb2af2	-0.114828005
22	0x3eb45c07	0.3522646
23	0x3efe1980	0.4962883
24	0x3eaa2ab2	0.332357
25	0x3ed42f56	0.41442364
26	0xbe8e67b2	-0.27813488
27	0x3dba8151	0.091066964
28	0xbc90c173	-0.017670369
29	0x3d32d663	0.043661486
30	0x3e9240d1	0.28565076
31	0x3e080d0f	0.13286231
32	0xbe947fec	-0.29003847
33	0x3ed1e5de	0.40995687
34	0x3e5f66a0	0.21816492
35	0xbea86fe9	-0.3289788
36	0xbee51992	-0.4474607
37	0x3e41c236	0.18921742
38	0x3e536a55	0.20646031
39	0xbe9bf03b	-0.3045672
40	0xbd9f7c5f	-0.07787394
41	0xbe05da05	-0.13071449
42	0x3db5adde	0.08871053
43	0xbdb8ce3d	-0.09023712
44	0xbe7a7dd1	-0.24462058
45	0xbebf8bc1	-0.3741131
46	0xbeef96bb	-0.46794686
47	0x3df2166a	0.118206814
48	0xbec38bf8	-0.38192725
49	0x3e043009	0.12908949
50	0xbd4eb2cb	-0.05046348
51	0xbc1644bf	-0.009171664
52	0x3e67367f	0.22579382
53	0x3d5c6ac0	0.053812742
54	0x3e898968	0.26862645
55	0x3e9bcd04	0.30429852
56	0xbe93a6b8	-0.28838134
57	0x3dece417	0.11566942
58	0x3ebc30c4	0.36755955
59	0xbe795f82	-0.2435284
60	0x3e0ef0a4	0.13958985
61	0x3e64a25a	0.22327557
62	0xbe7c9d0a	-0.2466928
63	0xbdc1536b	-0.09439739
64	0xbebcf799	-0.36907652
65	0xbdaa0496	-0.08301656
66	0xbc95bbd2	-0.018278036
67	0xbe569043	-0.20953469
68	0xbe2eb160	-0.1705985
69	0xbdc793b3	-0.09744968
70	0x3e30d917	0.17270313
71	0x3d91b8f6	0.071153566
72	0xbe751bf1	-0.2393644
73	0x3d82998e	0.063769445
74	0x3e97c45a	0.29641992
75	0x3e5fbd0f	0.21849464
76	0xbdab3a2a	-0.08360703
77	0x3ecd00fa	0.40039808
78	0xbce4e623	-0.027941769
79	0x3ed1d2ae	0.40981048
80	0xbd0aada3	-0.033857
81	0xbedc8fe6	-0.43078536
82	0x3eb52da1	0.35386375
83	0xba5b28bc	-0.0008360257
84	0x3ecf0650	0.40434504
85	0x3ebc8033	0.36816558
86	0xbeb88ba7	-0.36044046
87	0xbe2c84e4	-0.16847569
88	0xbabefa8a	-0.0014570516
89	0x3ed1550a	0.40885192
90	0xbb4e7dd4	-0.0031508105
91	0xbd636813	-0.055519175
92	0x3df327f0	0.11872852
93	0x3eb52007	0.35375997
94	0x3ea6977c	0.32537448
95	0x3ec7d315	0.3902823
96	0xbe3502a6	-0.17676792
97	0xbb74fa5b	-0.0037380669
98	0xbc3e6138	-0.011619858
99	0xbeca0563	-0.39457235
100	0x3eca2bde	0.39486593
101	0x3e017fcf	0.12646411
102	0x3e6904da	0.22755757
103	0x3edcd533	0.43131408
104	0x3e111da6	0.14171466
105	0xbdb5690f	-0.08857929
106	0xbed06a17	-0.4070594
107	0xbe3fb404	-0.18721014
108	0x3ce6998c	0.028149389
109	0xbe4b743e	-0.19868562
110	0x3ed33305	0.41249862
111	0xbe1f8e76	-0.15581688
112	0xbebecab1	-0.37264016
113	0x3f01cc92	0.50702775
114	0x3ea9b224	0.33143723
115	0xbeae8142	-0.3408299
116	0x3e0b9bf7	0.13633715
117	0xbee6ce27	-0.45079157
118	0x3edc5cd7	0.4303958
119	0x3e9e1b2a	0.308801
120	0x3e47705a	0.19476452
121	0x3df9977f	0.12187099
122	0xbca8ef74	-0.020621993
123	0x3ce7d724	0.02830083
124	0x3e34e954	0.17667133
125	0xbeebbbaf	-0.4604163
126	0xbe8644df	-0.2622442
127	0xbed1077e	-0.4082603
128	0x3e3468d6	0.17618117
129	0xbebe57ec	-0.37176454
130	0xbd6f31d0	-0.058397114
131	0xbe76a8e4	-0.24087864
132	0x3eb04482	0.34427267
133	0x3e140d10	0.14458108
134	0xbecd9f25	-0.4016048
135	0x3dbee7a8	0.09321529
136	0xbd85e5a2	-0.065379396
137	0xbd1bb4b3	-0.038014125
138	0x3e9f65cd	0.31132355
139	0x3bf0119b	0.0073263175
140	0x3eb71c5e	0.3576383
141	0xbe77dc9a	-0.24205247
142	0x3ef218c4	0.4728452
143	0x3e24cde1	0.16094162

bias f4 [16]
0	0x3ba49d59	0.00502364
1	0xbb157c53	-0.0022809699
2	0x3bab0d15	0.0052200654
3	0x3c0278b2	0.007963346
4	0x00000000	0.0
5	0x00000000	0.0
6	0xbb1f6d36	-0.002432657
7	0x00000000	0.0
8	0xbb8e48f7	-0.004342194
9	0x3ba502dd	0.0050357417
10	0xbb8cb66d	-0.004294208
11	0xbb926f15	-0.0044688084
12	0x3bfa9610	0.0076472834
13	0xbb70c313	-0.0036737367
14	0x00000000	0.0
15	0xbba237ac	-0.0049504843

weight f4 [16, 16]
0	0xbdd80b4d	-0.105490305
1	0x3eb95caa	0.3620351
2	0x3e933ce5	0.28757396
3	0x3ec97d54	0.3935343
4	0x3e06b03c	0.13153166
5	0x3dac3845	0.0840917
6	0xbdfcb17d	-0.12338541
7	0x3e43e009	0.19128431
8	0x3e36e028	0.17858946
9	0x3e32747b	0.17427246
10	0xbe736d67	-0.23772202
11	0xbe701723	-0.23446326
12	0x3e5950a5	0.2122217
13	0xbeb50505	-0.35355392
14	0x3e4e8fac	0.20171994
15	0xbe20388d	-0.15646572
16	0x3e9cb9e8	0.30610585
17	0xbd0c3e38	-0.034239024
18	0xbd731dff	-0.05935478
19	0x3d26fd12	0.04076869
20	0x3e09d2c8	0.13459313
21	0xbe7b675a	-0.24551144
22	0xbe7e2ea5	-0.24822481
23	0xbda16063	-0.078797124
24	0xbd7a964a	-0.061178483
25	0x3d2e17d5	0.042503197
26	0xbe823b0e	-0.2543568
27	0xbdacfe82	-0.08446981
28	0x3e5d4770	0.21609282
29	0xbe557ac3	-0.20847611
30	0xbebcab9f	-0.36849687
31	0x3ddf43b3	0.109015845
32	0xbe421f7e	-0.18957326
33	0x3e86deb5	0.26341787
34	0x3e55f0df	0.20892666
35	0x3e88380d	0.26605263
36	0xbe0fa45c	-0.14027542
37	0x3eadfaf3	0.33980522
38	0x3da2ad70	0.07943237
39	0x3d7d6fdd	0.06187426
40	0xbe244abf	-0.16044138
41	0xbdeecba6	-0.116599366
42	0xbbb03b32	-0.0053781504
43	0x3e0178a9	0.12643684
44	0x3c9f67a5	0.019458601
45	0xbeca0ad1	-0.39461377
46	0xbd5c1b2f	-0.05373686
47	0x3e14e350	0.14539838
48	0xbe1dd3d1	-0.15412833
49	0xbe9c7156	-0.30555218
50	0xbd3e8e9e	-0.04652273
51	0xbeb08aa0	-0.34480762
52	0x3e252702	0.16128162
53	0xbd7d1811	-0.06179053
54	0x3e94414a	0.28956062
55	0x3ea6326f	0.32460353
56	0xbe2a4e40	-0.16631413
57	0x3da6dd43	0.08147671
58	0x3d789912	0.060692854
59	0x3e66e2db	0.22547476
60	0x3e9501eb	0.29103026
61	0xbec4fb4d	-0.38472977
62	0xbccc05c6	-0.024905097
63	0x3ed940c6	0.4243223
64	0xbeadfec1	-0.33983424
65	0xbe7b2e4d	-0.24529381
66	0x3ea4f6cc	0.3221954
67	0x3bee6ccb	0.0072761527
68	0x3e444015	0.1916507
69	0x3eaca9ff	0.33723447
70	0x3e02956b	0.12752311
71	0xbc228529	-0.009919443
72	0xbd1898c8	-0.03725508
73	0x3e6e58a6	0.23276004
74	0x3ed875aa	0.4227727
75	0x3e78bca0	0.24290705
76	0x3e86c638	0.26323104
77	0x3ec7c648	0.39018464
78	0xbe8854ba	-0.2662714
79	0x3ebad89a	0.3649338
80	0x3e925eeb	0.28588042
81	0x3e9b3e59	0.30321005
82	0x3ecf72f0	0.40517378
83	0x3ead8895	0.33893266
84	0xbe34a5ef	-0.17641424
85	0x3e982da5	0.29722324
86	0x3e0c9e35	0.13732226
87	0xbe531e4a	-0.20617023
88	0xbda07f5c	-0.07836792
89	0xbe3d365b	-0.18477766
90	0xbba0d443	-0.004908116
91	0xbe29b581	-0.16573144
92	0xbda84b98	-0.08217543
93	0x3d9303a4	0.07178429
94	0xbebbfe2b	-0.36717352
95	0xbe906a90	-0.282063
96	0x3e3d20ef	0.18469594
97	0xbc83468c	-0.01602485
98	0xbecc0313	-0.39846095
99	0xbe012458	-0.1261152
100	0xbe6c9fb0	-0.23107791
101	0x3cf0ae22	0.029379908
102	0xbed8b1dc	-0.42323196
103	0x3e547064	0.20745999
104	0x3def28f0	0.1167773
105	0x3e0ab09b	0.13543932
106	0x3e4444af	0.19166826
107	0xbeb10a37	-0.34578106
108	0x3e3c1965	0.18369062
109	0xbcf0af00	-0.029380322
110	0x3e9dca34	0.3081833
111	0xbedca6eb	-0.43096098
112	0x3e15fd40	0.14647388
113	0xbe21b849	-0.15792955
114	0x3e245bc7	0.16050635
115	0xbeb6e445	-0.3572103
116	0xbe50a07d	-0.20373721
117	0x3e3af799	0.18258514
118	0xbe9abca2	-0.3022204
119	0xbe949fab	-0.29028067
120	0xbd313a28	-0.043268353
121	0xbd9bf413	-0.07614913
122	0x3ea54f0b	0.32286867
123	0xbe4c5c8e	-0.19957182
124	0xbc1e6e88	-0.009669907
125	0x3b7c8b65	0.0038535234
126	0x3d888e47	0.06667762
127	0x3e78aee9	0.24285473
128	0xbea3bc37	-0.31979534
129	0x3d318846	0.04334285
130	0x3e9ccb4f	0.30623862
131	0x3ed7f8a7	0.42181894
132	0xbe36ab3c	-0.17838758
133	0xbe2d61bc	-0.16931814
134	0x3e5c786e	0.21530315
135	0x3cd775ea	0.026301343
136	0xbe350d71	-0.17680909
137	0x3dbf2e37	0.09334987
138	0xbeba5348	-0.36391664
139	0x3e9074dd	0.2821416
140	0x3e7a77a5	0.24459703
141	0x3de4a0ec	0.11163506
142	0x3e91b5e1	0.28459075
143	0x3d4ce0a3	0.050018918
144	0xbe7b0280	-0.24512672
145	0x3ecbf879	0.39838007
146	0xbed4e33e	-0.41579622
147	0xbe929842	-0.28631788
148	0x3dcac3c7	0.09900623
149	0x3ece07d8	0.4024036
150	0x3dd75cdb	0.10515758
151	0xbe5d1b45	-0.21592434
152	0x3eb566c9	0.3542998
153	0x3cf7c823	0.0302468
154	0xbeae3367	-0.34023592
155	0x3e084075	0.13305838
156	0xbecdcaf3	-0.401939
157	0x3e192e90	0.14959168
158	0x3e8413b7	0.2579629
159	0xbec6a0f5	-0.38794675
160	0x3e5e3938	0.21701515
161	0xbed83e78	-0.4223516
162	0x3e8735d0	0.26408243
163	0xbd9b1c2d	-0.075737335
164	0x3e47ccc6	0.19511709
165	0x3da4e160	0.08050799
166	0x3e872288	0.26393533
167	0xbe877e33	-0.2646347
168	0xbdb075e8	-0.08616239
169	0x3e9d7889	0.30756024
170	0x3eb88fb9	0.36047152
171	0xbe72353f	-0.23653124
172	0x3e5db7ae	0.216521
173	0xbeca3ac0	-0.39497948
174	0x3d9aae9b	0.075528346
175	0x3ec49ea0	0.3840227
176	0x3ed5886d	0.41705647
177	0x3d281d30	0.04104346
178	0x3e7b4ec0	0.2454176
179	0x3d8d26e0	0.068921804
180	0x3ecbd21e	0.39808744
181	0x3e42d3f9	0.19026174
182	0xbea968a1	-0.33087638
183	0x3e5c8cbe	0.21538064
184	0xbebc2f13	-0.36754665
185	0x3ccff0ba	0.025383342
186	0xbeaa2ead	-0.33238736
187	0xbe89c5f7	-0.26908848
188	0x3eb201fe	0.34767145
189	0x3dd58354	0.104254395
190	0x3e82a41f	0.2551584
191	0x3eac6404	0.33670056
192	0x3de5c566	0.112192914
193	0x3df5fb12	0.120107785
194	0xbe96ffc7	-0.29492018
195	0xbe386fb1	-0.18011357
196	0x3e640e0c	0.22270983
197	0x3c5389a6	0.012911236
198	0x3ebf0ef5	0.373161
199	0xbebb7e65	-0.3661987
200	0x3ed3fc69	0.4140351
201	0xbe57e35b	-0.21082823
202	0x3ed787a6	0.4209568
203	0x3e197d83	0.14989285
204	0x3ea72e24	0.3265239
205	0x3ed018cb	0.40643916
206	0x3c178bc6	0.009249633
207	0xbeb51b76	-0.35372514
208	0xbecc682c	-0.39923227
209	0xbc7df0b1	-0.01549928
210	0x3e1ac6c5	0.15114887
211	0x3e984a1e	0.29744047
212	0xbe7e2463	-0.24818568
213	0xbe699c32	-0.2281349
214	0xbd63e5e8	-0.055639178
215	0xbed31513	-0.41227016
216	0x3e347f5a	0.17626706
217	0xbec9b129	-0.39392975
218	0x3d94b2c7	0.072606616
219	0x3e80acc0	0.25131798
220	0xbeae4569	-0.3403733
221	0x3e071310	0.13190866
222	0xbed0fffd	-0.40820304
223	0x3e2603e0	0.16212416
224	0x3e5d7fb0	0.2163074
225	0xbe2d2bb4	-0.16911203
226	0xbebe1ff9	-0.37133768
227	0xbed27692	-0.41106087
228	0xbedcba20	-0.43110752
229	0x3e5f78c5	0.21823414
230	0xbd07cb9d	-0.033153165
231	0xbe2ba376	-0.16761574
232	0x3c88a464	0.01667995
233	0xbec1130c	-0.37709844
234	0xbe97e11c	-0.29663932
235	0x3e9907a4	0.29888642
236	0xbedc75da	-0.43058664
237	0x3d5c40f7	0.053772893
238	0x3eb0b6c5	0.34514442
239	0xbe1d730e	-0.15375921
240	0x3dc3858a	0.09546955
241	0xbeda779e	-0.42669386
242	0x3ec070d2	0.37586075
243	0xbe339fce	-0.1754143
244	0x3e5eab44	0.2174502
245	0xbecd52be	-0.4010219
246	0x3e558dd4	0.20854884
247	0x3d9a132e	0.075231895
248	0xbea4e67c	-0.32207096
249	0xbe0a9b8a	-0.13535896
250	0x3c8d1958	0.017223999
251	0xbeaa6775	-0.33282056
252	0xbdc912fa	-0.098180726
253	0x3e920a69	0.28523567
254	0x3db6e0bd	0.08929584
255	0x3e286da1	0.1644807

bias f4 [16]
0	0x3bb66075	0.005565698
1	0x00000000	0.0
2	0xbb98dc82	-0.0046649585
3	0xbba531f3	-0.005041355
4	0xbb8ee2ca	-0.0043605315
5	0x3b99e6da	0.004696709
6	0x00000000	0.0
7	0xbb968d64	-0.004594492
8	0xbb9076d3	-0.004408696
9	0x00000000	0.0
10	0x3ba4b449	0.0050263745
11	0xbb8b2021	-0.0042457734
12	0xbb84d119	-0.0040532467
13	0xbb9d3f43	-0.004798801
14	0x00000000	0.0
15	0x3ba9e31a	0.0051845433

weight f4 [16, 16]
0	0x3ebd0427	0.3691723
1	0xbe851274	-0.2599064
2	0x3e2a7284	0.16645247
3	0x3e35f336	0.17768559
4	0x3dadc0f8	0.084840715
5	0xbcc90500	-0.024538517
6	0xbe66eb1c	-0.22550625
7	0xbe840ecc	-0.2579254
8	0x3ea09950	0.31366968
9	0x3e730145	0.23730953
10	0x3e96d9c6	0.29463023
11	0x3eadf3df	0.3397512
12	0x3e499758	0.1968664
13	0xbd3c1b6f	-0.0459246
14	0xbeb8fc76	-0.36130112
15	0xbe06fb74	-0.13181859
16	0x3ede3add	0.43404284
17	0x3caf90a9	0.021431284
18	0xbca86115	-0.020554105
19	0xbd08354b	-0.03325395
20	0xbe59eb63	-0.21281199
21	0x3eda86bf	0.42680928
22	0xbe522adf	-0.20524167
23	0xbe37a10c	-0.17932528
24	0xbde67561	-0.11252857
25	0x3e93dfbb	0.2888163
26	0x3e10541f	0.1409459
27	0x3cdc9537	0.02692662
28	0x3e4d0f4a	0.20025364
29	0xbeb1522e	-0.3463301
30	0xbd77921f	-0.060442086
31	0x3eda98c8	0.42694688
32	0x3ea9da85	0.3317453
33	0x3eaba526	0.33524436
34	0xbec83153	-0.3910013
35	0x3e7fd837	0.24984823
36	0x3e5e1895	0.21689065
37	0xbe636057	-0.2220472
38	0x3e3c6bdb	0.18400519
39	0x3e32230b	0.1739618
40	0xbe5c10b6	-0.2149075
41	0x3dbc8b39	0.09206242
42	0xbe8ee796	-0.2791106
43	0xbd4ed842	-0.05049921
44	0xbe0f9140	-0.14020252
45	0x3e9048e7	0.2818062
46	0xbe975272	-0.29555088
47	0xbd3a6429	-0.045505676
48	0xbed5ae82	-0.417347
49	0x3ec91895	0.39276567
50	0xbd3f59d4	-0.046716526
51	0xbe034291	-0.12818362
52	0x3e43c30b	0.19117372
53	0xbe967c9a	-0.29391938
54	0xbddcdde1	-0.107845075
55	0x3e5d9c41	0.21641637
56	0x3d68f63a	0.056875445
57	0x3ed2e42c	0.41189706
58	0xbda36cc6	-0.07979731
59	0x3eb0ced7	0.34532806
60	0xbce2ddaa	-0.027693588
61	0x3eaca2e9	0.3371804
62	0xbead8378	-0.33889365
63	0x3d91ae09	0.07113273
64	0xbebae269	-0.36500862
65	0xbe2ddb74	-0.16978246
66	0xbea50e4d	-0.32237473
67	0xbe6dc58e	-0.23219892
68	0xbe3f62a8	-0.18689978
69	0x3ec4d11e	0.38440794
70	0xbeb40744	-0.35161793
71	0xbe08d3fe	-0.13362119
72	0xbe72d20a	-0.23712936
73	0x3cb778c7	0.022396458
74	0x3e64b08c	0.22332972
75	0xbd355dbb	-0.04427884
76	0x3df7831d	0.12085555
77	0x3e3bd4a2	0.18342832
78	0xbe7406e4	-0.23830754
79	0xbbf2868d	-0.0074012936
80	0xbe49d05f	-0.19708394
81	0x3ecacd01	0.3960953
82	0xbd00f20f	-0.031480845
83	0x3ec30bc5	0.38094917
84	0x3ec9f090	0.39441347
85	0x3e9ae9d3	0.3025652
86	0x3edc860f	0.4307103
87	0x3e252c78	0.16130245
88	0x3bf607fd	0.0075082765
89	0x3e320f96	0.17388758
90	0xbd867242	-0.06564762
91	0x3ea0725b	0.31337246
92	0xbe263d2b	-0.16234271
93	0x3ce30db5	0.027716497
94	0x3e10de10	0.1414721
95	0xbc684f2e	-0.014179034
96	0x3eb0392b	0.34418616
97	0x3ea6e4f7	0.3259656
98	0x3eb2d331	0.3492675
99	0xbddf2996	-0.10896604
100	0x3e8ef821	0.27923682
101	0xbe3e7aa2	-0.18601468
102	0xbd1cb599	-0.038259123
103	0xbe5703e1	-0.20997573
104	0xbe8dd3c3	-0.27700624
105	0xbe517175	-0.20453437
106	0xbed1bddb	-0.4096516
107	0x3eaeb0f1	0.3411937
108	0x3ec3ad23	0.3821803
109	0x3d20fb7e	0.03930234
110	0x3d091f26	0.03347697
111	0xbd2bef83	-0.041976463
112	0x3d635e52	0.055509873
113	0x3e4f7709	0.20260252
114	0x3e1117f5	0.14169295
115	0xbecaf81e	-0.39642423
116	0xbcd51812	-0.026012454
117	0xbdcbe9c1	-0.099566944
118	0x3ed2d20a	0.41175872
119	0xbe6dc394	-0.23219138
120	0x3dfd595b	0.12370559
121	0x3ed9d1d5	0.42542902
122	0xbbfef20b	-0.0077803186
123	0xbea08092	-0.3134809
124	0xbe42b95d	-0.19016023
125	0xbe82071b	-0.25396046
126	0x3e2ed346	0.17072782
127	0x3e519a8f	0.20469116
128	0x3ec50962	0.3848372
129	0x3e6306cd	0.22170563
130	0xbda050de	-0.07827924
131	0xbe9650cf	-0.29358527
132	0x3df8444a	0.121224
133	0x3e93725e	0.28798193
134	0xbe5e594e	-0.21713755
135	0x3d956a47	0.072956614
136	0x3def7987	0.116931014
137	0xbd4e2f2a	-0.050337948
138	0x3e86ca77	0.26326343
139	0x3e2af673	0.16695575
140	0xbeaa1d6f	-0.3322558
141	0xbecdbae3	-0.40181646
142	0xbe97d472	-0.2965427
143	0x3eb979a8	0.3622563
144	0xbdd76fe8	-0.10519391
145	0xbe7c0adb	-0.24613516
146	0x3ed64613	0.41850337
147	0x3dad5b64	0.08464697
148	0xbd9d7efa	-0.076902345
149	0xbdd6480d	-0.10462961
150	0xbe11685b	-0.14199965
151	0x3e74a3db	0.23890631
152	0xbed22fae	-0.41052002
153	0xbeb569e4	-0.3543235
154	0xbec8c920	-0.39215946
155	0xbe5f7474	-0.21821767
156	0x3e67d1d6	0.2263864
157	0x3e4ef155	0.20209248
158	0x3eaa359f	0.33244035
159	0x3ec91614	0.39274657
160	0xbe4d404a	-0.20044056
161	0xbe4e0f00	-0.2012291
162	0x3e9f2937	0.31086132
163	0x3db9bbad	0.090689994
164	0x3eb0f924	0.3456508
165	0x3e502204	0.20325476
166	0xbcdbfc8c	-0.026853822
167	0xbe2b955f	-0.167562
168	0x3daf2a12	0.08552946
169	0xbeb9f0a5	-0.3631641
170	0xbdf45b0f	-0.119314305
171	0xbe2cfd81	-0.16893579
172	0x3edb52bb	0.42836556
173	0x3ebcf7ab	0.36907706
174	0xbd7d5163	-0.061845195
175	0x3cc46228	0.023972586
176	0x3e766d4f	0.24065135
177	0x3e939be2	0.28829867
178	0xbdde931d	-0.108679034
179	0xbdea72e3	-0.11447694
180	0x3e05ba41	0.13059331
181	0xbe9c9cc6	-0.3058836
182	0xbea70913	-0.3262411
183	0x3e28cae4	0.16483647
184	0xbeaf0fdc	-0.34191787
185	0xbd85de5b	-0.065365516
186	0xbec5874c	-0.38579786
187	0x3cf9c49a	0.030489255
188	0xbe01cec6	-0.12676534
189	0xbe68b566	-0.22725448
190	0x3e3548e1	0.17703582
191	0xbd1e697b	-0.038674813
192	0x3e5a18cb	0.2129852
193	0x3eb9bf5b	0.36278805
194	0xbec1c28b	-0.37843737
195	0xbd81a5bb	-0.06330439
196	0xbc2659dc	-0.01015326
197	0x3e91f9a8	0.28510785
198	0xbe8eec0d	-0.27914467
199	0xbe97669b	-0.2957047
200	0x3eb61357	0.3556163
201	0xbcdd8cde	-0.02704471
202	0xbe3bdce3	-0.1834598
203	0x3e752370	0.239393
204	0x3d890657	0.06690662
205	0xbdab3ab7	-0.08360808
206	0xbe6ebf4f	-0.23315166
207	0xbd906cf1	-0.07052029
208	0xbd907c40	-0.07054949
209	0x3e7f3f4b	0.24926488
210	0x3db8efdb	0.09030124
211	0x3eb72f02	0.35778052
212	0x3e959061	0.29211715
213	0x3ddd1f5e	0.107969984
214	0xbe609f8b	-0.21935861
215	0x3d1d5b5c	0.038417205
216	0xbe86fd82	-0.26365286
217	0xbd45987d	-0.048241127
218	0xbeac48cc	-0.3364929
219	0xbebbc1c9	-0.36671284
220	0x3e253355	0.16132863
221	0xbe76240b	-0.24037187
222	0x3ebd8701	0.37017062
223	0xbe0f5b77	-0.13999735
224	0x3e32979c	0.17440647
225	0xbe33c3ab	-0.1755511
226	0x3d7944d6	0.060856663
227	0x3edcf968	0.43159032
228	0x3e175307	0.14777766
229	0x3e9d00f7	0.306648
230	0xbe5174a3	-0.2045465
231	0x3d05a761	0.032630328
232	0x3e942986	0.2893793
233	0x3e4d0ed2	0.20025185
234	0x3b518016	0.0031967214
235	0xbe8df206	-0.27723712
236	0x3e976891	0.29571965
237	0xb97be564	-0.0002402268
238	0xbb4b24d3	-0.003099729
239	0xbe0c0ea2	-0.13677457
240	0x3ed6c544	0.41947377
241	0xbe0e6607	-0.13906108
242	0x3ec65a91	0.38740972
243	0x3ebdae92	0.3704725
244	0x3c38ecd2	0.011286931
245	0xbe35d772	-0.17757967
246	0xbea116f5	-0.31462827
247	0x3e55d424	0.20881706
248	0x3e9fd086	0.31213778
249	0xbe06d88f	-0.13168548
250	0xbe04b086	-0.12957963
251	0x3e4733fd	0.19453426
252	0x3ea7a75f	0.32744882
253	0x3ea1e9c9	0.31623676
254	0x3dcadace	0.09905015
255	0xbe714f40	-0.23565388

bias f4 [16]
0	0x3bc79f9a	0.006092024
1	0x3bb60b9b	0.0055555827
2	0x00000000	0.0
3	0xbb8d311c	-0.004308833
4	0x3b8c53d6	0.004282455
5	0xbbc5b31a	-0.0060333135
6	0x3be292ff	0.006914496
7	0xbc573c1d	-0.013136891
8	0x3baaa8a5	0.0052080923
9	0x00000000	0.0
10	0xbba20b66	-0.0049452065
11	0x00000000	0.0
12	0x3c591244	0.013248984
13	0x3b0c0bd1	0.0021369348
14	0x3bafa987	0.0053607854
15	0xbb989231	-0.0046560992

weight f4 [16, 16]
0	0x3ebb27a3	0.36553678
1	0x3e346d2c	0.17619771
2	0xbe419086	-0.18902788
3	0xbecbbdeb	-0.39793333
4	0x3e77bafd	0.24192424
5	0xbd33eadb	-0.043925148
6	0xbe62fe5d	-0.22167344
7	0xbdf209b6	-0.118182585
8	0x3edd8d9d	0.43272105
9	0xbeb0ea0b	-0.3455356
10	0x3d51ae96	0.05119189
11	0xbe8ffca5	-0.2812244
12	0xbd74563b	-0.05965255
13	0x3dd08242	0.10181095
14	0x3ec13b64	0.37740624
15	0xbed422e0	-0.41432858
16	0x3ec50778	0.3848226
17	0xbea7b776	-0.32757157
18	0xbea86388	-0.32888436
19	0x3e7b46ae	0.24538681
20	0x3e8b76da	0.27239114
21	0xbecef73d	-0.40423003
22	0x3e51c4de	0.20485255
23	0xbe166248	-0.14685929
24	0xbe1a24dc	-0.15053123
25	0x3e1e0cde	0.15434596
26	0x3e39aeb6	0.18133053
27	0x3db83ad9	0.08995599
28	0x3cfd2ea9	0.030906038
29	0x3e43ac3d	0.19108672
30	0x3e7d651f	0.24745606
31	0x3e68eb0c	0.22745913
32	0xbed32eb2	-0.41246563
33	0xbebbdfcd	-0.36694184
34	0x3ecf2bf7	0.4046323
35	0x3e0e328b	0.13886468
36	0x3eb66a91	0.3562818
37	0xbe4fd65c	-0.20296615
38	0xbe82412c	-0.25440347
39	0xbe43cb7e	-0.19120595
40	0x3e9e2f6a	0.3089555
41	0x3eb0d3a9	0.34536484
42	0x3e882e72	0.26597935
43	0xbd438d5b	-0.04774223
44	0xbcd70a1c	-0.026249938
45	0x3e672211	0.22571589
46	0xbe39da98	-0.18149793
47	0x3ebc59c8	0.36787248
48	0xbed3043a	-0.41214162
49	0xbe795f8c	-0.24352854
50	0xbea27f86	-0.31737918
51	0xbeb17104	-0.34656537
52	0xbe02dfa0	-0.12780619
53	0xbea3db33	-0.32003173
54	0xbeccb04f	-0.39978263
55	0xbd367969	-0.04454938
56	0x3c696c67	0.014247037
57	0xbd265b2d	-0.040614296
58	0x3e19edee	0.15032169
59	0xbe263033	-0.16229324
60	0x3e385d46	0.18004331
61	0x3ec82061	0.39087203
62	0xbeb31a7c	-0.34981143
63	0x3ca876e0	0.020564497
64	0x3dfa8335	0.12232057
65	0x3e798745	0.24368007
66	0x3dbd4162	0.092409864
67	0x3e7c8936	0.24661717
68	0x3da6bf79	0.08141989
69	0x3d93b037	0.07211345
70	0x3d20d101	0.03926182
71	0xbecee4bd	-0.40408888
72	0x3ee1ac61	0.44076827
73	0xbe64e17e	-0.22351643
74	0x3ed11f90	0.40844393
75	0x3d9d4d8f	0.07680809
76	0x3e872532	0.26395565
77	0xbda7009c	-0.08154413
78	0xbe9c8bb6	-0.3057534
79	0xbe150209	-0.14551558
80	0x3c2f53fa	0.010701174
81	0x3e834b4d	0.25643387
82	0xbe9f5ae6	-0.31124038
83	0x3eae4701	0.34038547
84	0xbc99312e	-0.018700209
85	0x3de0e8be	0.10981892
86	0x3edbc515	0.429238
87	0x3e8febe0	0.28109646
88	0x3d49c219	0.04925737
89	0xbe07e1f1	-0.13269784
90	0x3ed49826	0.4152233
91	0x3e607b52	0.21922043
92	0x3ea92a23	0.3303996
93	0x3c2b844f	0.010468557
94	0xbe922b82	-0.2854882
95	0x3ed38926	0.41315573
96	0x3de18a06	0.11012654
97	0x3d3bafaa	0.045821823
98	0x3e2ab752	0.16671494
99	0xbd4aef31	-0.049544517
100	0x3eac3366	0.33632964
101	0x3e323d76	0.17406258
102	0xbe1bffd5	-0.15234311
103	0x3e89aff2	0.26892048
104	0xbdefd659	-0.117108054
105	0xbe6330fe	-0.22186658
106	0x3ddebddb	0.10876056
107	0xbce1cbf2	-0.027563069
108	0xbdfcf3f1	-0.12351216
109	0xbcabf21e	-0.020989474
110	0x3d9a3e94	0.07531467
111	0x3ec850f2	0.39124256
112	0x3d0c01d8	0.034181446
113	0xbe1f485d	-0.15554948
114	0xbeb2ded6	-0.34935635
115	0x3eb55dda	0.35423166
116	0xbebbce74	-0.3668095
117	0xbed21bc1	-0.410368
118	0x3e7403a6	0.23829517
119	0x3ed7abe7	0.4212334
120	0xbdc2e524	-0.09516361
121	0xbe943411	-0.28945974
122	0xbc86de14	-0.016463317
123	0xbeca6a03	-0.39534006
124	0xbd8025ed	-0.06257234
125	0x3e2a10cd	0.16607971
126	0x3e834a34	0.2564255
127	0x3edec202	0.4350739
128	0xbcc43f9b	-0.02395611
129	0xbe909cd5	-0.28244653
130	0xbebcb824	-0.36859238
131	0x3e7d180e	0.24716207
132	0x3e0bd048	0.13653672
133	0x3ed98858	0.42486835
134	0xbe909918	-0.282418
135	0x3eba0f0e	0.3633961
136	0x3e1a6e99	0.15081252
137	0x3edc0e8d	0.4297985
138	0xbb427ddb	-0.0029677066
139	0xbe9ddb59	-0.3083141
140	0x3e82f8d0	0.25580454
141	0xbe9aebd6	-0.30258054
142	0xbe605890	-0.21908784
143	0x3e690d40	0.2275896
144	0x3e8078e6	0.25092238
145	0xbe73988b	-0.2378866
146	0xbdeea207	-0.11651998
147	0x3eb1df46	0.34740657
148	0xbdf1ea82	-0.11812307
149	0x3d4d2a93	0.05008943
150	0xbeabadd8	-0.3353107
151	0x3e7f4160	0.24927282
152	0xbe32408e	-0.17407438
153	0x3cc1d56a	0.023661334
154	0xbd12c859	-0.035835598
155	0x3e29bf12	0.16576794
156	0x3e847045	0.25866905
157	0x3e71a776	0.23599038
158	0x3e33f24c	0.17572898
159	0xbd9a0e0c	-0.075222105
160	0xbe063bed	-0.13108797
161	0x3eb59ed5	0.35472742
162	0x3e8f95f2	0.28044087
163	0x3ed9a11e	0.42505735
164	0x3e461ca7	0.19346868
165	0x3e52f008	0.20599377
166	0xbece34d0	-0.40274668
167	0x3e73a7f3	0.23794536
168	0xbdca70c7	-0.09884792
169	0x3ecc3dfe	0.39891046
170	0x3ecb26ef	0.3967814
171	0xbed3dfde	-0.41381735
172	0xbea8fad2	-0.3300386
173	0x3eb755be	0.35807604
174	0x3d12637f	0.035739418
175	0x3dd070c3	0.101777576
176	0x3d03b43f	0.032154318
177	0xbed1a525	-0.40946308
178	0xbe73f4e8	-0.23823893
179	0xbd35b0d0	-0.044358075
180	0x3e573b79	0.21018781
181	0xbe749b30	-0.23887324
182	0xbde00737	-0.10938876
183	0x3e91bd50	0.28464746
184	0xbe54ddf7	-0.20787798
185	0xbe1bdb74	-0.15220433
186	0xbcf667da	-0.030078817
187	0x3d16f55b	0.036855083
188	0xbebccd57	-0.36875412
189	0xbe490cb0	-0.19633746
190	0x3d954e55	0.07290331
191	0x3e9fe57a	0.31229764
192	0x3e3fa2da	0.18714467
193	0x3ea820c6	0.32837504
194	0x3e406ea3	0.18792205
195	0x3e50cfdd	0.20391794
196	0x3a704b84	0.0009166526
197	0xbe556ecd	-0.20843048
198	0xbec11189	-0.3770869
199	0x3ebb5940	0.3659153
200	0xbea1bf33	-0.31591186
201	0xbd06270c	-0.03275208
202	0xbe770938	-0.2412461
203	0xbe6044e5	-0.21901281
204	0xbe89251a	-0.2678612
205	0x3e9bd440	0.3043537
206	0xbecf5cb1	-0.40500405
207	0xbec0ba9e	-0.37642378
208	0x3e019229	0.12653412
209	0xbe13310a	-0.14374176
210	0xbec77bea	-0.38961726
211	0x3ec38274	0.38185465
212	0x3dcd822c	0.10034594
213	0xbe79b632	-0.24385908
214	0xbc67c67a	-0.014146442
215	0xbea83b6a	-0.3285783
216	0x3a1b2f16	0.0005919797
217	0xbe88093b	-0.26569542
218	0xbd103047	-0.03520229
219	0xbe8479ea	-0.25874263
220	0x3ed05c17	0.4069526
221	0xb9ab5488	-0.00032678642
222	0x3e81446c	0.25247514
223	0xbc90274a	-0.01759686
224	0x3e4f8f00	0.20269394
225	0xbebb4b3a	-0.3658083
226	0xbed4b15a	-0.41541559
227	0x3e87b479	0.26504877
228	0xbc9bdba1	-0.019025626
229	0x3e5300b9	0.20605744
230	0xbead5f88	-0.33861947
231	0x3e68991b	0.22714655
232	0xbedc9191	-0.43079808
233	0xbe4e3046	-0.20135602
234	0xbed08238	-0.4072435
235	0x3ea1bd62	0.315898
236	0x3ea929d3	0.33039722
237	0xbe7b7af2	-0.24558619
238	0x3d88980c	0.06669626
239	0xbd81b425	-0.06333188
240	0xbed968e6	-0.42462844
241	0x3eabf6a1	0.335866
242	0xbecc6df3	-0.39927635
243	0x3e98945d	0.29800692
244	0xbe4ca0fd	-0.19983287
245	0x3df9d43a	0.12198682
246	0xbdcba68a	-0.09943874
247	0x3dd9c970	0.10634124
248	0x3e72b196	0.23700556
249	0x3e93e8e6	0.28888625
250	0x3e8c475f	0.27398202
251	0xbd1d673e	-0.038428538
252	0xbdc2dc51	-0.09514678
253	0x3ed62ef1	0.41832688
254	0xbe68a5da	-0.22719517
255	0xbe123227	-0.14276944

bias f4 [16]
0	0x3b9a96b5	0.0047176727
1	0xbb9e3aeb	-0.004828801
2	0x3b50e509	0.0031874797
3	0x00000000	0.0
4	0x3c017423	0.007901224
5	0xbbb73b9e	-0.0055918237
6	0xbacbc094	-0.0015545064
7	0x3c05cba2	0.008166226
8	0xbb9674a2	-0.0045915404
9	0x391716a9	0.00014408924
10	0xbbb85653	-0.005625525
11	0xbbb17097	-0.005415033
12	0x00000000	0.0
13	0x3bd53c3b	0.006507424
14	0x00000000	0.0
15	0x3a1f981e	0.0006088036

weight f4 [16, 16]
0	0x3d77cd12	0.060498305
1	0x3edc2e18	0.43003917
2	0xbe96a8c0	-0.2942562
3	0x3e98f31b	0.29872975
4	0xbe04d9b5	-0.12973674
5	0x3e076b79	0.13224591
6	0xbd1b3469	-0.03789178
7	0xbe91e45f	-0.28494546
8	0xbdb31631	-0.08744467
9	0xbdd6bda3	-0.10485389
10	0xbe54327c	-0.20722383
11	0x3e3811a3	0.17975478
12	0x3e95f8d7	0.29291412
13	0xbccda58d	-0.025103355
14	0xbe2e70d8	-0.17035234
15	0x3e90e0d8	0.28296542
16	0xbed2afbb	-0.41149697
17	0x3d97c84f	0.07411253
18	0xbed0b919	-0.40766218
19	0x3d46cd11	0.04853541
20	0x3e114758	0.14187372
21	0x3dd877b9	0.1056971
22	0x3ebb302f	0.365602
23	0x3dc33b2a	0.09532769
24	0x3e71c26c	0.23609322
25	0x3e90875a	0.28228265
26	0x3eb2858a	0.34867507
27	0x3e5175b7	0.20455061
28	0xbec7fc05	-0.39059463
29	0xbd5633e7	-0.05229559
30	0xbdefdd19	-0.11712093
31	0xbe92e9a2	-0.28693873
32	0x3ecafc52	0.3964563
33	0xbec85bee	-0.39132637
34	0xbcfb6868	-0.030689433
35	0xbe293e8f	-0.1652777
36	0x3edb662d	0.4285139
37	0xbe9f02a2	-0.31056696
38	0xbd2cf20c	-0.04222302
39	0xbca03cf5	-0.019560317
40	0x3e7b6ca5	0.24553163
41	0x3e91eb98	0.28500056
42	0xbe3ddd01	-0.18541338
43	0x3ebccb3a	0.368738
44	0x3ea7c818	0.32769847
45	0x3ea54e99	0.32286528
46	0x3e8719c1	0.26386836
47	0x3e5cf4be	0.21577737
48	0x3eb343ec	0.35012758
49	0xbecc09a7	-0.39851114
50	0x3dbb13f1	0.09134663
51	0x3e461c99	0.19346847
52	0xbe919abb	-0.28438362
53	0xbdfd2fac	-0.12362608
54	0x3e96d9e0	0.294631
55	0xbe194383	-0.1496716
56	0xbe1fa8bd	-0.15591712
57	0x3e8e6453	0.27810916
58	0x3dec3c47	0.115349345
59	0xbe6dfaae	-0.23240158
60	0x3ed8eba2	0.42367274
61	0xbe0e05c2	-0.13869384
62	0xbe00feac	-0.1259715
63	0xbe94b75c	-0.29046142
64	0xbed343a0	-0.4126253
65	0xbd5bd54f	-0.053670224
66	0xbe8eb531	-0.27872613
67	0xbe43452a	-0.19069353
68	0x3e86396d	0.26215687
69	0x3ea8a027	0.32934687
70	0xbed2ba36	-0.41157693
71	0xbea92f96	-0.33044118
72	0xbeab135f	-0.33413216
73	0x3bb441bb	0.0055009997
74	0xbec8b86d	-0.39203206
75	0xbcf5dcc7	-0.030012501
76	0x3d2f3ad1	0.0427807
77	0x3e5764c5	0.21034534
78	0x3e48d3a0	0.19611979
79	0xbeb0ff4d	-0.3456978
80	0x3ec4a847	0.38409635
81	0xbeb73616	-0.35783452
82	0x3e8d3423	0.2757884
83	0xbeabce13	-0.3355566
84	0x3e234cdb	0.15947287
85	0x3e98fc00	0.2987976
86	0x3da15831	0.07878149
87	0xbed6bc5f	-0.4194059
88	0xbe87bd0e	-0.26511425
89	0x3e802e22	0.25035197
90	0x3e63b128	0.22235548
91	0xbea7b222	-0.32753092
92	0x3da1ab68	0.07894021
93	0xbe422fc0	-0.18963528
94	0x3eca43f1	0.3950496
95	0x3e276f7d	0.16351123
96	0xbce00864	-0.027347751
97	0xbda9547b	-0.082680665
98	0x3e9d1f7f	0.30688092
99	0xbeb51914	-0.35370696
100	0x3e687293	0.22699957
101	0xbd9e9889	-0.077439375
102	0xbc7c6630	-0.015405223
103	0x3cbe7267	0.02324791
104	0x3e8fb779	0.28069666
105	0xbec4d3a1	-0.3844271
106	0xbe27d3c8	-0.16389382
107	0x3e1091b1	0.14118077
108	0x3e575e4a	0.21032062
109	0x3e7615e3	0.24031787
110	0x3ed2fd6e	0.41208977
111	0xbe3e7574	-0.18599492
112	0x3cb25e61	0.021773519
113	0xbed86685	-0.42265716
114	0x3eb96f6f	0.3621783
115	0x3eaf0d35	0.34189764
116	0xbed2446c	-0.41067827
117	0xbed5fd48	-0.417948
118	0x3ea4eda7	0.32212564
119	0x3e8ce7aa	0.27520496
120	0xbe307bb1	-0.17234685
121	0x3ea488ca	0.32135612
122	0x3eb79a82	0.35860068
123	0xbea4f9a3	-0.32221708
124	0x3e3b944c	0.1831829
125	0x3ea8c973	0.32966194
126	0x3e6bf13a	0.2304124
127	0x3ec5e194	0.38648665
128	0xbe8e3b6e	-0.27779716
129	0xbec3460f	-0.38139388
130	0x3eb82d58	0.35972095
131	0x3e1ce36a	0.15321127
132	0xbec0513d	-0.3756198
133	0xbecd74db	-0.40128216
134	0x3e845030	0.25842428
135	0x3e16e91f	0.14737366
136	0x3e6febac	0.23429745
137	0x3ea7be03	0.32762155
138	0xbdc4eef7	-0.096158914
139	0x3d617906	0.055047058
140	0xbdb5a1c5	-0.08868746
141	0x3df19726	0.117964074
142	0x3d30d28d	0.043169547
143	0xbe4d5b9c	-0.20054477
144	0x3e6dbb7e	0.23216054
145	0x3e97bd6e	0.2963671
146	0x3d9b1a74	0.07573405
147	0x3eb3bfdc	0.35107315
148	0xbe7d6675	-0.24746116
149	0xbe8bbc51	-0.27292112
150	0xbe3aba44	-0.18235117
151	0x3eb4b164	0.35291588
152	0xbd197035	-0.037460525
153	0x3e37fcc0	0.1796751
154	0xbe0bdb3c	-0.1365785
155	0xbc660e4a	-0.014041493
156	0xbed9aaa2	-0.42512995
157	0x3daa2677	0.08308118
158	0x3e9287d1	0.28619245
159	0xbcf4d148	-0.02988495
160	0x3c3ae35b	0.011406745
161	0xbeb572b6	-0.3543908
162	0xbd72e608	-0.059301406
163	0x3eb0f03c	0.34558284
164	0xbecf6aa9	-0.40511063
165	0xbdb27546	-0.087137744
166	0xbe325bb3	-0.17417793
167	0x3ec7bc3c	0.390108
168	0xbe7d05cd	-0.24709244
169	0xbeda959f	-0.42692277
170	0x3e214386	0.15748414
171	0x3d089f16	0.03335484
172	0xbe2a107d	-0.16607852
173	0x3edb18b2	0.4279228
174	0x3c57249e	0.013131289
175	0x3ec21d8f	0.37913176
176	0xbdacf071	-0.08444298
177	0x3bf52b2d	0.0074819536
178	0x3e987be8	0.29782033
179	0x3c1e9f48	0.00968153
180	0xbe007b8c	-0.1254713
181	0xbe006b6b	-0.12540977
182	0x3e940a5a	0.28914148
183	0xbed6743d	-0.41885558
184	0x3de7e6b8	0.11323303
185	0xbdc3d44e	-0.09561978
186	0x3e8c3269	0.2738221
187	0xbec1f0b1	-0.37878945
188	0x3d237f9a	0.039916612
189	0xbe9407a4	-0.2891208
190	0xbeb491e9	-0.3526757
191	0xbedd1b82	-0.4318505
192	0x3eca5f04	0.39525616
193	0xbeb7538d	-0.35805932
194	0x3eac1ee6	0.33617324
195	0xbe14f60c	-0.14546984
196	0xbeb56080	-0.35425186
197	0x3e42536a	0.18977132
198	0x3e35cc4c	0.17753714
199	0x3dc9cb79	0.098532625
200	0x3e89153d	0.26774016
201	0xbec29534	-0.38004458
202	0x3d955fa2	0.07293631
203	0x3d2044d9	0.03912816
204	0x3e224a98	0.15848768
205	0x3e7ba178	0.24573314
206	0x3de0b810	0.10972607
207	0x3ebde669	0.37089851
208	0x3ecf3941	0.4047337
209	0xbedd83f8	-0.43264747
210	0x3d822d9b	0.06356355
211	0x3e49e4e9	0.19716229
212	0x3e093779	0.13400067
213	0x3e7bef62	0.24603036
214	0xbe2fc8c6	-0.17166433
215	0xbe45cd7e	-0.1931667
216	0xbe9aad65	-0.30210415
217	0xbe888d28	-0.26670194
218	0x3e86f7a7	0.2636082
219	0x3e12aab6	0.14322934
220	0x3e6b877d	0.23000903
221	0xbebdb1eb	-0.37049803
222	0x3db3a2de	0.08771299
223	0xbcfebd78	-0.031096205
224	0xbea87bb7	-0.32906887
225	0x3e2397e2	0.15975907
226	0x3cc66350	0.024217278
227	0xbeb08da4	-0.34483063
228	0xbe8b58aa	-0.27216083
229	0x3e982f4f	0.29723594
230	0x3ec772fe	0.3895492
231	0xbecd555b	-0.40104184
232	0x3df63808	0.12022406
233	0xbebca9e7	-0.36848375
234	0x3ec64af8	0.38729072
235	0x3eb06ac4	0.34456456
236	0xbdd8b36c	-0.10581097
237	0xbe67c6ab	-0.2263438
238	0x3e9dccae	0.3082022
239	0xbed7802f	-0.42089984
240	0x3e157ee9	0.14599194
241	0xbe95a921	-0.29230598
242	0xbce43961	-0.027859392
243	0x3e1d5d98	0.15367734
244	0x3e93b2b8	0.2884729
245	0xbc72320b	-0.014782439
246	0x3e934453	0.28763065
247	0x3e5c82b1	0.2153423
248	0xbebfa8ad	-0.37433377
249	0x3ed47acf	0.41499946
250	0x3d76ec95	0.060284216
251	0xbeb13eca	-0.34618217
252	0xbec0f19f	-0.37684342
253	0xbd817d81	-0.06322766
254	0xbe70cea7	-0.23516332
255	0x3ed48ca6	0.41513556

bias f4 [16]
0	0x3b81d683	0.0039623394
1	0xbbae10e4	-0.005312072
2	0x3ce497cc	0.027904414
3	0xbb6594e0	-0.0035031363
4	0x00000000	0.0
5	0x3a98d9a0	0.0011661537
6	0x3c544387	0.012955553
7	0x00000000	0.0
8	0x00000000	0.0
9	0xbbef18dd	-0.007296665
10	0x00000000	0.0
11	0xbb58d8d5	-0.0033088226
12	0x3b90c77d	0.004418312
13	0x3b299788	0.0025877673
14	0xbbbeed89	-0.0058266562
15	0x3bd374ce	0.006453133

weight f4 [16, 16]
0	0xbeb78089	-0.35840252
1	0xbc68e7d1	-0.014215426
2	0x3d42d5ee	0.0475673
3	0xbec5940d	-0.38589516
4	0xbe588a2a	-0.21146455
5	0xbd94e268	-0.07269746
6	0x3ec2bd81	0.38035205
7	0xbe852c27	-0.26010248
8	0x3eb3e4e7	0.35135576
9	0xbeddd978	-0.43329978
10	0xbbeb18de	-0.0071745953
11	0xbd423e19	-0.047422502
12	0xbe5b9c9e	-0.21446463
13	0x3ec4a18d	0.38404503
14	0x3e986f95	0.2977263
15	0x3d8cbb89	0.06871707
16	0xbe2d3827	-0.16915952
17	0x3e0912b1	0.13386036
18	0xbe9fa0e7	-0.31177446
19	0xbed5850e	-0.41703075
20	0xbe7a92aa	-0.2447001
21	0xbe895b34	-0.26827395
22	0xbeb9dd40	-0.36301613
23	0xbed40bea	-0.4141534
24	0xbdca8c45	-0.098900355
25	0x3d972248	0.073795855
26	0xbe00f857	-0.12594734
27	0x3e53aae1	0.20670654
28	0x3dca9dfc	0.098934144
29	0x3e528d38	0.20561683
30	0x3d2aed59	0.04173026
31	0xbe954ee8	-0.29161763
32	0x3e145682	0.14486125
33	0x3ed93163	0.42420492
34	0x3e9bda37	0.30439922
35	0xbe269409	-0.16267408
36	0x3ebb2666	0.36552733
37	0xbec284df	-0.37991998
38	0xbea07d66	-0.3134567
39	0x3deccb73	0.11562242
40	0xbebfb5bd	-0.37443343
41	0x3e8715b3	0.26383743
42	0xbe284938	-0.1643418
43	0x3de0fc13	0.10985579
44	0xbc546014	-0.01296236
45	0xbe9b87af	-0.30376956
46	0x3bda932c	0.0066703763
47	0xbe230a68	-0.15921938
48	0x3e88fa54	0.26753485
49	0x3d0e2651	0.03470451
50	0xbe91b38f	-0.28457305
51	0x3e2e6c79	0.17033567
52	0x3ea841c6	0.3286268
53	0xbeb6cd65	-0.3570358
54	0xbda1bb1b	-0.07897016
55	0x3e352fc0	0.17693996
56	0xbe90187b	-0.28143677
57	0x3ec8fc69	0.39255074
58	0xbea7a399	-0.32742003
59	0x3e8cc877	0.27496693
60	0xbe67880c	-0.22610492
61	0x3e2ee0f7	0.17078005
62	0xbcd82969	-0.026386933
63	0x3e056400	0.13026428
64	0x3ec5cc5a	0.3863247
65	0x3e26d1b7	0.16290937
66	0xbeca9d80	-0.39573288
67	0x3e0c85ab	0.13722865
68	0xbd72561c	-0.05916415
69	0xbe9f6c68	-0.31137395
70	0x3e476f72	0.19476107
71	0x3e67ee5d	0.22649522
72	0x3e9f5cb1	0.31125405
73	0x3cf9242b	0.030412754
74	0xbe9c3c1e	-0.30514616
75	0xbdeb35ed	-0.11484895
76	0x3e0d7a49	0.1381618
77	0x3df61805	0.120163
78	0x3d90aea7	0.07064562
79	0xbebc58b0	-0.36786413
80	0x3caf470a	0.021396179
81	0x3e9fc88d	0.31207696
82	0x3d2278aa	0.039665855
83	0x3e039300	0.12849045
84	0xbe69edc0	-0.228446
85	0x3d949442	0.072548404
86	0x3da6c080	0.08142185
87	0xbd82ae4a	-0.06380899
88	0xbe1a4218	-0.15064275
89	0x3e6178bc	0.22018713
90	0xbb9cfda4	-0.0047909785
91	0x3eda16fd	0.42595664
92	0xbeb15e87	-0.3464243
93	0x3ead6e59	0.3387325
94	0x3e72be4e	0.23705408
95	0xbe73ec39	-0.2382058
96	0x3eca85a0	0.39555073
97	0xbdf142c9	-0.117803164
98	0xbca12329	-0.019670086
99	0x3d866fe6	0.06564312
100	0xbeb0813f	-0.34473607
101	0x3eb59611	0.35466054
102	0xbc5f7af2	-0.013640152
103	0xbd234873	-0.039864015
104	0xbe632c3e	-0.22184846
105	0x3e96e3c9	0.2947066
106	0xbd909efe	-0.07061575
107	0xbed3b046	-0.41345423
108	0xbe14865d	-0.1450438
109	0x3eae1137	0.3399751
110	0xbe983d4b	-0.29734263
111	0xbeda28bd	-0.42609206
112	0xbe9b0b18	-0.302819
113	0xbec42224	-0.38307297
114	0x3d9fb115	0.077974476
115	0x3e5d9407	0.21638499
116	0x3e8d15fd	0.27555838
117	0xbe8a8993	-0.27058086
118	0xbe8c35fa	-0.2738493
119	0xbed3fe21	-0.41404822
120	0x3eabd4aa	0.33560687
121	0x3e5d4383	0.21607785
122	0xbd2ae1a6	-0.0417191
123	0xbcdfb086	-0.027305853
124	0xbedb90d4	-0.42883933
125	0xbed5aaac	-0.41731775
126	0xbed86733	-0.42266235
127	0x3cd11a1d	0.025525147
128	0x3d2bcb6f	0.041942056
129	0xbd66173e	-0.05617451
130	0x3dfa6302	0.122259155
131	0x3df5e014	0.1200563
132	0xbea76246	-0.32692164
133	0x3e7a2180	0.24426842
134	0x3ed04979	0.40681055
135	0x3ea15bb5	0.3151528
136	0xbd88f518	-0.06687373
137	0xbe64134a	-0.22272983
138	0x3ce2070e	0.027591255
139	0x3dc02e35	0.09383813
140	0xbed3cb11	-0.41365865
141	0x3e74c542	0.23903373
142	0x3eacba5c	0.3373593
143	0x3e836858	0.25665545
144	0x3da03b8d	0.078238584
145	0x3ebf413f	0.37354466
146	0x3e63f77a	0.22262374
147	0xbe8b296a	-0.27180034
148	0x3dc0ee22	0.0942042
149	0x3cefba89	0.029263752
150	0xbecfc70e	-0.40581554
151	0x3ec494da	0.38394815
152	0x3d5b3cb9	0.053524707
153	0xbebd9b61	-0.37032607
154	0xbdbad109	-0.091219015
155	0x3e56b89d	0.20968862
156	0x3e264860	0.16238546
157	0xbe157ee9	-0.14599194
158	0xbed401ce	-0.41407627
159	0x3db097ec	0.08622727
160	0xbdb8b93b	-0.09019705
161	0xbe72d937	-0.23715673
162	0x3e48fdd7	0.19628082
163	0x3e7fd38f	0.24983047
164	0xbe148af9	-0.14506139
165	0x3eca9cbb	0.395727
166	0xbe254676	-0.1614016
167	0xbe9be730	-0.3044982
168	0xbe947103	-0.2899247
169	0x3eb6e82f	0.35724017
170	0xbebdfcf4	-0.3710705
171	0x3eb96cad	0.36215726
172	0xbeb9014d	-0.36133805
173	0xbec56953	-0.38556919
174	0xbe360434	-0.17775041
175	0x3ec05f43	0.3757268
176	0x3e5194f4	0.20466977
177	0x3c8af644	0.016963132
178	0x3e2e0da8	0.16997397
179	0xbec6a44b	-0.3879722
180	0xbed4d110	-0.41565752
181	0xbeb73dcd	-0.35789338
182	0x3e0c3338	0.13691413
183	0x3e12a0fe	0.14319226
184	0x3cd787ab	0.026309809
185	0xbe64eeaf	-0.22356676
186	0xbe9cfacb	-0.3066009
187	0x3d71b2a5	0.05900826
188	0xbea60887	-0.3242838
189	0x3dd38575	0.10328189
190	0xbe001640	-0.12508488
191	0xbea689f8	-0.32527137
192	0x3e994430	0.29934835
193	0x3e6d3c71	0.23167588
194	0x3ea216a3	0.31657895
195	0xbe052f4c	-0.13006324
196	0xbbb722b8	-0.0055888556
197	0xbeab888c	-0.33502614
198	0xbd70b758	-0.0587686
199	0xbe90729f	-0.2821245
200	0xbd58a93f	-0.05289578
201	0xbe02bdf6	-0.12767777
202	0xbeae82b3	-0.3408409
203	0xbe8915d5	-0.2677447
204	0x3e56a6b3	0.20962028
205	0x3e937b21	0.28804877
206	0xbdffe78d	-0.12495337
207	0x3e7c1f90	0.24621415
208	0xbeb443be	-0.35207933
209	0xbe6fc0fa	-0.23413458
210	0xbe518c98	-0.20463789
211	0x3e15d340	0.14631367
212	0xbe41fb55	-0.18943532
213	0x3e81c8ed	0.25348607
214	0x3dfe4f99	0.12417526
215	0x3e9e72b0	0.30946875
216	0xbe43c9aa	-0.19119897
217	0xbeb91f28	-0.36156583
218	0xbdceb7e3	-0.10093667
219	0x3ea83f47	0.32860777
220	0xbe856f34	-0.26061404
221	0xbd888e03	-0.066677116
222	0x3de03a24	0.109485894
223	0x3e6d9b8b	0.23203866
224	0xbe6b2527	-0.22963391
225	0xbec98121	-0.3935633
226	0xbe8bcb3f	-0.27303502
227	0x3e3ff7f7	0.18746935
228	0xbd44473a	-0.04791949
229	0x3e3bb010	0.18328881
230	0xbe52e58a	-0.20595375
231	0x3e8d86ab	0.27641806
232	0x3e9178bb	0.28412423
233	0x3e95d0fd	0.29261008
234	0x3e541788	0.20712101
235	0xbe495021	-0.19659473
236	0xbec2e67c	-0.3806647
237	0xbe597011	-0.21234156
238	0xbc84ae46	-0.016196381
239	0xbdb2a4fd	-0.08722875
240	0xbc6b1a6c	-0.014349561
241	0x3e83619d	0.2566041
242	0xbe771125	-0.24127634
243	0xbe9ad2c2	-0.3023892
244	0xbe835d06	-0.2565691
245	0x3eb6416e	0.35596794
246	0x3ea30091	0.3183637
247	0x3d63da38	0.05562803
248	0x3e4a777f	0.19772147
249	0xbdd480b0	-0.10376108
250	0x3eab6767	0.33477327
251	0x3e8faf98	0.28063655
252	0x3df0e9f7	0.11763375
253	0x3c2c1034	0.01050191
254	0x3eafafd3	0.3431383
255	0xbd9a6952	-0.075396195

bias f4 [16]
0	0xbb32ff06	-0.002731265
1	0xbb693ac0	-0.0035587996
2	0xbb891d05	-0.0041843676
3	0xbb3dedb6	-0.0028980798
4	0xbacaef23	-0.0015482645
5	0xbc09b325	-0.008404528
6	0x3c1b0412	0.00946142
7	0x00000000	0.0
8	0x3b2ced7e	0.0026386674
9	0xbb850aae	-0.004060111
10	0x3b0a58d7	0.0021110082
11	0x00000000	0.0
12	0x3ba42950	0.0050098076
13	0x3c3490ef	0.011020883
14	0x00000000	0.0
15	0xbc070fa8	-0.008243479

weight f4 [16, 16]
0	0x3e8b0bca	0.27157432
1	0xbe759183	-0.2398129
2	0xbccf91b2	-0.025338028
3	0x3d176b83	0.036967766
4	0x3e965ef0	0.29369307
5	0xbeb41e45	-0.35179344
6	0xbed7e484	-0.4216653
7	0x3da3bec5	0.07995371
8	0xbec005ef	-0.37504527
9	0xbec13cc0	-0.3774166
10	0x3e4b3fcb	0.19848554
11	0xbdbf5e53	-0.09344163
12	0xbd296941	-0.041360144
13	0xbd571afb	-0.052515965
14	0xbcc5e707	-0.024158014
15	0x3eccaf7a	0.39977628
16	0xbdb6a24c	-0.089176744
17	0xbeb1fbef	-0.34762523
18	0xbe301ea5	-0.1719919
19	0xbeaeb13c	-0.34119594
20	0xbd925b51	-0.071463235
21	0x3ebeaf80	0.3724327
22	0x3dcc719b	0.09982606
23	0x3e95f687	0.29289648
24	0x3ea803c0	0.3281536
25	0x3db6271d	0.08894179
26	0xbeb12c33	-0.34604034
27	0x3e111bc1	0.14170744
28	0x3e539490	0.20662141
29	0x3dcb94fa	0.099405244
30	0x3dfcdc34	0.12346688
31	0x3dee8c12	0.1164781
32	0xbe177465	-0.14790495
33	0xbe09f1ee	-0.13471195
34	0x3edeb04c	0.4349388
35	0xbd1b30c4	-0.037888303
36	0x3ea2ecd7	0.3182132
37	0xbec2bbc4	-0.3803388
38	0x3e527d44	0.20555598
39	0x3da8d345	0.082434215
40	0x3e35a7f0	0.17739844
41	0xbea9a7d7	-0.33135864
42	0xbd949f97	-0.07257002
43	0xbdf614e8	-0.12015706
44	0x3ee926ef	0.45537516
45	0xbe8dfe43	-0.2773305
46	0xbe86644b	-0.26248392
47	0xbeae63d9	-0.34060553
48	0xbec1fd00	-0.37888336
49	0xbed3c0f2	-0.41358143
50	0x3e46d9be	0.19419
51	0xbebb78e0	-0.36615658
52	0x3e1a909b	0.15094225
53	0x3ed44360	0.41457653
54	0x3e49993e	0.19687364
55	0x3e81c6c3	0.25346956
56	0xbe9e8089	-0.3095744
57	0x3ec51569	0.38492897
58	0x3ec444f8	0.3833387
59	0x3e5dec63	0.21672206
60	0x3eb960fb	0.36206803
61	0x3e839db0	0.25706244
62	0x3d4c7547	0.049916532
63	0xbeca8efd	-0.39562216
64	0x3e1c1693	0.15242986
65	0xbea1305f	-0.31482217
66	0x3e1b19b2	0.1514652
67	0x3e98f44c	0.29873884
68	0xbe4c9547	-0.1997882
69	0x3d73b9ed	0.059503485
70	0xbeda4451	-0.42630246
71	0x3e711122	0.23541692
72	0xbcdc9235	-0.026925186
73	0x3e928b19	0.28621748
74	0x3e043051	0.12909056
75	0x3d6c7895	0.057732183
76	0xbcce32e7	-0.025170757
77	0xbe7d730e	-0.24750921
78	0xbd671edb	-0.05642591
79	0x3eca4537	0.39505932
80	0x3ed59f0c	0.41722906
81	0x3e85fda6	0.2617008
82	0x3d8787a7	0.066176705
83	0xbead8d2a	-0.33896762
84	0x3e36e0c2	0.17859176
85	0xbb7c9303	-0.0038539774
86	0x3ec7b74a	0.39007026
87	0x3e208b9a	0.15678254
88	0xbd153696	-0.03642901
89	0xbd0c9d71	-0.034329835
90	0x3d7abedf	0.061217185
91	0x3d96d504	0.07364848
92	0x3ec9a1b4	0.39381182
93	0x3d10f0dc	0.03538595
94	0x3dd2fa8a	0.10301693
95	0xbec2c983	-0.38044366
96	0xbe83c447	-0.25735685
97	0x3e32b8a9	0.17453255
98	0x3edb4ba7	0.42831156
99	0x3e3efe11	0.18651606
100	0xbeb961fb	-0.36207566
101	0xbe3ddeed	-0.1854207
102	0x3ed792c3	0.42104158
103	0x3e89de41	0.2692738
104	0x3e9ff1ee	0.31239265
105	0xbd82c364	-0.06384924
106	0xbdc74a73	-0.09730997
107	0x3e478a97	0.19486462
108	0x3cad96ed	0.021190131
109	0xbe229d7b	-0.15880387
110	0x3d892faf	0.06698548
111	0x3e8d4a96	0.27595967
112	0x3cf432cd	0.02980938
113	0x3de3b720	0.11118913
114	0x3e54c4e8	0.20778239
115	0xbdef622d	-0.116886474
116	0x3cf886da	0.03033774
117	0x3bc8d2bd	0.0061286376
118	0xbe73829f	-0.23780297
119	0x3d1f20dc	0.038849697
120	0x3ed3355f	0.41251656
121	0xbd3363e1	-0.043796424
122	0xbeab670a	-0.3347705
123	0xbe6d615e	-0.23181674
124	0x3ea20a86	0.31648654
125	0x3e851dd3	0.25999317
126	0x3e90b982	0.2826653
127	0x3d779ceb	0.060452383
128	0xbecd1cb2	-0.40060955
129	0x3ea642af	0.3247275
130	0x3cdb3140	0.026756883
131	0x3e8a6830	0.27032614
132	0xbe9a1c4c	-0.30099714
133	0xbed34143	-0.41260728
134	0x3e8eea32	0.27913052
135	0xbed5821e	-0.41700834
136	0xbea299b2	-0.31757885
137	0x3c56e97d	0.013117191
138	0x3ecf2586	0.40458316
139	0x3dc8e430	0.09809148
140	0x3df9a7bb	0.12190195
141	0x3e8caecf	0.27477118
142	0xbeb49fcf	-0.35278174
143	0x3e03450a	0.12819305
144	0x3ecbd71f	0.39812562
145	0x3ec56390	0.38552523
146	0x3ed1f88a	0.41009933
147	0x3e9d5159	0.30726126
148	0xbbf97456	-0.0076127453
149	0xbd6b69b5	-0.057473857
150	0x3ebdfd5d	0.37107363
151	0xbeab3446	-0.3343832
152	0x3cf94805	0.03042985
153	0x3e8afbbf	0.27145192
154	0xbecc343d	-0.39883605
155	0xbed0fc79	-0.4081762
156	0xbcfad3b5	-0.030618528
157	0xbeb149f0	-0.34626722
158	0xbed6a2c4	-0.41921055
159	0xbccee0bd	-0.025253648
160	0x3db3c6cb	0.08778151
161	0x3e6dfa90	0.23240113
162	0xbd4cb7c5	-0.049979944
163	0xbe959802	-0.29217535
164	0x3d8c5c44	0.06853536
165	0x3e61f797	0.22067104
166	0xbe19f050	-0.15033078
167	0x3c36159a	0.011113549
168	0xbd8e7b56	-0.06957118
169	0xbeb382c1	-0.35060695
170	0xbeb6b607	-0.3568575
171	0xbdbdd4e8	-0.09269124
172	0x3eac0f74	0.3360554
173	0xbda7a0d6	-0.08184974
174	0x3e01a4d0	0.12660527
175	0xbcdfa8c2	-0.02730215
176	0x3e855a1b	0.26045308
177	0x3e1eafc4	0.15496737
178	0xbec3b13d	-0.3822116
179	0xbe74d4ec	-0.23909348
180	0x3edad2c6	0.42738932
181	0x3e643c37	0.22288595
182	0xbeaedce2	-0.34152895
183	0x3ea36ca2	0.31918818
184	0x3dc4e5fe	0.0961418
185	0x3ec0da7f	0.376667
186	0xbeac3cff	-0.33640286
187	0xbc87ac46	-0.016561639
188	0xbe8f50be	-0.2799129
189	0x3e3550ff	0.17706679
190	0xbe4127ce	-0.1886284
191	0x3e0b95d0	0.13631368
192	0x3d8e0b55	0.06935755
193	0x3cbb8341	0.022889735
194	0x3e3fe241	0.18738653
195	0xbeb2d999	-0.3493164
196	0x3ec109d4	0.3770281
197	0x3e5b0f4d	0.21392556
198	0x3e6d5e6a	0.23180547
199	0xbeb7f684	-0.35930264
200	0x3e1cfd12	0.15330914
201	0x3ec8415e	0.3911237
202	0x3e1e8ad9	0.15482654
203	0x3e9e70f8	0.30945563
204	0xbe9cd538	-0.30631423
205	0x3e594ad4	0.21219951
206	0x3e20655d	0.15663667
207	0x3eb686f2	0.3564983
208	0x3e54b09b	0.20770495
209	0x3ed207ef	0.41021678
210	0xbe949bf2	-0.29025227
211	0xbe618479	-0.2202319
212	0x3e5bfbc1	0.21482755
213	0x3e17b811	0.1481631
214	0x3ec9dd87	0.39426824
215	0x3dda1917	0.10649317
216	0xbe967f45	-0.29393974
217	0x3d35b174	0.044358686
218	0xbe2de13c	-0.16980451
219	0xbcf2be85	-0.029631862
220	0x3ae3aef5	0.0017370867
221	0xbeb8665b	-0.3601559
222	0x3e907bc0	0.28219414
223	0x3dd77534	0.105204016
224	0xbe29a6cb	-0.16567533
225	0x3ea98582	0.3310967
226	0xbdc4518b	-0.095858656
227	0x3ed50117	0.41602394
228	0xbe02ffdd	-0.12792917
229	0x3dfacaf8	0.122457445
230	0xbca645c3	-0.020296937
231	0xbd719648	-0.05898121
232	0xbd84c16e	-0.06482206
233	0x3daf6b7d	0.08565424
234	0x3e90960f	0.28239486
235	0xbe4a81cf	-0.1977608
236	0x3e76ceeb	0.2410237
237	0x3e79e984	0.24405485
238	0xbe12f065	-0.14349516
239	0xbddda0f2	-0.108217135
240	0x3eadc42a	0.33938724
241	0x3ecfefb5	0.4061257
242	0xbeb0dd16	-0.34543675
243	0xbe2d0d34	-0.16899568
244	0xbda06ad1	-0.078328736
245	0xbe9dc4fa	-0.30814344
246	0xbeb56cb8	-0.35434508
247	0xbec0f547	-0.37687132
248	0xbec2cc94	-0.38046706
249	0x3eabe351	0.33571866
250	0x3d7c2c75	0.061565835
251	0xbe1794c5	-0.14802845
252	0xbe950551	-0.2910562
253	0xbec4ffa6	-0.38476294
254	0x3eb7b62c	0.35881174
255	0xbe61e633	-0.2206047

bias f4 [16]
0	0x00000000	0.0
1	0x3bc009fb	0.0058605648
2	0x3d7b8c38	0.06141302
3	0xbbbce0f0	-0.0057641193
4	0xbb0e0f86	-0.0021676733
5	0xba834c5d	-0.0010017265
6	0x3a75ec76	0.0009381244
7	0x3b2a906c	0.0026026024
8	0xbd78ab91	-0.060710493
9	0xbb6f6fbb	-0.0036535102
10	0xbbbd9920	-0.005786076
11	0xbaf1b542	-0.001844086
12	0xbb58608d	-0.0033016533
13	0x3b8cf730	0.004301928
14	0x3ba61e32	0.0050695175
15	0x00000000	0.0
